results/20/SmartAgent/SmartAgent-320040.onnx (onnx, 745161 bytes, 15 tensors)

discrete_action_output_shape f4 [1, 4]
00000000: 0000 0040 0000 0040 0000 0040 0000 0040
2.0 2.0 2.0 2.0

network_body._body_endoder.seq_layers.0.weight f4 [256, 200]
00000000: d522 d63d f24b a43d 4aad b7bc 70b7 6ebe
00000010: 9593 3fbd 2fee 0e3e e224 3d3e 7ad4 4a3d
00000020: 2ebb d33d 142c edbc 5b85 35bb 8ef5 cfbd
00000030: b36c 013e b008 48be 7eff fd3d b5fd 5b3d
00000040: 7181 a23e 0050 a9bd 34b5 b23d b499 a93e
00000050: c95e 15be bf39 91bd 6f61 17bd 8413 2ebd
00000060: dac6 233e 6d50 df3c 8a18 703c 0bf7 38be
00000070: 055c 2f3e cf7f f93d 531f babd e485 babd
00000080: 5efb 16bd 91f1 1d3d c5a7 2a3e f0bd 94bc
00000090: 158e 5a3d e371 903d fba9 8bbd 4cdb 13bd
000000a0: c90d c6bd 746a 043e 1635 e4bd 4005 25be
000000b0: f779 213d 8e9a 233e 3582 8bbe faa0 86bd
000000c0: 21f8 193d c7d1 933d e2c5 d53d 708d 0ebe
000000d0: 4bb4 83bd 5bd2 92be f684 3d3e 7a14 14be
000000e0: d09b 273d 5aa1 8c3d ef90 08bb e1c0 c03d
000000f0: b344 073d 0e5c f0bd b89a 89bd 26b1 4e3d
00000100: 3a5b 08be a8f8 50bd 5b76 cebb 28f8 2e3e
00000110: 7058 3c3e dc1a 3e3e b683 853e a621 c4bd
00000120: a8f6 f6bd e099 9dbd b598 9abd a751 22be
00000130: 697d c0bd 4740 2d3e 77f4 323d 92b6 583c
00000140: bfa0 3b3e 59e5 a63d ddc8 1f3e a335 8fbd
00000150: b0a4 f63b 5f44 e1bc 6b7d 073e d6b9 61bd
00000160: 7355 283d ff5c 273e 6a2e 953c 1555 b83d
00000170: 2f0f 583e d036 b63d d266 903e 8de7 f2bc
00000180: 1fb8 1dbe f14e 66bb eff2 dcbc e101 483e
00000190: d0d4 d73d 09b6 d43d 4494 0a3e 76fc 31be
000001a0: 4628 273d f302 e3bc 9388 f73d 0320 873e
000001b0: 4590 133e bff4 9d3c c247 4b3d 7960 55bc
000001c0: f24c 6d3d 5ab0 5abe 89de 913b 0975 753d
000001d0: 58eb 8a3d 7e42 8e3d e596 17bd ba00 c63d
000001e0: 7c5a 4b3d cc32 383d d563 48bd ea2d 203e
000001f0: 9fc9 8d3c aaa7 513d af3f a93b af36 b2bd
00000200: d6ee 0d3e 0212 283d 7be3 5abe 5e56 333e
00000210: 92d4 693d 934c cf3d 619a 583e 0b31 43be
00000220: f204 73bc 1466 a43d d844 f7bc 52cc 40bd
00000230: 2065 a33d ae35 77ba 9a82 883c 4cf1 25be
00000240: 82b9 563d 16cf 133e e39f 3fbe 775b 11bd
00000250: d464 073d d09c 1dbc 3b65 2ebc ea64 cdbc
00000260: de40 9e3d eb58 83bd 5fe5 f1bd 9f73 97bd
00000270: 55da c73d 5215 f63d 3955 1e3d d227 593e
00000280: b1e4 d5bd 36ce a2bd 3696 fbbb 995d 8f3d
00000290: 0530 853c 63dc 0cbb df10 50bd d428 f53d
000002a0: 70f4 4dbd 527a 4a3e e11f cb3d 0de3 023c
000002b0: 2abb 1a3d 711c a7bd 32e8 5bbe 57dd 95bd
000002c0: 7a22 a03b 9fd7 eb3c 9a0a 3d3e 9110 863d
000002d0: d9f7 a93e d102 dc3d 2052 0cbc 8f53 653d
000002e0: 2957 df3d 46d7 b4bc ff1b 45bd 6836 f9bc
000002f0: 1441 0e3d e5db 65bc 7b68 b6bd 633c 4b3d
00000300: 94d2 b03e dd86 aa3d 9421 8d3d fbd6 d03d
00000310: 451e 443d 1b1f 4cbc 4f9d e0bd 8253 d23e
00000320: 47e3 2c3d eb2a 273e 7eb5 1abe 0be8 bcbd
00000330: 4122 f23d 1a71 933d eac2 bd3d b4cc c7bc
00000340: 357a 213d 69f2 0abe a59d 3dbd cdb9 223e
00000350: ecb3 323c 6253 cbbd 96ce 373e ea5c 823d
00000360: 20de c03d 17c6 543d 47fa f03d 0ce8 98bd
00000370: 78a2 0cbe d617 bf3c 9d31 023e bcb0 e83d
00000380: 948a e03d 3483 a03d 63db a63d 1796 25bd
00000390: ecf7 343e da3a 363e 754b 443e 4f67 453e
000003a0: da4d 173e 0508 c43c beb6 d3bc a423 42bd
000003b0: 6f10 ef3d 8dad b23d cd80 913d 8ea9 6e3e
000003c0: 0521 873d eefb 2f3d ad8b 033e 4544 39bb
000003d0: 520e ab3d 0283 933d a673 a5bc 8af5 17be
000003e0: 202e d93d d6d9 a13d 8951 203e 27b1 f13d
000003f0: 97f8 173e 04ac 743d 891b 333d 1726 5d3c
0.104558624 0.08022298 -0.022421498 -0.23312163 -0.046771605 0.13958047 0.18471101 0.04951904
0.10338436 -0.028951682 -0.0027697894 -0.10154258 0.12639122 -0.19534564 0.12402247 0.05370875
0.3173938 -0.08267212 0.08725968 0.3312508 -0.14586939 -0.07091092 -0.036958154 -0.04249908
0.15993825 0.02726003 0.014654288 -0.1806299 0.17124946 0.12182581 -0.09088006 -0.09107569
-0.036860816 0.038560454 0.16665561 -0.018156976 0.053358156 0.07052972 -0.068195306 -0.03609781
-0.09670598 0.12931234 -0.11142938 -0.16115284 0.039422955 0.15976927 -0.27247778 -0.065736726
0.03759015 0.07217746 0.10438134 -0.13921142 -0.064308725 -0.28676113 0.18507752 -0.14460936
0.04092008 0.06866713 -0.002083834 0.09411789 0.0330245 -0.11736308 -0.067189634 0.05046191
-0.1331605 -0.051018387 -0.00630073 0.17086852 0.18393111 0.18564934 0.2607705 -0.095767304
-0.12058765 -0.07695365 -0.07548658 -0.1585146 -0.0939892 0.16919051 0.04369017 0.013227122
0.18323039 0.08149213 0.15603967 -0.06992652 0.0075269565 -0.027498422 0.13231437 -0.055108868
0.041097116 0.16344069 0.018210609 0.09000603 0.21099542 0.088971734 0.28203446 -0.029651428
-0.15402268 -0.0035142268 -0.026971309 0.19531967 0.10538638 0.10386283 0.13533121 -0.17381462
0.040809892 -0.027711367 0.12086596 0.2639161 0.14410503 0.019281743 0.04962898 -0.013023489
0.05793471 -0.21356335 0.004451577 0.059926067 0.067831695 0.06946276 -0.03700914 0.09668107
0.04964684 0.04497032 -0.048923332 0.15642515 0.017308054 0.051185288 0.0051650624 -0.08701836
0.1386064 0.0410328 -0.2137584 0.17513415 0.05708749 0.10122027 0.21152641 -0.19061677
-0.014832722 0.08027282 -0.030184194 -0.047069855 0.079782724 -0.0009430301 0.016663838 -0.16205329
0.052423008 0.14434466 -0.18713336 -0.03548762 0.03305514 -0.009619907 -0.010644252 -0.025072534
0.07727216 -0.06413444 -0.11811327 -0.073951 0.097584404 0.12015785 0.038655493 0.21206596
-0.1044401 -0.07949488 -0.0076778186 0.07000274 0.016258249 -0.0021493665 -0.05079734 0.11970678
-0.050281942 0.19773224 0.0991819 0.007988703 0.03777615 -0.08159722 -0.21475294 -0.07317608
0.0048869224 0.02878934 0.18461075 0.065461285 0.33196905 0.10742725 -0.008564502 0.05598789
0.10905296 -0.022075307 -0.048122402 -0.03042145 0.034730032 -0.014029478 -0.08906647 0.049618136
0.34535658 0.083265044 0.0689117 0.10197254 0.04788043 -0.012458588 -0.10967504 0.41079336
0.042208936 0.16324966 -0.15108296 -0.09223946 0.1182294 0.07199307 0.092656925 -0.024389602
0.039423186 -0.13569035 -0.04629292 0.1589119 0.0109071545 -0.099280134 0.179499 0.06365378
0.09417367 0.051946726 0.117664866 -0.074661344 -0.13733852 0.023326796 0.12714238 0.113618344
0.10963932 0.07837525 0.081473134 -0.04042634 0.176727 0.17795888 0.1916941 0.1927769
0.14775792 0.023929605 -0.025843974 -0.04739727 0.11673056 0.087245084 0.07104645 0.23306867
0.06598095 0.04296487 0.12846251 -0.0028269452 0.08352341 0.07202722 -0.020196747 -0.1483976
0.10604501 0.07902877 0.15656103 0.11801367 0.14840923 0.05973436 0.04372743 0.013497851

network_body._body_endoder.seq_layers.0.bias f4 [256]
00000000: a200 46bc b5b6 84bd 8770 95bd 2725 143d
00000010: 040f b7bd be4d 93bc 0b3c a9bd 04d9 573d
00000020: e738 073b 9621 d53b 44df 8c3d b394 41bc
00000030: 932e 143d ed73 d9bd 9fee a93c 0322 2ebc
00000040: de42 d2bc a04a 203d bda5 913d f96d 15bd
00000050: 5c1f a6bd 13cf 9a3d ba8d 4f3d 3bbe 69bd
00000060: b0a6 19bd 3bf1 8c3d 38c1 f83c 31e0 c53c
00000070: cf18 db3c 3cff 9a3c 11f5 b43c 477d 2b3d
00000080: c892 8fbd e811 033d 2b35 2f3c 41cd 90bd
00000090: b310 783d c58d 67bd e866 a4bd ef75 a4bc
000000a0: 592c b93c 7350 4f3c 8d85 533b aef4 9abc
000000b0: 8b58 acbd 3a65 723d e99b 4abd 742b 10bd
000000c0: dcf8 97bb 0a25 453d b335 32bc 6cd4 6fbd
000000d0: 907e 19bd 21df 973b 00e2 03bd c654 6abd
000000e0: 1fad 5abd 12c1 09bd f5df 953c f57c c3bd
000000f0: e235 96bd e265 323c fce9 19bd 215f 9bbb
00000100: ae9e d4bc c9e2 883c 78e2 18be 93a7 163d
00000110: 3266 23bd 096a 69bd 1f57 b13d 30ae 64bd
00000120: f815 db3c 2044 113c cd9d f3bd e59d b13a
00000130: 853d 93bd 6bc1 e9bc 08e8 57bd bed1 30bd
00000140: cb18 e8bb bc9d 9a3d 3ab1 363d 5c86 89bd
00000150: 1f23 f53c a953 60bd 6d48 713c 4df0 193d
00000160: dbd1 9f3d c24e 95bd d617 5c3b cd3e a4bd
00000170: 4ec6 813b a404 b43c fff6 66bd 0633 633c
00000180: 55bb 343c 63fd 0cba dedc f43d aba3 3a3d
00000190: f502 7f3c be2c 77bd a530 abbc 0ef7 c0bd
000001a0: e9a8 4bbd 914b bfbd 36c4 363d 3816 ea3d
000001b0: 4517 e2bc 2088 383d ed8b 2f3b 3eb4 bb3d
000001c0: 8825 963c 95d1 d0bd 0077 8bbd 6b95 1b3c
000001d0: 08d6 47bc 6b6d 14ba 5c09 d03c 15b5 d93a
000001e0: a0c9 1b3d 61df 353d 9a62 67bd 656b c8bc
000001f0: c6c6 113d 6be1 213d 5c7b 80bd 4d02 b7bc
00000200: 418f 5abd 2cd9 acbc 4e3b 343d e65b 8e3d
00000210: c78c 00bd 6d33 753d d76e 31bd b9d4 cdbd
00000220: 9cde 6abd 0a74 04bd 4a9b 713d bb35 b1bd
00000230: 092b 37bd 1576 26bd 5e50 8fbc 2f0c d93b
00000240: 8d03 8dbd 7bc1 18bd 337d 073b f90c 14bc
00000250: dc64 bf3d 545e 48bd 15a3 2a3d 46c7 90bd
00000260: 0815 2a3c 0063 f7bd e5fb 2a3d dc64 6abd
00000270: 10b9 723d c35b 913d ebf8 a7bd 9ba8 82bd
00000280: 2972 823d 074a 2a3a 33ab 2fbd 9b05 ec3c
00000290: 77be c63b 6c3e 203d 3b58 16bd ca7f 0a3c
000002a0: 25e2 593d 8b25 e9bc d587 abbb d407 cdbc
000002b0: 0be0 8c3d 37a9 8bbc 9512 08be ecfc 99bc
000002c0: 1e2b a0bd dd83 823c d671 1d3d 4c85 503d
000002d0: 0957 db3c e0d7 5aba af7b 963d a3ac ddbc
000002e0: 726c 7a3d f651 1a3d d337 db3c 1831 33bd
000002f0: 05c8 433c f56b a33d bfcb 79bd 5724 c5bc
00000300: 6d71 d73d 6cce 543d 8a8f 7bbd a6b8 7aba
00000310: 5af3 81bd 42c4 a23c 6f2a 253b 400c 2f3c
00000320: ff20 123d 35a0 36bd 8474 66bc 67ef 01bd
00000330: 2012 8abd 271f acbd ab74 22bd f89a 033d
00000340: 0d09 0e3d ba04 c83d 4b71 4e3d 1149 e4bc
00000350: c743 653b bb36 66bd abc6 8abc 2b0a 11bc
00000360: f11d 953d fe04 d93b 6f17 68bd d224 7fbd
00000370: b08f 763d d87e 76bd 2378 16bd 5b40 173d
00000380: 99a3 6a3d 017e abbd 9a17 9c3c 00ce 2c3d
00000390: e8ec d33d 5aed 41bc 2a90 b43d 6cec ff3c
000003a0: bf54 b43d 34d2 2d3d be98 f1bd 7385 69bd
000003b0: 493c 1ebc 3c12 aabb 1405 82bd fa93 87bd
000003c0: a47e d0bd 7f30 8b3d 7240 56bc adae 7c3c
000003d0: 85bb bfbd c132 23bc 3287 94bd fe4a a03d
000003e0: abd7 12bc 2b8b a5bd 2fee 94bd de62 d23d
000003f0: 0036 5e3d b8e7 623d 60b4 0e3c 0ca8 45bc
-0.012085112 -0.06480161 -0.072968535 0.036168244 -0.08938411 -0.017981406 -0.082634054 0.052697197
0.0020633282 0.006504248 0.06878522 -0.011815238 0.03617723 -0.10617814 0.020743666 -0.010628226
-0.02566665 0.039133668 0.0711169 -0.03648183 -0.0811145 0.075590275 0.05067227 -0.057066184
-0.03751248 0.068819486 0.030365571 0.024154754 0.026745228 0.018920533 0.022089513 0.04186752
-0.07010418 0.0319995 0.010693829 -0.07070399 0.0605628 -0.056531686 -0.0802744 -0.020075766
0.022604154 0.012653458 0.0032275647 -0.0189155 -0.08415326 0.05917857 -0.049465094 -0.03519769
-0.0046378206 0.048131026 -0.010877061 -0.05855219 -0.037474215 0.0046347533 -0.032197952 -0.057209753
-0.053387757 -0.03363139 0.018295268 -0.09545318 -0.07334496 0.010888549 -0.03757666 -0.004741565
-0.02595457 0.016709702 -0.14930141 0.036780905 -0.039892383 -0.05698589 0.08659195 -0.05583018
0.026743874 0.00886634 -0.118953325 0.0013551085 -0.07189468 -0.028534612 -0.052711517 -0.043168776
-0.0070830337 0.07549617 0.04460261 -0.0671508 0.029923974 -0.054767285 0.01472674 0.037582684
0.07803699 -0.072904125 0.0033583543 -0.08019791 0.0039604073 0.02197487 -0.056387898 0.013867145
0.011030992 -0.0005378334 0.119561896 0.045566242 0.01556467 -0.060345404 -0.020897219 -0.09422122
-0.049721632 -0.09340585 0.044620715 0.11430019 -0.027598986 0.045051694 0.0026786283 0.09165238
0.018328443 -0.101962246 -0.06809807 0.009496073 -0.012197025 -0.00056620565 0.025395088 0.0016609753
0.03803408 0.044402484 -0.05649052 -0.024465272 0.035589956 0.039521616 -0.06273529 -0.022339964
-0.053359274 -0.02109965 0.04400187 0.06951122 -0.031384256 0.059863497 -0.043318596 -0.10050339
-0.057341203 -0.032337226 0.058985986 -0.086528264 -0.044718776 -0.040639956 -0.017494377 0.006623767
-0.06885443 -0.037293892 0.002067399 -0.009036296 0.09345409 -0.048918083 0.041659433 -0.070692584
0.010380991 -0.120794296 0.04174413 -0.057225093 0.05925852 0.0709758 -0.08201774 -0.06379815
0.063694306 0.0006496016 -0.042887878 0.028811267 0.0060651856 0.03912203 -0.036705237 0.008453319
0.053194184 -0.028460285 -0.0052346983 -0.025028147 0.0687867 -0.017048461 -0.13288338 -0.01879736
-0.07820724 0.015932018 0.03843864 0.05090837 0.0267749 -0.0008348208 0.073478095 -0.027059859
0.061138578 0.03767582 0.026760017 -0.04374799 0.011949544 0.079795755 -0.060985323 -0.02406518
0.10519681 0.05195467 -0.061416186 -0.0009564258 -0.06345244 0.019868974 0.0025202294 0.010684073
0.035676 -0.04458638 -0.014065865 -0.031722452 -0.06741738 -0.08404379 -0.039662044 0.03213021
0.0346766 0.097665265 0.050401013 -0.027866872 0.0034983025 -0.05620454 -0.016940435 -0.008852522
0.072811015 0.0066229096 -0.056662973 -0.062290974 0.060195625 -0.06017956 -0.036735665 0.03692661
0.057284925 -0.08373643 0.019054223 0.042188644 0.10347921 -0.011836374 0.088165596 0.031240664
0.088052265 0.042436793 -0.117967114 -0.057012033 -0.009657928 -0.005190162 -0.06348625 -0.06620021
-0.10180405 0.06796359 -0.013076888 0.015422505 -0.093619384 -0.009960831 -0.07252349 0.078268036
-0.008962552 -0.08083185 -0.072719924 0.10272764 0.054250717 0.055396765 0.008709997 -0.012063991

network_body._body_endoder.seq_layers.2.weight f4 [256, 256]
00000000: ddc0 f8bc eedb b03c ba1c fcbc 6379 3a3e
00000010: 9878 bdbd d970 30bd b6b4 b13d 9938 4dbe
00000020: b218 42bc c47b b1bd 4708 da3d 6ffd 0b3e
00000030: d881 50bc 2c3a 433d 86b6 d83c c089 04bc
00000040: 35d2 90bc 1344 25be 4693 eebd 88c8 633c
00000050: b895 353c e225 2d3d 6d0f f3bd 2db2 febd
00000060: bdc2 05bd 6c9b 91bc f66b 0cbd f8e5 513e
00000070: 770b debc 1215 82bd 5df5 d23b 10bb 453b
00000080: 8de2 1e3e 11a9 68bd 0ca4 363e 4e77 c9bb
00000090: f90b 49bc 58e7 4d3c 81d0 213e 42dc 05bd
000000a0: 39a9 0cbe 55b3 65bd 0c68 dd3d 917d 013d
000000b0: ef8c 3dbd f2f5 4bbe a4a1 53be 0d86 b93d
000000c0: d333 b4bd 8fc6 7cbc cd41 7dbd d9b6 64bd
000000d0: 67b0 0bbe a884 3ebd 11b8 5e3e 3ef2 113e
000000e0: ec33 07be bd3e 89bd 34a0 cbbc 1bbf f9bc
000000f0: a043 da3b 6675 0a3d a35d 42bd 92af 51be
00000100: 7154 34be 9cd5 20bd 5005 663e 1395 783b
00000110: 1dd5 5f3e 747a 133e 20e4 e33c 63c8 a0bc
00000120: 60a0 19bd 4f3c 493d 74b3 7e3d 8dab 4abd
00000130: 0e5f 6abd 02bc bcbd 025f 3c3d ae46 bcbd
00000140: 2bf5 023c 0d50 273d 9d07 a9bd 1eb8 75bd
00000150: f48c 4ebc 70ef 22be e7da 0f3e e0de 86bd
00000160: 79db 2c3d 829b c8bd e798 e3ba 7b72 133d
00000170: 9fef 45be 8fbb 413e aa11 9fbd f101 6ebe
00000180: 0466 873c 5e3b d3bd 5634 0f3e 907e 473d
00000190: 21e3 043e 22bc 523e 6fd8 223d 2f4f cc3c
000001a0: 31b1 a5bb f3a9 733d 87e9 18be d21f 46bd
000001b0: 02c8 4c3c 0cb1 23bd c142 1cbe 124a 59be
000001c0: 2c46 f23d 75e5 b53d 680e 8e3d ca72 37bc
000001d0: 4912 e6bc d9b8 2a3e 320f 00bd e14a 55be
000001e0: f331 433d de91 cb3c 52a6 13bd 8713 cf3d
000001f0: fb7d 6abe 68ae 5fbd 7a5a 233d 41b3 d73d
00000200: 8471 bdbc ff8d 303c c2b2 3b3d b7a6 4bba
00000210: 1664 443e ba53 a03d 0e1c 9b3c 1683 cb3d
00000220: cf51 a73d e2e4 16bc ae45 753e d7f7 25be
00000230: 206d 0f3d cb65 393e 16b4 27bd a051 a9bc
00000240: 8ef6 7d3c 3dbb d1bc f515 89bd 9d53 dabd
00000250: 8cea 95bd 0ce0 b43b 2176 24be 4979 903d
00000260: 7572 a2bc 1e86 3cbd 579f 20be 64bc 47bd
00000270: c72c 293d 16bc 78bd 30aa 6b3e fbcc a13a
00000280: ba9e a6bc 8155 5e3d 6d99 6e3b 8d41 f6bd
00000290: 8450 a03d d9e4 1c3d 7196 b0bd 4d11 e8bc
000002a0: 459f 12be b0e7 a1bd d6c5 9cbd 057d 32bd
000002b0: a6ca 2bbe c0a7 0d3e 4b1e 433c c1cb debc
000002c0: 829e 513e 6fe2 0abe a0fa 66be 1cf0 e93c
000002d0: 8f24 63bd 4cb2 283e b2ea 4dbe e9da cabd
000002e0: 2cf9 82bc f257 58be 4d53 d03c fb0c 123e
000002f0: 27b9 1f3d 0911 4fbe d17b 07be 3e5c d33c
00000300: c78e 23bd aced cb3b 88fe 503d d43f e03c
00000310: 4007 1cbd 2620 773c ce39 67bd 4037 9cbd
00000320: ec38 df3b 017f 05bd 6fb3 8cba 14ad 863d
00000330: e718 3c3c e173 a13d e81a c93c ada8 883d
00000340: 8253 18be 6bfb b43d 5afd 203c db3b 51bd
00000350: 8cd5 45be d7cb 3ebe 974a 11be 3f66 c6bc
00000360: 2d77 0abe 8ebf cb3c ce16 093d c08e 303d
00000370: 0d73 13be c780 fcbb 3524 cb3d 1d50 91be
00000380: a9b2 d8bd bd55 893e 7d0b 2a3d c252 6d3c
00000390: 77de b4bd c55f 4d3d 1529 d33d f8e3 89bd
000003a0: 0169 483c c587 d73d 058e bcbd 40a5 8fbd
000003b0: 5f45 b3bb f128 c3bd 271f e73c 02a1 7d3d
000003c0: 5b2e 3ebe 7219 44bc a334 3e3a 5c6e 98bd
000003d0: 5c2b 733d 99a3 8d3d 8805 eebd 0da9 abbd
000003e0: b5e5 22be 7d18 1ebe 925d abbd 2f7b 2cbe
000003f0: 8c43 12be d821 073d 9f47 fdbc b280 0bbe
-0.030365402 0.021589246 -0.030775417 0.18210368 -0.09251517 -0.04307637 0.08677046 -0.20041122
-0.011846708 -0.086661845 0.1064611 0.13670896 -0.01272627 0.0476629 0.026454221 -0.008089483
-0.01767836 -0.1613925 -0.11649184 0.013902791 0.011083059 0.042272456 -0.118681766 -0.12436328
-0.03265642 -0.017774306 -0.034282647 0.20497882 -0.027105076 -0.06351675 0.006437941 0.0030171312
0.1551611 -0.05680186 0.17836016 -0.0061482554 -0.012270921 0.012567364 0.15802194 -0.032680757
-0.13736428 -0.056079227 0.10810861 0.03161389 -0.046276983 -0.1991804 -0.2066713 0.09058771
-0.08798947 -0.015428199 -0.06183033 -0.05583844 -0.13641511 -0.04651323 0.21749903 0.14252564
-0.132034 -0.067014195 -0.024856664 -0.030486634 0.0066608936 0.033803366 -0.04745258 -0.20477131
-0.17610337 -0.039266214 0.22462964 0.0037930652 0.2185864 0.14402181 0.02781874 -0.019626802
-0.03750646 0.04912978 0.06218286 -0.04948001 -0.057219557 -0.09215547 0.045989044 -0.091931686
0.007993023 0.040847827 -0.08253405 -0.05999004 -0.012606848 -0.1591165 0.14048348 -0.06585479
0.042201493 -0.09795286 -0.0017364294 0.03599785 -0.1932969 0.18919204 -0.07767041 -0.23242928
0.016528137 -0.10314058 0.13984808 0.048704684 0.12977268 0.2057958 0.03975719 0.024940101
-0.0050565233 0.059488248 -0.14932834 -0.04837019 0.012498857 -0.039963767 -0.1525984 -0.21219662
0.118297905 0.08881656 0.069363415 -0.011196801 -0.02808489 0.16672076 -0.03126449 -0.20829345
0.047655057 0.024849828 -0.036047287 0.101111464 -0.2289962 -0.054609686 0.039881207 0.10532237
-0.023125418 0.010776042 0.045824774 -0.0007768678 0.19178805 0.078284696 0.018934276 0.09937112
0.081699006 -0.009209843 0.23952362 -0.16207825 0.03501618 0.18105237 -0.040943228 -0.020668805
0.015500678 -0.025601977 -0.06693641 -0.10660479 -0.07320127 0.0055198725 -0.16060688 0.07054383
-0.019829968 -0.04602634 -0.15685783 -0.048763648 0.04130247 -0.060726248 0.2301414 0.0012344414
-0.020339359 0.05428076 0.0036407367 -0.120242216 0.07827857 0.038304184 -0.086224444 -0.028328562
-0.14318569 -0.07905519 -0.07654922 -0.04357626 -0.16776523 0.13833523 0.011909078 -0.027196767
0.20470622 -0.1356294 -0.22556543 0.028556876 -0.055454787 0.16474265 -0.2010906 -0.09905035
-0.015987955 -0.21127298 0.025430346 0.14262764 0.038994934 -0.20221342 -0.13230826 0.02580082
-0.039931085 0.006223401 0.05102399 0.027374186 -0.03809285 0.015083348 -0.05645161 -0.076277256
0.0068122055 -0.032591823 -0.0010734628 0.06575981 0.011480547 0.0788343 0.024548963 0.06672797
-0.14875606 0.08837017 0.009826029 -0.051082473 -0.19319743 -0.18632446 -0.1418861 -0.024218677
-0.13522024 0.024871614 0.033469014 0.043104887 -0.14399357 -0.007705781 0.09919015 -0.28381434
-0.10580952 0.26823226 0.041514862 0.014485063 -0.08831494 0.05014016 0.1031057 -0.06732935
0.012232066 0.10523943 -0.092067756 -0.07013941 -0.005470916 -0.09529293 0.028213097 0.061921127
-0.1857237 -0.011968957 0.0007255768 -0.074429244 0.059367523 0.069159694 -0.11622149 -0.08381853
-0.15907939 -0.15439029 -0.083674565 -0.16843866 -0.1428358 0.03299126 -0.03091794 -0.13623312

network_body._body_endoder.seq_layers.2.bias f4 [256]
00000000: 2489 343c 79b6 39bd 6fd5 e73c 59b2 38be
00000010: 73f2 a6bc 9dba 0ebd 06d1 2abe 19e3 aebd
00000020: 4b0c 11be 329a 75be 22d7 e5bc 8a65 79bc
00000030: 9de4 8c3b c644 233d 018b d5bc f887 8cbc
00000040: 2ecc 1dbe 5ef5 c43c 2cd0 42be 4bf4 e2bd
00000050: e3ac 81be 337b 97bc fbc6 abbd ca55 d8bd
00000060: 22c8 27bd 58ed 083d fb16 80bd b871 cd3d
00000070: 99bc 833b fef0 7c3d f106 a3bd 087d f73d
00000080: 3102 cebd 13be b53d 13c5 363e bbcb 46be
00000090: b791 013e 2ae7 4dbe 9b15 143d 5eb6 8c3c
000000a0: 8a2f 91bd a42b b6bc bb8f 9c3e 816a 493d
000000b0: 32b7 293c 0047 2abd 8b0b cb3c 54c9 e5bd
000000c0: a1ea d03c 08f3 bebd 3b35 1ebe d601 7abd
000000d0: 9da1 b7bd ac11 c0bd 80a8 da3d 63eb 03be
000000e0: 7e77 f63c 86cc 443d e081 e1bc 0c33 34be
000000f0: 01ac d2bd c7eb 8dbb d0c5 24be 0c65 4bbe
00000100: 01ea 3ebd 0e8d 33be 2c33 9a3c eb54 fcbb
00000110: 1e36 70bc b80f 39bd 6c31 6dbd 7388 04bd
00000120: c1c6 19be d7a0 dabd ac1b 5cbe cbae efbc
00000130: 300f 7dbd 45bf f9bc 3ed5 1fbe 0ee1 1fbe
00000140: a8aa 24be 263e c2bc 2c34 56be 4279 913d
00000150: b28d a6bc b56c b4bc a55d 893d db75 04bd
00000160: 595e bdbd 0b7a 52bd 0d3f 9abd bb6b 0ebe
00000170: 5084 17be 1f64 75bc cf2a 063d 7637 3fbe
00000180: 72d9 d8bd ed69 853d e040 35bd e99e 08be
00000190: 30ac 4f3d 749c 8abd 0746 c63d bbe8 9dbd
000001a0: 4308 32be 4fae 743d 4a41 98bc 0f70 f7bd
000001b0: dc3b 1ebe 3971 1b3c afd9 2a3d fa0a 16bd
000001c0: 5438 4dbd 7384 eebd 933d 5fbd 215d 86be
000001d0: 35aa 033e e3fc 893d 6143 1dbd 412d 1ebd
000001e0: f0f6 1abe 1b11 bdbd 82a9 d2bb ca86 123d
000001f0: 3882 21be e758 08be 1df3 6ebe 3d97 1c3d
00000200: 8c19 79be 2dc7 83bd e49c c5bd a57c 0fbe
00000210: 0b8b 67be e0b5 af3d e125 0abe c276 c5bd
00000220: c227 c53c c68f 623d 519e 3a3d 976b 08bd
00000230: 9ee1 2d3c cc33 dbbd d17e 89bd 8266 203e
00000240: 9045 173d 536b 65be c3d8 6dbe 95d4 adbd
00000250: d4e1 793d 4103 ccbd 3c6b b1bd 2bdd 3c3d
00000260: bc7a a5bd be90 15be ac2b d2bd ee7c 9f3c
00000270: 9eb5 ed3b 7f76 62be 9852 fe3c 5580 3abe
00000280: 152f 583d 9e78 60bd 1ae6 3fbc bf6a 79bd
00000290: dbde 12bd 9b86 9c3d e51d 23bd 3e6f 853d
000002a0: 68f2 503d 9dee 98bd 324b 1abe 1f0b e5bc
000002b0: c0af 243d 7fb7 cebd a363 93bd 89fb 5e3d
000002c0: b3cd cabd f720 073d 8dc9 9abd 7c92 a13d
000002d0: d3d1 fabc 5aee a23d 07bc 37be 93b5 85bd
000002e0: 5be4 0ebe 5474 2abe b29e bdbd ffb5 cbbd
000002f0: ec99 ef3c 60e9 213c ec81 c2bd 466b b0bb
00000300: 0e40 a43c 9a94 dabb fdd7 ddbc 7269 793b
00000310: 76a3 893d adc7 4a3d 27c3 67bd 4989 c2bd
00000320: d326 533d a016 513d dc53 9f3c 918f 84be
00000330: 5353 f0bd 9182 bd3d 3c91 50bd fb12 cd3d
00000340: 3efc 0cbe 9e12 083d 954a cebd d1d7 8fba
00000350: 7e01 633d c76c ae3c e894 bb3d 83f2 733d
00000360: 7f37 b8bc f3cb 0a3e 9672 b03d aef3 f33d
00000370: 163e 06be ec06 bd3a 71fa 2cbe d921 ebbd
00000380: d795 db3d 4643 3f3d 39ce 44bd 0aa8 21be
00000390: f5a2 bb3d dd9c ef3c a633 9e3d 350f 4cbe
000003a0: 74f8 7fbd 3398 61be 844f 693d 6b87 043e
000003b0: 9ece 12bd eddb 6cbc 76e8 c3bd ba37 8ebc
000003c0: b96f 18bd 91c4 cabd cb9f ae3d e4ac 813d
000003d0: ce6f 92bd fdc9 e13a e4a7 5abd 01cb 3c3d
000003e0: c55c 34bc 6366 14be 2e71 7d3d 9946 45bd
000003f0: 71a5 02be cf44 3c3d b5e1 39bc 5066 ec3c
0.011019025 -0.045340035 0.028300015 -0.18036784 -0.02037928 -0.034845937 -0.16681299 -0.08539409
-0.14164846 -0.23984602 -0.028056685 -0.015221963 0.0042997138 0.03986051 -0.026067259 -0.017154679
-0.1540992 0.024042781 -0.19024724 -0.110817514 -0.25327215 -0.018491363 -0.08387562 -0.10563238
-0.040962346 0.033429474 -0.06254383 0.10031456 0.0040202853 0.061753266 -0.07960308 0.12084395
-0.10059012 0.088741444 0.17848615 -0.19413655 0.12653242 -0.20107713 0.036153417 0.017176803
-0.070891455 -0.022237606 0.30578408 0.049173836 0.010358619 -0.041571617 0.024785778 -0.11220041
0.025502505 -0.09323698 -0.15449993 -0.061036907 -0.08966372 -0.09378371 0.1067667 -0.12882762
0.030086275 0.04804661 -0.02752775 -0.17597598 -0.102867134 -0.0043310854 -0.16091084 -0.19862765
-0.046609882 -0.17534277 0.018823229 -0.0077005527 -0.01466134 -0.045181006 -0.05790846 -0.03235669
-0.15017225 -0.10675209 -0.21494931 -0.029258152 -0.061782062 -0.030486712 -0.15608689 -0.15613195
-0.16080725 -0.023711275 -0.2091834 0.07103206 -0.020331237 -0.022024492 0.067073144 -0.03233896
-0.09246511 -0.05138592 -0.07531557 -0.13908283 -0.14796567 -0.014977484 0.03275567 -0.186735
-0.105883494 0.06514344 -0.044251323 -0.1334187 0.05070132 -0.06768122 0.096813254 -0.077104054
-0.17385964 0.059736546 -0.01858582 -0.1208192 -0.15452522 0.009487444 0.041711506 -0.03663156
-0.050102547 -0.116463564 -0.05450208 -0.26242927 0.12857898 0.067376874 -0.038394336 -0.038617376
-0.15133262 -0.09231778 -0.0064288983 0.035773076 -0.15772331 -0.13315164 -0.23334928 0.03823017
-0.24326152 -0.06434474 -0.09649065 -0.14012392 -0.22611634 0.08579612 -0.13491012 -0.09641792
0.02406681 0.055312894 0.04556114 -0.03330573 0.010612873 -0.10703239 -0.067136414 0.15664104
0.036931574 -0.22404222 -0.2322722 -0.084878124 0.061006382 -0.09961558 -0.086630315 0.04610936
-0.0808005 -0.14605996 -0.10262236 0.01946875 0.0072543165 -0.22115515 0.031045243 -0.18213017
0.052779276 -0.05480253 -0.011712575 -0.060892817 -0.035857063 0.076428615 -0.03982343 0.065153584
0.051012427 -0.07467387 -0.15067747 -0.027959405 0.04020667 -0.10093593 -0.071967386 0.0544391
-0.09902515 0.032990422 -0.07557974 0.07889268 -0.03061763 0.07955618 -0.1794282 -0.06528773
-0.13954298 -0.16645938 -0.09258784 -0.099468224 0.0292482 0.009882301 -0.09497437 -0.0053838817
0.020050075 -0.0066705467 -0.02708053 0.0038057235 0.06720631 0.049506832 -0.056582596 -0.09498841
0.051550698 0.051046968 0.019449167 -0.25890782 -0.11734643 0.09253419 -0.050919756 0.10013386
-0.13768098 0.03322088 -0.10072819 -0.0010974352 0.055421345 0.021292103 0.09159261 0.05955745
-0.0224874 0.13554363 0.086156055 0.119117126 -0.13109621 0.0014421619 -0.16892411 -0.11481065
0.10721939 0.046695016 -0.04804823 -0.15786758 0.09161941 0.029249603 0.07724695 -0.19927676
-0.062492803 -0.22030716 0.056960598 0.12942283 -0.035841577 -0.014456731 -0.09565823 -0.017360557
-0.037215922 -0.09900773 0.08526572 0.063318044 -0.07150231 0.0017226335 -0.05338277 0.046092037
-0.011008446 -0.14492182 0.061875515 -0.04816303 -0.12758423 0.04596406 -0.011345317 0.02885738

network_body._body_endoder.seq_layers.4.weight f4 [256, 256]
00000000: 8db5 1e3e 2fee d1bd 7b9a 5b3e 6c8a 6f3d
00000010: 12f3 67be e5cc 663d ee61 adbc bca5 283c
00000020: 2053 f3bd e272 54bd ed19 91be 5040 353d
00000030: ddc4 80bd ee4a 733e accd 203c 39ef 4dbe
00000040: f69f 823d bc5c aa3d 2d9b eebd 898e e3bd
00000050: d3cb 2fbe fd61 75be 7c4a 583c b2d3 4e3d
00000060: 7c25 6c3e b1bf 853d d752 a43c cd63 803d
00000070: b84f b2be ca89 3ebc 10e3 9dbe 31b6 25bc
00000080: 5d9c 9cbd 49ec 103c 8e3e 9b3c ac9c bf3d
00000090: 3750 5d3d bbb4 b03b c618 d8bd 886f 09be
000000a0: bf89 8b3d 0bea f8bc 9ce7 d0bd 4e33 a6bd
000000b0: 0ca9 adbe d533 85bb 7871 0fbd df1a 8d3d
000000c0: 4938 67be 1f5a 613d 9d11 69be 1912 4fbe
000000d0: b1a5 b63d 885d 23be c5ee 1a3e 3089 8e3c
000000e0: c77b 40bd 9798 0e3d 5425 a13d 190a 8cbc
000000f0: 1603 84be 4a27 adbd f5d4 54be a3ae 8dbd
00000100: f0c6 343e 1152 bf3d 853c a2be c7c7 593d
00000110: df90 16be acfd 25be d839 56be 0fbb 823e
00000120: 9cb7 c6bc 39c4 58be c310 a9bd 97d3 1fbe
00000130: 7a53 26be 8f88 43be f319 99bc c1ba cbbd
00000140: 744b 27bc 5a1e ecbd cad4 ef3d bd7b 113e
00000150: 704c 04be cead 8e3d 119a 69be b3f8 ed3d
00000160: d40a a4bd 1963 693e 4c11 e7bd dff4 9dbe
00000170: 1c23 203e 887b 50bb e2ae acbd c1a3 82bc
00000180: 21d4 15be 892c 77be 0734 f93c 9523 a43c
00000190: 59a0 f73c 91ea 08be d478 103e 75d4 9fbd
000001a0: ebaa 063c 5fa9 163e 0e29 1abc 46d2 373c
000001b0: 3222 54be 2320 b23d 0a68 953d 093b 39bc
000001c0: e272 16bd 5f00 34be 4786 81be 6f21 8dbb
000001d0: f5a8 72bd f373 353e 9a8b 4cbe c4c3 8abe
000001e0: b537 0e3e 8711 6bbe 5bd2 35bd f3aa 983e
000001f0: 2db4 55bc f947 12be b5a1 763d 6584 98bd
00000200: 8bbb 0bbe 29cf 913e f26d 863d b7f3 00bd
00000210: 7b09 c1bd 156c d33d e954 053e b996 89bd
00000220: e98b 71be 1829 49bd 49be 90bd 9c86 99ba
00000230: 6d63 d43d 9b62 e93d 6b9e e63d bd47 273d
00000240: fb8e 993d 64b0 863c 6499 c3bd ef13 9e3d
00000250: 979b d63d 0ceb 6bbc aa51 85be 4c30 573e
00000260: b3eb 39be 13da 37bc f700 283e 7105 8fbe
00000270: a9b9 893c c61d 283d 8776 2a3e 0079 a1bd
00000280: 6b86 b9bd c105 043c cdc6 61be 3a5e 2d3e
00000290: ba9d 6b3d 3b64 5b3e 9098 fbbd 5932 7dbc
000002a0: 7d34 f83c 0130 563d 755f ddbd 270f cfbc
000002b0: 4b68 e6bd 76df b63c f555 72bd c5e0 0bbe
000002c0: fc92 83bd 1265 1cbe c9cd a83b bc0c 963d
000002d0: ed99 da3d 59fd 5dbd 5d1a fa3d e299 b8bd
000002e0: c36a 81bd a66c 4f3d e94e f8bd 0595 cd3d
000002f0: 1948 21bd 5433 1c3e ddff 0a3c 5cf3 173e
00000300: 3464 19be 0d01 0f3c 1567 fcbc b939 813d
00000310: d3e4 283c 2461 2d3e 0e49 873d 18bf a1bd
00000320: 3244 c3bd 049e 2ebe baa4 05be 4c1b 75bd
00000330: cb33 6ebe 708c 0f3e a362 e6bd e4ff 00bb
00000340: 7e3b 0e3d 2394 14be 967b 913c f135 713b
00000350: 99e4 ecbd dd3b 34be 5552 82bc 95e6 6b3d
00000360: 5e1e 5ebe 3664 efbd 81e6 a53d 5d9a 7fbd
00000370: 6387 9abd 6df8 57bd baec edbd 1b0f 09bd
00000380: 7988 3fbd b713 2e3e ad3a 9bbd 8986 afbd
00000390: def2 243d 1973 d73b e749 273c 0d35 dabc
000003a0: 62d8 8fbd f30c 3abd bd1f d33d 836a e23c
000003b0: 6f7e 3dbc 6b2b 013d e726 743d 117e 4aba
000003c0: 877c 8fbe b856 76be 9594 94bd a5a5 c73c
000003d0: 12a7 063d f8a9 84bd 3194 bebd 051a 913c
000003e0: da4b 52be a229 cd3c 6970 483e 6410 20be
000003f0: 7604 073d 23e5 b83b bcd1 eb3d 2c90 113e
0.15498944 -0.10250508 0.21445648 0.05848162 -0.22651318 0.056347746 -0.02116486 0.01029342
-0.11881089 -0.051867373 -0.28340092 0.044250786 -0.06287549 0.23759052 0.009814661 -0.20110787
0.063781664 0.08318469 -0.11650691 -0.11111171 -0.17167597 -0.23963161 0.013201352 0.050494857
0.23061174 0.06530703 0.020059032 0.062690355 -0.34826446 -0.011629531 -0.30837297 -0.010114239
-0.076470114 0.008845397 0.018950727 0.09356055 0.054031577 0.0053926385 -0.105516 -0.13421452
0.06813382 -0.030385038 -0.10200426 -0.08115254 -0.33918035 -0.0040650168 -0.03502032 0.06889891
-0.22580065 0.055017587 -0.22760625 -0.20221747 0.08918322 -0.15953648 0.15130146 0.0173994
-0.046993043 0.03481349 0.07868448 -0.017094659 -0.25783604 -0.084547594 -0.20784362 -0.06918075
0.17654014 0.09341825 -0.31686798 0.05316904 -0.14703701 -0.1621005 -0.20920503 0.2553334
-0.024257474 -0.21168603 -0.0825515 -0.15608059 -0.16242781 -0.19095062 -0.018689131 -0.0994773
-0.0102108605 -0.115292266 0.11710508 0.14207359 -0.12919784 0.06966744 -0.22812678 0.11619701
-0.08009878 0.22791709 -0.11282596 -0.30850884 0.15638393 -0.0031811912 -0.08431794 -0.015947225
-0.14631702 -0.24138083 0.030420316 0.020036498 0.030227827 -0.1337073 0.14108592 -0.07804195
0.008219461 0.14713047 -0.009409202 0.011219567 -0.2071617 0.08697536 0.072952345 -0.011305579
-0.036730655 -0.17578267 -0.25297758 -0.004306964 -0.05924316 0.17720012 -0.19975129 -0.27102482
0.13888438 -0.22955905 -0.044390064 0.29817924 -0.013043446 -0.14285268 0.06021281 -0.07447127
-0.1364576 0.28478363 0.06563939 -0.031482425 -0.094256364 0.103233494 0.13020672 -0.06718201
-0.23588528 -0.049111456 -0.07067544 -0.001171309 0.103705265 0.113957606 0.112606846 0.0408399
0.074979745 0.016441531 -0.09550741 0.07718646 0.10478895 -0.014399301 -0.26038867 0.21014518
-0.18156318 -0.011221427 0.16406618 -0.2793384 0.016812162 0.04104402 0.16646777 -0.07884407
-0.09058841 0.008058012 -0.22048493 0.16930476 0.057523467 0.21424954 -0.12284958 -0.015453898
0.030298466 0.052291874 -0.108092226 -0.02527578 -0.11250361 0.022323351 -0.059164006 -0.13659962
-0.064245194 -0.1527293 0.0051514846 0.07326648 0.1067389 -0.05419669 0.1221206 -0.09013726
-0.06319191 0.050640725 -0.12124426 0.10038189 -0.0393754 0.15253955 0.008483854 0.14838928
-0.1497963 0.008728278 -0.030810872 0.06309838 0.010308462 0.16931587 0.06605731 -0.07897776
-0.095344916 -0.17052466 -0.1305112 -0.059840485 -0.23261945 0.14018416 -0.11249282 -0.0019683773
0.034724705 -0.14509635 0.017759126 0.0036805833 -0.11567039 -0.17600961 -0.0159084 0.057592947
-0.21691272 -0.116890356 0.08100606 -0.06240307 -0.07545354 -0.05272715 -0.11617418 -0.03346167
-0.04676101 0.16999708 -0.07579551 -0.085705824 0.04027068 0.006575 0.010210491 -0.026636625
-0.070236936 -0.045422506 0.10308788 0.02763868 -0.011565789 0.031535547 0.059607413 -0.0007724474
-0.28024694 -0.24056518 -0.07254902 0.024370978 0.032874174 -0.064777315 -0.09305609 0.017712602
-0.20536748 0.025044266 0.19574131 -0.15631253 0.03296324 0.0056425496 0.11514613 0.14215153

network_body._body_endoder.seq_layers.4.bias f4 [256]
00000000: ae30 6a3d 927c f5bd 7ad7 4fbe 8699 82be
00000010: 7767 27be ca7f 4ebe 9363 a5bd cef0 3ebe
00000020: 3749 6ebe 9214 78bd 110c 8abd feb7 90be
00000030: 04e3 93bd 31d0 d6bd 7a97 f43c 8d44 6ebe
00000040: c0b7 3abe 2c66 a13c 3399 bcbe 8e70 25bd
00000050: aa88 8ebe da50 66be 6530 4bbe b764 9bbd
00000060: 547a 24bd 4ac9 a0bd 1af0 31be a1d6 5ebe
00000070: b5f1 4bbe 447b 2bbe eb3c 84bd 1446 24be
00000080: 8535 24be a73d 63be 4a6e a6bd d68a 05be
00000090: de6a 1fbe b391 64bc bf4b 213e 83c4 8bbe
000000a0: abef 77be a710 5ebe 3acc b8bd cc80 01be
000000b0: 179c 95bd 844f b0bc 4175 fbbd 4522 ec3c
000000c0: 2523 e7bd 4624 34be 4070 ca3d 9a1f babd
000000d0: 65e5 ecbd 3908 c9bd b86b ddbd 2093 51be
000000e0: b705 843c 3c90 d1bd f365 953d af1f 4ebe
000000f0: 9b9f d0bd 3071 2abe b304 e83b 2507 99be
00000100: c636 e5bd 5a30 16be 8fa4 40be d407 26be
00000110: 72c9 5bbe 60f8 3dbc 3cbe 39be 4d67 45be
00000120: 9fb1 1bbe 5cbd acbd 695a a43d 914a fcbd
00000130: 334c 94be 6b05 59be 9432 8cbd b896 9cbd
00000140: 5207 5abe 0042 eabd 54a7 583d 600c 25be
00000150: ae9b 4bbe cffe 9e3d 55c6 253d 2ee0 1bbd
00000160: b193 c7bd d02c 56be 4b4c 3abe f17e d43d
00000170: 4c2e 3939 4d72 8bbe c977 efbd 4a68 86bc
00000180: cfe7 97bd cb1f 21be 2310 e4bd 5197 2dbe
00000190: 23d5 a6bc c6dc 983d 2662 0fbe 8cad 033c
000001a0: 7a4f cdbd 73b5 bebe 6a30 52bd 41ce 04be
000001b0: 4108 e7bd 3609 3d3d 029b ba3d ab32 f3bd
000001c0: e41e a9bd 84f9 32be 27f9 97be 0666 80be
000001d0: e929 39bd 7376 a5bd 3382 32be 8fbd 19bd
000001e0: c002 bf3c b08c 79be 6c5e d4bd bd7f 01be
000001f0: ad3a 5abd bdfd 25bc 96d8 3bbe 2aa1 d3bd
00000200: 7e3c 3cbe 5a2a 55be 3cca 15be d401 2cbe
00000210: d1a1 21be 6162 d3bd db3e 3abd 5e7c c7bd
00000220: 9051 48be 0c34 8bbe c96d 19be 234b 72be
00000230: 14b6 7aba a82e 0dbe aac7 813c d5e5 14be
00000240: 1b65 57be 4522 133d ac56 84be 18ea 2fbe
00000250: 29be 79be b51c 75bd f61e 69be c094 5dbe
00000260: 1416 51be 60a4 9cbd 7724 dbbd b2f6 923d
00000270: 0a34 d43d 55ee 34be 270f 5cbe ddc4 78be
00000280: 1941 89bd 86e7 f8bb dffa 2cbe 6d33 6cbd
00000290: 3f18 9ebc 3f7d 403d 3777 70be 04be 91bd
000002a0: 7d09 74bc b6d9 a1bd e8c7 efbd de79 05be
000002b0: 26c9 53be c176 73be ba0a b9bd 8b11 783c
000002c0: dc84 c5bd 6e5c 17be 9198 43be a9a6 36be
000002d0: 0874 68bd b65e 85be 7416 02be 68aa 03be
000002e0: 404d 30be 2f80 4dbd c79c 43be 494b 15be
000002f0: 54b3 f9bd 302d a7bc 0ecf 7b3c 55de c0bd
00000300: 372a 0ebe 9172 83be 794d 053e 233f 01be
00000310: 1d59 51be 0378 19be 9274 8ebc b0dd 41bd
00000320: 1064 aabb 0c82 a9ba b7f1 09be 457a e3bd
00000330: a030 36be 8d22 883c 6fde 34be aea8 4dbe
00000340: 691d 153e bf6f 2cbd b96f 57be 8916 1a3e
00000350: 27ac fbbd a162 18be a1e6 24be 707e e6bd
00000360: f2c2 59be 18ac efbd 1c35 03be 402c 4bbe
00000370: a37c a83d 0165 44be 373a 81be d1a9 c7bd
00000380: 1403 84bd c4ba 883c 756f ddbc 9f3f cdbd
00000390: 4028 bbbd fb73 e6bc 59a3 04bd 8d39 a03d
000003a0: 6973 4bbe d133 02be c611 553d 1341 64bd
000003b0: dfb0 bd3d 2a91 06be a1e4 abbb 993f 8cbe
000003c0: 77e3 74be 0672 0bbe 220a 91bc 7be3 50be
000003d0: 5602 cebd 46cf 38be 0698 45be 5f8c 92be
000003e0: d293 98be b4dc 37be 05a3 edbd f363 e5bc
000003f0: 3090 a93d a543 c7bd 9280 10be de58 4bbe
0.05717533 -0.119866505 -0.20297042 -0.25507754 -0.16348062 -0.20165935 -0.08075633 -0.18646547
-0.23270117 -0.060566492 -0.06740583 -0.28265375 -0.07221034 -0.10488928 0.029857386 -0.23268338
-0.18234158 0.01970204 -0.36835632 -0.040390544 -0.2783864 -0.2249178 -0.1984268 -0.07587569
-0.040155724 -0.07850893 -0.17376748 -0.21761562 -0.19916423 -0.16746241 -0.06456932 -0.16042358
-0.16036041 -0.22191487 -0.08126505 -0.13041243 -0.1556811 -0.013950753 0.15751551 -0.27298364
-0.2421252 -0.2168604 -0.09023328 -0.12646788 -0.073051624 -0.021522291 -0.12278224 0.028824935
-0.11286 -0.17591962 0.09884691 -0.09088059 -0.11567191 -0.098160215 -0.10811561 -0.2046628
0.016116006 -0.10232589 0.07294836 -0.20129274 -0.10186692 -0.1664474 0.0070806383 -0.29888263
-0.11192088 -0.14666882 -0.18812774 -0.16213924 -0.21463564 -0.011594862 -0.18138975 -0.19277687
-0.15204476 -0.08434555 0.08025057 -0.1231891 -0.28964385 -0.21193473 -0.068455845 -0.07645935
-0.21291855 -0.1143837 0.05289395 -0.16118002 -0.19883606 0.07763445 0.040472347 -0.03805559
-0.09744967 -0.20915532 -0.18193166 0.10375775 0.00017660222 -0.27235642 -0.11692769 -0.01640715
-0.07417261 -0.15734784 -0.1113589 -0.16952254 -0.020365303 0.07463984 -0.14002284 0.008036982
-0.100249246 -0.3724781 -0.051315702 -0.12969305 -0.11280871 0.046151362 0.09111597 -0.118748985
-0.08257845 -0.17477995 -0.29682276 -0.25077838 -0.045205984 -0.08079233 -0.1743248 -0.037534293
0.023316741 -0.24370074 -0.10369572 -0.12646385 -0.053278614 -0.010131297 -0.1834434 -0.10333474
-0.18382451 -0.20816937 -0.14627928 -0.16797572 -0.15784384 -0.10321499 -0.0454701 -0.09740518
-0.19562364 -0.27188146 -0.14983286 -0.23661475 -0.0009563875 -0.13787329 0.015842278 -0.14540799
-0.21034662 0.035921354 -0.25847375 -0.17179143 -0.24388947 -0.05984183 -0.22765717 -0.21638775
-0.20418578 -0.076485395 -0.107003145 0.0717596 0.10361488 -0.17669041 -0.21490155 -0.24293847
-0.067018695 -0.007595959 -0.16892575 -0.05766623 -0.01929867 0.046994444 -0.23482977 -0.07116321
-0.01489484 -0.07902853 -0.11708051 -0.1303477 -0.20682201 -0.2377577 -0.09035249 0.015140901
-0.096444815 -0.14781353 -0.19101168 -0.17837013 -0.05675128 -0.2604882 -0.12703878 -0.12857974
-0.17216969 -0.050171074 -0.19102775 -0.145795 -0.12192407 -0.02040729 0.01536919 -0.094174065
-0.13883291 -0.25673345 0.13017835 -0.12621741 -0.2044415 -0.14987187 -0.01738957 -0.04733056
-0.0051999167 -0.0012932434 -0.13471113 -0.111073054 -0.17791986 0.016618038 -0.17662977 -0.20083877
0.14562 -0.042098757 -0.21038713 0.15047659 -0.12288695 -0.14881374 -0.16103603 -0.11254585
-0.21265772 -0.11702746 -0.12813228 -0.19841099 0.082268976 -0.19179155 -0.25239727 -0.09749187
-0.064458996 0.01669062 -0.027030686 -0.100219004 -0.091385365 -0.028131476 -0.032382343 0.07823477
-0.19868244 -0.12715079 0.052018903 -0.055726122 0.09262251 -0.13141313 -0.0052457605 -0.2739227
-0.23914896 -0.13617715 -0.017705027 -0.20399277 -0.10059039 -0.18047819 -0.19296274 -0.2862272
-0.29800278 -0.17955285 -0.11603359 -0.028001761 0.08279455 -0.09729699 -0.14111546 -0.19858119

action_model._discrete_distribution.branches.0.weight f4 [2, 256]
00000000: 6967 0cbe 5035 1abd 1d3e d33d 54c5 02bd
00000010: 75ba 0cbd 0e91 74bd 88ec 1dbd f35a 78bb
00000020: 82c3 123d bcaa ac3c d457 14bd c080 e0bd
00000030: e5ff 06bd 9333 973d a4bf 883d 504f cebc
00000040: 2cba 00bd 0f04 983d ab18 24be ac6f b23b
00000050: d7d2 d0bb a715 be3d 7c63 2bbe 24a7 9abc
00000060: 7657 e2bc a62c 143d 510e a1bd ede0 8fbd
00000070: 2c45 c5bd 0d74 8bbc 08b5 7e3c 042c 703c
00000080: df62 aabc 3a47 cabd 1df9 9ebd 60aa ccbc
00000090: 288b a93d 8bef 19bd 2213 63bc d0f4 2c3c
000000a0: ef54 febd da20 1bbc 2c92 31bd bc0b afbd
000000b0: 4efc d23c ea3b b53b 97f7 18be c250 533d
000000c0: bc3c 93bd 4301 60bc c415 aa3d c1ab eb3a
000000d0: 8aa0 d4bd 0785 7dbd 61d2 45bc 1da9 b3bd
000000e0: 4117 0e3c 4314 9cbd c944 48bc 1618 e5bc
000000f0: 7380 dcbd 0cb6 623d d5b1 683e 2d40 2cbe
00000100: 3cf4 41bd 6409 85bc 50aa 46bb 522f 05be
00000110: 757c 58bd 16b9 e33d 5ffa 9f3d d68a 9bbd
00000120: edeb b3bc 9185 12bc 3c77 1fbe 2ff0 7d3d
00000130: f714 66bc 8b4a 8abb b54d 3ebd d3a6 d33d
00000140: e461 debc eee0 60bd 92cc 09be 72a0 9f3c
00000150: 2a3c c43d 9942 e2bd eea4 6d3d 8da0 a23d
00000160: bb90 8b3d f4a2 fbbd ee82 d2bb 2f5c ac3d
00000170: cd77 3d3d 7506 c63c 0ceb 413d 82dd 3a3c
00000180: b553 2f3d 00fc 153e 2028 05be c528 833d
00000190: 7d32 f23d 9bd4 013e 87c8 abbd 3498 1abd
000001a0: f937 d3bc 725c adbd fd80 f3bd b1a5 80bc
000001b0: 01b5 51bc 8228 4d3c c7e8 e1bd e99a 5abd
000001c0: a04c cf3d 3d89 e3bd fbb8 a7bc f94a 0abe
000001d0: 9565 3cbd 49fc c63b b02d fdbd 838c 8b3d
000001e0: d608 6bbd 8c97 b9bd f778 2fbb 8820 5ebd
000001f0: 3730 3fba 75a1 9bbd ae4f 773c 0990 aa3b
00000200: 02e1 b4bd 5630 0dbe 8cca ce3d 720d e8bd
00000210: dddd 00bd 9ecd 943d eb90 05bd ffb3 e0bd
00000220: b9d8 e33b 3c93 06bd 18ee 8bbd 5068 3c3e
00000230: 0be2 6d3d bf60 76bc 7b10 f2bd 7d1f 7bbc
00000240: fafc a03d f7c2 ff3c 245a a4bc 3b9d c4bc
00000250: 4b35 d7bd ded6 6abd c6df 7ebd 18c2 0a3e
00000260: cfa6 ebbd a4e3 c0bd 440a d4bc e622 793a
00000270: 9a2b f4bd 7b99 fabc babc 1b3b 5cd0 afbd
00000280: 07fa b2bd a686 06bd 127d 48bc 48e0 20ba
00000290: f1ae 6d3d af6d b1bd c712 24bd 8156 13bd
000002a0: 4c86 6b3d 6332 9fbd 2a6f 1fbb 5e9f 51bd
000002b0: 367b 5fbd 7c02 01bd 4ddc cfbd d99c 7cbc
000002c0: c4e0 283d 95d6 9e3d 1dea 833d 0c9b 72bd
000002d0: a1b8 af3d cdac 1dbd 26b8 f03c bff5 59bd
000002e0: fefb 803d fb07 9d3d 68aa 8bbc db22 edbd
000002f0: 1f8f 253d e7b6 00be c52d a53d fc54 a23a
00000300: e172 5a3a 69f8 ccbc 86d7 9a3d 7c98 723d
00000310: a683 b2bd 0536 d5bb 66ed 02be 9c24 a93c
00000320: 5bae 163d d66e fcbc fe3f 6abd 5795 0ebd
00000330: fb76 963d 914d 66bd 0d13 09bd b396 0dbd
00000340: a03b 5e3d 72c4 95bd 9d98 fcbd b89d 973c
00000350: 0c93 133d c225 55bd 5a44 873d b7f5 16be
00000360: 6dc2 21be 9e7e 0c3d 0ced 5bbd 9dfa c83c
00000370: 259e 8f3d 0f53 74bd 4844 44bd f7e1 febd
00000380: 23a3 d2bd ff1e 963d 03f4 033e cf0d bcbd
00000390: 1bbb 82bc babb 5b3d 11eb 84bd f8e9 81bd
000003a0: de46 a7bc 8c72 1dbe 45b4 023e f00a 55bd
000003b0: eed8 2f3d 5dcd 4e3b 549c e63d 6361 97bd
000003c0: 5d33 e2bd 9ca7 83bd 943f aebd 3ece 3fbb
000003d0: 8a5b 7a3d 0b9b 0bbb e33f d9bd 941a 0b3d
000003e0: 7549 97bd a743 a8bd 9e1d 213e 75ee 183d
000003f0: b403 9ebd adf6 153d cfc4 9ebc f52a c6bd
-0.13711323 -0.0376485 0.103145815 -0.031926468 -0.034357507 -0.059708647 -0.038555652 -0.0037896007
0.035830982 0.021077506 -0.036216572 -0.10962057 -0.032958884 0.07382884 0.066771775 -0.025184304
-0.031427547 0.07422649 -0.16025035 0.005445441 -0.0063727903 0.092814736 -0.16737169 -0.018878527
-0.027629595 0.036175393 -0.07864059 -0.07025323 -0.09632334 -0.01702311 0.015546091 0.014658932
-0.020799099 -0.09876867 -0.07762358 -0.024983585 0.08278495 -0.03758196 -0.013859542 0.010556415
-0.124185435 -0.009468282 -0.04335229 -0.0854716 0.025755074 0.005530824 -0.14938198 0.05159069
-0.071893185 -0.013672176 0.08304933 0.0017980264 -0.10382183 -0.061894443 -0.012074084 -0.0877249
0.008672536 -0.07621052 -0.012223431 -0.027965587 -0.10766687 0.055349395 0.22724088 -0.16821356
-0.04735206 -0.01623983 -0.0030313917 -0.13006333 -0.052853066 0.11119287 0.07811426 -0.0759484
-0.021963084 -0.0089429775 -0.15572828 0.061996635 -0.014043084 -0.004220312 -0.046460826 0.103345536
-0.027146287 -0.05490201 -0.13456944 0.019485686 0.09581788 -0.11047859 0.058018617 0.07940779
0.068147145 -0.1228694 -0.0064242994 0.0841602 0.04625683 0.024173 0.0473433 0.011405351
0.04280444 0.14646912 -0.13003588 0.064042605 0.11826036 0.12678759 -0.08387857 -0.03774281
-0.025783526 -0.08464898 -0.11889837 -0.015704008 -0.012799502 0.012521865 -0.11030727 -0.05337039
0.10122037 -0.111101605 -0.020473948 -0.13505162 -0.045995314 0.006072555 -0.1236223 0.0681391
-0.057381473 -0.090621084 -0.0026774982 -0.054230243 -0.00072932563 -0.07599155 0.015094681 0.0052051586
-0.08831979 -0.1378797 0.100972265 -0.113306895 -0.031461585 0.07265781 -0.032608908 -0.109718315
0.0069533256 -0.032855257 -0.06832522 0.18399167 0.0580769 -0.0150377145 -0.1181955 -0.015327332
0.078607515 0.031220896 -0.020062514 -0.024000755 -0.10508212 -0.05733382 -0.062225126 0.13550603
-0.115064256 -0.09418419 -0.025883801 0.00095037965 -0.11922379 -0.030590763 0.0023763613 -0.08584663
-0.08739095 -0.032843255 -0.01223685 -0.0006136936 0.058028165 -0.086634986 -0.04005697 -0.03597117
0.057501122 -0.077732824 -0.0024327734 -0.051177375 -0.054560862 -0.03149651 -0.10149441 -0.015418255
0.04122998 0.07755772 0.06441138 -0.059229895 0.08580137 -0.038494874 0.029384684 -0.053212877
0.06298064 0.07667538 -0.01704903 -0.11578914 0.040419694 -0.12569772 0.080653705 0.0012384946
0.00083331583 -0.025020795 0.07560639 0.05922745 -0.08716516 -0.006506684 -0.12785873 0.02064734
0.036787372 -0.03081457 -0.057189934 -0.03481039 0.073469125 -0.056226317 -0.033465434 -0.034567546
0.05425608 -0.073128596 -0.12333796 0.018507823 0.036028907 -0.05203796 0.06604834 -0.1474217
-0.15796824 0.03430044 -0.053692862 0.024533564 0.070125856 -0.059649523 -0.04791668 -0.12445443
-0.10285022 0.07330131 0.12886052 -0.09182321 -0.01595836 0.053645827 -0.06490148 -0.06343454
-0.020419534 -0.15375727 0.1276408 -0.052012384 0.04293149 0.0031555512 0.11260286 -0.07391622
-0.11044953 -0.06428453 -0.0850822 -0.0029267217 0.061122455 -0.002130213 -0.106078885 0.033960894
-0.07387058 -0.08216029 0.15733954 0.037336785 -0.0771555 0.0366122 -0.019380955 -0.09676162

action_model._discrete_distribution.branches.0.bias f4 [2]
00000000: d56a ecbc be68 ec3c
-0.028859535 0.028858539
