results/17/SmartAgent/SmartAgent-500005.onnx (onnx, 111123 bytes, 11 tensors)

discrete_action_output_shape f4 [1, 4]
2.0 2.0 2.0 2.0
00000000: 0000 0040 0000 0040 0000 0040 0000 0040

network_body._body_endoder.seq_layers.0.weight f4 [128, 200]
-0.53199637 0.004415334 0.10119247 -0.6239882 0.12823446 -0.24267317 0.0016205433 0.13634494
0.1181973 0.18316756 0.12623623 -0.13313906 -0.5254771 -0.111931354 0.07462213 0.089946486
-0.37014896 0.22519404 -0.2717954 0.09746707 0.16891094 0.03162253 0.41720238 0.05794425
0.21292983 0.10131119 -0.19537714 0.11876024 0.29875255 -0.05743 0.021074269 0.015861241
0.41069752 0.14919946 -0.0973324 -0.33432502 0.093592055 0.14806092 -0.018849034 -0.35266048
0.17079091 -0.21175967 0.20050232 0.26206067 -0.04861419 -0.3388334 -0.091008015 8.8990004e-05
0.008502681 -0.2176253 0.37834665 -0.19179845 -0.04510237 -0.20015377 -0.23099437 0.11525186
-0.07508583 -0.018908055 0.061538823 0.06702011 0.26497978 0.013079635 0.19843712 -0.039934907
0.13390413 0.08346074 -0.124062024 -0.1873756 -0.07219728 -0.11683596 0.06722661 -0.02086712
-0.19367445 -0.17712712 -0.087308854 0.49837163 0.17708655 -0.40279016 0.04144851 -0.22285838
0.19786991 0.12162187 0.3649777 0.07908272 0.23382054 -0.11486586 0.22035296 -0.46164036
-0.1644951 -0.08659122 0.22115833 -0.048049174 -0.795469 -0.006171416 -0.11150045 -0.5399935
-0.43705198 -0.3879525 -0.59392226 0.18333206 -0.57205355 0.17381185 -0.08369126 0.12343944
0.06749235 -0.08975423 0.10682897 0.1576823 -0.12512508 0.13959627 0.43038613 0.095603935
-0.24005206 -0.267151 -0.030066742 -0.026210004 -0.5035968 0.2809902 -0.39600056 0.15512656
-0.045535307 0.3182235 0.07361466 0.002099044 0.12775457 0.04959856 -0.12957531 0.018868318
-0.0035261367 -0.11546716 0.21450505 0.07227219 0.09183409 -0.2436264 -0.12006225 -0.13050643
0.024746312 0.013417549 -0.06370776 -0.20589073 0.02411952 -0.04972206 0.22434781 0.1296348
0.056413975 -0.25223243 -0.18335238 0.04799792 0.08901193 0.032791894 0.15049492 0.0072409697
-0.05783351 -0.23666516 -0.18964154 0.33516693 0.053248048 0.22496474 0.022819435 0.15308245
0.2788738 -0.034492757 0.13440686 0.059234094 0.087598145 -0.18960893 -0.0016262211 0.054379735
-0.01497451 -0.09716321 0.15148823 0.112033375 -0.20839669 -0.2690743 0.09405543 0.37436533
0.13975415 -0.13110855 -0.06365908 -0.24081875 -0.12058979 0.17977461 0.28585997 0.24683219
0.25282016 -0.17051841 -0.276488 -0.474389 -0.0665242 0.07633503 0.5694131 -0.37997872
-0.34661058 0.0021753095 -0.1309325 -0.24299933 -0.26667735 -0.26934147 -0.2823913 0.6084007
-0.15812798 0.07272424 0.29860282 0.13922176 0.21192417 0.07825348 0.27102923 0.26288408
0.16401425 0.2719219 0.3166724 0.0963119 0.18204723 -0.012052048 0.008985016 0.057751708
0.17059062 -0.2684218 0.1423684 0.36982673 0.09622374 -0.07783719 0.15164612 -0.05371181
0.24217467 -0.03547669 -0.029425599 -0.08186483 0.18787938 0.34222913 0.066170625 0.11066849
0.066661984 0.106374435 -0.20975155 -0.019152764 0.011507206 0.13056381 0.080014214 -0.046584956
0.077619866 -0.21211588 0.044135503 0.07200831 0.06324146 -0.03415442 0.111091904 0.3927612
0.18023069 -0.02948313 -0.15423614 -0.29068688 0.3642117 0.12767592 0.0606201 0.23533103
00000000: ea30 08bf 82ae 903b ff3d cf3d b1bd 1fbf
00000010: e54f 033e 517f 78be 6968 d43a 029e 0b3e
00000020: 6d11 f23d 4790 3b3e 1244 013e 9b55 08be
00000030: ab85 06bf 443c e5bd 7dd3 983d dd35 b83d
00000040: 2a84 bdbe 4499 663e c428 8bbe d19c c73d
00000050: fdf6 2c3e a086 013d 8d9b d53e f356 6d3d
00000060: 470a 5a3e 3e7c cf3d f210 48be 9238 f33d
00000070: 18f6 983e b83b 6bbd f2a3 ac3c 6fef 813c
00000080: f246 d23e bec7 183e 3656 c7bd a62c abbe
00000090: 31ad bf3d 489d 173e 4a69 9abc ea8f b4be
000000a0: d0e3 2e3e 87d7 58be 7b50 4d3e d12c 863e
000000b0: ac1f 47bd 927b adbe 6962 babd 25a0 ba38
000000c0: d44e 0b3c 2bd9 5ebe a7b6 c13e d066 44be
000000d0: 43bd 38bd 1cf5 4cbe ca89 6cbe 2b09 ec3d
000000e0: 9ac6 99bd 11e5 9abc 2210 7c3d d741 893d
000000f0: 6eab 873e f74b 563c 1a33 4b3e c992 23bd
00000100: 2a1e 093e 77ed aa3d 3b14 febd 64df 3fbe
00000110: 2bdc 93bd b147 efbd 1bae 893d 86f1 aabc
00000120: 9852 46be d060 35be fcce b2bd 912a ff3e
00000130: 2d56 353e 833a cebe eac5 293d fd34 64be
00000140: 699e 4a3e e314 f93d 5bde ba3e 1ff6 a13d
00000150: a76e 6f3e cb3e ebbd 35a4 613e 205c ecbe
00000160: 6771 28be bd56 b1bd 5477 623e 36cf 44bd
00000170: dba3 4bbf 9739 cabb 595a e4bd 043d 0abf
00000180: 47c5 dfbe b6a1 c6be 4a0b 18bf 66bb 3b3e
00000190: 1a72 12bf bcfb 313e 5366 abbd d1cd fc3d
000001a0: 6e39 8a3d 11d1 b7bd 26c9 da3d 7877 213e
000001b0: ca20 00be 53f2 0e3e 925b dc3e ffcb c33d
000001c0: 35d0 75be 04c8 88be 874e f6bc 5db6 d6bc
000001d0: b8eb 00bf f3dd 8f3e 96c0 cabe 7fd9 1e3e
000001e0: 3b83 3abd 31ee a23e 48c3 963d 1d90 093b
000001f0: 18d2 023e dc27 4b3d 64af 04be bb91 9a3c
00000200: c216 67bb 0c7a ecbd 36a7 5b3e 7103 943d
00000210: 8313 bc3d 3379 79be 32e3 f5bd 7aa3 05be
00000220: c7b8 ca3c 48d5 5b3c 3779 82bd 05d5 52be
00000230: 4d96 c53c 5ca9 4bbd 6fbb 653e fcbe 043e
00000240: 5712 673d 9c24 81be bac0 3bbe 7899 443d
00000250: e34b b63d cb50 063d 571b 1a3e a845 ed3b
00000260: d5e2 6cbd 5a58 72be 6431 42be 009b ab3e
00000270: a01a 5a3d 285d 663e d3ef ba3c a5c1 1c3e
00000280: 8cc8 8e3e 4748 0dbd f4a1 093e 739f 723d
00000290: a866 b33d d828 42be ed26 d5ba 49bd 5e3d
000002a0: a657 75bc 81fd c6bd bb1f 1b3e c171 e53d
000002b0: f165 55be 1bc4 89be 22a0 c03d d0ac bf3e
000002c0: b61b 0f3e 5241 06be b15f 82bd 3199 76be
000002d0: c8f7 f6bd d616 383e 3d5c 923e 94c1 7c3e
000002e0: a571 813e 619c 2ebe d68f 8dbe 1de3 f2be
000002f0: d73d 88bd 8a55 9c3d 0fc5 113f 928c c2be
00000300: f176 b1be a38f 0e3b 2b13 06be d1d4 78be
00000310: ef89 88be 20e7 89be 9895 90be 26c0 1b3f
00000320: 4dec 21be 72f0 943d 78e2 983e 2690 0e3e
00000330: a602 593e 5c43 a03d 58c4 8a3e be98 863e
00000340: 5af3 273e 5939 8b3e e322 a23e 2c3f c53d
00000350: 976a 3a3e f475 45bc e335 133c 0e8d 6c3d
00000360: 4faf 2e3e 956e 89be 06c9 113e ee59 bd3e
00000370: f410 c53d 1b69 9fbd 1f49 1b3e ea00 5cbd
00000380: a3fc 773e 0150 11bd f40d f1bc bfa8 a7bd
00000390: 7463 403e a838 af3e 7784 873d 29a6 e23d
000003a0: 1486 883d d7da d93d 1cc9 56be 42e6 9cbc
000003b0: b888 3c3c 85b2 053e 7ede a33d decf 3ebd
000003c0: 2af7 9e3d e834 59be 6ec7 343d 1879 933d
000003d0: bd84 813d 81e5 0bbd 2784 e33d ff17 c93e
000003e0: 658e 383e 9b86 f1bc 14f0 1dbe e9d4 94be
000003f0: f579 ba3e 7abd 023e c84c 783d 9efa 703e

network_body._body_endoder.seq_layers.0.bias f4 [128]
0.13909388 0.23495674 0.05318822 0.16871166 0.006198252 0.0625597 0.11040844 0.10225998
0.09735485 0.033341512 -0.05735403 0.10274383 0.16085279 0.029174414 -0.104845904 0.059916034
0.19720498 0.03499377 0.03384704 -0.0022607602 0.044654448 0.1540253 -0.14100643 0.09425576
-0.02737916 0.06175893 0.22633472 0.09668225 -0.010228739 0.07653702 0.100389995 -0.10572806
0.10716175 0.031153934 -0.039310805 0.004946014 0.00020691351 0.037429214 -0.12833601 0.09638694
-0.068160586 0.013668048 -0.0717522 0.2736876 0.11654166 0.20255595 -0.21219774 0.17335448
-0.0646836 0.046285223 0.16733399 0.14289072 -0.04105898 0.14694838 0.21666291 0.123660214
0.051381737 0.06132268 -0.06679249 0.28595865 0.047876928 -0.10048813 0.03514043 0.2413312
-0.071246505 -0.17433344 0.019263238 -0.038803328 0.048856158 0.17060159 0.032069035 -0.036236264
-0.10677974 0.1325296 -0.014501016 0.20087343 -0.039058 0.028205823 0.049707104 0.0223126
0.070587136 0.18807763 -0.05752467 -0.11618588 -0.012197195 0.12689197 0.06773756 0.20751977
-0.07147255 0.28457695 0.12486149 0.1543062 -0.0032982437 0.14740247 0.2421798 -0.12174021
0.060684633 -0.00022585191 0.1818755 0.073794544 0.13730372 0.07101367 0.16303082 -0.06511846
0.10940424 -0.009865474 -0.06597989 -0.017572396 0.08340889 0.20644082 0.021637399 0.2748476
-0.13395701 0.10504301 -0.026968988 0.06498263 0.017895889 0.09605326 0.21811958 -0.11085943
0.19786902 0.028698953 0.078074686 0.019850018 0.09233502 0.056507133 -0.03919936 -0.09131432
00000000: a06e 0e3e 8098 703e e4db 593d c0c2 2c3e
00000010: b51a cb3b 4d1f 803d d21d e23d ae6d d13d
00000020: fb61 c73d 1c91 083d 0fec 6abd 5b6b d23d
00000030: 98b6 243e 2eff ee3c 73b9 d6bd 846a 753d
00000040: 1af0 493e a155 0f3d 32a3 0a3d 4329 14bb
00000050: 95e7 363d cfb8 1d3e fd63 10be 2a09 c13d
00000060: 434a e0bc eff6 7c3d 4ac4 673e 5801 c63d
00000070: 7196 27bc 71bf 9c3d 4599 cd3d f487 d8bd
00000080: 9f77 db3d 8936 ff3c 5e04 21bd 2c12 a23b
00000090: ecf6 5839 604f 193d 846a 03be 8466 c53d
000000a0: c797 8bbd f3ef 5f3c d1f2 92bd c820 8c3e
000000b0: 65ad ee3d d46a 4f3e 5d4a 59be d683 313e
000000c0: d678 84bd 9395 3d3d 9a59 2b3e f251 123e
000000d0: 762d 28bd a379 163e e2dc 5d3e 9141 fd3d
000000e0: a875 523d 7e2d 7b3d 80ca 88bd 2c69 923e
000000f0: 991a 443d b8cc cdbd 69ef 0f3d 871f 773e
00000100: b0e9 91bd 7784 32be f0cd 9d3c 3df0 1ebd
00000110: 651d 483d 2fb2 2e3e d25a 033d 7a6c 14bd
00000120: 56af dabd d7b5 073e ab95 6dbc c4b1 4d3e
00000130: 48fb 1fbd e60f e73c ad99 4b3d eac8 b63c
00000140: fd8f 903d 6c97 403e fd9e 6bbd ddf2 edbd
00000150: bed6 47bc f8ef 013e fdb9 8a3d 1080 543e
00000160: 3360 92bd 12b4 913e 62b7 ff3d 7202 1e3e
00000170: 5927 58bb acf0 163e fbfd 773e ee52 f9bd
00000180: 7390 783d a9d2 6cb9 923d 3a3e 9821 973d
00000190: 5999 0c3e 9d6f 913d 8df1 263e d45c 85bd
000001a0: 550f e03d cca2 21bc 7720 87bd fcf3 8fbc
000001b0: 48d2 aa3d 3965 533e ea40 b13c d3b8 8c3e
000001c0: 072c 09be ca20 d73d 11ee dcbc 9d15 853d
000001d0: 669a 923c 92b7 c43d bd5a 5f3e 450a e3bd
000001e0: 2d9e 4a3e 111a eb3c 9fe5 9f3d 819c a23c
000001f0: 251a bd3d 0674 673d 828f 20bd 0103 bbbd

action_model._discrete_distribution.branches.0.weight f4 [2, 128]
-0.51373875 0.4469476 1.2715532 -0.35613224 0.3256968 0.61904174 0.44534686 0.63120997
0.46071124 0.8221378 1.0450109 -0.30317104 0.16399007 0.24003336 0.652972 0.84856415
0.33068988 0.31326637 0.46511075 0.006090328 0.71225816 -0.068617195 -0.5024082 -0.58095133
-0.20246612 0.50335795 -0.36167282 -0.2577603 0.16541635 -0.32944122 -0.28952226 0.4850712
0.6714073 -0.5844509 0.7777921 0.03891968 1.1455221 0.6501632 0.61636406 0.36360773
-0.4525573 -0.4412851 -0.13551712 -0.59896284 0.42043012 -0.4763009 0.009870065 -0.05766379
0.4218498 0.7682441 0.043279972 0.61548066 0.25288337 0.3021181 0.052120145 0.15401463
-0.007824054 0.003369765 0.63791245 -0.15613532 0.2539091 -0.13605686 0.8739178 0.56764245
-0.37832373 0.76283044 -0.65885746 0.50962615 0.8898219 0.3256473 0.9030807 0.59414226
-0.6479998 0.079540126 0.5944153 -0.6236129 0.45352712 1.0521677 -0.3951426 0.049671855
0.26757014 -0.13140452 -0.6416616 -0.6777111 0.8499595 0.54539734 0.45515677 -0.108297765
0.5836319 -0.43339634 0.57665366 -0.19455388 -0.58363074 -0.5972915 0.66918415 1.1465837
-0.037143998 0.9588978 -0.47354594 -0.4352595 -0.3075258 1.4631824 -0.38817117 0.5554039
-0.36980987 0.68781626 0.6357287 -0.4146413 0.09017202 -0.012968553 -0.29505628 -0.30653176
0.6370405 0.49218994 -0.37749705 1.4179595 0.5336422 1.3588947 0.02749033 0.8094922
0.3108026 0.74280053 -0.10939619 0.055006288 -0.13111472 -0.20940098 -0.34100404 0.45019856
0.5151662 -0.44475222 -1.2794836 0.34003806 -0.3481879 -0.6179947 -0.44936684 -0.61905664
-0.4586176 -0.8179857 -1.0402064 0.30910233 -0.15655646 -0.22767822 -0.64939547 -0.8637341
-0.32371634 -0.30713102 -0.4620776 -0.007134761 -0.7237004 0.076194264 0.49646574 0.59547174
0.20830558 -0.4855849 0.342436 0.2543704 -0.16704133 0.30912098 0.3032322 -0.48371473
-0.66613317 0.59043103 -0.77780485 -0.05786361 -1.1527886 -0.6400613 -0.6278737 -0.36048985
0.45117766 0.4543576 0.14686084 0.5883915 -0.40458292 0.45256054 -0.015380035 0.047486663
-0.4068459 -0.7669783 -0.02827565 -0.6274559 -0.2609208 -0.30375388 -0.0658549 -0.14931314
0.020792156 -0.022609843 -0.6117328 0.15289587 -0.24471368 0.12948698 -0.85138035 -0.5498585
0.3592136 -0.7774916 0.68370247 -0.5056889 -0.88803995 -0.3487421 -0.9123501 -0.59639126
0.6191561 -0.07556637 -0.56798804 0.62770337 -0.45167384 -1.0428513 0.37983045 -0.04202286
-0.26809743 0.12103359 0.6404805 0.68992805 -0.87102413 -0.55060536 -0.44302326 0.09843472
-0.5891427 0.42892078 -0.57627946 0.21126047 0.5691879 0.59041864 -0.67439353 -1.1455299
0.03572143 -0.9663268 0.4633501 0.43906382 0.32437745 -1.4780113 0.3942939 -0.55447215
0.3572731 -0.68731016 -0.6383757 0.3896731 -0.09117026 0.009153637 0.27757928 0.30686313
-0.63467413 -0.49577788 0.3733204 -1.4183909 -0.53829044 -1.3903941 -0.044406775 -0.82678026
-0.3029365 -0.7399164 0.12440248 -0.05648726 0.12653115 0.19112381 0.3579601 -0.45175597
00000000: 6284 03bf 51d6 e43e 41c2 a23f f756 b6be
00000010: bbc1 a63e 8579 1e3f 8104 e43e fa96 213f
00000020: 58e2 eb3e 9f77 523f ebc2 853f 3c39 9bbe
00000030: 03ed 273e 4ecb 753e 2c29 273f 803b 593f
00000040: 2f50 a93e 7364 a03e ff22 ee3e 6091 c73b
00000050: 8d56 363f 2c87 8cbd d39d 00bf 3ab9 14bf
00000060: 4753 4fbe 11dc 003f 2e2d b9be 28f9 83be
00000070: e762 293e 85ac a8be 433c 94be 415b f83e
00000080: 59e1 2b3f 939e 15bf 621d 473f 3e6a 1f3d
00000090: 78a0 923f 1871 263f 09ca 1d3f cb2a ba3e
000000a0: 97b5 e7be 1ff0 e1be 00c5 0abe a155 19bf
000000b0: 9e42 d73e b6dd f3be 0eb6 213c de30 6cbd
000000c0: b2fc d73e a5ab 443f 5746 313d 2490 1d3f
000000d0: ee79 813e 39af 9a3e ef7b 553d 03b6 1d3e
000000e0: 7630 00bc 46d7 5c3b 3b4e 233f f0e1 1fbe
000000f0: 6000 823e 7d52 0bbe 14b9 5f3f 0451 113f
00000100: a6b3 c1be db48 433f e2aa 28bf dc76 023f
00000110: 5ecb 633f 3ebb a63e 4c30 673f b519 183f
00000120: 51e3 25bf efe5 a23d 9a2b 183f 18a5 1fbf
00000130: b534 e83e 6ead 863f 2250 cabe b774 4b3d
00000140: f4fe 883e e88e 06be ef43 24bf 7a7e 2dbf
00000150: f296 593f 299f 0b3f 4f0a e93e 38cb ddbd
00000160: e668 153f 20e6 ddbe 939f 133f 2239 47be
00000170: d368 15bf 19e8 18bf a74f 2b3f 41c3 923f
00000180: 4e24 18bd 547a 753f 9d74 f2be 55da debe
00000190: 0674 9dbe 9049 bb3f 5fbe c6be f32e 0e3f
000001a0: b857 bdbe ba14 303f 1ebf 223f dd4b d4be
000001b0: 1cac b83d 0e7a 54bc 9e11 97be bbf1 9cbe
000001c0: 1615 233f 5200 fc3e 4b47 c1be b27f b53f
000001d0: c69c 083f 43f0 ad3f 6733 e13c e13a 4f3f
000001e0: 8521 9f3e 2d28 3e3f 1c0b e0bd 464e 613d
000001f0: f042 06be 366d 56be 1598 aebe 6d80 e63e
00000200: efe1 033f 90b6 e3be 1ec6 a3bf 7819 ae3e
00000210: af45 b2be e734 1ebf 6913 e6be 7f7a 1ebf
00000220: edcf eabe 8367 51bf 7c25 85bf a942 9e3e
00000230: 5650 20be 7b24 69be c83e 26bf ae1d 5dbf
00000240: 26be a5be 4740 9dbe 6f95 ecbe b7ca e9bb
00000250: 6e44 39bf bd0b 9c3d c230 fe3e d670 183f
00000260: 0f4e 553e 969e f8be c553 af3e d63c 823e
00000270: e20c 2bbe 1b45 9e3e 4041 9b3e 75a9 f7be
00000280: b487 2abf 7d26 173f 381e 47bf 6502 6dbd
00000290: 948e 93bf 0fdb 23bf 55bc 20bf 2092 b8be
000002a0: c200 e73e 8fa1 e83e b062 163e d3a0 163f
000002b0: 7e25 cfbe 04b6 e73e 8bfc 7bbc 6081 423d
000002c0: 1b4e d0be b158 44bf 56a2 e7bc f3a0 20bf
000002d0: 6997 85be a185 9bbe efde 86bd 8be5 18be
000002e0: 5054 aa3c 4738 b9bc 859a 1cbf bc90 1c3e
000002f0: 3996 7abe 3c98 043e 10f4 59bf 87c3 0cbf
00000300: d8ea b73e b109 47bf 2007 2f3f d474 01bf
00000310: 9656 63bf 538e b2be c78f 69bf 19ad 18bf
00000320: 0481 1e3f 8ac2 9abd aa67 11bf 2bb1 203f
00000330: cb41 e7be 277c 85bf 2379 c23e 2a20 2cbd
00000340: 1144 89be 75e0 f73d 88f6 233f 209f 303f
00000350: 70fb 5ebf 79f4 0cbf f2d3 e2be 2498 c93d
00000360: 0ed2 16bf 819b db3e 0d87 13bf aa54 583e
00000370: 4cb6 113f ad25 173f 0ea5 2cbf b9a0 92bf
00000380: a250 123d 3161 77bf 393c ed3e f9cc e03e
00000390: cd14 a63e 792f bdbf e4e0 c93e e3f1 0dbf
000003a0: 80ec b63e 8ff3 2fbf 976c 23bf 3c83 c73e
000003b0: 79b7 babd 23f9 153c df1e 8e3e 2a1d 9d3e
000003c0: 017a 22bf 99d6 fdbe da23 bf3e d58d b5bf
000003d0: 67cd 09bf 6ff8 b1bf e1e3 35bd dfa7 53bf
000003e0: 7e1a 9bbe 296b 3dbf bac6 fe3d 2f5f 67bd
000003f0: 6291 013e f6b5 433e 8c46 b73e 8f4c e7be

action_model._discrete_distribution.branches.0.bias f4 [2]
-0.11722004 0.11721754
00000000: 0f11 f0bd c00f f03d

action_model._discrete_distribution.branches.1.weight f4 [2, 128]
0.08913982 1.1190187 0.4728786 -0.52600014 -0.46725607 0.34111476 1.0470301 0.22956564
0.21875235 -0.28638437 0.65833926 -0.6227662 0.69048035 0.3158076 -0.5133629 -0.38361672
0.18272695 0.3834585 -0.62315667 -0.6392556 0.40781963 -1.0115365 -0.48612493 -0.23226765
-0.88060355 0.070248745 0.57321125 0.5960998 0.87703204 -0.25289476 0.57063174 -0.602099
0.066817 -0.558661 -0.09184973 0.45882213 0.24567728 0.29776436 0.6305035 0.41943336
-0.8308571 -0.54211867 -0.2226092 0.19548588 0.5103293 0.324537 -0.17968929 0.64934075
-0.15381713 0.6381061 0.8607498 0.84253 0.26980487 0.30579978 0.78663933 0.41374534
0.9077258 -1.0104297 0.15582909 -0.53488374 0.2326495 0.32587716 0.100381315 0.5136801
-0.4247712 -0.066540524 -0.1107436 -0.0043052174 -0.6003362 1.0920019 0.6142768 0.35203955
0.20878513 0.009735052 -0.70576143 0.34578425 -0.13264683 -0.4511721 0.071236074 -0.44130063
0.3285199 0.47373405 -0.83989793 -0.523738 0.9002485 0.62090534 0.5012201 1.0143135
-0.026650535 0.5971936 0.04753736 0.7022402 -1.1492965 0.35909504 0.26330745 0.30110547
-0.52255434 -0.52703553 -0.89444345 0.3128682 -0.12862483 0.5161993 0.2756039 -0.53066146
0.0024781541 -0.34156194 -0.5154282 -0.0064298576 -0.4266175 -1.117521 0.30619898 0.5637247
-0.50514054 0.41223776 -0.5621692 0.3777997 0.24305406 -0.0012632066 -1.3448833 -0.6518695
0.85174584 0.5299772 0.06423888 0.6117138 0.85779566 0.47203624 -0.27315703 -0.4199905
-0.09369366 -1.1055505 -0.47333845 0.54060876 0.47858676 -0.35039645 -1.060171 -0.22257741
-0.20928587 0.2876539 -0.6604352 0.6393221 -0.6937988 -0.3043172 0.5109883 0.373821
-0.18297212 -0.38640833 0.6276362 0.6158107 -0.39921683 1.0322862 0.49063304 0.22639242
0.86484486 -0.076415576 -0.57088464 -0.5925312 -0.90060914 0.25731632 -0.5568765 0.61743814
-0.061323654 0.5769875 0.11154089 -0.4478895 -0.26338765 -0.2842218 -0.6402867 -0.40674162
0.825604 0.5467006 0.22668464 -0.16446066 -0.50635713 -0.34690192 0.16443977 -0.6590982
0.15545389 -0.6270282 -0.82118475 -0.8591478 -0.28736278 -0.3042823 -0.7949954 -0.42164373
-0.88530666 0.9978849 -0.15015514 0.5265263 -0.22858441 -0.30258745 -0.08313927 -0.518816
0.41077676 0.06159632 0.10974652 0.022029804 0.58993745 -1.1024748 -0.6087578 -0.33665192
-0.17584205 -0.028618624 0.70252067 -0.3458486 0.12525591 0.43738526 -0.07463473 0.45442563
-0.33660752 -0.46088368 0.8325143 0.5325226 -0.9064356 -0.63729507 -0.5095774 -1.0140398
0.019218987 -0.58927006 -0.06288813 -0.6857185 1.1268572 -0.35350496 -0.2579539 -0.2910765
0.52939636 0.5189318 0.9050813 -0.30184856 0.117707305 -0.5139208 -0.305284 0.53983223
0.0062232795 0.33887795 0.50586873 0.009881823 0.41198376 1.1235856 -0.3090055 -0.5746414
0.49574512 -0.4286471 0.55864984 -0.3857908 -0.24015301 0.013114319 1.3501979 0.658696
-0.8313339 -0.5356553 -0.073814474 -0.6054094 -0.8490355 -0.48354647 0.2691085 0.4191431
00000000: f08e b63d 013c 8f3f 251d f23e f2a7 06bf
00000010: 303c efbe 98a6 ae3e 1505 863f 4113 6b3e
00000020: 9e00 603e f9a0 92be ec88 283f 9b6d 1fbf
00000030: 52c3 303f 89b1 a13e c06b 03bf 6969 c4be
00000040: c61c 3b3e ac54 c43e 3287 1fbf 41a6 23bf
00000050: bccd d03e 077a 81bf 5ee5 f8be 92d7 6dbe
00000060: 3c6f 61bf 93de 8f3d f9bd 123f ff99 183f
00000070: 2c85 603f 6c7b 81be ec14 123f 2923 1abf
00000080: 5ad7 883d 6804 0fbf b61b bcbd bcea ea3e
00000090: d392 7b3e 9274 983e ad68 213f f8bf d63e
000000a0: 0db3 54bf 4ac8 0abf abf3 63be 732d 483e
000000b0: f1a4 023f b729 a63e 7800 38be 323b 263f
000000c0: 3d82 1dbe ec5a 233f 195a 5c3f 0cb0 573f
000000d0: dd23 8a3e ca91 9c3e 3261 493f 6ed6 d33e
000000e0: b860 683f c355 81bf a991 1f3e 24ee 08bf
000000f0: ac3b 6e3e 5fd9 a63e b894 cd3d 8a80 033f
00000100: 9c7b d9be 6646 88bd 8acd e2bd c812 8dbb
00000110: a2af 19bf b8c6 8b3f 3f41 1d3f 873e b43e
00000120: c5cb 553e c47f 1f3c c8ac 34bf a20a b13e
00000130: 92d4 07be 0800 e7be 38e4 913d 28f2 e1be
00000140: c333 a83e 458d f23e 8d03 57bf b213 06bf
00000150: b076 663f a7f3 1e3f f64f 003f 06d5 813f
00000160: 3952 dabc aee1 183f 89b6 423d 04c6 333f
00000170: 261c 93bf 4edb b73e 3cd0 863e 7f2a 9a3e
00000180: 1fc6 05bf cdeb 06bf 3ffa 64bf 4330 a03e
00000190: 3ab6 03be a325 043f f41b 8d3e 6ed9 07bf
000001a0: 8768 223b 35e1 aebe 1af3 03bf 8eb1 d2bb
000001b0: 9c6d dabe ee0a 8fbf 1dc6 9c3e 4350 103f
000001c0: e450 01bf d410 d33e 52ea 0fbf f66e c13e
000001d0: 2ae3 783e 2e92 a5ba 2325 acbf ebe0 26bf
000001e0: 040c 5a3f 96ac 073f ad8f 833d 4799 1c3f
000001f0: 7f98 5b3f bcae f13e 3ddb 8bbe ff08 d7be
00000200: 76e2 bfbd ae82 8dbf 6b59 f2be 5665 0a3f
00000210: 5309 f53e 2a67 b3be afb3 87bf 55eb 63be
00000220: 094f 56be 5f47 933e 4812 29bf 9daa 233f
00000230: cc9c 31bf 77cf 9bbe 21d0 023f 7765 bf3e
00000240: 0b5d 3bbe 50d7 c5be c4ac 203f c5a5 1d3f
00000250: 2666 ccbe f421 843f 4134 fb3e 6ad3 673e
00000260: 7966 5d3f c57f 9cbd 7f25 12bf 20b0 17bf
00000270: 528e 66bf f7be 833e 758f 0ebf 6d10 1e3f
00000280: 832e 7bbd 74b5 133f 8d6f e43d c651 e5be
00000290: bfda 86be 8585 91be d4e9 23bf 7040 d0be
000002a0: c95a 533f 92f4 0b3f 0520 683e 6068 28be
000002b0: 9fa0 01bf 219d b1be e662 283e a9ba 28bf
000002c0: 4e2f 1f3e ec84 20bf 2a39 52bf 1cf1 5bbf
000002d0: 3721 93be e4ca 9bbe d284 4bbf b0e1 d7be
000002e0: 75a3 62bf 6375 7f3f 45c2 19be 6dca 063f
000002f0: 0812 6abe beec 9abe ec44 aabd 20d1 04bf
00000300: 5551 d23e 6c4c 7c3d c9c2 e03d d977 b43c
00000310: 2406 173f e51d 8dbf 8dd7 1bbf a45d acbe
00000320: f00f 34be 9b71 eabc 65d8 333f 1113 b1be
00000330: 1643 003e f6f0 df3e 18da 98bd 7aaa e83e
00000340: d257 acbe f2f8 ebbe a81f 553f 6753 083f
00000350: 2a0c 68bf c525 23bf aa73 02bf 0ecc 81bf
00000360: 2371 9d3c 67da 16bf 7ecb 80bd 3f8b 2fbf
00000370: db3c 903f 9afe b4be 8912 84be fb07 95be
00000380: 8586 073f b7d8 043f 68b3 673f e58b 9abe
00000390: 8710 f13d 5090 03bf 2f4e 9cbe 7232 0a3f
000003a0: a7ec cb3b 6981 ad3e 9d80 013f 5fe7 213c
000003b0: 89ef d23e a7d1 8f3f f835 9ebe b31b 13bf
000003c0: 4ed2 fd3e a277 dbbe ad03 0f3f 5f86 c5be
000003d0: acea 75be 71dd 563c 49d3 ac3f 4da0 283f
000003e0: 4cd2 54bf b520 09bf 0b2c 97bd 1cfc 1abf
000003f0: 645a 59bf 6793 f7be 97c8 893e ed99 d63e

action_model._discrete_distribution.branches.1.bias f4 [2]
0.08399515 -0.08399426
00000000: a605 ac3d 2f05 acbd

action_model._discrete_distribution.branches.2.weight f4 [2, 128]
0.5012726 -0.26499507 -0.72215223 0.4616361 -0.86666393 -0.6242068 -0.36188355 0.13010804
-0.6911579 -0.030888082 -0.09187079 -0.3656715 -0.16867736 -0.5869596 -0.7266298 -0.04076574
-0.04644873 -0.6159356 0.06617237 0.07660304 -0.035738118 0.47371525 -0.3448831 0.26896846
0.4005029 -0.28485528 -0.02313561 -0.018230343 -0.14036942 0.31947216 0.05562683 -0.6687113
-0.62006783 0.06308979 -1.2292366 -0.6780532 -0.34376886 -0.86799866 -0.5332315 -0.49861115
0.55021846 0.5849461 0.41681346 0.64659554 -0.5286253 0.121961705 -0.5359199 0.37613586
-0.5323829 0.04542426 -0.24198592 -0.31754857 0.46959722 0.046506435 -0.22032362 -0.015988268
0.25659359 -0.24089803 0.539222 0.4636554 -0.23589598 0.45675656 -0.6574471 0.014010689
0.48249876 -0.76432556 0.26169714 -0.5928577 -0.9029436 -0.14814971 -0.015891131 -0.44351354
-0.23943575 0.56016654 -0.9566328 0.30066362 -0.24119258 -0.35437274 0.3113742 0.5497995
-0.53509164 0.1758214 -0.17393526 0.5341836 0.18321149 -0.64600897 -0.4380703 0.12532827
-0.8148078 0.048348147 -0.97336227 0.011040845 0.3849162 -0.045361996 -0.19048762 -0.9170264
-0.7311307 -0.730446 0.016083289 0.5265922 -0.015083607 -0.4553912 0.18393384 -0.31173757
0.3698907 -0.81568325 -0.46165016 0.46706262 0.7296887 -0.06923039 -0.19780786 0.32039618
-0.75435364 -0.73401237 0.34883973 -0.3599489 -0.5350773 -0.8321291 -0.8294885 -0.8519091
-0.17024013 -0.6890352 -0.48030663 0.59754235 -0.30189502 0.4561988 0.46671328 -0.41136768
-0.51982456 0.26827028 0.72001433 -0.44536558 0.8647546 0.6177108 0.3628079 -0.11208893
0.68390876 0.018371552 0.062938526 0.3493943 0.17686556 0.5807705 0.7244068 0.038768776
0.056581657 0.6263167 -0.0730532 -0.05359281 0.030059416 -0.47868827 0.33534837 -0.25877213
-0.43592557 0.29790685 0.03646906 0.023360686 0.1553482 -0.31990132 -0.06635559 0.6939207
0.5931589 -0.058814123 1.214249 0.67128986 0.34708226 0.87282044 0.52642155 0.49417543
-0.5414468 -0.5841222 -0.39765474 -0.636526 0.5341515 -0.13244744 0.53849626 -0.3632895
0.5553537 -0.048680026 0.22339116 0.31500474 -0.46998549 -0.037440535 0.21530092 0.03392708
-0.252486 0.24789576 -0.5279957 -0.49541464 0.24655871 -0.45277005 0.66787374 -0.006974011
-0.47742665 0.7622988 -0.27666396 0.60038877 0.9006297 0.14705782 0.02495503 0.45060214
0.24103075 -0.5655046 0.9451095 -0.29427606 0.26904255 0.35927758 -0.29900035 -0.5337172
0.5500257 -0.1942912 0.17119104 -0.5305746 -0.18821847 0.6508704 0.44785652 -0.14071889
0.7806802 -0.027059508 0.9761921 0.0067217518 -0.38670072 0.051821068 0.18401986 0.921631
0.7218872 0.71020794 -0.0055549154 -0.5243954 0.025447313 0.46549186 -0.1670134 0.32244462
-0.37299812 0.81643635 0.45740634 -0.46618968 -0.74700487 0.06508916 0.20516068 -0.3526223
0.73804545 0.73823816 -0.3484758 0.3641418 0.517736 0.8532613 0.8110401 0.86582875
0.16637187 0.71714246 0.4772076 -0.609682 0.29821074 -0.46768713 -0.454284 0.4074909
00000000: 6753 003f 6fad 87be f8de 38bf 915b ec3e
00000010: b0dd 5dbf 04cc 1fbf cd48 b9be 0b3b 053e
00000020: b9ef 30bf 0109 fdbc c126 bcbd 4b39 bbbe
00000030: c2b9 2cbe fc42 16bf 6904 3abf faf9 26bd
00000040: 0641 3ebd f5ad 1dbf 6185 873d 0ee2 9c3d
00000050: 2262 12bd ce8a f23e 8594 b0be 3cb6 893e
00000060: b70e cd3e 8dd8 91be e486 bdbc cd57 95bc
00000070: 00bd 0fbe db91 a33e f5d8 633d aa30 2bbf
00000080: c4bc 1ebf 3835 813d a057 9dbf e594 2dbf
00000090: 7902 b0be 2935 5ebf dc81 08bf f649 ffbe
000000a0: 1edb 0c3f 07bf 153f 9368 d53e 4987 253f
000000b0: fd53 07bf 0fc7 f93d 0c32 09bf e194 c03e
000000c0: 3f4a 08bf ca0e 3a3d 28cb 77be ba95 a2be
000000d0: 0c6f f03e 887d 3e3d 849c 61be d4f9 82bc
000000e0: 3c60 833e f9ad 76be 740a 0a3f 3e64 ed3e
000000f0: b78e 71be ffdb e93e 744e 28bf 178d 653c
00000100: 140a f73e d7aa 43bf 2bfd 853e 86c5 17bf
00000110: 5027 67bf 8fb4 17be 1e2e 82bc 3514 e3be
00000120: a52e 75be 1367 0f3f e3e5 74bf 95f0 993e
00000130: 30fb 76be 5870 b5be 706c 9f3e a9bf 0c3f
00000140: c4fb 08bf 860a 343e 161c 32be 42c0 083f
00000150: cb9b 3b3e d860 25bf c04a e0be 0e56 003e
00000160: 3e97 50bf b508 463d 452e 79bf a9e4 343c
00000170: bc13 c53e 80cd 39bd 300f 43be 3ec2 6abf
00000180: 622b 3bbf 82fe 3abf 1ac1 833c bfce 063f
00000190: 3c21 77bc 0929 e9be 2759 3c3e 119c 9fbe
000001a0: 5062 bd3e 9ed0 50bf 695d ecbe d522 ef3e
000001b0: e1cc 3a3f aac8 8dbd 258e 4abe f80a a43e
000001c0: 521d 41bf 3ce8 3bbf 1f9b b23e 394b b8be
000001d0: d3fa 08bf 6a06 55bf 5c59 54bf b716 5abf
000001e0: 6e53 2ebe 9c64 30bf c0ea f5be 89f8 183f
000001f0: fc91 9abe e492 e93e 0bf5 ee3e c99e d2be
00000200: 3913 05bf b95a 893e dc52 383f f506 e4be
00000210: 8f60 5d3f 4c22 1e3f f5c1 b93e e28e e5bd
00000220: a514 2f3f f07f 963c eae5 803d cfe3 b23e
00000230: 3f1c 353e 60ad 143f b972 393f 02cc 1e3d
00000240: 2bc2 673d 4b56 203f eb9c 95bd 2284 5bbd
00000250: 2a3f f63c a116 f5be c8b2 ab3e c87d 84be
00000260: a331 dfbe 3f87 983e 9560 153d e95e bf3c
00000270: 9913 1f3e 1bca a3be 71e5 87bd c9a4 313f
00000280: 43d9 173f 14e7 70bd 836c 9b3f a7d9 2b3f
00000290: c4b4 b13e 2971 5f3f 90c3 063f 9004 fd3e
000002a0: 429c 0abf 0889 15bf 6799 cbbe 5ef3 22bf
000002b0: 27be 083f 4da0 07be e4da 093f 1501 babe
000002c0: a92b 0e3f b564 47bd a7c0 643e 4d48 a13e
000002d0: f0a1 f0be 3f5b 19bd d877 5c3e 1ff7 0a3d
000002e0: d845 81be 63d8 7d3e ba2a 07bf fda6 fdbe
000002f0: e379 7c3e 7ad1 e7be c6f9 2a3f 3f86 e4bb
00000300: 4471 f4be 0426 433f e6a6 8dbe 14b3 193f
00000310: ab8f 663f 5396 163e 7e6e cc3c 53b5 e63e
00000320: c4d0 763e e9c4 10bf b2f2 713f 5aab 96be
00000330: f2bf 893e 3bf3 b73e 9316 99be b1a1 08bf
00000340: 7cce 0c3f 46f4 46be b44c 2f3e bdd3 07bf
00000350: 58bc 40be 719f 263f 734d e53e 9d18 10be
00000360: a8da 473f e7ab ddbc bae7 793f 2442 dc3b
00000370: a3fd c5be 5442 543d b46f 3c3e 02f0 6b3f
00000380: 99cd 383f 30d0 353f 0206 b6bb c73e 06bf
00000390: e276 d03c f354 ee3e 9005 2bbe 7617 a53e
000003a0: 9cf9 bebe f901 513f 2a31 ea3e 6ab0 eebe
000003b0: b63b 3fbf 774d 853d a415 523e e98a b4be
000003c0: 8cf0 3c3f 2dfd 3c3f 6c6b b2be cb70 ba3e
000003d0: 598a 043f 556f 5a3f 53a0 4f3f f4a6 5d3f
000003e0: 635d 2a3e a696 373f 8e54 f43e 1f14 1cbf
000003f0: 14af 983e b074 efbe ea97 e8be a6a2 d03e

action_model._discrete_distribution.branches.2.bias f4 [2]
-0.010556773 0.010554328
00000000: 51f6 2cbc 0fec 2c3c

action_model._discrete_distribution.branches.3.weight f4 [2, 128]
0.39148945 -0.19265467 0.10018278 0.40319487 -0.35274073 -0.44629714 -0.29390034 -0.76085454
-0.6221092 1.0328913 0.47917947 0.16000043 -0.95621145 -0.38102716 -0.3590654 0.63211054
-1.3366847 -0.71088934 0.42721865 0.35619596 -0.81861585 1.0277905 -0.099529296 0.7757455
0.25841722 0.4278827 -0.17225161 -0.78714097 0.2597436 0.121376105 0.15727857 -0.08598814
-0.13933772 0.16005497 -0.14728731 -0.2311127 -0.054621972 -0.20881471 -0.37681735 -1.123855
0.56402504 0.47193012 0.07116606 0.105637334 -0.54609114 -0.28419152 -0.31038746 -0.43717745
-0.70043415 -0.42143962 -1.0210757 -0.37966955 0.6483658 -0.8785469 -0.5874548 -0.6952525
0.03131733 0.35839972 0.21671133 1.1486487 -0.7668287 0.3773082 0.38703555 0.28455868
-0.40710172 -0.38095063 0.3965248 -0.79848945 0.29242128 -0.34043977 0.14355549 -0.51669073
-0.07556213 -0.3504437 0.07056482 -0.25141856 0.9188848 -0.012567487 0.06845074 -0.2669076
-0.6171127 -0.40281445 0.6841727 0.41485447 0.12739637 -0.96633184 0.20211029 -0.0662015
-0.27245894 -0.5458548 -0.94718635 -0.19330876 1.033604 0.15262777 0.3655145 0.05662793
-0.009823146 0.5205685 0.68066716 0.40299064 -0.9290642 0.27392638 -0.24171448 0.18650624
0.4014967 0.11479925 -0.8345036 0.6511656 0.47909918 1.2083753 0.36871105 -0.6381284
-0.14535756 -1.0644754 0.25444663 0.3103668 -0.78060573 0.08351343 0.5126296 -0.28393483
-0.9080942 -0.565623 -0.8156836 -0.2463941 -0.5268012 0.4993225 -0.0833053 -0.582081
-0.38756603 0.17160054 -0.08605723 -0.40410084 0.35123196 0.4251443 0.32004678 0.7466805
0.60440946 -1.0425372 -0.48432508 -0.16148145 0.9486416 0.36399627 0.37892854 -0.64020896
1.3368744 0.71827096 -0.42518988 -0.37253943 0.8404775 -1.0137554 0.091654666 -0.78381974
-0.27031773 -0.4026152 0.16001968 0.80307114 -0.24660641 -0.12078786 -0.14959775 0.0856159
0.13846964 -0.16714801 0.15251076 0.25342116 0.05841325 0.20272504 0.3680106 1.1088017
-0.5610614 -0.47479415 -0.06453912 -0.11506666 0.5285375 0.2839131 0.30675834 0.42095882
0.70472884 0.4275799 1.0213614 0.39070502 -0.6519539 0.88436574 0.5786695 0.6963175
-0.023872131 -0.36127 -0.21450305 -1.1558199 0.7767959 -0.3874666 -0.39574963 -0.2992529
0.41155338 0.37084788 -0.39020285 0.80679804 -0.2853625 0.3459301 -0.1526376 0.5093472
0.06658919 0.3481965 -0.08733067 0.2550343 -0.9411626 0.0025195852 -0.05843068 0.27287558
0.615235 0.4260443 -0.6733619 -0.43732503 -0.12843141 0.9610648 -0.19142404 0.043865737
0.2581021 0.53737336 0.9490842 0.19442597 -1.0367898 -0.16473845 -0.40361524 -0.05283142
0.041378897 -0.50734013 -0.6740882 -0.3915785 0.92803186 -0.27680895 0.227349 -0.1876108
-0.41399714 -0.13491185 0.8254806 -0.66148865 -0.49053258 -1.2026567 -0.37665585 0.61879176
0.15147683 1.0787418 -0.27586615 -0.3177106 0.8024178 -0.10014042 -0.53085476 0.2789994
0.9136505 0.5608868 0.7991207 0.25899354 0.5396432 -0.49927092 0.08003836 0.5712228
00000000: 4e71 c83e 4447 45be a12c cd3d 8f6f ce3e
00000010: 6f9a b4be 0f81 e4be 1b7a 96be 5dc7 42bf
00000020: 8c42 1fbf c835 843f 0357 f53e 27d7 233e
00000030: 46ca 74bf fe15 c3be 6cd7 b7be ffd1 213f
00000040: 7c18 abbf d8fc 35bf 67bc da3e 515f b63e
00000050: cf90 51bf a48e 833f 04d6 cbbd 4297 463f
00000060: 434f 843e 7113 db3e ba62 30be 1282 49bf
00000070: 1dfd 843e 0994 f83d a20d 213e 8d1a b0bd
00000080: 8cae 0ebe 73e5 233e 7cd2 16be cfa8 6cbe
00000090: 4abb 5fbd 86d3 55be 34ee c0be 7bda 8fbf
000000a0: f263 103f d3a0 f13e 83bf 913d 6358 d83d
000000b0: a1cc 0bbf 8d81 91be 1beb 9ebe b9d5 dfbe
000000c0: a74f 33bf efc6 d7be 9cb2 82bf 0c64 c2be
000000d0: 4dfb 253f 73e8 60bf 7063 16bf 11fc 31bf
000000e0: 9a46 003d 2b80 b73e 93e9 5d3e ec06 933f
000000f0: e34e 44bf 8a2e c13e 8629 c63e adb1 913e
00000100: a36f d0be f60b c3be 4c05 cb3e ce69 4cbf
00000110: 3eb8 953e 1f4e aebe 3600 133e d845 04bf
00000120: 51c0 9abd 5b6d b3be 4a84 903d efb9 80be
00000130: 093c 6b3f dce7 4dbc e72f 8c3d 1da8 88be
00000140: 19fb 1dbf b23d cebe f125 2f3f ce67 d43e
00000150: 3274 023e 8661 77bf 00f6 4e3e a794 87bd
00000160: bd7f 8bbe 24bd 0bbf ce7a 72bf bbf2 45be
00000170: 234d 843f 744a 1c3e b724 bb3e b0f2 673d
00000180: 43f1 20bc fa43 053f 3440 2e3f ca54 ce3e
00000190: 27d7 6dbf 1440 8c3e 0084 77be 7efb 3e3e
000001a0: fa90 cd3e df1b eb3d 07a2 55bf cab2 263f
000001b0: 7d4c f53e 0bac 9a3f b2c7 bc3e 625c 23bf
000001c0: 9dd8 14be bb40 88bf d446 823e 66e8 9e3e
000001d0: c7d5 47bf 1709 ab3d b23b 033f e85f 91be
000001e0: dd78 68bf abcc 10bf a4d0 50bf bc4e 7cbe
000001f0: 72dc 06bf 33a7 ff3e f89b aabd 4303 15bf
00000200: 0e6f c6be 0db8 2f3e c63e b0bd 4ee6 cebe
00000210: add4 b33e 84ac d93e 2cdd a33e 7426 3f3f
00000220: 94ba 1a3f dc71 85bf 75f9 f7be 655b 25be
00000230: 2dda 723f b85d ba3e ec02 c23e bce4 23bf
00000240: b31e ab3f 9be0 373f 7db2 d9be 7dbd bebe
00000250: 8929 573f bdc2 81bf 71b5 bb3d 69a8 48bf
00000260: 1667 8abe 9423 cebe 33dc 233e 1296 4d3f
00000270: 6486 7cbe a05f f7bd 2730 19be 6457 af3d
00000280: fcca 0d3e d928 2bbe c82b 1c3e 6bc0 813e
00000290: bb42 6f3d 2797 4f3e e36b bc3e 37ed 8d3f
000002a0: b8a1 0fbf 3818 f3be 162d 84bd 12a8 ebbd
000002b0: 3c4e 073f 0f5d 913e 6e0f 9d3e ea87 d73e
000002c0: 1c69 343f c1eb da3e f8bb 823f 7d0a c83e
000002d0: 73e6 26bf cb65 623f af23 143f dd41 323f
000002e0: 7d8f c3bc 62f8 b8be b0a6 5bbe e8f1 93bf
000002f0: 19dc 463f 0662 c6be b29f cabe ad37 99be
00000300: 20b7 d23e c6df bd3e abc8 c7be 518a 4e3f
00000310: 091b 92be c01d b13e 084d 1cbe 9464 023f
00000320: ea5f 883d d046 b23e 6cda b2bd db93 823e
00000330: 08f0 70bf a01f 253b 0255 6fbd 59b6 8b3e
00000340: 0a80 1d3f 7a22 da3e 7261 2cbf 11e9 dfbe
00000350: 8683 03be 5808 763f aa04 44be 8fac 333d
00000360: f525 843e 4d91 093f 2ff7 723f 9a17 473e
00000370: 87b5 84bf 32b1 28be a8a6 cebe c265 58bd
00000380: eb7c 293d 0be1 01bf 0b91 2cbf fa7c c8be
00000390: 7f93 6d3f e7b9 8dbe 2dce 683e 0c1d 40be
000003a0: 6ff7 d3be 5526 0abe b252 533f 5257 29bf
000003b0: 1627 fbbe a8f0 99bf 09d9 c0be 2369 1e3f
000003c0: be1c 1b3e 3614 8a3f 543e 8dbe f7aa a2be
000003d0: 416b 4d3f 6c16 cdbd 19e6 07bf 02d9 8e3e
000003e0: 00e5 693f 4796 0f3f 2d93 4c3f cd9a 843e
000003f0: 0f26 0a3f 70a0 ffbe 27eb a33d a83b 123f

action_model._discrete_distribution.branches.3.bias f4 [2]
-0.08192782 0.08192808
00000000: c6c9 a7bd e9c9 a73d
