results/13/SmartAgent/SmartAgent-47792.onnx (onnx, 123923 bytes, 11 tensors)

discrete_action_output_shape f4 [1, 4]
0	0x40000000	2.0
1	0x40000000	2.0
2	0x40000000	2.0
3	0x40000000	2.0

network_body._body_endoder.seq_layers.0.weight f4 [128, 225]
0	0xbd498438	-0.04919836
1	0xbcd61847	-0.026134623
2	0xbdfde7f2	-0.12397756
3	0x3b260a29	0.0025335646
4	0x3bd01726	0.0063504158
5	0x3cbfbfd4	0.0234069
6	0x3d500683	0.05078746
7	0xbda3aa75	-0.079914965
8	0xbdc1fa61	-0.09471584
9	0xbe3c270a	-0.18374267
10	0x3c1a7c14	0.009428997
11	0xbd46c11d	-0.04852401
12	0xbd483785	-0.048881073
13	0xbbf88c24	-0.0075850654
14	0x3ca27bc6	0.01983441
15	0x3c12b76d	0.008954865
16	0x3cd90e79	0.026496159
17	0x3e73fcf2	0.2382696
18	0xbc8e0064	-0.01733417
19	0xbb2112d4	-0.0024577873
20	0x3e566f0c	0.20940799
21	0xbcb4af61	-0.022056283
22	0xbdc362bf	-0.09540319
23	0x3d848e19	0.064724155
24	0xbe0af2f1	-0.13569237
25	0x3e77186c	0.2413041
26	0x3de68238	0.11255306
27	0xbde1e3e3	-0.11029794
28	0xbe09019d	-0.13379522
29	0xbb72655b	-0.0036986682
30	0xbd8a7665	-0.06760863
31	0x3d302e87	0.043013122
32	0x3e14c161	0.14526893
33	0x3e99e1e4	0.30055153
34	0x3da92074	0.08258143
35	0x3d344986	0.04401543
36	0xbd1193a7	-0.035541203
37	0x3e875413	0.2643133
38	0x3d84b05d	0.06478951
39	0x3e2dc753	0.16970567
40	0xbcf5687b	-0.029957047
41	0xbde442eb	-0.11145576
42	0xbe0cb91c	-0.13742489
43	0x3ccbf20f	0.024895696
44	0xbde1313a	-0.10995717
45	0x3b8e42b6	0.0043414487
46	0xbdbb1928	-0.091356575
47	0xbe688a13	-0.22708921
48	0x3d280fd2	0.041030712
49	0x3deff60e	0.11716853
50	0x3d6e67cb	0.058204453
51	0xbccbc971	-0.024876328
52	0xbdb89487	-0.09012704
53	0x3ea386ea	0.3193887
54	0xbd731fa0	-0.05935633
55	0x3cb7f24f	0.022454409
56	0xbcd17ae3	-0.025571292
57	0xbca14eaa	-0.01969083
58	0xbd4f5dbb	-0.050626498
59	0x3ded5bc0	0.115897655
60	0x3d2223b5	0.039584834
61	0xbd5c913e	-0.05384945
62	0x3e24f78a	0.16110054
63	0x3e31dfed	0.17370577
64	0x3f0f2c5c	0.5592706
65	0x3ca128ee	0.019672837
66	0x3cf0d7d5	0.029399792
67	0x3cf2f87c	0.029659502
68	0x3e99b391	0.3001981
69	0x3e364de5	0.17803152
70	0x3e3c7313	0.18403272
71	0x39ca0d14	0.00038538186
72	0xbcd1c65c	-0.02560728
73	0x3e013dc8	0.12621224
74	0x3d310855	0.043220837
75	0x3d211184	0.039323345
76	0x3cfc2851	0.030780943
77	0xbdaf229f	-0.08551525
78	0x3e72a456	0.23695502
79	0x3d8ed36e	0.06973921
80	0xbe44dbf8	-0.19224536
81	0x3d97e9ff	0.07417678
82	0x3d9b3d81	0.0758009
83	0xbd9a467a	-0.075329736
84	0x3e0135a6	0.12618122
85	0xbd9ee47a	-0.07758422
86	0x3cff1fc9	0.031143086
87	0x3de3d70e	0.11125003
88	0x3da00cf1	0.078149684
89	0xbd0c092d	-0.03418844
90	0x3e1df1fb	0.1542434
91	0x3dbc8bf9	0.09206385
92	0xbdcea086	-0.10089211
93	0x3e79096b	0.24319999
94	0x3d8488ba	0.06471391
95	0xbe3a8d6b	-0.18218009
96	0xbe2f5f03	-0.17126088
97	0x3e88748b	0.26651415
98	0xbdb155d7	-0.08658951
99	0x3d27069d	0.04077779
100	0x3cdab10e	0.026695754
101	0x3e862cb6	0.26205987
102	0xbdb70f53	-0.0893847
103	0xbd87c7b2	-0.06629886
104	0x3dec9b80	0.11553097
105	0xbdce02af	-0.100591056
106	0x3d36017a	0.044435002
107	0x3aee3e54	0.0018176534
108	0x3dbd1f45	0.0923448
109	0x38d423ab	0.000101155914
110	0x3dd335f6	0.103130266
111	0x3e0c45df	0.13698529
112	0x3bed78c5	0.007247063
113	0x3e20d08b	0.15704553
114	0x3a1b79d1	0.0005930933
115	0xbd2c9d9e	-0.042142503
116	0xbd148b08	-0.036265403
117	0x3e0156a4	0.12630707
118	0x3db4ad38	0.08822101
119	0x3b5f9f20	0.0034121946
120	0x3a461c36	0.00075573043
121	0x3c65790e	0.0140059125
122	0x3d2694e9	0.040669356
123	0xbd359ff0	-0.04434198
124	0xbd9cdb91	-0.076590665
125	0xbdd8cf3b	-0.10586401
126	0x3dcc2a12	0.09968962
127	0x3d1c4939	0.038155768
128	0x3e3ea0c1	0.1861601
129	0x3e1c4e43	0.1526423
130	0x3db90641	0.09034396
131	0x3cad8617	0.021182103
132	0x3e7e403b	0.2482919
133	0xbbe8d462	-0.007105396
134	0xbd91e5e9	-0.0712393
135	0x3d365fa4	0.044524804
136	0x3bb2480a	0.0054407166
137	0xbdaa4d1b	-0.08315488
138	0x3e60f787	0.21969424
139	0x3d55a817	0.052162256
140	0x3d75225c	0.05984722
141	0xbe0524a2	-0.13002256
142	0x3d1bb6cb	0.03801612
143	0x3e300718	0.17190206
144	0x3dcef7b4	0.10105839
145	0xbe30f48a	-0.17280784
146	0x3e46d8da	0.1941866
147	0xbdf1e6df	-0.11811613
148	0xbe584133	-0.21118622
149	0xbe55f8a8	-0.20895636
150	0x3e3e32f8	0.1857413
151	0xbcdb987d	-0.02680611
152	0x3ba1ff17	0.004943739
153	0x3ce52839	0.027973281
154	0xbe1c35d0	-0.15254903
155	0x3d93ed75	0.07223026
156	0x3d1a48a7	0.037666943
157	0x3d6633f8	0.056201905
158	0xbb85e873	-0.004086548
159	0x3e6b75fe	0.22994229
160	0x3bd5b7f7	0.0065221745
161	0x3df1a622	0.117992654
162	0xbe0b9051	-0.13629271
163	0x3d18d403	0.037311565
164	0xbd50ef30	-0.051009357
165	0xbdcb6343	-0.09931042
166	0x3e769fba	0.24084368
167	0x3d718c94	0.058971956
168	0xbe222825	-0.15835626
169	0x3db7d41e	0.08976005
170	0xbdde9f62	-0.108702436
171	0xbd499df1	-0.04922289
172	0x3c878c9d	0.016546542
173	0x3e2beca9	0.16789497
174	0xbd86b2a7	-0.06577044
175	0x3c18d3c0	0.009327829
176	0xbd828e9d	-0.063748576
177	0xbe0a90dd	-0.13531823
178	0xbe0ac0e2	-0.13550141
179	0x3b8d62f7	0.004314776
180	0x3db0f995	0.08641354
181	0x3df800c0	0.12109518
182	0xbda72720	-0.081617594
183	0x3dc5dd2b	0.09661325
184	0xbe05cb02	-0.13065723
185	0xbdcd2912	-0.10017599
186	0xbbfe62f5	-0.0077632614
187	0x3e0bd3fd	0.13655086
188	0x3e63ff15	0.22265275
189	0x3dcfe5dd	0.10151265
190	0xbddba084	-0.10723975
191	0xbd308273	-0.043093156
192	0x3e518064	0.20459133
193	0x3c2a7f2d	0.010406298
194	0xbe05f117	-0.1308025
195	0xbcf9e9f4	-0.030507065
196	0x3e78591c	0.24252743
197	0xbc8a826d	-0.016907895
198	0xbc862ae0	-0.016377866
199	0xbcd4f9fa	-0.025998104
200	0x3d366522	0.04453004
201	0xbdd268fc	-0.102739304
202	0xbc2cd7de	-0.010549514
203	0xbd30d1c9	-0.043168817
204	0x3d60921c	0.05482684
205	0xbd806719	-0.06269664
206	0xbda6ae6b	-0.08138736
207	0x3db4e6a5	0.088330545
208	0x3e6227bf	0.22085474
209	0x3de35a49	0.11101205
210	0x3d7d5a5d	0.061853755
211	0xbd9ff7a0	-0.078109026
212	0x3db87f43	0.09008648
213	0x3bfc3180	0.0076963305
214	0xbdf94f2f	-0.12173306
215	0xbcd0cebe	-0.025489207
216	0x3e27da3b	0.16391842
217	0x3dc68b72	0.09694566
218	0x3c8824c7	0.0166191
219	0x3d3abc91	0.045589987
220	0xbe509355	-0.20368703
221	0xbd27882f	-0.04090136
222	0xbd399739	-0.045310233
223	0xbc866b8e	-0.016408708
224	0x3c7a6d0c	0.015284788
225	0xbd14d788	-0.03633836
226	0x39940191	0.00028229927
227	0xbd8d987b	-0.06913849
228	0x3d95afed	0.07308946
229	0xbe860c28	-0.2618115
230	0x3cd494dd	0.02594989
231	0xbdef8244	-0.11694768
232	0xbe014f79	-0.12627973
233	0xbe142470	-0.14467025
234	0x3c4a7a3b	0.012358244
235	0xbdb518ee	-0.088426456
236	0xbd02c37e	-0.031924717
237	0xbe8a63b8	-0.27029204
238	0x3e5ab5f9	0.2135848
239	0x3f08908c	0.5334556
240	0xbe7f5ac3	-0.24936967
241	0x3d37d8ce	0.044884495
242	0x3d9694bb	0.07352587
243	0xbe065dbb	-0.13121693
244	0x3dcc5a57	0.099781685
245	0xbd089b48	-0.033351213
246	0xbe55128e	-0.2080786
247	0xbdd96b44	-0.106161624
248	0x3ce1d5ed	0.027567828
249	0xbdd2be5a	-0.10290213
250	0xbc80ae52	-0.015708122
251	0x3e0f8dd7	0.14018951
252	0x3dc5ed60	0.09664416
253	0x3e7fddf7	0.24987017
254	0x3eadf92a	0.3397916
255	0xbebfdcf8	-0.37473273

network_body._body_endoder.seq_layers.0.bias f4 [128]
0	0x3d23ced0	0.039992154
1	0x3d923c4d	0.07140408
2	0x3cbdedee	0.023184743
3	0xbc8864dc	-0.016649656
4	0xbc034124	-0.008011136
5	0x3dbbb3fa	0.09165187
6	0x3d8657d1	0.065597184
7	0x3cffe8fd	0.031239027
8	0x3d22dfd7	0.03976425
9	0x3d664958	0.05622229
10	0x3c5afad1	0.013365463
11	0x3d6853d8	0.056720585
12	0x3d0b952f	0.03407782
13	0x3da64d5a	0.081202224
14	0xbbb521bd	-0.0055277036
15	0x3d3a7f31	0.045531455
16	0xbc2851f5	-0.010273446
17	0x3d765e66	0.06014862
18	0x3cc36411	0.023851426
19	0xbbe41794	-0.0069608185
20	0xbcc95f04	-0.02458144
21	0x3d6384d4	0.055546597
22	0x3d025836	0.031822406
23	0x3d7333b9	0.0593755
24	0x3d73fec9	0.059569154
25	0x3d1e47e8	0.038642794
26	0x3cd6b4df	0.026209293
27	0x3d10e1f6	0.035371743
28	0xbc23aa70	-0.009989366
29	0x3c3ee736	0.011651805
30	0xbd19db1c	-0.037562475
31	0xbc978957	-0.018498106
32	0x3cdb2f6b	0.02675601
33	0xbcb04d11	-0.021521123
34	0x3cb854cf	0.022501377
35	0x3d4cb5f3	0.049978208
36	0xbb283f67	-0.0025672556
37	0xbd0cb4e1	-0.034352187
38	0xbd02d300	-0.031939507
39	0xbc99346c	-0.018701755
40	0x3d5a499b	0.053292852
41	0x3d3e93dc	0.04652773
42	0x3c80ffdd	0.015747005
43	0x3d7731fe	0.06035041
44	0x3c320808	0.010866173
45	0x3d16ed11	0.036847178
46	0x3cbb6f68	0.022880271
47	0x3cc8860f	0.024477987
48	0x3b9b18d1	0.004733183
49	0x3d8cc1b3	0.06872883
50	0x3c353406	0.011059767
51	0x3be2dd7a	0.0069233747
52	0x391e01b6	0.00015068692
53	0xbbe29bcc	-0.006915545
54	0x3d0d883f	0.034553763
55	0xbc8d64ae	-0.017259922
56	0x3d8a1232	0.06741752
57	0xbc922f04	-0.017844684
58	0x3cd574fc	0.026056759
59	0x3d00a723	0.031409394
60	0x3d139f56	0.036040626
61	0x3c26c23c	0.010178145
62	0xbbb85fe2	-0.0056266645
63	0xbbcd1200	-0.0062582493
64	0x3d263928	0.040581852
65	0x3d2f6108	0.042817146
66	0xbc005ef9	-0.007835143
67	0xbca4d050	-0.020118862
68	0x3d15a549	0.03653458
69	0x3d2742f0	0.04083532
70	0xbcfb60f4	-0.03068588
71	0x3ab13034	0.0013518394
72	0x3c22fe8d	0.009948385
73	0x3d777aa4	0.060419694
74	0x3df269cb	0.11836585
75	0xbb5fa728	-0.0034126732
76	0x3dd47b7c	0.10375115
77	0x3d017322	0.03160394
78	0x3be373ad	0.00694128
79	0x3de33004	0.11093143
80	0x3da96b94	0.08272472
81	0x3ce3eb04	0.027822025
82	0xbaff8841	-0.0019495563
83	0x3d989fc0	0.07452345
84	0x3c3cd065	0.0115242945
85	0x3b7f4db7	0.0038956234
86	0x3d8e940f	0.06961834
87	0x3c01cb5d	0.007922021
88	0x3d0ff434	0.035145
89	0x3d4cd000	0.05000305
90	0x3dc6460e	0.096813306
91	0xbc7e0a4c	-0.015505385
92	0xbc49968c	-0.01230396
93	0x3bf32498	0.007420134
94	0x3d485270	0.048906744
95	0x3cc071cf	0.023491768
96	0x3bcaa5ec	0.00618433
97	0xbcc6b250	-0.024254948
98	0x3c836392	0.01603869
99	0x3d94f91b	0.072740756
100	0x3d15d2d5	0.03657802
101	0x3d0a4bd8	0.033763736
102	0xbbf97113	-0.0076123565
103	0xbcb517c3	-0.022106057
104	0x3d50ee2b	0.051008385
105	0x3a367d2f	0.0006961403
106	0x3cc6de9d	0.024276072
107	0x3ce22003	0.027603155
108	0x3d9256dd	0.07145474
109	0x3c1a3f85	0.009414558
110	0x3cef3772	0.029201243
111	0xbd065b90	-0.032802165
112	0x3d6a2abe	0.05716967
113	0x3cae7762	0.02129716
114	0x3d1fee01	0.039045338
115	0x3d12f7b8	0.035880774
116	0x3d3ccb24	0.046092167
117	0xbcad9050	-0.021186978
118	0x3cbb888e	0.022892263
119	0x3dbba5af	0.09162461
120	0xba3837e2	-0.000702737
121	0xbd358f14	-0.044325903
122	0xbc018260	-0.007904619
123	0xbc24ae44	-0.010051314
124	0x3d77440c	0.06036763
125	0x3db7fa85	0.0898333
126	0x3d813c4d	0.063103296
127	0x3d016e07	0.03159907

action_model._discrete_distribution.branches.0.weight f4 [2, 128]
0	0x3dd7f59a	0.10544892
1	0x3eb02b29	0.3440793
2	0x3d85fd87	0.06542497
3	0x3e836e9d	0.2567033
4	0x3e1ac412	0.15113857
5	0x3e207a54	0.15671664
6	0xbd52b542	-0.051442392
7	0x3e2f4be0	0.17118788
8	0x3eb515f7	0.3536832
9	0x3dfb0a9a	0.122578815
10	0x3d54a1d6	0.05191215
11	0xbd3d76b7	-0.046255793
12	0xbd4a8e9d	-0.049452413
13	0x3e982be5	0.2972099
14	0x3e0e46d2	0.13894203
15	0x3ec58235	0.38575903
16	0xbd52e487	-0.051487472
17	0x3d566b8b	0.052348655
18	0xbdc9e802	-0.09858705
19	0xbe3694c5	-0.17830189
20	0xbe34be86	-0.17650804
21	0x3e430282	0.19043925
22	0x3c3f541c	0.011677768
23	0x3ea3477f	0.31890485
24	0x3ec61036	0.38684243
25	0xbe020449	-0.12696947
26	0xbd640461	-0.05566824
27	0x3ccc571a	0.024943877
28	0xbcf829cc	-0.030293368
29	0x3e1b9332	0.1519287
30	0x3dd484a9	0.103768654
31	0xbe88f15b	-0.2674664
32	0x3ec22229	0.37916687
33	0xbebdeae2	-0.37093264
34	0x3e49aa53	0.1969388
35	0x3dab0d53	0.08352151
36	0x3cdaf2e4	0.026727147
37	0xbe3e4f1a	-0.18584862
38	0xbd138105	-0.036011714
39	0xbc086d92	-0.008326905
40	0x3e7c037e	0.24610707
41	0xbe6b5b70	-0.229841
42	0x3e3c4b01	0.18387987
43	0x3e6b08d1	0.22952582
44	0x3e4e547d	0.20149417
45	0x3e4ce183	0.20007901
46	0x3d49f42a	0.04930512
47	0xbdd1ed65	-0.102503575
48	0xbd3d49fd	-0.04621314
49	0xbde4a496	-0.11164205
50	0xbe506236	-0.20349964
51	0xbe584547	-0.21120177
52	0x3ea907e2	0.33013827
53	0x3c8b0fc7	0.016975297
54	0x3dd7aa84	0.1053057
55	0xbedbeb22	-0.4295283
56	0x3e78b584	0.24287993
57	0xbd58996d	-0.052880693
58	0xbd43f34d	-0.04783945
59	0xbe1242f5	-0.14283355
60	0x3d486d7a	0.04893253
61	0x3c02f157	0.00799211
62	0x3d70e2de	0.058810107
63	0xbe074a70	-0.1321199
64	0x3e5dea74	0.21671468
65	0x3e17164c	0.147546
66	0xbe11c675	-0.14235862
67	0xbe0d630c	-0.13807315
68	0x3e4a6a2e	0.19767067
69	0x3e38f4a1	0.18062069
70	0xbbe81276	-0.007082279
71	0xbc49128b	-0.012272487
72	0xbe26c990	-0.16287827
73	0x3e91030b	0.28322634
74	0x3d315341	0.043292288
75	0x3e638e9e	0.22222373
76	0xbe405b01	-0.18784715
77	0x3d96fcc1	0.07372428
78	0x3ea322be	0.31862444
79	0xbd05c63c	-0.032659754
80	0xbce3a65c	-0.027789287
81	0x3d57e384	0.05270721
82	0x3e6b69f9	0.22989644
83	0x3dad50d1	0.0846268
84	0xbce3ae0c	-0.027792953
85	0xbdb4c2c3	-0.0882621
86	0xbdd43015	-0.103607334
87	0x3eaaf7bc	0.3339213
88	0xbe4e61f4	-0.20154554
89	0x3e132c08	0.14372265
90	0x3ead1361	0.33803847
91	0xbe387f27	-0.18017255
92	0xbe9f2031	-0.31079248
93	0x3c8732db	0.016503742
94	0x3efb94b4	0.4913689
95	0x3e8e496c	0.2779039
96	0xbde6b3e7	-0.112647824
97	0xbc81773e	-0.01580393
98	0x3e3f7798	0.18697965
99	0x3e062874	0.13101369
100	0x3e47394b	0.1945545
101	0xbc9749e4	-0.018467851
102	0x3e0dbb64	0.13841015
103	0xbd3f93a6	-0.046771668
104	0x3edf2aa0	0.43587208
105	0xbd2fbb1e	-0.04290306
106	0x3e891a4b	0.26777872
107	0x3e439115	0.19098313
108	0x3ea423a1	0.32058433
109	0xbcca2d96	-0.02467994
110	0x3eacc0f7	0.3374097
111	0x3db8bcad	0.09020362
112	0x3e71e83c	0.23623747
113	0xbeea87b5	-0.4580666
114	0x3e2a29ff	0.16617583
115	0x3e822a30	0.25422812
116	0xbd095bb6	-0.033534728
117	0xbd91f316	-0.07126443
118	0x3d493532	0.049122997
119	0x3e3e05c1	0.18556882
120	0xbe83761d	-0.2567605
121	0xbe641df5	-0.22277053
122	0xbe1c5423	-0.1526647
123	0xbd986542	-0.074411884
124	0x3e6ee863	0.23330836
125	0x3dfc69aa	0.12324841
126	0x3e089cdc	0.13341087
127	0x3d95b005	0.07308964
128	0xbdc9be4d	-0.0985075
129	0xbeaee2ce	-0.34157413
130	0xbd4980df	-0.049195167
131	0xbe8ce88c	-0.2752117
132	0xbe145fec	-0.14489716
133	0xbe1db739	-0.15401925
134	0x3d4165e5	0.047216315
135	0xbe31bb6c	-0.17356652
136	0xbeb2988f	-0.34882018
137	0xbdf0bf70	-0.11755264
138	0xbd8400e5	-0.06445483
139	0x3d3b4e69	0.045729075
140	0x3d540703	0.0517645
141	0xbe94d94d	-0.29072037
142	0xbe103070	-0.14080977
143	0xbecd022f	-0.40040728
144	0x3d31070c	0.04321961
145	0xbd49460c	-0.049139068
146	0x3dbefa81	0.093251236
147	0x3e313a09	0.17307295
148	0x3e55a2c9	0.20862879
149	0xbe3122ee	-0.17298481
150	0xb8d7bb24	-0.000102868566
151	0xbe9f044c	-0.31057966
152	0xbeb65c9e	-0.35617536
153	0x3e04e899	0.12979354
154	0x3d94818b	0.07251271
155	0xbc45f1cf	-0.012081577
156	0x3cc3f2e3	0.023919528
157	0xbe0fe743	-0.14053063
158	0xbdefc571	-0.11707581
159	0x3e8348e5	0.25641552
160	0xbeca371f	-0.3949518
161	0x3ec230b6	0.37927788
162	0xbe2c608e	-0.16833708
163	0xbdb07605	-0.086162604
164	0xbd09cbe9	-0.03364173
165	0x3e4b7db9	0.19872178
166	0x3d3aadd7	0.045575943
167	0xbb414509	-0.002949061
168	0xbe7ff953	-0.24997453
169	0x3e7c5622	0.24642232
170	0xbe3cdf38	-0.18444526
171	0xbe6af356	-0.22944388
172	0xbe6279ff	-0.2211685
173	0xbe41935d	-0.18903871
174	0xbd0138e7	-0.031548407
175	0x3de7e4eb	0.113229595
176	0x3d2cfbb8	0.042232245
177	0x3dc03fdb	0.093871795
178	0x3e54d5f5	0.20784743
179	0x3e67908f	0.22613738
180	0xbeb3ca3d	-0.35115233
181	0xbcab75e8	-0.020930246
182	0xbdf1579b	-0.117842875
183	0x3ee3359e	0.44376844
184	0xbe883270	-0.2660098
185	0x3d11f047	0.035629537
186	0x3d00e180	0.031465054
187	0x3e179955	0.14804585
188	0xbd32d62f	-0.043661293
189	0x3bc4d6f7	0.006007071
190	0xbd4ba3f9	-0.049716923
191	0x3e18f456	0.14936957
192	0xbe4de05f	-0.20105122
193	0xbe2a1402	-0.16609195
194	0x3e1438d4	0.14474803
195	0x3dfddf25	0.12396077
196	0xbe4139dd	-0.1886973
197	0xbe38516d	-0.17999811
198	0x3ce4d84c	0.02793517
199	0xb81d9924	-3.757434e-05
200	0x3e25bcb5	0.16185267
201	0xbe84da84	-0.25947964
202	0xbd8246b0	-0.06361139
203	0xbe6bd3d7	-0.23030029
204	0x3e4c22ae	0.19935104
205	0xbd9cddc6	-0.076594874
206	0xbe9d4533	-0.30716857
207	0x3ca54785	0.020175705
208	0x3d213a77	0.039362397
209	0xbd53b90e	-0.051690154
210	0xbe577c92	-0.21043614
211	0xbd8c01d6	-0.06836288
212	0x3b28b037	0.0025739798
213	0x3d9b67bc	0.07588145
214	0x3dd369c3	0.10322907
215	0xbeb5d404	-0.35513318
216	0x3e547f7c	0.20751756
217	0xbe114182	-0.14185145
218	0xbeabf003	-0.33581552
219	0x3e235e6c	0.15953988
220	0x3e95f991	0.29291967
221	0xbc585ac7	-0.013205237
222	0xbf004c1e	-0.50116146
223	0xbe89f117	-0.2694175
224	0x3dc9fce2	0.09862687
225	0x3b859951	0.0040771146
226	0xbe3bc8c3	-0.18338303
227	0xbe015d1c	-0.12633175
228	0xbe5288aa	-0.20559946
229	0x3ca2c88d	0.01987102
230	0xbe225289	-0.15851797
231	0x3d6769d6	0.056497417
232	0xbeceaca3	-0.40366086
233	0x3d26f689	0.040762458
234	0xbe922425	-0.285432
235	0xbe40934a	-0.18806186
236	0xbea12345	-0.3147222
237	0x3d1788ca	0.036995687
238	0xbeae394b	-0.34028086
239	0xbdd39328	-0.10330802
240	0xbe65ef3b	-0.2245454
241	0x3eeb06d9	0.45903662
242	0xbe2e45d9	-0.17018832
243	0xbe8040a3	-0.25049314
244	0x3c8e007e	0.017334219
245	0x3d9493e3	0.0725477
246	0xbd8b1416	-0.067909405
247	0xbe4a4d7d	-0.19756122
248	0x3e7dd1d9	0.24787082
249	0x3e544b75	0.2073191
250	0x3e2b0d45	0.1670428
251	0x3dd55799	0.104170986
252	0xbe6c5cd3	-0.23082285
253	0xbe04bd95	-0.12962945
254	0xbdfc61d3	-0.12323346
255	0xbd8c04a7	-0.06836825

action_model._discrete_distribution.branches.0.bias f4 [2]
0	0x3c3749fd	0.011187074
1	0xbc3749d1	-0.011187033

action_model._discrete_distribution.branches.1.weight f4 [2, 128]
0	0x3e4ac6e2	0.1980243
1	0x3e3dd52c	0.1853835
2	0xbd8164f5	-0.06318084
3	0xbe29fcbb	-0.16600315
4	0xbe27a256	-0.1637052
5	0x3e25c8e4	0.16189915
6	0x3e819fee	0.2531733
7	0xbcbc8023	-0.02301032
8	0x3c839fc2	0.01606739
9	0x3e7ad183	0.24493985
10	0xbe799ec6	-0.24376974
11	0x3ea342de	0.31886953
12	0x3dfa37cd	0.122176744
13	0x3e8dd36e	0.2770037
14	0xbe2262bf	-0.15857981
15	0x3e44c26c	0.19214791
16	0xbe9dd42d	-0.3082594
17	0x3e2b204d	0.1671154
18	0xbda74a5b	-0.08168479
19	0xbd88ac02	-0.06673433
20	0xbe4dea18	-0.20108831
21	0x3e502615	0.20327027
22	0x3ea8af64	0.32946312
23	0x3e265f6b	0.16247337
24	0x3e47b27f	0.19501685
25	0x3eafefa3	0.34362516
26	0x3e5a9bdf	0.21348523
27	0x3e4ae74b	0.19814794
28	0xbe1ce901	-0.15323259
29	0xbba8b972	-0.00514906
30	0xbea9fc4b	-0.33200297
31	0xbdb9dca6	-0.090752885
32	0x3e1e4c17	0.15458713
33	0xbe3915dd	-0.18074746
34	0x3e5d2b36	0.21598515
35	0xbdc97eae	-0.09838615
36	0xbdd7bee2	-0.10534455
37	0xbe8232fa	-0.25429517
38	0xbe2e627a	-0.17029753
39	0xbe1ecc8d	-0.15507717
40	0x3db3a968	0.08772546
41	0x3e469267	0.19391786
42	0x3e35a366	0.17738113
43	0x3e870724	0.26372635
44	0xbde91644	-0.113812
45	0x3dac5e7d	0.0841646
46	0xbe845995	-0.25849596
47	0x3e2a01dc	0.16602272
48	0xbe32210d	-0.1739542
49	0x3eb85762	0.36004168
50	0x3e0f022b	0.13965671
51	0xbeade911	-0.33966878
52	0xbe1be86b	-0.15225379
53	0xbe1ead9e	-0.15495917
54	0x3beb47a6	0.007180172
55	0xbd19c1aa	-0.037538208
56	0x3e1fc322	0.15601781
57	0xb76f2b04	-1.42555255e-05
58	0xbdd18fc7	-0.102325015
59	0xbd8c5341	-0.06851817
60	0x3e6d908f	0.23199676
61	0xbe1c688e	-0.1527426
62	0xbe4bb4ac	-0.1989314
63	0xbe1fadde	-0.15593669
64	0x3ccb718e	0.02483442
65	0xbc542ff5	-0.012950887
66	0xbaa72604	-0.0012752418
67	0xbe08bff1	-0.1335447
68	0x3de7adae	0.11312424
69	0xbc9217aa	-0.01783355
70	0xbe720883	-0.2363606
71	0xbe454ff5	-0.19268782
72	0x3e24023a	0.16016474
73	0x3d782c57	0.06058916
74	0x3eba4bf6	0.3638608
75	0xbd8ea5a6	-0.06965189
76	0x3ec564d2	0.38553482
77	0xbdd13471	-0.102150805
78	0xbd854dc4	-0.06508973
79	0x3ecbd197	0.39808342
80	0x3ebc4af2	0.3677593
81	0xbdf9cadc	-0.121968955
82	0xbe8c24d4	-0.27371848
83	0x3eb50585	0.35355774
84	0xbe1c93df	-0.15290783
85	0xbd79b82a	-0.06096665
86	0x3e922372	0.28542668
87	0xbe09073b	-0.13381664
88	0xbd4e8a08	-0.050424606
89	0x3e4d7cbf	0.20067118
90	0x3e09174a	0.1338779
91	0xbe1100a0	-0.14160395
92	0xbe28e9ee	-0.16495487
93	0x3e130a45	0.14359386
94	0x3e03180f	0.12802146
95	0x3e1a7c88	0.15086567
96	0xbda83d62	-0.08214833
97	0xbe8b9845	-0.2726461
98	0xbacfe49f	-0.0015860981
99	0x3e709fc4	0.23498446
100	0x3ca83d7e	0.020537134
101	0xbde662b4	-0.11249295
102	0x3d13a528	0.036046177
103	0xbe6f1a48	-0.23349869
104	0x3d092c38	0.033489436
105	0xbdbb6c37	-0.091515
106	0xbbba7249	-0.0056898934
107	0x3cefd7dd	0.029277736
108	0x3c50ba1c	0.012739684
109	0xbe4739e7	-0.19455682
110	0xbd21af79	-0.039473984
111	0xbd1e9825	-0.038719315
112	0x3ead3eda	0.33837014
113	0xbd222b4a	-0.039592065
114	0x3d99d1ed	0.07510743
115	0x3dde4d95	0.10854641
116	0x3ebdd63e	0.37077516
117	0xbe85d7e3	-0.2614127
118	0x3e8e249a	0.277623
119	0x3e68552b	0.22688739
120	0xbd1b7d93	-0.037961554
121	0xbe5b52d7	-0.2141832
122	0xbdf3ec6f	-0.119103305
123	0xbe899393	-0.26870403
124	0x3e5af05f	0.21380757
125	0x3ec16892	0.37775093
126	0x3e39fdd4	0.18163234
127	0xbc69c2c8	-0.014267631
128	0xbe3bc6a8	-0.183375
129	0xbe3e1218	-0.1856159
130	0x3d6adbba	0.057338454
131	0x3e1cc906	0.1531106
132	0x3e29711d	0.16547056
133	0xbe291e73	-0.16515522
134	0xbe81c794	-0.2534758
135	0x3c622a5f	0.013804047
136	0xbccbadb9	-0.02486311
137	0xbe74e651	-0.23915984
138	0x3e6929e7	0.2276989
139	0xbe9e0ba9	-0.3086827
140	0xbdf65a1d	-0.120289065
141	0xbe944981	-0.2896233
142	0x3e27de41	0.16393377
143	0xbe494b64	-0.19657665
144	0x3ea31ed7	0.31859466
145	0xbe1ae72b	-0.15127246
146	0x3d9c5b27	0.076345734
147	0x3d56a1ed	0.05240052
148	0x3e3e8c95	0.18608315
149	0xbe3cc0b2	-0.18432882
150	0xbea53a5c	-0.32271087
151	0xbe2075d7	-0.15669952
152	0xbe47a64d	-0.19497032
153	0xbea5733f	-0.32314488
154	0xbe6c578f	-0.23080276
155	0xbe303b21	-0.17210056
156	0x3e2513e9	0.16120876
157	0x3c5528cf	0.013010218
158	0x3eaf7d4a	0.34275275
159	0x3d9c668a	0.07636745
160	0xbe1d435d	-0.15357728
161	0x3e302bd7	0.17204224
162	0xbe4d665b	-0.20058577
163	0x3dda4919	0.106584735
164	0x3ded207c	0.115784615
165	0x3e82b06b	0.2552522
166	0x3e21df8c	0.15807933
167	0x3e24723e	0.16059205
168	0xbdc0ed2d	-0.09420238
169	0xbe4420f8	-0.19153202
170	0xbe32a962	-0.17447427
171	0xbe8613bd	-0.26186934
172	0x3dfb9a5b	0.122853
173	0xbdb5883a	-0.08863874
174	0x3e821949	0.25409916
175	0xbe1b12f9	-0.15143956
176	0x3e3a5802	0.18197635
177	0xbec20758	-0.37896228
178	0xbe12f559	-0.14351405
179	0x3ea167aa	0.31524402
180	0x3e29da32	0.16587141
181	0x3e19c1da	0.15015355
182	0xba446f25	-0.00074933685
183	0x3d58afb5	0.052901942
184	0xbe0b8498	-0.13624799
185	0x3c00fac5	0.007872288
186	0x3dd324cc	0.10309753
187	0x3d91d3aa	0.0712045
188	0xbe68c165	-0.22730024
189	0x3e3127e3	0.17300372
190	0x3e4849f1	0.19559456
191	0x3e3b8726	0.18313274
192	0xbd1f0d88	-0.038831264
193	0x3c4285c3	0.011872712
194	0xbcbf0e99	-0.02332239
195	0x3df5cb2e	0.12001644
196	0xbdfff2bc	-0.1249747
197	0x3c0aeda6	0.008479511
198	0x3e67b06c	0.22625893
199	0x3e5321aa	0.2061831
200	0xbe1ddff0	-0.15417457
201	0xbd7d3d84	-0.061826244
202	0xbeba32a3	-0.36366758
203	0x3d8d8b5b	0.069113456
204	0xbec627fe	-0.38702387
205	0x3dc7ad96	0.09749906
206	0x3d8e8bc5	0.06960253
207	0xbecc4751	-0.3989816
208	0xbebda1a0	-0.37037373
209	0x3de91eb6	0.11382811
210	0x3e8f65a4	0.28007233
211	0xbebb20e5	-0.36548534
212	0x3e14061b	0.14455454
213	0x3d6f63b6	0.0584447
214	0xbe89fafa	-0.26949292
215	0x3df10226	0.11767988
216	0x3d809824	0.062790185
217	0xbe3e76f4	-0.18600065
218	0xbe0533d5	-0.13008054
219	0x3e21d9e1	0.1580577
220	0x3e2c3d02	0.16820148
221	0xbe1c6850	-0.15274167
222	0xbe0cb495	-0.13740762
223	0xbe22bed9	-0.15893115
224	0x3da22cf7	0.079187326
225	0x3e873ac3	0.2641202
226	0xbbcf90e8	-0.006334413
227	0xbe5e3a6a	-0.2170197
228	0xbd1e607b	-0.03866623
229	0x3da84a1a	0.08217259
230	0xbd5e9b19	-0.05434713
231	0x3e83c224	0.25734055
232	0xbd20843e	-0.039188616
233	0x3ddf5c6c	0.109063
234	0x3cea73f6	0.028619748
235	0xbcf6aaf6	-0.030110817
236	0xbbc3b382	-0.0059723267
237	0x3e348bf2	0.1763151
238	0x3d0540a3	0.032532346
239	0x3d4f2e59	0.05058131
240	0xbeb7c5de	-0.35893148
241	0x3d1a60f5	0.03769012
242	0xbdb61aa4	-0.088918
243	0xbe047146	-0.12933835
244	0xbebd0e74	-0.3692509
245	0x3e82e0ad	0.2556204
246	0xbe91becd	-0.28465882
247	0xbe5dc9d1	-0.21659018
248	0x3d312bcc	0.04325466
249	0x3e5c09b5	0.21488078
250	0x3df32b89	0.11873538
251	0x3e8792f1	0.26479295
252	0xbe575767	-0.21029435
253	0xbebe29ed	-0.37141362
254	0xbe4c7a28	-0.19968474
255	0x3c856c4d	0.016286993

action_model._discrete_distribution.branches.1.bias f4 [2]
0	0x3cb73912	0.02236608
1	0xbcb738e4	-0.022365995

action_model._discrete_distribution.branches.2.weight f4 [2, 128]
0	0x3e3ce41e	0.18446395
1	0xbe25c925	-0.16190012
2	0xbeca313b	-0.39490685
3	0x3d64e5c9	0.055883203
4	0xbd3a3b09	-0.045466457
5	0xbe9a0880	-0.3008461
6	0x3ea65ea8	0.32494092
7	0xbe041222	-0.12897542
8	0xbdff76c6	-0.12473826
9	0x3d5a2ffe	0.053268425
10	0xbe4d2d68	-0.20036852
11	0x3e72e04b	0.23718373
12	0x3d9d6cdf	0.07686781
13	0x3dc13689	0.0943423
14	0xbc81b842	-0.015834931
15	0x3db2ee12	0.087368146
16	0xbe6aa7e8	-0.22915614
17	0xbe9efe6f	-0.31053492
18	0xbe61d3b9	-0.22053422
19	0x3ea9e7ed	0.33184758
20	0x3dfcb2db	0.123388015
21	0x3e3aa9ac	0.18228787
22	0x3e00c45a	0.12574902
23	0xbd64ddb5	-0.0558755
24	0x3e56111d	0.20904966
25	0x3db82170	0.08990753
26	0xbce11c67	-0.027479364
27	0x3edf0686	0.43559664
28	0xbea6c638	-0.32573104
29	0xbddb9bba	-0.10723062
30	0x3d1cac5f	0.038250323
31	0xbd9622a6	-0.073308274
32	0x3da78381	0.08179379
33	0x3e295b30	0.16538692
34	0x3e390201	0.1806717
35	0xbe3a8021	-0.1821294
36	0xbe954e72	-0.29161412
37	0xbe8e8e4e	-0.27842945
38	0xbe6c966d	-0.23104258
39	0xbe26e7cf	-0.16299365
40	0x3e2526e0	0.16128111
41	0xbd564feb	-0.05232231
42	0x3e15aa61	0.14615776
43	0x3d9be64d	0.07612286
44	0xbeaf78cd	-0.3427185
45	0xbc83ae09	-0.016074197
46	0xbe26f831	-0.16305615
47	0x3e7fbb82	0.24973872
48	0xbe2039c6	-0.15647039
49	0x3e9ddb83	0.30831537
50	0x3deb9636	0.1150326
51	0xbe048bbf	-0.12943934
52	0xbd5a3584	-0.053273693
53	0xbe5ec7fd	-0.21755977
54	0xbe8fe0e3	-0.28101262
55	0x3d11a32d	0.035556007
56	0x3db38ead	0.087674476
57	0x3ea45eb0	0.3210349
58	0x3d022531	0.03177375
59	0xbe6f3cbc	-0.23363012
60	0x3e8bda5e	0.27315038
61	0xbda2515a	-0.07925673
62	0xbe09ca84	-0.1345616
63	0x3d40d82f	0.04708117
64	0xbe38d815	-0.18051179
65	0xbe8ca92c	-0.27472818
66	0xbe84c797	-0.25933525
67	0xbe491e2f	-0.1964042
68	0x3ea4d8b5	0.32196584
69	0xbe2e6a9d	-0.17032857
70	0xbe56b5fd	-0.2096786
71	0xbad28f3e	-0.0016064418
72	0x3e9e654c	0.30936658
73	0x3e1433f3	0.14472942
74	0xbd507d96	-0.050901018
75	0x3bcc1d2f	0.006229065
76	0x3b3d445c	0.0028879857
77	0xbdd50d83	-0.10402968
78	0xbddac8da	-0.10682841
79	0xbdcca964	-0.09993246
80	0x3d169206	0.036760353
81	0xbec44545	-0.38334098
82	0x3ce57cc8	0.028013602
83	0xbd6b8d43	-0.057507765
84	0xbe97c0d7	-0.29639313
85	0xbe16d3c6	-0.14729223
86	0x3e647683	0.22310834
87	0xbdf2f42f	-0.118629806
88	0xbdad2920	-0.084551096
89	0x3e06abf1	0.13151528
90	0x3d43f4ec	0.047840998
91	0xbe49f41a	-0.19722024
92	0x3d502fd7	0.050826874
93	0x3e1109b4	0.14163858
94	0x3e17fce0	0.14842558
95	0x3e6d5ce8	0.23179972
96	0xbe20d166	-0.15704879
97	0xbe354639	-0.17702569
98	0x3e0523db	0.13001959
99	0xbae98f05	-0.0017819112
100	0xbe87f43f	-0.26553532
101	0xbe3b1f51	-0.18273665
102	0x3ead3a05	0.33833328
103	0xbeb1ea91	-0.34749272
104	0x3d4a2975	0.049355943
105	0xbe009578	-0.12557018
106	0xbda88433	-0.0822834
107	0xbdaa8e4f	-0.083279245
108	0xbe0d49a5	-0.13797624
109	0xbe5273c8	-0.2055198
110	0x3e2e8c98	0.1704582
111	0xbe17fa66	-0.14841613
112	0x3beed9a5	0.007289129
113	0x3d126d36	0.035748683
114	0x3ea0776b	0.3134111
115	0x3e5250ee	0.20538685
116	0x3dea69c4	0.114459544
117	0xbe248e75	-0.16069968
118	0x3e3bdb5a	0.18345395
119	0x3c300a43	0.010744634
120	0xbe265480	-0.16243172
121	0xbe003d23	-0.12523322
122	0xbde06a6c	-0.10957798
123	0xbdc030c9	-0.09384305
124	0x3d74cf3d	0.05976795
125	0x3d8d8356	0.06909816
126	0xbafd372b	-0.001931881
127	0xbe766c77	-0.24064814
128	0xbe38cea2	-0.18047574
129	0x3e13b00c	0.14422625
130	0x3ed235c0	0.41056633
131	0xbd95f26a	-0.073216274
132	0x3d8030e0	0.06259322
133	0x3e9b48e0	0.30329037
134	0xbea8f8ad	-0.33002225
135	0x3e021e5f	0.12706898
136	0x3e063ea8	0.13109839
137	0xbd553e21	-0.052061204
138	0x3e33b2fe	0.17548749
139	0xbe62652a	-0.22108904
140	0xbd85ef3a	-0.065397695
141	0xbdb62233	-0.08893242
142	0x3c49e3d2	0.012322383
143	0xbde0f34f	-0.109839074
144	0x3e69a71b	0.22817652
145	0x3e9afac6	0.3026945
146	0x3e79bd77	0.24388681
147	0xbea9aaf1	-0.3313823
148	0xbe0b7afd	-0.13621135
149	0xbe2dbacb	-0.16965787
150	0xbdfff965	-0.1249874
151	0x3d6abce8	0.05730906
152	0xbe527d87	-0.20555697
153	0xbdc9ed1c	-0.09859678
154	0xbb40075d	-0.0029301264
155	0xbed4cbbd	-0.4156169
156	0x3ea62b49	0.324549
157	0x3df0007e	0.11718844
158	0xbd5bac9f	-0.05363142
159	0x3d77579b	0.06038628
160	0xbd909a9c	-0.070607394
161	0xbe331942	-0.17490104
162	0xbe439ed8	-0.19103563
163	0x3e3fe7c7	0.1874076
164	0x3e9d21c8	0.30689836
165	0x3e8d9cc1	0.27658656
166	0x3e6e241c	0.23255962
167	0x3e0a547e	0.13508794
168	0xbe265307	-0.1624261
169	0x3d40f0cb	0.047104638
170	0xbe09efb1	-0.13470341
171	0xbd9ca96d	-0.07649503
172	0x3eaf4285	0.34230438
173	0x3cb5a0cd	0.022171402
174	0x3e1e7530	0.15474391
175	0xbe6e93b9	-0.23298539
176	0x3e198fb5	0.14996226
177	0xbe9292b7	-0.2862756
178	0xbdf79328	-0.12088615
179	0x3e0347ab	0.12820308
180	0x3d7d9420	0.06190884
181	0x3e545d48	0.20738709
182	0x3e907bcd	0.28219453
183	0xbd2c373e	-0.04204487
184	0xbdb205ee	-0.08692537
185	0xbe9f443c	-0.31106746
186	0xbcd2fe0b	-0.025755903
187	0x3e765b75	0.24058326
188	0xbe942020	-0.2893076
189	0x3dda2c64	0.10652998
190	0x3dc49aec	0.095998615
191	0xbd38c707	-0.045111682
192	0x3e466dc5	0.19377811
193	0x3e960f43	0.2930852
194	0x3e8aa598	0.27079463
195	0x3e407312	0.18793896
196	0xbeaf5d26	-0.34250754
197	0x3e578a60	0.2104888
198	0x3e5fe037	0.21862875
199	0x3759b53f	1.2976408e-05
200	0xbe9bad5b	-0.30405697
201	0xbe12ff57	-0.14355217
202	0x3d5de4dd	0.05417334
203	0xbcf0f08d	-0.029411579
204	0x3b6a4fec	0.0035753204
205	0x3df4ba16	0.119495556
206	0x3dc9e0b6	0.09857313
207	0x3dc00f7c	0.093779534
208	0xbd34e339	-0.04416201
209	0x3ec2f2fd	0.3807601
210	0xbce77a11	-0.028256448
211	0x3d573335	0.05253907
212	0x3e912285	0.2834665
213	0x3e0a6d01	0.13518144
214	0xbe5619f9	-0.20908345
215	0x3e0e46ad	0.13894148
216	0x3dac2549	0.08405549
217	0xbe026507	-0.12733851
218	0xbd26efdc	-0.04075609
219	0x3e540b46	0.20707425
220	0xbd0f2d1a	-0.03495512
221	0xbe169193	-0.1470397
222	0xbe2aecd6	-0.16691908
223	0xbe70b3a4	-0.23506027
224	0x3e2675f9	0.1625594
225	0x3e49cd94	0.19707328
226	0xbdfdd59d	-0.12394259
227	0x3c24ad9f	0.01005116
228	0x3e8d3638	0.27580428
229	0x3e30d8a2	0.17270139
230	0xbeac3e22	-0.33641154
231	0x3eb244df	0.3481817
232	0xbd3099a5	-0.043115277
233	0x3e0ff740	0.14059162
234	0x3db6f11a	0.08932705
235	0x3dc46d1b	0.09591123
236	0x3e035b1f	0.12827729
237	0x3e41c8c1	0.18924238
238	0xbe38da16	-0.18051943
239	0x3e0c0152	0.13672379
240	0xbc672f35	-0.014110376
241	0xbd2a25ca	-0.041539945
242	0xbeb05bd1	-0.3444505
243	0xbe41300f	-0.18865989
244	0xbdd44a14	-0.10365692
245	0x3e1fc62f	0.15602945
246	0xbe40960e	-0.18807241
247	0xbc87a3f5	-0.016557673
248	0x3e22404e	0.15844843
249	0x3dd8a315	0.105779804
250	0x3e03cd62	0.12871316
251	0x3de24eae	0.11050163
252	0xbd255d27	-0.04037204
253	0xbd6ffeb2	-0.058592506
254	0x3ba0bd54	0.004905382
255	0x3e641d0c	0.22276706

action_model._discrete_distribution.branches.2.bias f4 [2]
0	0xbbde5e85	-0.00678617
1	0x3bde614c	0.006786501

action_model._discrete_distribution.branches.3.weight f4 [2, 128]
0	0x3e09898a	0.13431373
1	0xbe20427a	-0.15650359
2	0x3dcac8ef	0.09901606
3	0x3ebd0ce1	0.36923888
4	0x3ecd9948	0.40156007
5	0x3db7229e	0.089421496
6	0xbc96329d	-0.018334681
7	0xbe6d318c	-0.23163432
8	0x3e184eeb	0.14873855
9	0xbe3cc16e	-0.18433163
10	0x3b82c940	0.003991276
11	0xbd4a33af	-0.049365696
12	0xbeeaedad	-0.45884457
13	0x3c546081	0.012962461
14	0x3e99cbe5	0.30038372
15	0x3ddd02d4	0.10791555
16	0x3dfdae54	0.12386766
17	0x3d2a36b5	0.04155608
18	0x3e3fed35	0.18742831
19	0xbea3319b	-0.31873783
20	0x3e481a12	0.19541195
21	0x3dff7ae3	0.12474611
22	0x3dae5710	0.085126996
23	0x3e6de72f	0.23232721
24	0xbd0d72c4	-0.034533277
25	0xbe684ec0	-0.2268629
26	0xbeef07c1	-0.46685603
27	0x3e423f85	0.18969543
28	0x3dfe5e99	0.12420387
29	0x3e075e21	0.13219501
30	0x3e200596	0.15627131
31	0xbcf4e465	-0.029894063
32	0x3e297cf2	0.16551569
33	0x3e6b070b	0.22951905
34	0x3d14d2bf	0.036333796
35	0x3e858f33	0.26085815
36	0xbdf92b86	-0.121665046
37	0x3dfbe6aa	0.12299855
38	0x3e97cc12	0.2964788
39	0x3d952da5	0.07284097
40	0xbd2af4b3	-0.04173727
41	0xbd545f78	-0.05184886
42	0x3e943211	0.28944448
43	0xbe416a73	-0.18888263
44	0x3eab6145	0.33472648
45	0xbe445dd5	-0.19176419
46	0x3e824948	0.25446534
47	0xbd6ffa97	-0.05858859
48	0x3e5f5095	0.21808083
49	0xbe7e861d	-0.24855848
50	0x3e5bc133	0.21460418
51	0x3e9a1caf	0.3010001
52	0x3e122e88	0.14275563
53	0xbdfd5a78	-0.12370771
54	0xbd9e4bf9	-0.077293344
55	0xbd0b03de	-0.033939235
56	0xbd47c2fb	-0.048769932
57	0x3e4d9aba	0.20078555
58	0x3f04973c	0.51793265
59	0x3db6d49f	0.08927273
60	0x3e4db0d0	0.2008698
61	0x3ea4c7f5	0.32183805
62	0x3df7db8a	0.12102421
63	0x3ec7f893	0.39056835
64	0x3e57b5d0	0.2106545
65	0xbc7be227	-0.015373743
66	0x3cea92d2	0.028634463
67	0x3e0c7db3	0.13719825
68	0xbc547731	-0.012967871
69	0x3e24e964	0.16104656
70	0x3e43d19d	0.1912293
71	0x3eb9ae5a	0.36265832
72	0x3da7faa1	0.082021005
73	0x3e9e225c	0.3088559
74	0xbe94a421	-0.2903147
75	0xbdfdde46	-0.12395911
76	0xbd8845f3	-0.06653967
77	0x3ebb7e5f	0.3661985
78	0xbe1f0654	-0.15529758
79	0xbea346af	-0.31889865
80	0xbeb0f152	-0.34559113
81	0x3e132486	0.14369401
82	0x3eb984a2	0.36234003
83	0xbe3e3d9c	-0.1857819
84	0x3e0a59a9	0.13510765
85	0xbbed563e	-0.007242947
86	0x3d6ec499	0.05829296
87	0x3d32862c	0.043584988
88	0x3e86d9e8	0.26338124
89	0x3cb9629e	0.022630032
90	0xbdce1ab1	-0.10063685
91	0x3e3ca822	0.18423513
92	0xbda1b8b4	-0.078965575
93	0x3d3582bf	0.044314142
94	0x3dea17d1	0.11430324
95	0x3e15e7c3	0.14639191
96	0x3e67a259	0.22620524
97	0x3d393e9c	0.045225725
98	0xbe65ba90	-0.22434449
99	0xbebb3da6	-0.36570472
100	0xbdb000a0	-0.08593869
101	0x3e2acbea	0.1667935
102	0x3ea5284e	0.32257313
103	0x3c8e0c79	0.017339932
104	0x3e470d70	0.1943872
105	0x3eb1ae9f	0.34703538
106	0x3e2f46f2	0.17116907
107	0x3ee2a4ed	0.44266453
108	0x3e1ccdff	0.15312956
109	0x3d16f01d	0.036850084
110	0x3e89e6ec	0.26933992
111	0x3df6dd61	0.120539434
112	0xbe6acc70	-0.22929549
113	0xbc5a9944	-0.013342205
114	0xbe106a2b	-0.14103
115	0x3d9267df	0.07148718
116	0xbdb30cd0	-0.08742678
117	0x3dbf36e3	0.09336641
118	0xbd405123	-0.046952378
119	0xbdc35bfa	-0.095390275
120	0x3db7f7bf	0.08982801
121	0xbca42ba5	-0.020040343
122	0x3d5cb43d	0.053882826
123	0x3d4039e5	0.046930213
124	0xbec21401	-0.37905887
125	0xbe5c44ce	-0.21510622
126	0xbe9378e5	-0.28803173
127	0x3dba4d7d	0.09096811
128	0xbe0454e2	-0.12923005
129	0x3e355c69	0.17711033
130	0xbdb6f6f9	-0.08933825
131	0xbec3ed9a	-0.38267213
132	0xbec49fa3	-0.38403043
133	0xbd9a45e8	-0.07532865
134	0x3d01cbe9	0.031688605
135	0x3e5950dc	0.21222252
136	0xbe1af00d	-0.15130635
137	0x3e2e66d3	0.17031412
138	0x3b2c2afe	0.0026270743
139	0x3d37afc5	0.04484536
140	0x3eea5dda	0.45774728
141	0xbcb3cf69	-0.021949487
142	0xbe8be025	-0.27319446
143	0xbde5ca1c	-0.1122019
144	0xbde1de84	-0.110287696
145	0xbcf6f9b0	-0.030148357
146	0xbe4c991e	-0.19980285
147	0x3ea68867	0.32525942
148	0xbe52294c	-0.20523566
149	0xbdf768bf	-0.120805256
150	0xbd9ff6b9	-0.078107305
151	0xbe64a9e3	-0.22330432
152	0x3c72afe4	0.014812443
153	0x3e596470	0.2122972
154	0x3ef06ffd	0.4696044
155	0xbe26ddc0	-0.16295528
156	0xbde32862	-0.11091687
157	0xbdf39b30	-0.11894834
158	0xbe1b0f57	-0.1514257
159	0x3ccbc26c	0.024872981
160	0xbe36f88e	-0.17868254
161	0xbe7606fd	-0.24026103
162	0xbd2a629c	-0.041597947
163	0xbe792068	-0.24328768
164	0x3e08428b	0.13306634
165	0xbdf9d210	-0.12198269
166	0xbe94769a	-0.28996736
167	0xbda886de	-0.08228849
168	0x3d587926	0.05284991
169	0x3d1d20d6	0.038361393
170	0xbe8b47db	-0.2720326
171	0x3e3ffc31	0.18748547
172	0xbeb2371a	-0.34807664
173	0x3e4c3e16	0.19945559
174	0xbe89ae70	-0.26890898
175	0x3d9393cb	0.07205924
176	0xbe57ee08	-0.21086895
177	0x3e7de0f6	0.24792847
178	0xbe694ac4	-0.22782427
179	0xbe985a47	-0.29756376
180	0xbe0e5a7c	-0.13901705
181	0x3e019fa2	0.12658551
182	0x3d68f22c	0.056871578
183	0x3c6bf809	0.014402398
184	0x3d6d43d6	0.05792602
185	0xbe54f604	-0.20796973
186	0xbf05e8ba	-0.5230824
187	0xbda87d39	-0.08227009
188	0xbe569916	-0.20956835
189	0xbeb01ab6	-0.3439538
190	0xbe0c0451	-0.13673522
191	0xbec9a469	-0.39383247
192	0xbe650297	-0.22364269
193	0x3c6637be	0.014051376
194	0xbcc23e58	-0.023711368
195	0xbe08569d	-0.1331429
196	0x3cd33a09	0.02578451
197	0xbe233adf	-0.15940426
198	0xbe3ed935	-0.18637545
199	0xbeba1a0a	-0.3634799
200	0xbdb89f74	-0.09014788
201	0xbea1dd00	-0.31613922
202	0x3e95d08c	0.2926067
203	0x3e01e678	0.12685573
204	0x3db159ab	0.08659681
205	0xbeb70d1a	-0.35752183
206	0x3e1daf9b	0.1539902
207	0x3e9b9be2	0.30392367
208	0x3eabe607	0.33573934
209	0xbe1d4758	-0.15359247
210	0xbebf9ede	-0.37425894
211	0x3e3dd732	0.18539122
212	0xbe057dfc	-0.1303634
213	0xbaace68e	-0.0013191269
214	0xbd85a2d5	-0.06525198
215	0xbd7ab690	-0.06120926
216	0xbe844499	-0.25833586
217	0xbca724f4	-0.020403363
218	0x3dba7262	0.09103848
219	0xbe50d75b	-0.20394652
220	0x3dac267f	0.0840578
221	0xbd289618	-0.041158766
222	0xbde716cc	-0.11283645
223	0xbe0cce19	-0.13750495
224	0xbe69a13b	-0.22815411
225	0xbcd641aa	-0.026154358
226	0x3e576bfc	0.21037287
227	0x3ec30b37	0.38094494
228	0x3daf0d1c	0.08547422
229	0xbe165eec	-0.14684647
230	0xbea1d673	-0.31608924
231	0xbc2aec49	-0.010432311
232	0xbe3aeae1	-0.18253662
233	0xbeaf051a	-0.3418358
234	0xbe284dba	-0.164359
235	0xbedbe280	-0.42946243
236	0xbe2f8aac	-0.17142743
237	0xbd3b5784	-0.04573776
238	0xbe86ae91	-0.2630506
239	0xbe124db7	-0.14287458
240	0x3e5b1d4b	0.21397893
241	0x3b99b0b9	0.0046902564
242	0x3e0d93fa	0.1382598
243	0xbd7b1f3f	-0.061309095
244	0x3dc1f2b9	0.09470124
245	0xbd9e8ddb	-0.077419005
246	0x3d2dfa20	0.042474866
247	0x3dcf68c8	0.10127407
248	0xbdab8a3b	-0.08375975
249	0x3c87b83f	0.016567348
250	0xbd6173f4	-0.055042222
251	0xbd6734c2	-0.0564468
252	0x3ebec12f	0.37256762
253	0x3e6630e4	0.22479588
254	0x3e9e2547	0.30887815
255	0xbdbc0c8b	-0.0918208

action_model._discrete_distribution.branches.3.bias f4 [2]
0	0x3d01d2fe	0.03169536
1	0xbd01d1cd	-0.031694222
