results/18/SmartAgent.onnx (onnx, 745161 bytes, 15 tensors)

discrete_action_output_shape f4 [1, 4]
2.0 2.0 2.0 2.0
00000000: 0000 0040 0000 0040 0000 0040 0000 0040

network_body._body_endoder.seq_layers.0.weight f4 [256, 200]
0.1348865 -0.0494327 -0.037740976 -0.07197714 0.041844293 -0.05728272 -0.019194083 0.09768273
0.05657764 -0.0049152793 0.09263707 -0.1096299 0.13156874 -0.016788324 0.114135146 0.1324429
0.12692942 -0.032703653 0.009470053 -0.14602911 0.14301659 -0.019465603 -0.056979097 -0.056702025
0.014786014 -0.030827716 -0.0046783313 -0.1393657 -0.003989712 -0.0043202313 0.0017135709 -8.705014e-05
0.0252598 -0.061820228 -0.1845651 -0.03825316 -0.03686201 -0.084299386 -0.10208439 -0.085112534
-0.035117805 0.001209542 0.22657792 -0.08396319 0.116194986 -0.04004535 0.0018133807 -0.12917003
0.023686565 -0.008020903 0.06744328 0.06613467 -0.0632091 -0.09591522 0.03733009 -0.020915039
-0.011292094 0.101948604 0.061067495 -0.08248689 0.12218919 0.0007009781 -0.0019159599 0.15651658
0.060168773 -0.13419072 -0.09814981 0.050319836 0.12975818 -0.16266365 0.12338676 -0.00032486152
-0.056101765 0.08893765 -0.0856841 0.12922993 -0.0897501 0.071873054 0.09077462 -0.09016749
-0.03748417 0.04509861 0.0816973 0.12604444 0.066802934 -0.023176368 0.09500493 0.06681965
-0.0148967635 0.008456565 -0.020711288 0.027289394 0.12379228 -0.12219329 0.046992898 0.24508266
0.15282936 0.071942486 -0.082335085 0.019655343 0.035288528 -0.050777428 0.0031365233 -0.07432446
0.09285643 0.029931135 0.020251516 -0.031278286 0.012557974 0.00484342 -0.13682187 -0.15848386
0.06983644 0.0669264 0.035028297 -0.090747565 -0.10160247 -0.023537125 0.03840592 0.029532552
-0.069356754 -0.016642759 -0.094003856 -0.089510985 0.021403207 0.08395903 0.06822994 0.07449355
-0.06861035 0.049760588 0.04417087 0.034835573 0.006547098 -0.019407434 0.15838398 -0.03535468
-0.03901555 0.0061725485 0.014921868 -0.026490202 0.011833231 0.031452905 -0.16579062 -0.06483973
-0.026281912 0.094922885 -0.105663516 0.074603446 -0.068529606 -0.20424373 -0.010058393 -0.20287286
-0.043481246 0.12693068 0.096602954 -0.14021604 -0.05246353 0.039931346 -0.06598635 0.07133411
0.044158287 0.0833227 -0.08314827 0.005847468 -0.031474043 -0.076370984 0.14366722 -0.031490713
-0.049524873 0.048577186 -0.090163656 0.11561534 -0.06569884 -0.37258637 0.07872793 -0.10144232
0.010668042 0.09305687 0.094649486 0.013525859 0.006785022 -0.09122378 -0.030634029 0.12696195
0.023972185 -0.02162962 0.085872725 -0.064582676 -0.10164061 0.097066596 0.050209496 -0.075744465
0.14537196 -0.08006174 0.23037843 0.08458716 0.031958364 -0.082851246 0.084254466 -0.018201608
0.0060806074 0.08748263 -0.01165744 0.037992414 0.11241283 -0.086814985 0.007147525 -0.03749072
0.09950503 -0.04480682 0.029080665 0.15370828 -0.008541822 0.04922694 0.08368843 -0.025484053
-0.08044657 -0.08533401 0.15050492 -0.06758449 -0.12556466 0.019770328 -0.0875456 0.1426321
0.0139042875 0.03261475 -0.07752511 -0.0103896735 0.13823448 -0.013097739 0.023686664 0.00670135
0.13960074 -0.033633385 0.011197294 -0.012621479 0.10139265 0.019554177 -0.017170917 0.048245434
0.0743944 0.058146212 0.005847258 0.12978198 -0.0025662063 -0.01616736 0.028465666 -0.036309946
-0.04995194 0.26900908 0.058774747 -0.08067138 -0.000872725 -0.02038559 -0.070709735 0.0749095
00000000: b01f 0a3e f179 4abd 4896 1abd c068 93bd
00000010: ec64 2b3d 49a1 6abd e93c 9dbc e20d c83d
00000020: f5bd 673d 5a10 a1bb 81b8 bd3d a485 e0bd
00000030: f5b9 063e ab87 89bc b0bf e93d 1d9f 073e
00000040: c9f9 013e 44f4 05bd 4828 1b3c a888 15be
00000050: f172 123e 5476 9fbc ea62 69bd 6240 68bd
00000060: 0a41 723c 688a fcbc b04c 99bb e2b5 0ebe
00000070: 21bc 82bb ba90 8dbb e699 e03a b08e b6b8
00000080: a4ed ce3c 3537 7dbd a2fe 3cbe 58af 1cbd
00000090: 9efc 16bd 28a5 acbd 9f11 d1bd 7b4f aebd
000000a0: b0d7 0fbd 7f89 9e3a 0b04 683e e5f4 abbd
000000b0: a3f7 ed3d 9806 24bd f6ae ed3a 2645 04be
000000c0: 540a c23c 1b6a 03bc b41f 8a3d 9d71 873d
000000d0: c673 81bd 336f c4bd 70e7 183d 0456 abbc
000000e0: 7a02 39bc 6eca d03d e921 7a3d e3ee a8bd
000000f0: 533e fa3d d8c1 373a f220 fbba e245 203e
00000100: 8873 763d 4b69 09be c502 c9bd 2c1c 4e3d
00000110: 54df 043e 4d91 26be 33b2 fc3d 2d52 aab9
00000120: f7ca 65bd f124 b63d 257b afbd da54 043e
00000130: e7ce b7bd 2e32 933d 0be8 b93d bca9 b8bd
00000140: 0089 19bd 52b9 383d ea50 a73d cb11 013e
00000150: facf 883d 5edc bdbc f291 c23d bed8 883d
00000160: 8e11 74bc 688d 0a3c b8aa a9bc 028e df3c
00000170: cf86 fd3d 7a40 fabd a07b 403d f3f6 7a3e
00000180: 4d7f 1c3e 9556 933d 4c9f a8bd 3e04 a13c
00000190: b48a 103d fefb 4fbd 218e 4d3b 6c37 98bd
000001a0: 832b be3d 2432 f53c 82e6 a53c a91d 00bd
000001b0: f6bf 4d3c 8db5 9e3b 081b 0cbe 9849 22be
000001c0: 6806 8f3d b510 893d d579 0f3d dcd9 b9bd
000001d0: f514 d0bd eed0 c0bc 874f 1d3d 40ee f13c
000001e0: ea0a 8ebd 6556 88bc 1885 c0bd 8951 b7bd
000001f0: c755 af3c b6f2 ab3d 24bc 8b3d 1390 983d
00000200: 9583 8cbd c2d1 4b3d 84ec 343d bfaf 0e3d
00000210: 0a89 d63b 57fc 9ebc 692f 223e 12d0 10bd
00000220: c5ce 1fbd 1743 ca3b da7a 743c fb01 d9bc
00000230: 2be0 413c c3d4 003d 04c5 29be b1ca 84bd
00000240: 2a4d d7bc ee66 c23d 1d66 d8bd b1c9 983d
00000250: 4059 8cbd 4525 51be f5cb 24bc e7bd 4fbe
00000260: 6419 32bd 1efa 013e c5d7 c53d cb94 0fbe
00000270: 00e4 56bd 0d8f 233d da23 87bd 9e17 923d
00000280: 52df 343d 17a5 aa3d a449 aabd 1e9c bf3b
00000290: edea 00bd 6468 9cbd 801d 133e 68fc 00bd
000002a0: 98da 4abd dff8 463d b9a7 b8bd bcc7 ec3d
000002b0: 1d8d 86bd a4c3 bebe 1c3c a13d fec0 cfbd
000002c0: 03c9 2e3c 9a94 be3d 97d7 c13d 919b 5d3c
000002d0: e454 de3b 88d3 babd 37f4 fabc 5002 023e
000002e0: 5161 c43c 9a30 b1bc 0ade af3d ec43 84bd
000002f0: f428 d0bd daca c63d 79a8 4d3d ea1f 9bbd
00000300: 63dc 143e 69f7 a3bd 53e8 6b3e 083c ad3d
00000310: c6e6 023d eaad a9bd 9b8d ac3d 8a1b 95bc
00000320: d53f c73b 182a b33d d9fe 3ebc ef9d 1b3d
00000330: b338 e63d 0ecc b1bd c935 ea3b df8f 19bd
00000340: 4bc9 cb3d 5b87 37bd 933a ee3c b465 1d3e
00000350: 00f3 0bbc 30a2 493d d764 ab3d efc3 d0bc
00000360: 2cc1 a4bd 99c3 aebd f61d 1a3e bd69 8abd
00000370: 0694 00be 62f5 a13c 1c4b b3bd 260e 123e
00000380: cfce 633c 0b97 053d 7cc5 9ebd 7339 2abc
00000390: 578d 0d3e e697 56bc 890a c23c 0097 db3b
000003a0: 7ff3 0e3e 29c3 09bd db74 373c 52ca 4ebc
000003b0: f3a6 cf3d 1530 a03c 06aa 8cbc 019d 453d
000003c0: 175c 983d b92a 6e3d 5b9a bf3b 91e5 043e
000003d0: cc2d 28bb 6971 84bc d430 e93c bdb9 14bd
000003e0: 689a 4cbd 8fbb 893e cabd 703d 0937 a5bd
000003f0: 95c7 64ba aeff a6bc 44d0 90bd 276a 993d

network_body._body_endoder.seq_layers.0.bias f4 [256]
0.007988287 0.0019457146 -0.051264036 -0.028214965 -0.0024494382 -0.0227803 0.040691745 -0.0050025247
0.009986269 -0.0097758565 -0.0075663826 0.008858694 -0.009584156 -0.0057661952 -0.018506614 -0.021559317
0.019720273 -0.03664424 -0.0053295884 0.0038572191 -0.0071299104 -0.016447583 -0.012773752 -0.03234791
-0.016642937 0.011088594 -0.027007839 -0.004465771 -0.06862483 0.016618775 -0.058713682 -0.010798876
-0.011119627 -0.015172253 -0.0050313077 -0.0061688903 -0.021078626 -0.00024377147 -0.029224481 0.009230896
0.0019754672 -0.008232966 0.009552145 -0.021736111 -0.011304898 -0.0029879974 -0.0135192685 0.01293863
-0.017018257 0.011210189 -0.026935326 -0.00042325392 0.011080193 -0.0002721326 0.02441517 -0.00015201801
-0.009245793 -0.041523363 -0.031246629 0.0016942929 0.002779165 -0.028529692 -0.0151017895 0.015326286
-0.02270885 -0.0021318588 -0.0412849 0.03650002 0.015404698 0.0074651716 -0.032327857 -0.033450685
-0.006625002 -0.031962536 0.013244208 -0.007358621 -0.011472542 -0.016857138 0.008896196 0.006656421
0.030664703 -0.020444484 -0.005769939 0.022343345 0.010077679 -0.012637577 0.009395244 -0.011116218
0.0018297766 0.013252184 -0.028291132 0.015147026 -0.0067555076 -0.000723901 -0.0011018635 -0.0001681451
0.012749847 -0.005421535 0.004829762 -0.015614658 -0.025987608 -0.024018226 0.0063812067 0.021273235
-0.036972698 0.019937929 -0.02065578 0.016198326 -0.019900152 0.010209546 0.00080040575 -0.030100813
-0.038157996 0.013640717 -0.027641464 -0.048517086 -0.0025556665 -0.005754761 -0.040536128 -0.006741905
-0.022275114 -0.045145176 -0.01382283 0.01530267 -0.000105343046 0.0050701587 -0.044216253 -0.029190332
-0.002966686 0.028601386 0.0010705646 -0.029316468 -0.004933544 0.018890133 0.032083727 0.018072126
0.015407365 0.011929156 -0.0077314298 0.004684092 -0.018674763 -0.024162007 0.021763733 -0.014620852
-0.014324898 -0.0053554964 -0.019866653 0.015290549 -0.01872191 -0.032883063 0.02079558 -0.029116087
-0.004798701 -0.023915904 -0.014553962 -0.020436415 -0.0027512605 0.0040047294 0.014253867 -0.006925909
-0.0016181947 0.020574085 -0.0288759 0.004075939 -0.027863707 0.0010710198 0.0020269454 0.010944813
-0.006915626 0.00013120811 0.009069253 -0.010871335 -0.010558834 0.020894997 -0.0037754327 -0.020230344
-0.007260348 0.016484223 -0.026478736 -0.004268548 -0.013877546 -0.029277418 0.009457043 0.02259135
-0.02657797 0.0056704166 0.0049379203 -0.008670963 -0.008810384 -0.038796254 0.009479743 -0.012116882
-0.022207497 0.014283009 0.015867613 -0.007946395 -0.0014930611 0.009500251 -0.013111963 -0.04087959
-0.01779209 -0.041380126 -0.015920557 -0.0047472315 0.012963426 -0.012774399 -0.002158726 -0.0022509026
-0.01921277 -0.004460613 -0.022727419 0.0018380713 -0.012745449 0.0006083217 -0.0042065238 -0.029629912
-0.012139702 -0.015861418 -0.032922678 -0.019361326 -0.0015433504 0.0006318786 -0.009145226 -0.014419935
-0.038359743 0.0016768501 0.018599764 -0.011275389 0.020488117 0.008732252 0.0059763948 0.0036915496
-0.007776782 -0.015595964 0.057765953 0.003103023 -0.018067611 -0.0010381491 -0.0144152185 -0.0134032015
0.011069697 -0.012730404 -0.0019390105 0.0167738 -0.0037200984 0.008581224 -0.004948794 0.0045518214
0.028994849 0.0018029236 -0.039562635 0.0063325395 0.031422675 -0.03191537 -0.0037157151 -0.02003458
00000000: 4ee1 023c 5907 ff3a 3dfa 51bd 1223 e7bc
00000010: c186 20bb c09d babc 63ac 263d 38ec a3bb
00000020: 739d 233c ea2a 20bc 6bef f7bb 0e24 113c
00000030: dd06 1dbc 5af2 bcbb 2f9b 97bc 2a9d b0bc
00000040: 698c a13c 4518 16bd d4a3 aebb 66c9 7c3b
00000050: 06a2 e9bb 15bd 86bc 0049 51bc 3e7f 04bd
00000060: c556 88bc efac 353c 8b3f ddbc 9a55 92bb
00000070: 2d8b 8cbd 1924 883c c27d 70bd c5ed 30bc
00000080: 192f 36bc 0b95 78bc abdd a4bb 6724 cabb
00000090: 15ad acbc e89c 7fb9 2e68 efbc 2f3d 173c
000000a0: d776 013b 90e3 06bc 9a80 1c3c ee0f b2bc
000000b0: 2e38 39bc 47d2 43bb ec7f 5dbc 8cfc 533c
000000c0: df69 8bbc f1aa 373c 79a7 dcbc 2ee8 ddb9
000000d0: b389 353c 05ad 8eb9 5302 c83c 0667 1fb9
000000e0: ab7b 17bc 6714 2abd eef8 ffbc 0913 de3a
000000f0: a722 363b 1ab7 e9bc 7f6d 77bc 1a1b 7b3c
00000100: e907 babc a8b6 0bbb 5b1a 29bd 0c81 153d
00000110: fd63 7c3c 669e f43b 376a 04bd 9603 09bd
00000120: 8b16 d9bb 26eb 02bd 3cfe 583c 9620 f1bb
00000130: 54f7 3bbc fb17 8abc 5ac1 113c 1b1e da3b
00000140: 8b34 fb3c 317b a7bc c211 bdbb 6409 b73c
00000150: d91c 253c d70d 4fbc 82ee 193c cc20 36bc
00000160: 1dd5 ef3a b01f 593c cec2 e7bc 3b2b 783c
00000170: 4e5d ddbb 2cc4 3dba 676c 90ba 1b50 30b9
00000180: bce4 503c 22a7 b1bb fb42 9e3b 9fd4 7fbc
00000190: f7e3 d4bc dfc1 c4bc 7119 d13b 3545 ae3c
000001a0: af70 17bd de54 a33c 4f36 a9bc 5ab2 843c
000001b0: a505 a3bc f145 273c 52d2 513a fb95 f6bc
000001c0: 8f4b 1cbd 507d 5f3c 5a70 e2bc dab9 46bd
000001d0: f87c 27bb 6f92 bcbb 3609 26bd 33eb dcbb
000001e0: 4d7a b6bc 26ea 38bd 2779 62bc 0db8 7a3c
000001f0: 9eeb dcb8 9323 a63b 1a1c 35bd 9020 efbc
00000200: bb6c 42bb 744d ea3c 3052 8c3a 1729 f0bc
00000210: 91a9 a1bb 7bbf 9a3c 3a6a 033d ff0b 943c
00000220: 2c6f 7c3c 8272 433c ef57 fdbb 037d 993b
00000230: d1fb 98bc 67ef c5bc db49 b23c 4c8c 6fbc
00000240: fab2 6abc 297d afbb 64bf a2bc 3685 7a3c
00000250: b15e 99bc 64b0 06bd 7e5b aa3c dc84 eebc
00000260: 6c3e 9dbb 49eb c3bc be73 6ebc 456a a7bc
00000270: 7e4e 34bb 1b3a 833b 0d89 693c bcf2 e2bb
00000280: 9b19 d4ba fc8a a83c 278d ecbc 748f 853b
00000290: 6e42 e4bc 7661 8c3a 80d6 043b df51 333c
000002a0: 7a9c e2bb e994 0939 3497 143c af1d 32bc
000002b0: f6fe 2cbc fc2b ab3c 406d 77bb 1bba a5bc
000002c0: 37e8 edbb ec09 873c efe9 d8bc 2ddf 8bbb
000002d0: a65e 63bc 32d7 efbc b7f1 1a3c 7f11 b93c
000002e0: 0bba d9bc e7ce b93b 47ce a13b a810 0ebc
000002f0: 6e59 10bc d2e8 1ebd ed50 1b3c e385 46bc
00000300: 7fec b5bc 4803 6a3c ccfc 813c 9931 02bc
00000310: d1b2 c3ba f1a6 1b3c 8fd3 56bc 5b71 27bd
00000320: b8c0 91bc 357e 29bd d46b 82bc aa8e 9bbb
00000330: 8d64 543c b64b 51bc 6a79 0dbb e183 13bb
00000340: 1964 9dbc 552a 92bb da2e babc 70eb f03a
00000350: 4ad2 50bc c777 1f3a e1d6 89bb 6eba f2bc
00000360: 9ae5 46bc ceef 81bc eed9 06bd a59b 9ebc
00000370: 3f4a caba a8a4 253a dcd5 15bc 9741 6cbc
00000380: 1b1f 1dbd c1c9 db3a 885e 983c 69bc 38bc
00000390: b2d6 a73c b811 0f3c a2d5 c33b eded 713b
000003a0: 60d4 febb 3786 7fbc fe9b 6c3d 165c 4b3b
000003b0: 8702 94bc 8112 88ba cf2d 6cbc 1a99 5bbc
000003c0: ad5d 353c 2f93 50bc 6526 feba 3569 893c
000003d0: e5cc 73bb 4398 0c3c 7e29 a2bb 7227 953b
000003e0: 9b86 ed3c 1450 ec3a 6e0c 22bd 3181 cf3b
000003f0: 10b5 003d b1b9 02bd 5b83 73bb 8f1f a4bc

network_body._body_endoder.seq_layers.2.weight f4 [256, 256]
-0.10226041 -0.08428347 0.0068590897 -0.0028405483 0.018305067 0.081993125 0.040686317 -0.0035545283
0.009872813 0.0007684854 -0.018339925 -0.020538522 -0.07120733 -0.03763708 -0.013182147 0.20545262
-0.104529575 0.103931315 0.062277082 0.0032935569 -0.0040210495 0.008833042 0.01028124 -0.053751167
0.06787607 0.05071762 0.025798282 0.037540708 0.0459902 0.007559229 -0.079025395 6.185558e-05
-0.010279856 -0.123883836 0.0076480843 -0.11908727 0.022525813 -0.01828376 -0.111910395 0.092185326
-0.06428623 -0.0043427236 0.079929434 -0.038014617 0.04873657 -0.009188347 0.001777925 -0.021916986
0.0075446106 -0.021879073 -0.027995653 -0.02609515 0.120032944 0.006861944 -0.113489084 -0.122683875
-0.03728416 0.05448911 -0.03000957 -0.032747712 0.045731895 0.043235842 0.06005462 0.032232847
0.06224528 0.0066249915 0.028967652 0.054034773 -0.027379213 0.14176674 -0.07279564 0.036192484
-0.0025107842 -0.020313155 -0.09276127 0.16384323 0.016756883 -0.045004643 0.16190892 -0.02808158
-0.060623333 -0.11587638 0.029100705 0.06417408 0.04368081 0.018372107 -0.009100811 0.069515854
0.02348251 0.15579173 -0.008657965 -0.040630054 0.061157145 0.056680966 0.039117355 0.0233944
-0.063204676 -0.09901213 -0.035711315 -0.049704436 -0.013019385 0.05134158 -0.028797572 -0.03399374
-0.12852225 -0.05469686 0.090248 -0.021850388 0.027101023 -0.008190938 -0.009764963 0.0513687
0.1863894 0.14510113 0.02343026 -0.005890909 0.025488507 -0.028535523 0.07055948 0.117703795
0.0106790615 0.0043657618 0.07092043 -0.05039215 -0.08304703 -0.10241694 -0.03187895 -0.038863964
0.06953356 0.101031676 0.13056615 0.14292555 -0.06600743 -0.08549437 0.007244864 0.023891704
0.057926945 0.1253213 -0.045780003 0.01218843 -0.032840803 -0.027769754 0.07015805 0.033193577
-0.009989532 -0.016201627 -0.033417705 -0.007151438 0.029785806 -0.04085119 -0.03275364 -0.06788312
-0.0053995843 -0.044952165 -0.06895349 0.1314037 -0.054652695 -0.019127037 0.17038213 -0.042893298
0.03921741 -0.1593933 0.06685893 -0.069323555 -0.07846298 0.08152272 -0.0065832185 -0.0435923
-0.1312282 0.080814555 -0.07836313 -0.023472734 -0.020762185 0.040037908 -0.072242334 0.009823384
-0.122123025 -0.03581595 0.009809351 0.039126 0.072875634 0.007693534 -0.014097983 -0.007406782
0.043065842 0.038017448 0.0346107 0.040319584 -0.09719723 0.031057488 -0.048068635 0.026916485
0.030551523 -0.06274637 -0.017639033 0.13660347 0.066074036 0.10526692 -0.038349885 0.02741892
0.02713551 0.057045914 0.043110043 -0.00015198196 0.092627004 0.096845224 -0.0051157256 0.073722355
-0.03483602 -0.13796903 -0.037697576 0.016508538 0.018314306 -0.061470296 0.06533989 -0.046004962
-0.008250079 0.02010869 -0.034878295 -0.07655434 0.010363872 0.0988848 -0.054916512 -0.011739289
0.029520465 0.051133145 -0.009109984 0.023983466 0.032665983 0.016619895 -0.008401994 -0.10851391
-0.03320556 -0.011055571 -0.06701236 0.018654702 0.10262878 -0.06648985 0.021726524 0.12205953
0.0070716213 0.07039525 0.14594853 0.12492124 -0.028607337 -0.035330854 -0.010949318 -0.046924144
-0.03137508 0.012874755 0.075329095 -0.025560502 -0.036644995 0.029392092 0.011008414 -0.06191991
00000000: e86d d1bd d09c acbd 37c2 e03b 7e28 3abb
00000010: 82f4 953c 03ec a73d b2a6 263d 17f3 68bb
00000020: 94c1 213c 2f74 493a 9c3d 96bc 6740 a8bc
00000030: 26d5 91bd 5729 1abd eff9 57bc 2c62 523e
00000040: 9a13 d6bd f1d9 d43d 4116 7f3d b7d8 573b
00000050: 02c3 83bb 77b8 103c a572 283c 2f2a 5cbd
00000060: 9c02 8b3d 47bd 4f3d eb56 d33c 49c4 193d
00000070: 3860 3c3d 69b3 f73b 11d8 a1bd 76b8 8138
00000080: d76c 28bc cfb6 fdbd c89c fa3b 07e4 f3bd
00000090: 0e88 b83c d3c7 95bc 4731 e5bd a9cb bc3d
000000a0: 80a8 83bd 684d 8ebb 0bb2 a33d 37b5 1bbd
000000b0: ff9f 473d b88a 16bc 4309 e93a 408b b3bc
000000c0: c838 f73b be3b b3bc 2457 e5bc 7fc5 d5bc
000000d0: d5d3 f53d 29da e03b f76c e8bd af41 fbbd
000000e0: 46b7 18bd f92f 5f3d a1d6 f5bc 7722 06bd
000000f0: 5e51 3b3d 1118 313d d5fb 753d 9706 043d
00000100: e8f4 7e3d 7516 d93b 924d ed3c 9153 5d3d
00000110: 5f4a e0bc 4d2b 113e e115 95bd 923e 143d
00000120: f88b 24bb c667 a6bc 9ff9 bdbd 85c6 273e
00000130: bb45 893c ca56 38bd 74cb 253e 570b e6bc
00000140: 2c50 78bd 9850 edbd 9a64 ee3c b36d 833d
00000150: a6ea 323d 1a81 963c 911b 15bc 545e 8e3d
00000160: 655e c03c de87 1f3e 23da 0dbc b36b 26bd
00000170: ea7f 7a3d 4d2a 683d 8539 203d 9da5 bf3c
00000180: 7471 81bd dfc6 cabd 0746 12bd e196 4bbd
00000190: 424f 55bc 8c4b 523d e3e8 ebbc 053d 0bbd
000001a0: 569b 03be d109 60bd f2d3 b83d 96ff b2bc
000001b0: f702 de3c 4933 06bc 39fd 1fbc fc67 523d
000001c0: dddc 3e3e 6495 143e d1f0 bf3c 8708 c1bb
000001d0: 46cd d03c 54c3 e9bc 7d81 903d b00e f13d
000001e0: 3bf7 2e3c aa0e 8f3b bb3e 913d 0068 4ebd
000001f0: 9014 aabd f9bf d1bd 8093 02bd d22f 1fbd
00000200: 9c67 8e3d b2e9 ce3d 22b3 053e 135b 123e
00000210: e72e 87bd ac17 afbd 5366 ed3b 89b8 c33c
00000220: ce44 6d3d 3a54 003e d083 3bbd fbb1 473c
00000230: 1484 06bd 657d e3bc 06af 8f3d fdf5 073d
00000240: 22ab 23bc 46b9 84bc 01e1 08bd 9c56 eabb
00000250: 5d01 f43c 9453 27bd ae28 06bd 4e06 8bbd
00000260: ffee b0bb c31f 38bd 7d37 8dbd b18e 063e
00000270: 81db 5fbd 4eb0 9cbc a778 2e3e e2b0 2fbd
00000280: 6fa2 203d ff37 23be 56ed 883d 82f9 8dbd
00000290: 33b1 a0bd 62f5 a63d 0ab8 d7bb d78d 32bd
000002a0: af60 06be 1a82 a53d d97c a0bd e449 c0bc
000002b0: 7515 aabc cafe 233d caf3 93bd 42f2 203c
000002c0: a31b fabd bfb3 12bd 66b7 203c 9642 203d
000002d0: d23f 953d 0a1a fc3b 3afb 66bc 97b4 f2bb
000002e0: cf65 303d 2fb8 1b3d f3c3 0d3d 2626 253d
000002f0: 570f c7bd 466c fe3c 9ee3 44bd f67f dc3c
00000300: 3047 fa3c 2b81 80bd bc7f 90bc c8e1 0b3e
00000310: d351 873d 2f96 d73d c514 1dbd a59d e03c
00000320: 4a4b de3c faa8 693d 2894 303d 595d 1fb9
00000330: 3ab3 bd3d ca56 c63d d1a1 a7bb bffb 963d
00000340: 37b0 0ebd c147 0dbe c668 1abd ea3c 873c
00000350: e207 963c 47c8 7bbd ecd0 853d b36f 3cbd
00000360: 572b 07bc fbba a43c 8bdc 0ebd 86c8 9cbd
00000370: 3bcd 293c 1d84 ca3d 23f0 60bd 2656 40bc
00000380: e7d4 f13c fd70 513d 0b42 15bc f978 c43c
00000390: c4cc 053d 7226 883c 84a8 09bc 8a3c debd
000003a0: 8e02 08bd 6d22 35bc c73d 89bd bfd1 983c
000003b0: 0a2f d23d d52b 88bd d3fb b13c 59fa f93d
000003c0: 0fb9 e73b 632b 903d 8873 153e b5d6 ff3d
000003d0: ef59 eabc 16b7 10bd c564 33bc 8833 40bd
000003e0: 2883 00bd a3f0 523c 2446 9a3d 4264 d1bc
000003f0: 1019 16bd afc7 f03c a35c 343c bb9f 7dbd

network_body._body_endoder.seq_layers.2.bias f4 [256]
-9.518695e-05 -0.011393306 -0.006089406 -0.028969519 -0.0010387318 0.0064387214 0.03149182 -0.021297654
0.010308895 -0.016490875 -0.016252864 0.00501795 -0.005159981 0.0029023816 0.00698064 0.014074076
0.024726808 0.0033626517 -0.010931275 -0.0028302572 -0.023930553 -0.0026643374 0.0296375 -0.006058209
-0.0061698146 0.002352541 -0.008010996 0.041444223 -0.007867346 -0.021726878 0.01793391 0.017270464
-0.04343447 -0.002561504 -0.023636764 -0.013544351 0.014991049 0.025060914 0.008340704 0.00957908
-0.004299909 -0.010687968 0.0043343934 -0.004838542 0.011918883 -0.0076451483 -0.0025821754 -0.0089282645
-0.011052181 -0.013899674 -0.001571768 -0.0020270469 0.007599861 -0.007971655 -0.011434157 -0.011724689
-0.008750513 0.016812984 -0.025082525 0.0056696087 -0.0011564593 -0.0010332743 -0.012389308 -0.012852738
0.019720845 -0.0040032743 0.0023254445 0.000364772 -0.010020927 0.005446025 0.0048723016 -0.017778145
-0.0017974108 -0.0067215473 0.0075975205 0.006105399 -0.01594343 0.00822834 0.010370412 0.012449796
-0.01776554 -0.006408649 0.00092907797 0.007245613 -0.012375736 -0.012415883 0.0039933156 -0.011843078
0.012808021 0.0045411414 -0.008161235 0.012271921 -0.0016173981 -0.0009950253 -0.0024889985 0.03243504
0.0012764208 0.026936468 -0.030294593 -0.0066023553 -0.04685681 0.0051556197 0.005794358 0.01132255
-0.003054583 0.0051338654 0.01351176 -0.004675417 -0.011304678 0.0050139516 -0.0058121597 0.00047090257
-0.0016672851 -0.004162849 -0.0069794273 0.0015287742 -0.044275578 0.019928338 -0.013316583 -0.0021640852
0.0071214037 -0.020027237 0.0019917602 -0.014327644 -0.016945722 -0.0066990084 -0.011545872 0.004366735
-0.0024208236 -0.005020769 -0.023360377 -0.024955785 -0.01078762 -0.010660458 -0.0021672875 -0.007661405
0.0106463935 0.0012967518 0.033013843 0.009873594 0.0069083944 0.011157155 0.00017464795 0.0013251447
-0.00046624982 9.921252e-05 0.011271748 -0.0052040694 -0.006871271 0.0128244925 0.0005213941 -0.009091765
0.013008248 -0.002231926 -0.020201787 0.012506206 -0.013851319 -0.015665257 0.008442124 0.016550714
-0.03343251 -0.005169584 -0.0028769276 -0.01947734 -0.009370345 -0.015741559 0.0017901768 -0.0075035286
0.011047824 -0.0010796195 0.0128193 0.0027372066 0.0029880393 -0.00894436 -0.0061651883 -0.0077714804
-0.00050760753 -0.010562381 -0.012291588 -0.011949856 -0.036557022 -0.020126237 -0.0030083975 0.019327251
-0.012194626 0.0099950675 -0.0072333487 -0.012681241 0.017276946 -0.029292071 -0.023911849 -0.016145969
-0.0029309054 -0.013004564 0.024068395 0.0013826236 0.016495943 -0.0011777092 -0.038535073 0.005435433
0.0040749162 -0.000990047 0.00073440257 -0.0041883844 -0.0069849202 -0.041796118 0.008120721 -0.0039420538
-0.015197861 -0.0006314666 -0.0030827797 0.006987288 0.022339731 0.012169616 -0.0002957444 -0.0060178568
-0.041056193 -0.003949222 0.010808368 0.0036776282 -0.024581267 0.005401906 0.028790183 0.00055089954
-0.003041275 -0.030876929 0.02607363 0.003768958 0.007213644 -0.01409471 -0.0050241016 0.0042557274
-0.0020663727 0.0018073097 -0.009118371 -0.00570429 0.008242268 -0.02096265 -0.0034958269 -0.029847166
-0.004949188 0.00601934 0.013474914 0.0071022995 0.0074913865 0.009945911 -0.0056874384 -0.022616701
-0.013644092 -0.008428424 0.005752249 0.012244128 0.007828953 -0.0043198806 0.0036700964 -0.0064929333
00000000: 1b9f c7b8 fdaa 3abc a489 c7bb 7c51 edbc
00000010: 0e26 88ba e9fb d23b 91fd 003d 6b78 aebc
00000020: a4e6 283c df17 87bc ba24 85bc 9e6d a43b
00000030: 0f15 a9bb e235 3e3b dabd e43b f496 663c
00000040: e08f ca3c ef5f 5c3b 1719 33bc d67b 39bb
00000050: 020a c4bc 2a9c 2ebb 58ca f23c f183 c6bb
00000060: 282c cabb 172d 1a3b 8d40 03bc 6bc1 293d
00000070: 0ae6 00bc 91fc b1bc 23ea 923c ca7a 8d3c
00000080: 58e8 31bd e8de 27bb e3a1 c1bc 20e9 5dbc
00000090: 049d 753c 8c4c cd3c 73a7 083c 93f1 1c3c
000000a0: 40e6 8cbb 961c 2fbc 8707 8e3b a28c 9ebb
000000b0: 6b47 433c 2784 fabb b739 29bb db47 12bc
000000c0: 3514 35bc 75bb 63bc c803 ceba 34d8 04bb
000000d0: 4108 f93b 8b9b 02bc 5556 3bbc e918 40bc
000000e0: 505e 0fbc 62bb 893c de79 cdbc 20c8 b93b
000000f0: 5694 97ba ef6e 87ba 86fc 4abc 4a94 52bc
00000100: 9c8d a13c e62d 83bb 7c66 183b de3e bf39
00000110: d02e 24bc 9274 b23b d4a7 9f3b 79a3 91bc
00000120: 1997 ebba 6d40 dcbb 9ff4 f83b cd0f c83b
00000130: cc9b 82bc 29d0 063c a9e8 293c 3bfa 4b3c
00000140: 0a89 91bc a5ff d1bb 5e8d 733a 9b6c ed3b
00000150: 99c3 4abc fd6b 4bbc 5cda 823b 7809 42bc
00000160: bcd8 513c dbcd 943b b3b6 05bc 2b10 493c
00000170: e0fe d3ba 826b 82ba 771e 23bb 9bda 043d
00000180: 934d a73a dea9 dc3c 5e2c f8bc 9258 d8bb
00000190: edec 3fbd 79f0 a83b 99de bd3b 3782 393c
000001a0: 662f 48bb fc39 a83b 6e60 5d3c 3e34 99bb
000001b0: 4237 39bc 134c a43b ee73 bebb 79e3 f639
000001c0: ce88 daba 8268 88bb aeb3 e4bb 2661 c83a
000001d0: 4f5a 35bd c140 a33c cc2d 5abc 53d3 0dbb
000001e0: aa5a e93b 2910 a4bc 3188 023b 7fbe 6abc
000001f0: c1d1 8abc 5b83 dbbb e62a 3dbc d416 8f3b
00000200: aea6 1ebb 4385 a4bb 435e bfbc 1370 ccbc
00000210: 8fbe 30bc 34a9 2ebc 0d09 0ebb 860c fbbb
00000220: 366e 2e3c c5f7 a93a 8639 073d dbc4 213c
00000230: d05f e23b 80cc 363c b421 3739 7ab0 ad3a
00000240: fe72 f4b9 5110 d038 23ad 383c e686 aabb
00000250: 6628 e1bb d21d 523c 2aae 083a a0f5 14bc
00000260: 8c20 553c 8145 12bb 387e a5bc d4e6 4c3c
00000270: a5f0 62bc 6d54 80bc d650 0a3c 5d95 873c
00000280: 87f0 08bd 9d65 a9bb d68a 3cbb f18e 9fbc
00000290: 1386 19bc 71f4 80bc 5ea4 ea3a 29e0 f5bb
000002a0: ef01 353c 0582 8dba 0b08 523c b562 333b
000002b0: fbd2 433b 5d8b 12bc 5905 cabb e7a7 febb
000002c0: f710 05ba d60d 2dbc a862 49bc 54c9 43bc
000002d0: d1bc 15bd c7df a4bc 8928 45bb 2f54 9e3c
000002e0: f8cb 47bc 5ac2 233c ba05 edbb fbc4 4fbc
000002f0: 6288 8d3c edf5 efbc c8e2 c3bc 8d44 84bc
00000300: 6f14 40bb 1811 55bc 152b c53c 2639 b53a
00000310: 8022 873c 5d5d 9aba f4d6 1dbd b71b b23b
00000320: e086 853b 77c4 81ba ec84 403a b73e 89bb
00000330: c2e1 e4bb 6832 2bbd c60c 053c 582c 81bb
00000340: 7300 79bc 0289 25ba 7608 4abb 9ff5 e43b
00000350: d001 b73c 1263 473c 240e 9bb9 7131 c5bb
00000360: 8a2a 28bd 7a68 81bb 9515 313c 5d04 713b
00000370: a75e c9bc 7902 b13b 64d9 eb3c 3e6a 103a
00000380: 2150 47bb 9df1 fcbc 5e98 d53c 9f00 773b
00000390: 6f60 ec3b 80ed 66bc 38a1 a4bb a173 8b3b
000003a0: fb6b 07bb 40e3 ec3a 3865 15bc 0deb babb
000003b0: 940a 073c ddb9 abbc 3e1a 65bb 0b82 f4bc
000003c0: cc2c a2bb e23d c53b e3c5 5c3c 68ba e83b
000003d0: 4e7a f53b 2df4 223c b15d babb a946 b9bc
000003e0: 788b 5fbc 5f17 0abc 5d7d bc3b 989b 483c
000003f0: 0245 003c c98d 8dbb 0086 703b acc2 d4bb

network_body._body_endoder.seq_layers.4.weight f4 [256, 256]
-0.007713029 0.05875616 0.014579721 -0.19624224 0.02486016 -0.08119364 -0.07662643 0.013100174
-0.065346725 -0.027001321 -0.03838562 0.08977228 -0.08754837 0.023445236 0.033404555 0.07783165
0.10281023 -0.011797616 0.0015990094 0.092114255 -0.019850759 0.048101828 -0.0029389446 0.04160068
-0.0948964 0.010621549 0.14501084 0.094684005 0.090867095 -0.02178421 0.04956527 0.045036282
0.005672609 -0.04407463 0.0052384143 -0.061264865 0.0077034365 -0.09738709 0.030971624 0.08675948
0.096189685 -0.057909373 -0.0761276 -0.14463747 -0.06269654 -0.07560257 0.021374883 -0.05150085
-0.015829312 0.097468935 0.12829675 -0.047776315 0.017268805 -0.012213077 -0.093397215 -0.001899883
-0.115233764 -0.10612403 -0.07814754 -0.042325713 -0.0027376304 -0.03603116 0.015829636 -0.052695613
-0.0095329955 -0.002490789 -0.08487694 0.094658114 0.08996332 0.08698381 0.09230401 -0.085401565
-0.08050214 0.017651089 0.06507385 0.017821463 -0.07387412 0.06325849 0.06707573 0.035108883
-0.060965404 -0.02112911 0.061392277 -0.0349653 -0.025871415 -0.034984488 -0.1386772 -0.03366922
-0.0863546 -0.02011755 -0.024297794 0.055369545 0.20180026 0.05273377 -0.10213174 -0.07090447
-0.07090839 0.011280516 -0.0039839055 0.21092807 0.01362704 0.09006454 -0.070303515 0.001979149
-0.058530226 0.04042611 -0.016215185 0.07803125 0.06029466 -0.08229456 -0.029748116 0.14807533
0.024896279 -0.024893736 -0.041180626 0.057190344 0.010705641 0.07802349 0.022762727 -0.12004173
-0.009530433 0.05209633 0.0220639 0.028962988 0.05518011 -0.07205796 0.05294101 -0.020232596
0.009949701 -0.08149019 0.019062173 -0.090662464 0.0059803557 0.096993275 -0.016377548 -0.12293922
0.139039 -0.076250486 -0.06450403 0.06485106 -0.0030186053 0.1127445 -0.004075862 0.044122048
0.09419825 0.0038951854 0.10990395 0.013681428 -0.06971785 0.08625495 0.057854954 -0.03186399
0.121842176 0.10307897 -0.0012856353 0.027544262 -0.022635836 0.04846949 0.111940354 -0.013555992
-0.04517626 -0.011245781 0.13426442 -0.012247096 0.05337783 -0.0029281757 0.06943812 -0.010424123
0.1746085 -0.03383052 0.023204977 0.08746032 -0.09175841 -8.274939e-05 -0.024325209 0.10487369
-0.028485255 0.07203266 -0.044421285 0.03665075 0.03355565 0.008781326 0.033630475 -0.027125955
0.022108914 0.06251136 -0.046588376 -0.027267054 0.090192124 0.060797 -0.059077732 -0.02576714
0.043685704 -0.033597812 0.14918514 0.046163738 -0.035341065 -0.0696992 0.009499526 -0.0462867
0.1350179 -0.09985535 -0.04294668 0.031536672 -0.023793401 -0.07491515 -0.10078951 -0.033983182
-0.042855445 -0.052493114 0.014391783 0.0715682 0.062590495 -0.10057502 0.07857445 0.018978087
-0.054863222 -0.024062548 -0.008432823 0.028517619 -0.09565089 0.12072334 0.0274615 0.07643165
-0.019641455 -0.0042122905 -0.08073039 -0.060498357 0.05159747 0.034650836 -0.09453881 0.118103586
0.014121144 0.033934757 0.011124406 0.10518421 -0.006932944 -0.00092087005 -0.21607026 -0.073795386
0.06665567 -0.038674563 -0.055092327 0.06438091 0.07325251 0.033280298 -0.03707424 -0.018991007
-0.030664133 -0.05559223 -0.055557545 0.08450986 -0.107187 0.038621668 -0.04476454 0.040073052
00000000: 94bd fcbb 4daa 703d c8df 6e3c baf3 48be
00000010: 89a7 cb3c da48 a6bd 51ee 9cbd 1da2 563c
00000020: 81d4 85bd e031 ddbc 3d3a 1dbd 87da b73d
00000030: 8f4c b3bd 3910 c03c 37d3 083d 3366 9f3d
00000040: 2b8e d23d ca4a 41bc da95 d13a 66a6 bc3d
00000050: 0f9e a2bc 6c06 453d 4f9b 40bb 7a65 2a3d
00000060: 0b59 c2bd 0106 2e3c b97d 143e b0e9 c13d
00000070: 8718 ba3d cd74 b2bc f404 4b3d f777 383d
00000080: 4be1 b93b 9987 34bd 01a7 ab3b def0 7abd
00000090: 1c6d fc3b e272 c7bd 34b8 fd3c f4ae b13d
000000a0: 19ff c43d 6132 6dbd cae8 9bbd d81b 14be
000000b0: 0b67 80bd 85d5 9abd 611a af3c 8ef2 52bd
000000c0: 79ac 81bc cb9d c73d 3960 033e 19b1 43bd
000000d0: 4f77 8d3c 5c19 48bc 0a47 bfbd 7f05 f9ba
000000e0: aeff ebbd 8e57 d9bd d10b a0bd ba5d 2dbd
000000f0: d169 33bb 6995 13bd 27ad 813c 5bd7 57bd
00000100: 4830 1cbc 813c 23bb f6d3 adbd 1ddc c13d
00000110: b03e b83d 9124 b23d e309 bd3d 04e7 aebd
00000120: 4ede a4bd 0499 903c 7045 853d 51fe 913c
00000130: 514b 97bd ab8d 813d 005f 893d 55ce 0f3d
00000140: dcb6 79bd f516 adbc 7876 7b3d c637 0fbd
00000150: 4af0 d3bc e54b 0fbd 6501 0ebe bce8 09bd
00000160: aeda b0bd 8fcd a4bc 2b0c c7bc 2dcb 623d
00000170: baa4 4e3e 5eff 573d 722a d1bd 5d36 91bd
00000180: 6b38 91bd ead1 383c 6c8b 82bb 87fd 573e
00000190: f343 5f3c c273 b83d 4afb 8fbd 9cb4 013b
000001a0: 64bd 6fbd d995 253d b5d5 84bc d9ce 9f3d
000001b0: 89f7 763d 0d8a a8bd 52b2 f3bc 0fa1 173e
000001c0: 48f3 cb3c f3ed cbbc 04ad 28bd 6c40 6a3d
000001d0: b666 2f3c c8ca 9f3d e678 ba3c 70d8 f5bd
000001e0: 8925 1cbc f662 553d 5abf b43c ca43 ed3c
000001f0: 8a04 623d 2093 93bd acd8 583d d4be a5bc
00000200: 1204 233c 54e4 a6bd 4628 9c3c 3ead b9bd
00000210: dcf6 c33b 69a4 c63d 352a 86bc 8fc7 fbbd
00000220: 3d60 0e3e 3729 9cbd b01a 84bd a2d0 843d
00000230: cbd3 45bb 97e6 e63d cf8e 85bb 52b9 343d
00000240: 03eb c03d 5e46 7f3b 5215 e13d 1128 603c
00000250: 3bc8 8ebd 6fa6 b03d 51f9 6c3d d183 02bd
00000260: 6488 f93d 111b d33d c382 a8ba 81a4 e13c
00000270: ca6e b9bc f287 463d fc40 e53d f419 5ebc
00000280: be0a 39bd 3940 38bc 9d7c 093e 0ba8 48bc
00000290: b6a2 5a3d a3e6 3fbb 9335 8e3d f1c9 2abc
000002a0: 92cc 323e df91 0abd 5d18 be3c 651e b33d
000002b0: d5eb bbbd be89 adb8 a945 c7bc 04c8 d63d
000002c0: e959 e9bc dc85 933d 18f3 35bd 191f 163d
000002d0: a671 093d 8ddf 0f3c 1cc0 093d 4037 debc
000002e0: c11d b53c f505 803d 74d3 3ebd 285f dfbc
000002f0: a6b6 b83d 4606 793d 7efb 71bd 9c15 d3bc
00000300: c8ef 323d dc9d 09bd fdc3 183e 3016 3d3d
00000310: cbc1 10bd 74be 8ebd e6a3 1b3c 1f97 3dbd
00000320: 2242 0a3e f680 ccbd dce8 2fbd 992c 013d
00000330: 61ea c2bc 1d6d 99bd bb6a cebd f331 0bbd
00000340: 3189 2fbd 0503 57bd 83cb 6b3c 5992 923d
00000350: 722f 803d 47fa cdbd a4eb a03d ef77 9b3c
00000360: 42b8 60bd d21e c5bc d329 0abc c89d e93c
00000370: 9de4 c3bd cc3d f73d f1f6 e03c 3288 9c3d
00000380: 1ee7 a0bc 4107 8abb fa55 a5bd 20cd 77bd
00000390: de57 533d 09ee 0d3d 909d c1bd 4be0 f13d
000003a0: 5f5c 673c 2cff 0a3d 2443 363c d26a d73d
000003b0: c02d e3bb 8b66 71ba 8641 5dbe 0922 97bd
000003c0: c582 883d 3869 1ebd 7ea8 61bd 23da 833d
000003d0: 6905 963d ec50 083d 29db 17bd 0793 9bbc
000003e0: 5933 fbbc aeb4 63bd 4f90 63bd 8113 ad3d
000003f0: dc84 dbbd c131 1e3d 065b 37bd a423 243d

network_body._body_endoder.seq_layers.4.bias f4 [256]
-0.013561813 -0.0018055827 0.0076757246 -0.006653153 -0.002525088 0.026532356 0.009067713 0.01456404
-0.01934586 -0.058337074 0.0012601153 0.046130564 -0.001346883 0.010810801 -0.0102926735 -0.033284858
0.010107496 0.0060768146 0.003403127 0.004189978 -0.0035724693 -0.018259203 -0.009904334 0.0017999965
-0.0015510598 0.0017918062 -0.008605939 0.018158644 0.010101551 -0.0046411194 0.11896943 0.0103710415
0.008874696 -0.0005019293 -0.0025612935 -0.058285918 0.004944416 0.0050965124 0.0926963 0.01111093
0.0045209182 -0.003802731 0.07921072 0.0016450073 0.014603239 0.002405814 -0.010293884 -0.06264127
0.0084175365 -0.00068512745 0.0046441113 -0.0022722217 0.0029535093 -0.0038242796 -0.0021266628 -0.004861013
0.030582657 0.0016954138 0.009792363 -0.006531657 -0.005494092 0.009710336 8.228362e-06 -0.01100484
0.016175853 -0.01381363 0.017941361 -0.023900874 0.05751957 -0.0014440895 -0.08743329 0.028294146
0.063450396 0.019987758 0.0071205613 -0.02628128 0.0033955728 0.00028846957 0.044602156 -0.05739347
0.00028189464 -0.08516621 0.0040709977 -0.012427553 -0.02450302 -0.0053469082 0.005602917 0.00076131657
-0.01372186 -0.015389883 0.004836418 -0.00822054 0.045619085 0.0033070561 0.0018688998 -0.00066704914
0.00627517 0.007501006 0.0008372899 0.0102486415 -0.0019722579 0.03766235 0.010410364 0.09832647
-0.010347811 -0.001972458 -0.0039608707 -0.085196346 0.0063947635 0.028585682 0.105097264 0.02604291
0.00010289032 -0.0048320577 0.010563776 0.010379301 0.01487295 0.0047637564 0.0036502942 0.00023425953
0.010669213 0.0025670477 -0.004329595 0.0022561057 0.0114442855 -0.015459418 0.016324393 0.0013867826
-0.004863325 -0.0038726472 0.0013621725 0.009734631 -0.0041727847 0.079984486 -0.010372093 0.009245298
-0.0078212945 -0.0014700501 0.002659282 0.004693914 8.55857e-05 0.0023797771 0.0075307917 -0.0040350747
0.0012078386 0.03209351 0.0018900101 -0.004602247 0.0050668214 0.0036149481 0.0062230714 0.0017324137
-0.0029933513 0.0097852545 -0.054563325 0.072051786 -0.00035017525 0.04301353 -0.0022268496 -0.015373304
0.0017807008 0.02274868 0.020376747 -0.0071776463 -0.009386948 -0.0024911172 -0.015360937 0.013659367
0.013154886 0.0069108168 0.009085447 0.06540535 0.0077488767 0.030318469 0.0041678953 -0.0010223455
0.020412598 -0.010551488 0.0005560397 0.004831043 -0.0060638688 0.002878971 0.010343214 0.0024989818
0.004095555 -0.0026625306 0.007898742 0.019073123 -0.012165838 0.03522734 -0.03018094 -0.04257629
-0.0050462135 0.0031706097 0.003960043 0.014131969 -0.0070812413 -0.037742633 0.05293643 0.006921701
-0.001268241 -0.051040918 0.004002339 0.014285376 -0.006710806 -0.021564143 0.011374183 0.018149458
-0.0032398377 0.0035712998 0.006052122 -0.008877127 -0.011994762 0.025839683 0.061915405 0.0028389918
0.007373442 0.009131962 -0.038799588 -0.012312968 0.003404275 -0.02964784 -0.001443595 0.0024299412
0.031875998 -0.0039401827 -0.03054405 -0.001233964 0.004224938 0.008436249 -0.0015530686 0.013643713
-0.0012421695 -0.050126534 0.05604816 0.013102067 -0.0057803593 -0.0031094025 0.002441843 0.009431556
0.0014976565 0.006829406 0.005572449 0.027961155 0.020819128 0.018464362 -0.016164852 -0.017715545
0.026669549 -0.0021752694 -0.002066577 0.00048022118 -0.014100895 0.012043858 0.00071661576 0.020500677
00000000: 5e32 5ebc 4da9 ecba a584 fb3b b102 dabb
00000010: f27b 25bb 625a d93c bf90 143c 039e 6e3c
00000020: 367b 9ebc dbf2 6ebd 742a a53a 67f3 3c3d
00000030: e589 b0ba c91f 313c 9aa2 28bc b455 08bd
00000040: e999 253c 0420 c73b ff06 5f3b 154c 893b
00000050: 1720 6abb 5394 95bc ca45 22bc dced eb3a
00000060: ee4c cbba 0adb ea3a edff 0cbc 70c1 943c
00000070: fa80 253c 8814 98bb 3fa6 f33d 4deb 293c
00000080: 2c67 113c e893 03ba 60db 27bb 37bd 6ebd
00000090: c504 a23b a500 a73b 8fd7 bd3d 9e0a 363c
000000a0: 3624 943b 3d37 79bb 3b39 a23d 499d d73a
000000b0: 6c42 6f3c dcaa 1d3b aea7 28bc 114a 80bd
000000c0: b5e9 093c 209a 33ba a12d 983b 8ee9 14bb
000000d0: aa8f 413b c4a0 7abb 7b5f 0bbb 2249 9fbb
000000e0: 7b88 fa3c a638 de3a 2670 203c 8307 d6bb
000000f0: c907 b4bb 1a18 1f3c 8c0c 0a37 a54d 34bc
00000100: 3983 843c 9052 62bc c3f9 923c c4cb c3bc
00000110: a499 6b3d 9a47 bdba 3a10 b3bd 20c9 e73c
00000120: 48f2 813d 5ebd a33c 9953 e93b d74b d7bc
00000130: 4288 5e3b bb3d 9739 c0b0 363d 6a15 6bbd
00000140: 42cb 9339 9f6b aebd 0166 853b ef9c 4bbc
00000150: 8fba c8bc 1e35 afbb ad98 b73b 1793 473a
00000160: a7d1 60bc d925 7cbc d17a 9e3b 72af 06bc
00000170: 14db 3a3d 32bb 583b dff5 f43a e9dc 2eba
00000180: f19f cd3b 00cb f53b 937d 5b3a ebe9 273c
00000190: ff40 01bb d643 1a3d 3b90 2a3c 635f c93d
000001a0: dd89 29bc 5b44 01bb 31ca 81bb 6c7b aebd
000001b0: 2a8b d13b 852c ea3c 3c3d d73d f157 d53c
000001c0: d2c6 d738 3d56 9ebb b013 2d3c f20d 2a3c
000001d0: acad 733c 4919 9c3b c639 6f3b 90a3 7539
000001e0: eccd 2e3c ea3b 283b 46df 8dbb 2cdb 133b
000001f0: d080 3b3c 8049 7dbc bcba 853c b4c4 b53a
00000200: 875c 9fbb 3dcc 7dbb ed8a b23a 007e 1f3c
00000210: dbbb 88bb e8ce a33d b6ef 29bc 9779 173c
00000220: e324 00bc b2ae c0ba 5947 2e3b 68cf 993b
00000230: 797c b338 09f6 1b3b dcc4 f63b a938 84bb
00000240: 5750 9e3a 7c74 033d 37ba f73a 72ce 96bb
00000250: 9407 a63b c4e8 6c3b e8ea cb3b 2812 e33a
00000260: 1a2c 44bb 5552 203c cb7d 5fbd e38f 933d
00000270: ba97 b7b9 f52e 303d 56f0 11bb 4fe0 7bbc
00000280: 6766 e93a 715b ba3c 23ed a63c 7632 ebbb
00000290: b7cb 19bc 0342 23bb 71ac 7bbc 8acb 5f3c
000002a0: 9787 573c 2274 e23b 20db 143c 3df3 853d
000002b0: 4aea fd3b 705e f83c d792 883b 3900 86ba
000002c0: 5238 a73c 26e0 2cbc 31c3 113a ba4d 9e3b
000002d0: 6bb3 c6bb 1ead 3c3b 9576 293c f5c5 233b
000002e0: 0134 863b da7d 2ebb ba69 013c 3d3f 9c3c
000002f0: 3953 47bc 8b4a 103d 053e f7bc 7a64 2ebd
00000300: b55a a5bb 01ca 4f3b 40c3 813b c689 673c
00000310: c209 e8bb 0598 1abd dfd3 583d 70cf e23b
00000320: 1b3b a6ba 4810 51bd 0e26 833b 360d 6a3c
00000330: 52e6 dbbb 49a7 b0bc c85a 3a3c 2cae 943c
00000340: 7553 54bb 780c 6a3b e150 c63b 5f71 11bc
00000350: ae85 44bc bead d33c 029b 7d3d 610e 3a3b
00000360: ea9c f13b 3a9e 153c 51ec 1ebd 55bc 49bc
00000370: 421a 5f3b 07e0 f2bc 0337 bdba a63f 1f3b
00000380: 6890 023d a61c 81bb 8437 fabc f6bc a1ba
00000390: 5971 8a3b 3138 0a3c 5690 cbba e189 5f3c
000003a0: 4bd0 a2ba 7b51 4dbd c192 653d 0daa 563c
000003b0: 2b69 bdbb 1ec7 4bbb 5407 203b d086 1a3c
000003c0: 034d c43a 36c9 df3b 1799 b63b cb0e e53c
000003d0: e08c aa3c 9342 973c 276c 84bc 3120 91bc
000003e0: 197a da3c f78e 0ebb 696f 07bb 32c6 fb39
000003f0: 7107 67bc 9a53 453c 45db 3b3a 09f1 a73c

action_model._discrete_distribution.branches.0.weight f4 [2, 256]
-0.0005222088 -0.008898922 0.04168273 -0.03761145 -0.035308674 -0.017563595 0.019438837 0.052031774
0.038663976 -0.025095597 -0.019627582 0.020425294 0.034787893 0.03786392 -0.049264878 -0.0013835476
0.040545665 0.016577879 0.020460026 0.022417702 -0.011236137 -0.026126422 -0.027729562 -0.004828346
-0.00021053791 -0.0021164424 0.035114214 0.045598187 0.048518147 -0.03442155 0.00016762389 0.029212372
0.02134886 -0.056246772 -0.03389891 0.02417909 0.026171466 -0.023779344 -0.0073084277 0.043956786
0.021592228 -0.047998432 -0.020155633 0.00018125218 0.029648095 0.0258583 0.0009769009 -0.005724163
0.01872149 0.033286285 0.0064406446 0.026477443 -0.025579875 0.030264853 0.002224107 0.011227773
-0.06807434 0.044224646 0.022401819 -0.051362623 0.015630262 0.056222856 -0.046261266 -0.022147467
-0.0406164 -0.031422816 0.040302053 0.046686452 0.024203017 -0.035136737 -0.035953637 -0.0018522779
0.005641742 -0.033691723 0.049552463 0.024445932 0.03455844 -0.0035008918 -0.011383349 0.0052463464
-0.0016955999 -0.0040961807 -0.00038395028 -0.015986387 -0.02082672 -0.02656158 -0.024645323 0.037454747
0.040509228 0.014297068 -0.016579254 -0.040014204 0.02332434 0.0021995602 -0.0384366 0.030044043
0.043425858 0.032609694 0.019692205 0.055938486 -0.024794845 -0.010698983 0.016012771 -0.0065978547
0.022074224 -0.0065357084 0.011344977 0.01274723 -0.022637548 -0.002435984 0.0077698235 0.024556888
-0.044987246 -0.032808512 0.048786744 -0.010420187 0.0069610123 0.033644 -0.037439793 -0.003196884
0.043469246 0.031245127 -0.035017893 -0.012134256 0.004980694 0.020480707 0.052377325 -0.049667053
-0.044968203 0.01819576 -0.026780635 -0.024489155 -0.0034440483 0.0036086412 -0.042623896 0.039729763
-0.024690226 0.014299903 0.024780069 -0.024133513 0.0262971 -0.03202757 0.028260162 -0.017622521
-0.03378677 -0.024208387 0.025029575 0.0010168846 0.03191223 -0.019710017 0.035158765 -0.019039888
0.014382732 0.024916356 0.022413675 0.052253608 -0.023066556 -0.012402244 -0.024825973 -0.012361598
-0.022524275 -0.025096405 -0.009533462 -0.026947513 0.0047785603 -0.002522894 -0.026122458 -0.00018416024
0.03282311 0.04132053 0.03467294 -0.030365389 0.0035225295 0.0045144726 0.034053713 -0.020510735
-0.0002699904 0.008335339 0.02958869 0.037559055 0.022672849 -0.023717757 0.02471031 0.036929585
-0.041442975 -0.046845395 0.02819273 0.039590634 0.023263747 0.050131015 -0.025525082 0.00058474974
-0.011296477 0.0420368 0.04313 0.0020714256 -0.019374328 -0.027053887 0.014491242 0.0440076
-0.045601342 -0.005179244 0.036130816 0.041217957 -0.014671997 -0.0036449581 0.040376663 -0.015936686
-0.04456949 0.015062702 -0.026779968 0.022153668 0.01731599 -0.042719416 0.02822816 0.027321013
0.049458865 0.037070625 0.035040967 -0.052229386 -0.024041709 -0.009815095 -0.016653158 -0.009186556
0.021767458 -0.0335566 0.018810565 -0.021443125 0.011340925 0.052974556 -0.03346418 0.053644992
-0.028036369 -0.00814045 0.012739257 0.026140656 0.021745082 -6.7871246e-05 0.018361708 0.031084
0.014623182 -0.00651233 0.053430818 -0.00059162965 0.035297003 0.008837523 0.049299754 -0.015101175
0.007116099 -0.048324533 0.005239231 -0.035285436 -0.04924024 0.05647404 -0.011840809 0.0020052372
00000000: d7e4 08ba c9cc 11bc 83bb 2a3d 770e 1abd
00000010: d49f 10bd 87e1 8fbc 323e 9f3c 451f 553d
00000020: 1e5e 1e3d 4895 cdbc 06ca a0bc f252 a73c
00000030: c07d 0e3d 3317 1b3d f8c9 49bd 2758 b5ba
00000040: 3613 263d 55ce 873c c99b a73c 54a5 b73c
00000050: c617 38bc 1407 d6bc 1b29 e3bc 1a37 9ebb
00000060: d7c3 5cb9 03b4 0abb ecd3 0f3d 2ac5 3a3d
00000070: f7ba 463d 9cfd 0cbd 32c4 2f39 c94e ef3c
00000080: cee3 ae3c 0463 66bd 95d9 0abd 3a13 c63c
00000090: 8b65 d63c e6cc c2bc 897b efbb 080c 343d
000000a0: 2fe2 b03c 019a 44bd 6d1d a5bc 830e 3e39
000000b0: 90e0 f23c c9d4 d33c 5b0b 803a c291 bbbb
000000c0: cf5d 993c 3357 083d 0b0c d33b 39e7 d83c
000000d0: e38c d1bc ffed f73c 53c2 113b b1f4 373c
000000e0: 8f6a 8bbd e724 353d 0584 b73c 9d61 52bd
000000f0: 090b 803c f049 663d 747c 3dbd 9b6e b5bc
00000100: 625d 26bd 36b5 00bd c413 253d 4b3a 3f3d
00000110: 6845 c63c 8aeb 0fbd 1f44 13bd 22c8 f2ba
00000120: 5dde b83b 5500 0abd 86f7 4a3d d642 c83c
00000130: 278d 0d3d 386f 65bb 3a81 3abc 8be9 ab3b
00000140: e43e deba 4139 86bb ef4c c9b9 e2f5 82bc
00000150: cc9c aabc ac97 d9bc fde4 c9bc 266a 193d
00000160: 01ed 253d 403e 6a3c 37d1 87bc efe5 23bd
00000170: b012 bf3c 7f26 103b b26f 1dbd ed1e f63c
00000180: 50df 313d be91 053d 8c51 a13c c11f 653d
00000190: 8f1e cbbc ca4a 2fbc 372d 833c d132 d8bb
000001a0: 01d5 b43c 7f29 d6bb 48e0 393c c2d9 503c
000001b0: 6172 b9bc 08a5 1fbb 019a fe3b 872b c93c
000001c0: 8c44 38bd 3862 06bd 9cd4 473d 6fb9 2abc
000001d0: 3419 e43b 4ace 093d 785a 19bd d082 51bb
000001e0: cf0c 323d c8f5 ff3c ec6e 0fbd c2ce 46bc
000001f0: 1735 a33b 28c7 a73c 9b89 563d ae6f 4bbd
00000200: 9430 38bd 460f 953c 1063 dbbc 7b9d c8bc
00000210: 8bb5 61bb f47e 6c3b 6596 2ebd adbb 223d
00000220: 2843 cabc 244a 6a3c 92ff ca3c a5b3 c5bc
00000230: 046d d73c 572f 03bd db81 e73c 1b5d 90bc
00000240: ff63 0abd ab50 c6bc d30a cd3c fc48 853a
00000250: 66b6 023d e776 a1bc a302 103d 8af9 9bbc
00000260: 8da5 6b3c 631d cc3c e29c b73c e107 563d
00000270: 13f6 bcbc c832 4bbc d75f cbbc 4d88 4abc
00000280: d484 b8bc fa96 cdbc 3d32 1cbc 08c1 dcbc
00000290: 7895 9c3b 2357 25bb c4fe d5bc 231b 41b9
000002a0: 8771 063d b73f 293d 3605 0e3d d6c0 f8bc
000002b0: 3dda 663b 24ee 933b e87b 0b3d 2106 a8bc
000002c0: 808d 8db9 f290 083c fb63 f23c 86d7 193d
000002d0: 69bc b93c be4b c2bc 476d ca3c 7a43 173d
000002e0: 1cc0 29bd f5e0 3fbd 71f4 e63c ca29 223d
000002f0: 9d93 be3c 2e56 4d3d fa19 d1bc e449 193a
00000300: dc14 39bc c82e 2c3d 15a9 303d c1c0 073b
00000310: e9b6 9ebc 1da0 ddbc ad6c 6d3c 5041 343d
00000320: 79c8 3abd a6b6 a9bb e8fd 133d 29d4 283d
00000330: d162 70bc 40e0 6ebb 0062 253d a78d 82bc
00000340: 7f8e 36bd 8dc9 763c aa61 dbbc 9c7b b53c
00000350: 43da 8d3c 8efa 2ebd be3e e73c 51d0 df3c
00000360: 6195 4a3d 5ed7 173d 1e87 0f3d 7bee 55bd
00000370: 1ef3 c4bc 7ecf 20bc 346c 88bc 3583 16bc
00000380: ab51 b23c a572 09bd 9d18 9a3c 7ea9 afbc
00000390: 49cf 393c d9fb 583d bc11 09bd daba 5b3d
000003a0: 87ac e5bc 865f 05bc 51b8 503c ee24 d63c
000003b0: be22 b23c 1956 8eb8 4b6b 963c dfa3 fe3c
000003c0: 1296 6f3c 6265 d5bb 46da 5a3d 9817 1bba
000003d0: 9793 103d 42cb 103c 8aee 493d eb6a 77bc
000003e0: 2a2e e93b f2ef 45bd dbad ab3b 7687 10bd
000003f0: 22b0 49bd 5351 673d f4ff 41bc 4c6a 033b

action_model._discrete_distribution.branches.0.bias f4 [2]
0.012292035 -0.012292
00000000: 8864 493c 6364 49bc
