Assets/ML-Agents/My Behavior.onnx (onnx, 77162 bytes, 13 tensors)

discrete_action_output_shape f4 [1, 4]
000000 00 00 00 40 00 00 00 40 00 00 00 40 00 00 00 40
       2.0 2.0 2.0 2.0

network_body._body_endoder.seq_layers.0.weight f4 [128, 4]
000000 bc f1 ab be 18 96 16 bf c6 a3 1f bd db 61 0f bc
       -0.33582866 -0.58822775 -0.038974546 -0.008751358
000010 50 df 6f be 80 7f 53 3f 6a c8 08 bf 98 46 dc bd
       -0.2342503 0.82616425 -0.5343081 -0.10755652
000020 ff 5d 88 be 89 b0 49 be b7 c5 ac bd e3 d8 9c 3e
       -0.26634213 -0.19696249 -0.084361486 0.3063422
000030 2e 62 50 3f b0 c1 da 3e a2 f1 eb be 2d 5d 0a bf
       0.8139981 0.42725897 -0.4608279 -0.54048425
000040 55 43 9e bd 98 66 9d 3e 36 65 6e bf 94 5f 9e be
       -0.07727686 0.30742335 -0.93123186 -0.30932295
000050 a4 c7 f9 be 41 ae 44 bc 1d 27 12 bf f1 77 01 be
       -0.48785126 -0.012004436 -0.5709093 -0.1264341
000060 61 ea fe 3e 5b f2 5d 3f 67 fd 4a 3e 41 5c 0d bd
       0.49788192 0.8669793 0.19823228 -0.03451181
000070 70 52 27 3c 4f 8f 4a 3c 49 19 0e bf 5a 70 13 be
       0.010212526 0.012363269 -0.5550733 -0.14398327
000080 d0 00 d9 bd 12 56 db be 81 71 48 3e 5a e2 1a 3f
       -0.10595858 -0.42839104 0.19574548 0.60501635
000090 e5 0f 99 bf da 21 c8 3e 20 4e 79 be ef 6c d9 3d
       -1.1957976 0.39088327 -0.24346209 0.106164806
0000a0 fb e9 ee 3e 2f 48 47 3e ca 98 c9 3e 0d 8d 4a be
       0.46662888 0.1946113 0.3937438 -0.19780369
0000b0 a7 9c 98 3e 37 74 b3 3d ab d2 a9 be 2b 55 bf be
       0.29807016 0.087624006 -0.3316854 -0.37369666
0000c0 62 db c3 3e a2 70 cf 3c e0 19 c6 3d 12 5e 8c 3d
       0.38253313 0.025322262 0.09672904 0.0685388
0000d0 fc 42 0e be 67 b7 8d 3d d9 ce 4c bd eb 08 98 3e
       -0.1389274 0.06919747 -0.050001953 0.29694304
0000e0 c8 45 07 3f ba 40 36 bf 7c bb 5e bd 95 c7 e9 be
       0.5284085 -0.71192515 -0.054378018 -0.45660082
0000f0 84 68 a6 3f cc b2 f9 3e d2 db 22 be 51 f9 9e be
       1.3000646 0.48769224 -0.15904167 -0.31049588
000100 bf 24 02 bf 4c d2 8a be 27 fd af 3e e5 3b 9a be
       -0.5083732 -0.2711357 0.34372827 -0.3012382
000110 8c 65 2c bd 90 d6 72 3e 17 23 62 bf 75 e4 6a 3e
       -0.04208903 0.23714662 -0.8833479 0.22938712
000120 b0 ad 33 3e 2a 9e 1b bf e0 0d ed 3d 9c 30 db 3e
       0.17546725 -0.60788214 0.11574912 0.42810524
000130 74 a3 3a 3f a5 88 f9 be 2b d5 c4 bd 1d 86 47 bf
       0.7290566 -0.48737064 -0.09610971 -0.77939016
000140 f7 46 f9 be 8e 99 ed 3e de 05 e1 be 4d 89 69 3f
       -0.48686954 0.46406215 -0.4394979 0.9122513
000150 39 85 9d bf ba 69 2b bf 52 51 a4 3f 3b 9e 66 bc
       -1.2306281 -0.669582 1.2837317 -0.014075811
000160 75 01 cf 3e 33 54 53 3e 26 b0 49 be 02 8f 85 3e
       0.404308 0.20637588 -0.19696102 0.2608567
000170 3b 43 2e be 67 76 d2 bd bb 6e f4 be a8 55 1d bf
       -0.17017834 -0.1027649 -0.4774073 -0.61458826
000180 1e e3 c7 bd 95 3b 06 3f 32 8a 65 be ea f9 87 be
       -0.09760116 0.52434665 -0.22415999 -0.26557857
000190 34 0c f8 3e 7f 6e ff be 47 94 6c 3e 12 b8 29 bf
       0.4844681 -0.4988899 0.23103438 -0.66296494
0001a0 84 d7 05 3f ac fa 33 bd 8e 72 00 bf 70 a7 3c 3e
       0.52281976 -0.04394023 -0.50174797 0.18423247
0001b0 64 6c 21 be d0 96 05 bf 4b 0a 0b bf 62 84 5f 3d
       -0.15764004 -0.52183247 -0.5431258 0.05456961
0001c0 45 8e 77 be 56 87 40 3f af f0 4c 3e 8f 62 0d 3f
       -0.24175365 0.75206506 0.20013689 0.55228513
0001d0 54 7a 27 be eb 24 ec be 88 ef 61 3d 9a aa 10 be
       -0.16355258 -0.46121916 0.055160075 -0.1412758
0001e0 20 9a 40 bf 40 de ea bd 55 5d 3c bf 6e d6 c5 3e
       -0.75235176 -0.11468172 -0.73579913 0.3864016
0001f0 d8 45 1a be a8 22 75 bf 85 75 19 3f 4c 41 83 be
       -0.15065706 -0.95756006 0.59944946 -0.25635755
000200 61 8f 47 3d 26 83 ad 3e 39 cb 4f bf ee 3a 86 be
       0.04872072 0.3388912 -0.8116947 -0.26216835
000210 09 cf 3a be 7f bb 34 3e 10 2f 35 be b5 a3 03 bf
       -0.1824304 0.17649649 -0.17693734 -0.5142167
000220 98 69 e2 3e 7e 48 84 be 04 da 6d 3e 61 05 80 be
       0.44221187 -0.25836557 0.23227698 -0.25004104
000230 b0 9d 30 be 38 27 43 be ea 22 2b 3f 97 30 99 3e
       -0.17247653 -0.1905793 0.6685015 0.29919884
000240 d0 04 50 3f 48 c4 9c 3e 15 ea f0 3e 3d 44 39 be
       0.81257343 0.306185 0.4705359 -0.18092437
000250 8f 5c af be 21 a3 b3 be 11 17 93 3d 5d 60 ed be
       -0.34250304 -0.35085395 0.07182134 -0.46362582
000260 3e 12 6b 3f 58 86 9e 3f c8 bc ff bd 84 11 87 3e
       0.9182471 1.2384748 -0.12487179 0.2638055
000270 fd f7 f9 be 21 7e 15 bd a6 eb 2e be 40 10 b2 3c
       -0.48822013 -0.03649724 -0.1708208 0.021736264
000280 57 49 2a 3f dd a6 eb be c3 b0 07 bf 65 32 b6 be
       0.6651816 -0.46025744 -0.5300409 -0.35585323
000290 21 26 32 3e f7 79 65 3c 75 48 00 bf 70 b6 25 3f
       0.17397358 0.0140061295 -0.5011056 0.647315
0002a0 07 d4 3c be 27 c9 76 3e 61 29 01 3f 6e 26 6e be
       -0.18440257 0.24100171 0.50453764 -0.23256847
0002b0 c6 1a 9a be 27 c2 1f bf 23 ac 32 3e 4e ea 05 bf
       -0.30098552 -0.6240563 0.17448477 -0.52310646
0002c0 55 d1 69 3f fe c5 e5 be c7 b4 71 bd 9b 90 08 3f
       0.9133504 -0.4487762 -0.059010293 0.5334565
0002d0 bf d0 92 bc 7a 3a 60 3e a0 67 28 bf c7 8e fd be
       -0.017921804 0.21897307 -0.6578312 -0.49522993
0002e0 e8 51 74 bf fb 11 37 bd a0 1d c9 3e eb 6c a4 3e
       -0.9543748 -0.044694882 0.39280415 0.32114348
0002f0 c1 8c 2a be e1 aa a2 3d 06 e4 2d 3f 1a ed 27 bd
       -0.16655256 0.07942749 0.6792606 -0.040997602
000300 dc 5d 59 3e 8d 79 cf be 0b 05 bb be f8 84 02 bf
       0.21227211 -0.40522423 -0.36527285 -0.50984144
000310 01 73 b9 3d 6f 85 d9 be 63 23 0f 3e 71 05 ae 3e
       0.090551384 -0.42484614 0.13978343 0.33988526
000320 6d cd 20 be 7a b5 f6 3e d5 21 26 3f bb b8 96 3e
       -0.15703364 0.4818533 0.64895374 0.29437813
000330 7d 0b 21 be 49 c4 14 bf 3e fe dc 3e c1 86 18 3f
       -0.15727039 -0.5811201 0.4316272 0.5958062
000340 65 d0 ea 3e 00 53 5d 3e 1b fb f8 be 56 dc b9 bc
       0.45862117 0.21613693 -0.48629078 -0.022688072
000350 e6 95 dd bd f0 4d 3c be 1a fe 30 3e 08 0d 23 3f
       -0.108196065 -0.18389106 0.17284432 0.6369176
000360 aa f0 9c be 04 6f 37 be 23 63 04 be 86 00 12 3e
       -0.30652362 -0.17913443 -0.12928443 0.14258012
000370 52 5f 9b 3d 7c b4 d8 bc ee fe e1 3e 1e 3e b8 bc
       0.0758654 -0.02645325 0.44139808 -0.022490557
000380 72 7d 1e 3e a5 21 fd 3e 22 19 9a bd c5 2d f0 be
       0.15477541 0.4943973 -0.07524325 -0.4690992
000390 b0 da a9 bc d0 11 fd 3e 7b 3d 82 bf 62 b7 53 be
       -0.020734161 0.49427652 -1.0175012 -0.20675424
0003a0 2a 33 77 3e 28 37 0d be 0e 5f 22 3e c9 01 ca 3e
       0.24140611 -0.13790572 0.15856573 0.39454487
0003b0 37 a2 8d 3f e4 d8 e7 bd 97 eb 62 3e f4 20 ef be
       1.1065129 -0.113206655 0.22160183 -0.4670483
0003c0 3a 5e 8a be d1 de 89 be 62 6a 4a 3e 4b 02 2e 3e
       -0.27025014 -0.26927808 0.19767144 0.16993062
0003d0 e9 44 a1 3e 55 f9 20 be 40 e6 a5 3e f1 a2 ca 3e
       0.31497887 -0.15720113 0.3240223 0.3957744
0003e0 d5 91 07 3d 22 9b 47 be 05 e1 40 3f 10 55 bc 3d
       0.03309806 -0.19492772 0.7534335 0.09195912
0003f0 68 39 fa 3e 98 b8 81 3f 59 fa b4 be 24 d6 04 bf
       0.48871922 1.0134459 -0.3534725 -0.5188925

network_body._body_endoder.seq_layers.0.bias f4 [128]
000000 0d 2a 7e 3c a1 c4 a7 3c 54 70 19 3d 86 17 52 3d
       0.015512955 0.020479502 0.03746064 0.051291965
000010 2f 52 cd bb 1e 4c 49 bb fd 59 da 3c cb 86 2a bc
       -0.0062659006 -0.0030715535 0.026654238 -0.010408114
000020 44 2b 83 3c 5c fe 2e ba be b1 20 3a 54 ca 81 bc
       0.016011842 -0.0006675476 0.0006130001 -0.015843548
000030 85 08 27 3c 86 66 98 3c a1 55 9d bc aa 8d 51 3a
       0.010194902 0.018603574 -0.01920587 0.0007993827
000040 2e db 22 3c d7 ad 94 3c c6 ef 40 3d 64 7e 85 ba
       0.009939952 0.0181493 0.047103666 -0.0010184762
000050 c4 c8 93 3c 96 c0 3e 3d 81 4c 12 39 7e 07 dc ba
       0.018040068 0.046570383 0.00013952145 -0.0016786901
000060 bf ca 2d 3d c9 b6 07 3c 34 cf ad 3c c2 ee 02 bb
       0.042429682 0.0082833255 0.021216966 -0.0019978737
000070 ad b1 4f bc 7f f6 ad 3b 0c d0 bb 3c cd 67 db 3b
       -0.012676639 0.0053089256 0.022926353 0.0066957236
000080 1e 12 94 3c 2c 41 b5 bc aa 85 0c 3a 10 b2 20 3d
       0.018075045 -0.022125803 0.00053604937 0.039232314
000090 b9 ac d5 bc 4d f8 28 3d 1b 84 81 3c 8e fe c1 bb
       -0.026083337 0.041252423 0.015810063 -0.005920238
0000a0 c3 55 80 3c b9 7b ee 3b bc 26 ad 3c 88 93 07 bb
       0.015665894 0.0072779325 0.021136634 -0.00206873
0000b0 ef 06 e8 3a 9e b7 5e bc cd 65 2c 3d c6 a7 1a ba
       0.0017702262 -0.013593582 0.042089272 -0.0005899634
0000c0 06 fa c8 bc a9 95 0a 3d cc 27 a6 bc 3d 81 ca 3c
       -0.024533283 0.033834133 -0.020282649 0.024719829
0000d0 52 46 53 3d 70 18 17 3d 5c 39 c5 bb 99 62 db 3c
       0.051580735 0.03688854 -0.0060188007 0.026780413
0000e0 21 48 ba 3d 97 b8 bb 3c a3 37 39 3c 21 4c 8e 3c
       0.09095789 0.022915168 0.011304769 0.017370285
0000f0 ff d4 54 3c 4a e7 12 bc d2 80 2b bb b8 ef 2c 3c
       0.012990235 -0.008966276 -0.0026169312 0.0105552
000100 e8 b0 b4 bc d6 55 dc bb f5 7e 06 3d a3 53 94 bc
       -0.022057012 -0.0067240996 0.03283592 -0.018106287
000110 c6 2a fd bb 39 e3 88 3d 2c 33 ab 3c ab 6c bc 3c
       -0.0077260463 0.06683964 0.020898424 0.023001036
000120 dc 50 37 3c b4 fe f3 3c cc 00 84 3d 59 e2 07 3b
       0.011188712 0.029784538 0.064454645 0.002073428
000130 72 1a 7c 3c 7e b3 cd 3b 40 63 6a 3c 58 f2 b8 3c
       0.015387164 0.0062775007 0.01430589 0.022576496
000140 11 ff 0f 3d ce d1 0b 3c e8 f7 64 3d 02 86 69 3c
       0.03515536 0.008533908 0.055900484 0.014253141
000150 f7 bf db bb c2 f0 62 bc 6d 1f 8c 3c 18 b4 91 3c
       -0.0067062336 -0.013851346 0.017104829 0.01778607
000160 df b2 de 3c b1 b0 25 3c b8 db 2b bd 8b d8 28 3c
       0.027184902 0.010112927 -0.041957587 0.010305534
000170 60 71 64 bb 5f 56 55 3c 30 1c ce 3b 7f 29 81 3d
       -0.0034857616 0.013021081 0.0062899813 0.06306743
000180 35 c9 56 bc b8 11 00 3d 48 27 8f bc b4 72 06 3d
       -0.013109495 0.031266898 -0.017474785 0.032824233
000190 c9 49 10 3d 6c c3 d1 bc 3d 2f 44 bb 5d fd 0c 3d
       0.035226617 -0.02560588 -0.0029935383 0.034421314
0001a0 5a 04 34 bd 91 23 40 3d c1 bc 80 bb 98 37 14 3d
       -0.043949462 0.04690892 -0.003928751 0.03618583
0001b0 75 73 a5 3d 87 5e ae 3c 6b 12 ec 3c 19 c3 19 3a
       0.08078662 0.021285309 0.028817376 0.00058655586
0001c0 e0 f7 bb 3d 0e de b9 b9 58 0a 7e 3b a4 ae 20 bd
       0.09178138 -0.00035451393 0.003876349 -0.03922905
0001d0 7d e2 08 bd d0 74 cc 3b af c2 3d 3b bc b6 b4 3c
       -0.03341912 0.006239511 0.0028955152 0.02205979
0001e0 d4 07 8b bc b8 be 22 bc 95 01 29 3d bd d3 50 3b
       -0.016971506 -0.009933166 0.041261274 0.0031864487
0001f0 e3 3f f9 3b d5 03 4a 3b 74 e7 47 3d 56 d4 78 3c
       0.007606493 0.0030825038 0.048804715 0.015187344

network_body._body_endoder.seq_layers.2.weight f4 [128, 128]
000000 8c 00 87 bd 5f b6 ab bd 2c 1b 6e bd 02 39 e2 bd
       -0.06591901 -0.08384394 -0.058131382 -0.110460296
000010 b5 47 89 bd 08 b0 ff bd d9 ed 02 bc ba b9 e1 bd
       -0.0670313 -0.12484747 -0.007991278 -0.11021753
000020 f3 ff 56 bd 93 69 4a 3d 3b ea 66 bd 05 a0 1d be
       -0.052490186 0.04941709 -0.056375723 -0.15393074
000030 b7 19 8e 3d 69 fd 3e bb 82 9d 0b bd 0f 62 72 be
       0.069384985 -0.0029142743 -0.034085758 -0.23670219
000040 8a d6 90 bc 51 a9 68 3d 54 51 3f be 2e 9b 2b bd
       -0.017680425 0.056802098 -0.18683368 -0.041896038
000050 0d f9 09 bd f7 a5 1f 3d 78 fe ce 3d 02 29 81 bd
       -0.03368478 0.038976636 0.1010713 -0.0630665
000060 b7 b8 51 3d ec 7e d5 3d 66 64 6a bd 67 cc 63 bc
       0.05120155 0.10424599 -0.057224654 -0.013903714
000070 68 d1 91 3d 7b 86 1f bd 00 68 af 3d b9 2b db 3d
       0.07120019 -0.03894661 0.08564758 0.10701699
000080 b5 cd 28 bd 82 68 5f bd 6e d2 db 3d b6 5f d9 3c
       -0.041211803 -0.054543026 0.10733496 0.026534896
000090 21 45 e9 bd d7 14 b6 3d 70 17 a0 3d f0 01 18 be
       -0.113901384 0.08890694 0.0781697 -0.14844489
0000a0 9c 03 cc bd 3b 06 5d 3d 59 78 03 3e e3 e2 03 be
       -0.09961626 0.05396102 0.12838878 -0.12879519
0000b0 77 17 02 bd b0 90 30 bd 72 79 86 bd c8 c3 64 bd
       -0.03176066 -0.043106735 -0.065661326 -0.055850774
0000c0 3e c5 c7 3b 2d 5b d6 bd 50 fd e2 3d a2 f5 58 bd
       0.006096511 -0.10466609 0.11083472 -0.05296863
0000d0 58 e6 eb bc 05 a2 c7 bc 73 ac f6 3b 5f 76 14 3c
       -0.02879636 -0.02436925 0.007527882 0.009061425
0000e0 45 f7 a8 bc b4 ae e5 bc 44 47 5f 3d ca f5 70 bd
       -0.02062572 -0.028037407 0.054511324 -0.058828153
0000f0 88 f2 19 3d 3f 65 ff 3d ac cf 17 be 4c 03 d7 bd
       0.03758481 0.12470483 -0.14825314 -0.10498676
000100 86 89 ee 3d bc f3 3e 3d fa 07 11 3d 31 79 a3 bd
       0.11647324 0.046619162 0.035407998 -0.079821
000110 ec 67 3c bd ff 56 a9 bd 5a 92 12 bd e8 73 99 3b
       -0.045997545 -0.08268546 -0.035784103 0.0046830066
000120 fa c2 da 3d e0 34 37 bb 76 4f 53 be 0c 6e 1a 3d
       0.1068172 -0.00279551 -0.2063578 0.037702605
000130 d1 42 48 3d bc 52 6b 3a 5c bf d7 bd 62 af 7c 3d
       0.048891846 0.0008976867 -0.10534546 0.061690696
000140 fb e4 db 39 b8 a2 9a bd 18 fe a5 3d 4a 27 b1 3c
       0.0004194154 -0.075505674 0.08105105 0.02162518
000150 aa 7b 32 bd 79 89 e0 3c a5 78 f3 3d bb 14 aa 3d
       -0.043574966 0.027409302 0.118882455 0.08304735
000160 38 76 47 3d 89 b6 cf 3d b1 0f 36 3d dd 67 1b 3d
       0.048696727 0.10142238 0.04444856 0.03794085
000170 67 64 b5 3d 76 0e bf 3d 0e b5 7d bd a4 81 a1 bb
       0.08857041 0.0932893 -0.061940245 -0.0049287844
000180 82 16 a5 bc e9 9a 46 3d 5c dd e2 3c 0d a5 0f be
       -0.020152334 0.048487578 0.027693443 -0.14027806
000190 86 7a f3 bd ef 7b 76 3c 31 64 e6 ba b2 12 17 bc
       -0.11888604 0.0150441965 -0.0017577467 -0.009220766
0001a0 1c 77 b4 3d 22 9a 73 bd 07 4b 3c 3e 7d 05 f2 3c
       0.08811781 -0.059473164 0.18387996 0.029543633
0001b0 09 22 38 be 14 ab 40 bc 36 44 93 bd a6 57 e2 3c
       -0.17981733 -0.011759538 -0.071907446 0.027629685
0001c0 0d 27 3d bc 7e ea a1 3d 9c 23 de 3c 3f 1a 90 3d
       -0.011544955 0.07906054 0.02711659 0.07036256
0001d0 de fc 0e 3d 5a d7 aa bd 62 09 0b 3d 0d d1 3b bd
       0.03490912 -0.08341856 0.033944495 -0.045853663
0001e0 88 54 29 3e 2e 7d ff 3d 9d 34 18 be 97 aa cc 3d
       0.16536152 0.12475048 -0.1486382 0.09993475
0001f0 b7 7d 48 bd 76 c1 2a 3e 3e 32 f1 bc 2f eb de 3b
       -0.048948016 0.16675362 -0.029442903 0.0068029384
000200 86 52 0d 3e f6 5b 9e 3c 6a ad e2 bc 0a 8d 42 3d
       0.13801011 0.01933096 -0.02767058 0.047497787
000210 16 12 b2 bc 3c a8 2e bc 35 25 37 3d 9a 89 eb bd
       -0.02173714 -0.010660227 0.044713218 -0.11500855
000220 9d 7b 18 3d 06 db 3a be b1 89 03 bd 89 21 de bb
       0.03722726 -0.18247613 -0.032113735 -0.0067789
000230 da ba ad bd e3 c5 60 3d 6a 5c 0a bc 6f 87 59 be
       -0.08482905 0.05487622 -0.008444885 -0.2124307
000240 86 5f 08 3d 9d 7c 2d 3e a4 51 52 bd 9d 31 e5 bc
       0.033294223 0.16942067 -0.05134739 -0.027977759
000250 6a bf b4 bd a2 ad 08 3e 17 51 06 3c 99 01 0b bb
       -0.08825572 0.13347486 0.008198044 -0.002121067
000260 91 e7 98 3d d3 e8 d2 38 50 28 00 be 57 79 d1 3d
       0.07466043 0.00010056947 -0.12515378 0.10228222
000270 57 cc 13 3b 99 53 a4 3d d1 0f 0d 3e df 78 1b 3d
       0.0022552216 0.080237575 0.13775565 0.03795707
000280 75 43 75 3d 44 8d 00 bd 4b b0 cc bd e7 12 0d 3d
       0.059878785 -0.03138472 -0.09994563 0.034441855
000290 47 e2 31 be b3 50 64 bc 99 ed 78 be de 71 9a bd
       -0.17371474 -0.013935256 -0.24309386 -0.0754125
0002a0 27 80 a5 3d 2d ed 03 be 19 98 9b bc 2f bf f5 bd
       0.08081084 -0.12883444 -0.018993424 -0.11999356
0002b0 22 f5 bd bd e8 33 a4 3d a1 a4 db bc 7a 4b 39 3d
       -0.09275271 0.08017713 -0.0268119 0.045237996
0002c0 76 08 85 3c 99 bd 6b b9 a7 5c 37 be 77 5f 96 3c
       0.016239386 -0.00022481977 -0.17906438 0.018356068
0002d0 22 2a 9a bd cc 0d 37 3a 40 cc e8 bb b0 40 18 be
       -0.075275674 0.0006982952 -0.0071044266 -0.14868426
0002e0 88 6d 09 3e 66 9f 19 be 75 ad 83 3d eb 0d 45 3d
       0.13420689 -0.15002212 0.06429569 0.048108976
0002f0 de ad ab bc bd 30 27 3e 37 28 b6 b9 3a 72 0e bd
       -0.02095693 0.16327186 -0.00034743708 -0.034776904
000300 53 10 19 bd 3d 3b ef bd 43 d8 1f 3c 7f 11 81 be
       -0.037369084 -0.11681221 0.009756151 -0.2520866
000310 43 b6 0e 3e bc 79 97 ba ba 2b 5b bb 68 d7 44 bd
       0.13936715 -0.0011556665 -0.003344281 -0.04805699
000320 eb 4c 07 be eb 23 08 3d 3e 50 14 3e 19 2e 36 bd
       -0.13212936 0.03323738 0.14483735 -0.044477556
000330 5d 0c 80 bd 04 23 80 3d f3 c2 f4 bd ad 7e ac 3d
       -0.06252358 0.06256679 -0.11951246 0.08422599
000340 77 ea 90 bd 73 82 bd bc 43 f4 82 bd c9 51 82 3d
       -0.070759706 -0.023133492 -0.063942455 0.063632555
000350 11 75 40 3d b8 1f 2e 3e 07 e2 e1 3b 00 82 1c 3c
       0.046986643 0.17004287 0.0068933996 0.009552479
000360 fc cf 07 bb 3e c2 79 bd a4 c0 f4 bd ba d4 0f 3d
       -0.0020723334 -0.06097626 -0.11950806 0.03511498
000370 d1 cb 2a be aa d0 e0 3b 4f f6 0f 3b 4b c6 8e bd
       -0.16679312 0.006860812 0.002196688 -0.06971415
000380 ed 45 c1 bc 5c 37 a1 3c 4f 66 b1 bc 6e a7 d5 3c
       -0.023592914 0.019679718 -0.02165523 0.026080813
000390 70 3c 61 3d 79 bf 50 bc e2 c0 39 bd b1 34 06 be
       0.05498928 -0.012740963 -0.045349963 -0.13106038
0003a0 cc 95 2b 3d 4e 23 dc 3c 75 7b 7f bd 5b 9e 36 3d
       0.041890904 0.026872303 -0.062373597 0.044584613
0003b0 13 63 96 38 4d 86 85 3d d4 85 34 3e 8f 90 ce bd
       7.1710114e-05 0.065197565 0.17629176 -0.10086166
0003c0 89 b8 82 3a 10 03 3f bd ac b3 0d bd 02 28 ab bd
       0.0009973209 -0.04663378 -0.034595177 -0.0835724
0003d0 5a bc 24 3c 54 23 a8 3b a1 f0 f0 3d 9d cc be 3c
       0.010054672 0.0051311646 0.11764646 0.023290927
0003e0 a1 13 4d 3c fe 37 53 3d 0d fb c9 bd 96 73 24 3c
       0.012516887 0.05156707 -0.09862337 0.010037323
0003f0 ae 22 19 3d b1 a2 ac bd 0d bc 75 be ca 9b 43 bc
       0.03738659 -0.084294684 -0.23997517 -0.0119389985

network_body._body_endoder.seq_layers.2.bias f4 [128]
000000 cd 5d c1 3a fb 5e b5 bc ba 72 8f 3c 27 6a 9a 3b
       0.0014752686 -0.022140017 0.01751076 0.0047123614
000010 d5 83 96 3b ff ca a9 3c ae ae 7b 3c 28 f6 46 3c
       0.0045933523 0.020726679 0.015361471 0.012143649
000020 73 32 c0 3b c1 26 46 3c a4 f5 0a 3c b3 96 97 3c
       0.005865389 0.012094201 0.008481417 0.018504476
000030 a6 64 24 ba ab 65 1d 3c a6 25 71 bc 2f c6 da bb
       -0.00062711013 0.009606759 -0.014718449 -0.0066764574
000040 2b 6d b1 3c 0a a5 9e 3c fc 54 8b 3c be f7 3e 3a
       0.0216585 0.019365806 0.017008297 0.0007284841
000050 a0 c2 38 3b a4 cc 3c 3b b0 33 dd 3c f1 b6 5a bb
       0.0028192177 0.0028808499 0.027002186 -0.0033373202
000060 0c 7d 15 bc 7d 18 3c 3c 9c ff 06 3d e0 66 11 3c
       -0.009124052 0.011480448 0.03295861 0.008874625
000070 07 cc a3 3c fc 34 e6 3c 59 5d c3 3b ff 89 bb bc
       0.019994749 0.028101437 0.0059620556 -0.02289295
000080 d1 b0 3d bc 3f d6 2e 3b a7 21 1b bc 12 9c 1a 3c
       -0.011577801 0.0026677994 -0.009468473 0.009436624
000090 28 83 30 bc 1c e6 2c 3d f9 f2 8e 3c 13 09 f1 3a
       -0.010773458 0.042211637 0.017449843 0.0018389545
0000a0 af d8 1f bc 6f b7 54 3c 91 ce 06 bd 16 40 9c 3c
       -0.009756251 0.012983187 -0.03291184 0.019073527
0000b0 83 41 4b 3c 52 65 73 3b 4d 79 a1 bb 92 9b 39 3c
       0.012405756 0.003713925 -0.0049277903 0.011328595
0000c0 32 2d 5e bb e4 91 92 bc 70 2f ff bb 1c b5 03 3c
       -0.003390145 -0.017891832 -0.0077876374 0.008038785
0000d0 6a 71 3b 3c d7 17 b7 3b 1f 9b 4d 3c 29 ec ec 3b
       0.011440614 0.0055875587 0.012549191 0.007230301
0000e0 91 f6 4c bc 3e 25 a5 3c 0d 71 e7 bc c4 46 63 bc
       -0.012509958 0.02015936 -0.028252149 -0.013871852
0000f0 f1 b8 5b 3c 0e 16 a5 3c 32 ca 04 3c 0c 1c ab 3c
       0.013410793 0.020152118 0.008104848 0.020887397
000100 1f 36 06 bd e8 6c 0e bc 67 e4 3a bc cb 65 6f bc
       -0.032766458 -0.008692957 -0.011406994 -0.014611672
000110 42 d9 30 bc 31 a4 b2 3c db 74 df 3a 53 98 eb 3a
       -0.010793986 0.021806808 0.0017048375 0.0017974473
000120 5f ed 23 bc a2 b2 3c ba 9a c5 94 3a a9 c4 12 bd
       -0.010005324 -0.0007198249 0.0011350394 -0.03583208
000130 78 13 da 3b 56 7d d9 3b 24 60 b7 bb 15 57 c2 bc
       0.006655153 0.0066372557 -0.0055961777 -0.023723165
000140 c7 64 0c 3c 42 8f 0b bb 36 5b 9a bc d2 41 c1 3a
       0.008568949 -0.0021295105 -0.01884232 0.0014744347
000150 c9 34 13 3c 27 84 93 3b 26 7d 30 3d 3c 89 84 3c
       0.008984753 0.004501838 0.0430881 0.01617872
000160 15 c9 b5 3c fa a0 1b bc d7 cd 80 bb 79 fd 9d 3c
       0.02219061 -0.009498829 -0.003930788 0.019285904
000170 ac f6 22 bc 7b be b3 3a 7e 37 4f 3c f7 04 fd 3b
       -0.0099465065 0.0013713384 0.012647508 0.007721539
000180 98 90 11 bc c8 99 7f bb df bd 4a bb 50 e1 ad ba
       -0.0088845715 -0.0039001573 -0.0030935926 -0.0013266001
000190 23 16 f7 3c c3 13 77 3c c3 0b 89 3c a7 13 4f bb
       0.030161923 0.015080395 0.016729241 -0.0031597407
0001a0 0d cf c4 bb 07 a9 b2 38 2c 87 c8 3c a0 c8 d4 bc
       -0.0060061277 8.519185e-05 0.024478517 -0.025974572
0001b0 14 d6 ef 3b 57 0e 26 3c 51 15 8d 3c c7 00 d7 3c
       0.0073192213 0.010135255 0.017222079 0.026245488
0001c0 39 73 10 3c f4 ca 03 3a 4e 69 89 bc b9 04 5d 3c
       0.008816534 0.0005027496 -0.016773846 0.0134898955
0001d0 e9 57 62 3a 45 35 2d bc 54 02 9e 3c 3c 4d 3f 3a
       0.00086343155 -0.0105717825 0.01928822 0.00072975806
0001e0 df ee 01 bd 67 0c 22 3c 3a 84 5d 3a 08 e8 e4 3c
       -0.031721946 0.009890652 0.0008450184 0.027942672
0001f0 70 59 c4 3c f3 c7 99 3c 66 35 54 3b 0a ed 86 3a
       0.023968428 0.018772101 0.003238046 0.0010294032

action_model._discrete_distribution.branches.0.weight f4 [2, 128]
000000 dd ee 5e bc 52 5b d2 bc 0f 43 44 3b 9f a5 d2 bc
       -0.013606754 -0.02567831 0.0029947197 -0.02571374
000010 d1 a3 15 bb 6e 77 24 3c cb b2 4c 3b 0f ab 18 bb
       -0.0022833238 0.01003824 0.0031234499 -0.0023295318
000020 23 8e b1 3c d8 b2 a9 3c 70 d9 f3 bc b1 9a 81 bc
       0.021674221 0.020715162 -0.029766768 -0.015820833
000030 db de 32 bc 07 97 aa bc d5 aa cc bc 06 ab a1 3b
       -0.010917391 -0.020823969 -0.024983803 0.0049337177
000040 7a 40 f5 bc 4e 83 b0 3c 82 c1 4f bc 9f ca c1 3b
       -0.029937971 0.021546986 -0.012680413 0.005914047
000050 18 fa c3 3b e0 b0 91 3c 97 80 94 3c 83 01 fc bc
       0.005980741 0.017784536 0.018127723 -0.03076244
000060 8d 79 de bb 43 df fa bb d8 4b 31 3c c5 46 09 bb
       -0.0067893923 -0.0076560094 0.010821305 -0.0020946723
000070 03 ea 37 3c d2 ec 0a 3d 46 5b c4 3c c3 bd ab bc
       0.011225226 0.033917256 0.023969304 -0.020964509
000080 72 c3 69 bc c7 80 9a bb 54 6e e0 3a c2 82 7c 3c
       -0.014267789 -0.0047150585 0.0017122724 0.0154120345
000090 7f fb e1 3c 3d 9e ec 3c d6 76 40 3d 32 ae 0a 3b
       0.027585743 0.028884048 0.04698833 0.0021160957
0000a0 7c bb 5b bc 55 71 37 3d 58 19 01 bd c8 79 39 3d
       -0.013411399 0.044785816 -0.03151831 0.045282155
0000b0 39 c1 e8 bc 80 65 e0 3b ab 2c bf 3b e9 e2 e1 3c
       -0.028412448 0.0068480372 0.0058341823 0.02757402
0000c0 4e 2f c0 bc 45 0f cd bc e9 d2 c6 bc af 45 fd bc
       -0.023460057 -0.025031695 -0.024270492 -0.030917017
0000d0 49 5f 98 bb b1 c3 92 bc 3c 5d 4b 3c c4 40 ba 3b
       -0.0046500308 -0.017915579 0.0124123655 0.00568399
0000e0 30 3d 5f bc 5a 34 18 3c 82 fd 96 bc ed 4c ab bc
       -0.013625428 0.009289825 -0.018431429 -0.020910705
0000f0 5a 0c 9a bb 14 96 4d 3d c8 2b 86 bb 3b 29 09 bd
       -0.0047011795 0.050191954 -0.0040945746 -0.033486586
000100 66 ba ca bb 81 ae ad bb 40 7c 12 bc d7 0b 23 bc
       -0.006186771 -0.0053003435 -0.008940756 -0.009951553
000110 bf de 16 3c dc c4 e5 bc 7f a1 bd bc 09 10 35 bc
       0.00920838 -0.028047971 -0.023148296 -0.011051186
000120 b2 f7 e6 bb 44 87 ac bc 3d b1 be 3b 36 96 eb bc
       -0.0070485706 -0.021060593 0.0058194683 -0.02875815
000130 5f b4 ec 3b 68 c5 bd 3c be 8c ad 3b b0 ec ad bc
       0.0072236503 0.02316542 0.005296319 -0.021231025
000140 77 cf 82 3b e6 ca 4e 3b a7 a6 87 bb ef 34 52 3c
       0.003992017 0.0031554042 -0.0041397396 0.012830003
000150 30 26 58 3c de 79 62 bc c4 75 10 bb 0a 6a fa bc
       0.013192698 -0.013823001 -0.002204285 -0.030568141
000160 b4 65 00 bd 5e 1d c9 3a 04 bd ab bc b1 75 41 3d
       -0.03134699 0.0015343835 -0.020964153 0.04723138
000170 5f 89 3b 3c 58 56 b8 bb 8c 93 3d bd b2 81 94 bc
       0.011446326 -0.0056255274 -0.04628329 -0.01812825
000180 e6 b4 7d 3a 0a a9 75 3c fb b2 8a 3a d8 62 95 3c
       0.000967814 0.014993915 0.0010581905 0.018235609
000190 04 85 59 3c 30 9f e0 3b 48 c1 8f 3c 59 d3 b4 bb
       0.013276342 0.006854914 0.017548218 -0.0055183587
0001a0 49 58 7e 3b e1 98 be bb 3d af 12 bc f0 76 2a bd
       0.0038809946 -0.0058165644 -0.008952913 -0.041617334
0001b0 e7 b6 6e bc 61 06 c6 bc d7 77 e9 bb 31 22 3c 3d
       -0.0145699745 -0.024172964 -0.0071248817 0.045931045
0001c0 d6 e0 94 3b b4 53 89 bc ee 8a 10 bd e1 53 48 3c
       0.004543404 -0.016763546 -0.035288744 0.01222703
0001d0 93 82 a3 bb 90 2f 91 3b 37 48 66 bc e5 13 5e bc
       -0.004989931 0.0044307187 -0.014055303 -0.013554548
0001e0 c1 5f 1c bc 47 9e 0f 3c 73 4c 0f 3d b0 72 a2 bb
       -0.009544314 0.008765764 0.034985017 -0.0049575195
0001f0 9f 35 ca 3c cc c6 27 3d 62 f2 93 3c 12 d0 c7 3a
       0.024683772 0.04096107 0.018059913 0.0015244505
000200 a0 1f 8e 3c 27 b6 61 3c fb a6 98 bb be 11 b1 3c
       0.017349064 0.013776339 -0.0046585775 0.021614905
000210 93 80 8d 3c 82 6d 1f 3b ae af f2 bb e2 72 a8 bb
       0.017273223 0.0024326746 -0.0074061966 -0.005140648
000220 da e1 3c 3c e1 f0 9c 3b cb 61 ad 3c 9e 72 d7 3c
       0.011528457 0.004789457 0.021164795 0.02629977
000230 ca b0 2b 3c 4c cf 15 3d b9 58 12 3d b4 50 4b 3a
       0.0104791615 0.036574647 0.035729144 0.0007755861
000240 1c 00 9b 3c f2 72 b0 bc ae db c8 3b ce 57 00 bc
       0.01892095 -0.021539185 0.0061297035 -0.007833434
000250 04 66 23 bc fe 0b d6 bb 15 a6 2e bc 38 dc 78 3c
       -0.009973053 -0.0065321913 -0.010659714 0.015189223
000260 82 1f e6 3c 58 7c d0 bb 0b cc c8 bb d1 84 ff 39
       0.028091196 -0.006362479 -0.0061278394 0.00048736346
000270 3a 51 3a bb 75 36 f1 bc db 69 1e bc d2 21 cd 3c
       -0.0028429762 -0.029444912 -0.009668793 0.02504054
000280 5a c1 1c 3c a0 54 bc ba 11 96 00 bc 41 46 21 ba
       0.009567583 -0.0014368482 -0.007848279 -0.0006152131
000290 e6 a1 eb bc 59 75 70 bc c8 6b 77 bd db e5 9f 3a
       -0.028763723 -0.014676415 -0.060405523 0.001219924
0002a0 74 1c bf 3a d0 fe ff bc 99 b7 39 3d 87 d2 57 bc
       0.0014580623 -0.031249434 0.045341108 -0.013172752
0002b0 44 b1 85 3c 4a 26 86 bc ff 65 78 bc 0c 55 8a bc
       0.016319878 -0.01637568 -0.0151610365 -0.016886257
0002c0 93 12 9f 3c 46 d0 50 3d 31 2f 98 3b 02 6d 95 3c
       0.019418037 0.050979875 0.0046442975 0.018240456
0002d0 15 a6 61 bb 3e 27 25 3d 7d 7a 4b 3b 62 12 be 3b
       -0.0034431268 0.040320627 0.003104835 0.0058005312
0002e0 39 fc 70 3c c8 12 c9 bb 30 1f cb 3c 3b e2 b2 3c
       0.014708572 -0.006136272 0.024795145 0.02183639
0002f0 53 75 d2 3b cf 72 12 bd 29 54 02 bb 48 68 87 3c
       0.0064226775 -0.03575402 -0.001988659 0.016529217
000300 34 4c 11 ba 5e 63 67 bb c4 fc 9a 3c 75 38 06 bb
       -0.0005542666 -0.003530703 0.018919356 -0.0020480428
000310 67 f6 32 3b 4d ad 38 3d be 9a c0 3c 07 b9 39 3b
       0.0027307512 0.045087148 0.023511287 0.0028339045
000320 bc e2 51 3c 36 84 c1 3c 87 3f 2f bb 90 68 9f 3c
       0.012810405 0.023622613 -0.0026740746 0.019459039
000330 6f b4 89 3b 8c 92 ea bb 05 0f c9 bb 9a 90 0a 3d
       0.0042024176 -0.007158583 -0.0061358237 0.03382931
000340 af d6 ef bb ca b3 60 3a 53 00 8f bb de cd 1b bb
       -0.0073192935 0.00085717125 -0.0043640523 -0.002377383
000350 56 ab e1 3a a9 f8 49 3b f8 d7 21 bb 75 ba 2d 3d
       0.00172172 0.003081838 -0.0024695378 0.042414147
000360 d4 0c 93 3c 95 f8 c1 bc 4e e6 7f bc 70 ba 4a bd
       0.017950453 -0.023678103 -0.015618874 -0.049494207
000370 b2 e3 aa 3b 01 c9 5f 3c 03 95 1f 3d ba f2 74 3b
       0.0052151317 0.013658763 0.038960468 0.0037376122
000380 5e a9 7a 3c bf f9 8c ba 9a c6 3f 3c 2a 79 98 bc
       0.015299169 -0.0010755582 0.011705065 -0.018612463
000390 98 5e c1 bc aa 6d e8 bb 1b d9 e3 bb 6a e6 d3 3a
       -0.023604676 -0.007093151 -0.006953371 0.0016166691
0003a0 66 bb d6 3b 3e 38 4e 3c 90 a5 01 3c 1f ce b4 3c
       0.0065531014 0.012586651 0.007913008 0.022070942
0003b0 c7 26 8e 3c df 07 83 3c 0f c3 bf 3b 54 7e 33 bd
       0.017352475 0.015994964 0.00585211 -0.043821648
0003c0 44 af 07 3c 36 39 90 3c 31 ef 1e 3d f7 53 8a bc
       0.008281533 0.017605405 0.03880233 -0.01688574
0003d0 1a 05 b0 3c a3 1c 82 3c e2 26 b6 3b 8c 87 c1 ba
       0.021486808 0.015882796 0.0055588344 -0.0014765128
0003e0 a4 88 21 3b 79 c9 94 bc b8 85 da bb a0 9b ce bb
       0.0024648095 -0.018162476 -0.0066687725 -0.006305173
0003f0 01 a8 1a bd 6a a3 39 bd ef ed ae bb 5e 9e 11 3c
       -0.037757877 -0.04532186 -0.0053384225 0.008887855

action_model._discrete_distribution.branches.0.bias f4 [2]
000000 25 67 20 3c 25 67 20 bc
       0.009790217 -0.009790217

action_model._discrete_distribution.branches.1.weight f4 [2, 128]
000000 78 fc 09 bd 7c 7e c7 bb c3 e1 c5 3c 58 ed 79 bc
       -0.03368804 -0.006088076 0.024155503 -0.015254341
000010 c3 ba 5e bc b3 a5 38 3c 0d 8a 7c 3b ab bb 33 bd
       -0.013594332 0.0112699745 0.0038534433 -0.043880146
000020 74 4b 87 bc 93 90 16 3c 7f 96 fb bb a3 4c fb 3c
       -0.016515471 0.009189743 -0.0076778526 0.030676192
000030 31 26 b0 37 25 be 89 bc 10 c0 ff bc 35 6b ce 3b
       2.099862e-05 -0.0168143 -0.031219512 0.006299401
000040 ac 46 08 bb 3e fe 95 3c d2 f8 b3 3c 75 49 35 3c
       -0.0020794077 0.018309709 0.021969233 0.011064877
000050 5a 13 a7 3b 5b 6e 8a 3a 20 69 32 3d 2b b6 01 bd
       0.0050987424 0.0010561453 0.043557286 -0.03166787
000060 ed 0f 9f bb fa 64 70 3b f4 53 1a 3d 78 f2 63 3c
       -0.0048541934 0.003668128 0.03767772 0.0139127895
000070 06 35 52 3b e7 f6 50 3c 05 a2 e8 bb 26 fa b1 bc
       0.0032075061 0.012754179 -0.0070993924 -0.021725725
000080 28 c1 d1 bc d9 1f 67 3c 98 b2 7c bc de ae 30 3c
       -0.0256048 0.014106714 -0.015423439 0.010783879
000090 7c cc 14 3c 06 74 30 3d 43 b0 cd 3c 2b 34 43 bc
       0.009081956 0.0430794 0.025108462 -0.011914293
0000a0 bd c0 2b 3c 38 c3 6d 3b 5e c3 29 bd 4f d2 f8 3b
       0.010482964 0.003627969 -0.041446082 0.00759343
0000b0 47 43 15 3c 7c 90 c4 bb 61 5d f0 bb 50 69 db 3b
       0.009110278 -0.005998669 -0.0073353504 0.006695904
0000c0 a1 35 8a 3b 80 41 db bc 24 d6 9c bb 99 9b 2d bb
       0.004217819 -0.026764631 -0.0047862697 -0.0026490449
0000d0 b4 c2 ff bb 90 c4 0f bd 72 53 d2 3a 4a a0 f2 3b
       -0.007805193 -0.035099566 0.0016046597 0.007404362
0000e0 0f 93 ed bc ff cb da 3b 30 28 cb bc 15 04 68 bc
       -0.029000787 0.0066771503 -0.024799436 -0.0141611295
0000f0 f2 9f 28 3c fa 8b 9c 3c 6f af c7 3b 41 b7 37 3d
       0.01029204 0.019109715 0.0060939114 0.0448525
000100 33 cb 00 bb d5 ae 40 bc 47 f3 b8 bc e0 33 60 3b
       -0.0019652366 -0.011760433 -0.022576941 0.0034210607
000110 08 1c d7 bc 35 48 2d 3c e7 47 95 bb e4 2b 99 39
       -0.026258484 0.0105762975 -0.0045556906 0.00029215135
000120 e5 7b 23 3b 01 bd 4b bc e7 00 70 3c 57 0d d2 bc
       0.0024945673 -0.012435199 0.014648653 -0.025641127
000130 6c e6 50 3c 6a a1 83 bb 6c 9a a5 3b b2 e7 f6 bc
       0.012750249 -0.004017045 0.005053809 -0.030139778
000140 ef 35 5f 3b 33 74 84 bb 78 a5 e3 bb 9d 0c 67 bb
       0.0034059247 -0.0040421723 -0.0069472156 -0.003525532
000150 c6 f4 e0 bc dc a8 15 ba f2 57 9b 3d 60 9e ce 3b
       -0.027460467 -0.0005709061 0.075851336 0.006305501
000160 ac 40 72 3b a2 2e 43 bc d8 ca 4e 3c aa 59 e3 3c
       0.0036964817 -0.011912974 0.012621604 0.027752716
000170 a5 02 12 bc c2 08 1c 3c 54 09 64 3c c1 3d 02 3d
       -0.008911763 0.009523572 0.01391824 0.031797174
000180 cc a7 99 3c c2 24 32 3b 9e 4f c6 3b 4a a5 ff bb
       0.01875677 0.0027182554 0.0060519716 -0.0078016864
000190 10 8b 20 3d 00 77 ea 3c b8 2b a1 bc bf 86 25 bd
       0.03919512 0.028621197 -0.019674167 -0.040411707
0001a0 a4 3b 03 3c 4b 5b 5e 3c 20 2d d8 3c 99 48 ec bc
       0.008009825 0.013571571 0.026388705 -0.028843211
0001b0 d6 2a 90 bc 85 e7 ec ba aa a0 66 3c 46 03 56 3c
       -0.01759855 -0.0018074369 0.014076391 0.013062304
0001c0 66 23 18 3b 3d d8 b7 bc 82 3f 01 bd c6 f1 01 3d
       0.0023214458 -0.022441978 -0.031554706 0.031724714
0001d0 d3 54 7d 3c 56 3a 37 bc 85 f9 0f 3c 67 1e 3e bc
       0.015462118 -0.011183342 0.008787517 -0.011603928
0001e0 33 ad 03 bd a3 ef cb bc 9b e5 09 3b fe ba 14 3c
       -0.032147598 -0.024894541 0.0021041397 0.009077786
0001f0 78 77 37 3d e0 cf 80 bc d6 d0 83 bc b6 4f 1d 3b
       0.04479167 -0.015724123 -0.016090792 0.002400381
000200 0f 82 af 3c 7b cc 02 3d 1b a5 14 bc 51 4a 25 bb
       0.021424321 0.03193329 -0.009072567 -0.0025221298
000210 8a ac 20 3c 49 8e 4d bc 7b 2a 18 bc d5 0a 14 3d
       0.0098067615 -0.01254613 -0.009287472 0.036143143
000220 71 20 43 bb c0 c6 17 bc 23 21 8a 3c 7d ab ac bb
       -0.0029773975 -0.009263694 0.016861504 -0.0052694664
000230 aa 99 90 3c 77 76 27 3d 94 76 0b 3c f3 e6 bd 3c
       0.017651398 0.04088446 0.008512158 0.023181414
000240 d6 24 be 3c e5 85 0b bc 74 2d ec 3b 81 5a 99 bc
       0.023210924 -0.00851581 0.007207567 -0.018719913
000250 31 1e 71 3a 87 9f 81 3c 9a 6b 48 bd f3 17 6a 3c
       0.0009197919 0.015823139 -0.04893074 0.0142879365
000260 aa 01 1b 3b 23 df 6f bc d9 b2 d7 bc f0 87 92 bb
       0.0023652115 -0.014640602 -0.026330398 -0.0044717714
000270 ae 1f 7d bb 84 58 19 bd 95 c9 0a 3c d8 17 a5 3c
       -0.003862362 -0.03743793 0.008470912 0.020152971
000280 40 3d ba 3a 75 92 b4 bb ff 99 d8 bb 52 b6 35 bb
       0.0014208928 -0.005510623 -0.0066101546 -0.002772708
000290 4b 96 ca 3b 3c da 61 bd 2f 2b 3e bd cb 3e a9 bb
       0.006182467 -0.055139765 -0.0464279 -0.005164956
0002a0 62 0e ff 3b 8c e9 37 ba ea 2f b1 3c c8 9b 53 bb
       0.007783697 -0.0007015697 0.021629293 -0.0032288898
0002b0 dd 64 1a bb f4 02 8a 3c ce 68 71 3c 95 ea e5 3b
       -0.0023558654 0.016847111 0.01473446 0.0070164897
0002c0 d7 e5 ac 38 b3 05 b2 3c 6b 3c 26 bc a6 45 46 3b
       8.24441e-05 0.021731233 -0.010146241 0.0030253916
0002d0 b1 2c 75 bb 93 e6 04 3d 4e 83 e2 bc 54 59 11 bc
       -0.0037410671 0.032446455 -0.027650502 -0.008871395
0002e0 58 92 9b 3a 12 6e 81 3a 00 15 b0 3c be f2 66 3c
       0.0011869175 0.0009874722 0.021494389 0.01409596
0002f0 4c 00 30 3b c5 e9 89 bc 56 92 60 3c 54 c8 38 bd
       0.0026855646 -0.016835103 0.013706764 -0.045112923
000300 84 aa b5 3b 5d 77 70 bb 30 78 93 bb 6b da 9f 3c
       0.0055440087 -0.003669224 -0.0045004115 0.01951333
000310 39 ba f2 3c 0f 45 07 bd 5d 87 e4 bb 74 c0 d7 bb
       0.029629814 -0.033024844 -0.0069741444 -0.0065842215
000320 82 65 36 3b 19 90 ba 3b 7f 42 ad 3a 2a 70 09 3d
       0.00278315 0.0056934473 0.001321867 0.033554234
000330 a5 cd 25 bb b3 de a9 ba 99 1c c6 bb 1f ce fd 3c
       -0.0025299576 -0.0012960046 -0.0060458896 0.030982075
000340 0a cb 36 bc e7 19 b6 3c 0a 1f 6e b8 91 a2 a7 bc
       -0.011156807 0.022229148 -5.677253e-05 -0.02046326
000350 a7 9b c8 3c aa f4 70 3b 62 88 7d bd 14 93 91 bc
       0.024488283 0.0036766925 -0.061897643 -0.017770328
000360 d3 dc 17 bc 6c a7 ea 3b 13 f6 1d 3c 09 11 1e bd
       -0.009268957 0.0071610715 0.009641188 -0.038590465
000370 03 3b 8e 3c 04 8e b3 bb aa 88 c3 3b 95 33 2d bd
       0.017362123 -0.005479576 0.0059672194 -0.04228552
000380 ae d9 28 bc a3 34 81 bb a5 3c 06 bc dc 6f 63 3c
       -0.010305805 -0.0039430424 -0.00819317 0.01388165
000390 b0 0b 37 bd 9c d8 01 bd 4d da a2 3c 80 55 9f 3c
       -0.04468888 -0.031700715 0.019879485 0.01944995
0003a0 5f be db 3a c1 79 68 bb d7 81 75 bc d8 be 2f 3d
       0.0016765109 -0.0035472962 -0.0149845695 0.042906612
0003b0 d7 0b 12 3c 55 fc 82 b9 52 b5 27 bc db 33 9e bc
       0.008913956 -0.00024983534 -0.010236101 -0.019311836
0003c0 b9 8d c7 bc 7d 77 00 3d 3c c8 9e 3c 48 8a 35 bc
       -0.02435957 0.031363953 0.019382589 -0.011080332
0003d0 f5 af 69 bc 76 9b a9 3b 1d 1f 31 bc 2a fe c9 ba
       -0.014263143 0.005176003 -0.010810641 -0.001541083
0003e0 70 96 d1 3c fa b0 8e 3c 9c 67 30 3b c3 06 01 bd
       0.02558443 0.017418373 0.0026917225 -0.03150059
0003f0 f0 e5 55 bd 85 8a 35 bb 29 0a 84 3b c0 26 51 3c
       -0.05222124 -0.0027700972 0.0040295315 0.012765586

action_model._discrete_distribution.branches.1.bias f4 [2]
000000 da f4 4e 3c dc f4 4e bc
       0.012631619 -0.012631621

action_model._discrete_distribution.branches.2.weight f4 [2, 128]
000000 63 4d 94 bc c3 30 d2 3b 30 20 86 bc 80 21 0d 3d
       -0.018103307 0.0064145043 -0.01637277 0.034455776
000010 97 8e 1f 3c de 6c 67 bb 7c 35 ac bc 57 0c 8a 3b
       0.009738586 -0.0035312693 -0.021021597 0.004212897
000020 6c ea aa bc f9 bf 2a 3b 23 ff 7e 3c 32 94 2b 3d
       -0.020863734 0.0026054366 0.015563759 0.041889377
000030 df fe 54 3c 73 e1 b8 3c 25 97 00 bc 4b d0 74 3a
       0.013000219 0.02256844 -0.007848536 0.00093388994
000040 da 18 20 3d d8 8f 76 bd 61 8e f3 3c 3d 55 79 3b
       0.0390862 -0.060195774 0.029730977 0.003804519
000050 37 4c ac bc 76 ca a3 bc b4 c0 cb 3b 20 ab 2b 3c
       -0.021032436 -0.019994002 0.0062180404 0.010477811
000060 71 3c cd 3b 13 ad cb 3b 17 41 80 3c 14 72 6a 3b
       0.0062633087 0.0062157004 0.015656037 0.0035773562
000070 c6 1e ce 3a df 42 03 bd b1 62 0d bc d2 b4 34 3c
       0.0015725724 -0.032046195 -0.008629487 0.011029439
000080 32 2e 38 3c 73 54 0b bc 62 34 59 bc a5 da 48 bc
       0.011241483 -0.008504021 -0.013257118 -0.01225916
000090 aa 54 db bb 1b 4b e7 3b 76 27 0c bd fa bf 93 37
       -0.0066934424 0.007058514 -0.03421732 1.7613162e-05
0000a0 e9 28 72 3c 3c c7 cb bc 58 fb 8e 37 73 e6 0d bd
       0.014780262 -0.024875276 1.704476e-05 -0.0346436
0000b0 8d bd 28 3d 51 cc 50 3b 64 f7 23 bc f9 fd 7e ba
       0.041196395 0.0031860063 -0.010007713 -0.0009727176
0000c0 6d c8 4e 3c b4 62 4a 3c 6f bb fa 3b b3 75 ea 3a
       0.012621027 0.012352634 0.0076517384 0.001788786
0000d0 0c dc c0 3c 34 38 b3 ba a6 7e 92 3c 56 fa 48 3b
       0.023542427 -0.0013673366 0.017882656 0.003066679
0000e0 08 5c 84 3b 77 38 10 3d 7a a8 7d ba ea c2 fb bb
       0.0040392913 0.0352101 -0.0009676289 -0.0076831477
0000f0 00 f3 ca 3b c7 66 88 3b e6 f7 23 bc fc 13 18 bd
       0.0061935186 0.0041626426 -0.010007834 -0.037128434
000100 98 de 9b 3a c7 8c da bb e7 91 1a 3c d8 2e 07 bc
       0.00118919 -0.006669614 0.0094342 -0.0082509145
000110 f1 cc 0f bd 67 93 d0 3c 14 2a df 3c 91 10 0e 3b
       -0.035107557 0.025460912 0.027241744 0.0021677355
000120 b2 25 3c 3c 50 93 9d 3c ab 54 10 bc 35 36 16 3b
       0.011483597 0.019235283 -0.008809249 0.0022920494
000130 70 52 ae 3c 27 5d 67 3a b2 77 80 3b a1 46 6e bb
       0.021279544 0.00088258315 0.003920519 -0.0036358016
000140 3f 4a 53 3b 1d ab a9 bc 64 35 31 bb 86 1e 73 bc
       0.00322403 -0.020711476 -0.002703988 -0.01483882
000150 e1 87 53 bb f5 6e 81 bc 0f fa be bc 95 3d d4 bc
       -0.0032277035 -0.015799979 -0.023312597 -0.02590827
000160 65 cc a8 3c 0c 0f 68 3b 5a db 8b 3c f3 ca 07 3c
       0.020605275 0.003540936 0.017072368 0.008288133
000170 1c 9c 76 3b 30 8e 91 bc ce e2 17 3d 14 e5 19 bc
       0.003762967 -0.017767996 0.037081532 -0.009392995
000180 ab 15 c6 3c da 9f 86 3b 20 e5 10 3c db c8 9c bb
       0.024180254 0.0041084113 0.00884369 -0.004784686
000190 1c 2b e6 bb da 53 1f bb 17 1f 70 bb 9a b3 10 3a
       -0.007024182 -0.0024311454 -0.0036639625 0.0005519927
0001a0 e2 cf a0 ba b3 e1 27 3b 43 25 13 3d 9b b8 4e 3c
       -0.0012268985 0.0025616705 0.035924207 0.012617256
0001b0 6b f3 04 3c 87 36 a7 3c eb 8f 7a 3b fa 6a 0a bc
       0.008114676 0.020411743 0.0038232754 -0.008448357
0001c0 8b 59 92 bb 14 92 c6 3c b0 eb a5 bc ca 70 29 3c
       -0.0044662408 0.024239577 -0.020253986 0.010341832
0001d0 3c 41 0d bc f1 d2 41 3b e8 0f c1 3c cb 1c 4a 3c
       -0.00862151 0.0029575194 0.023567155 0.012335966
0001e0 c5 fb 5f 3b d8 f1 fd bb 0d f0 cc 3c 3f 89 f9 3c
       0.0034177166 -0.0077497773 0.025016809 0.030460952
0001f0 4f c7 f2 3b a3 3b 4d bd f5 0c 48 bc 3e 65 c1 bb
       0.0074090133 -0.050105702 -0.01221012 -0.0059019616
000200 cc fe 89 3b e6 54 47 3a 60 86 4d 3c 97 b2 e1 bc
       0.0042112824 0.00076038984 0.0125442445 -0.027550979
000210 2d 71 de bc 07 1e 40 3c aa af 26 3b b3 05 35 3c
       -0.027153576 0.011725909 0.0025434294 0.011048722
000220 92 7b 9d 3c 04 75 a6 bc eb e6 17 bc 7c 27 3c bd
       0.019223962 -0.02031947 -0.009271364 -0.045936093
000230 6d 54 96 b9 a8 43 bb bc 28 2e eb 3b c4 f9 05 3c
       -0.00028673132 -0.02285941 0.007177133 0.008177225
000240 bc 96 49 bc a3 c7 f5 3c 7f 03 6f bc 59 0e 15 bc
       -0.012304004 0.03000242 -0.014588236 -0.009097659
000250 6c 3f 94 3b 5d 9a ba 3c f4 78 17 3c ce 38 a4 3b
       0.004524162 0.022778684 0.009245146 0.0050116545
000260 8b 8d 83 3a 95 e0 50 bc 1d 17 84 bc 35 5c 26 3c
       0.001003669 -0.012748857 -0.016124303 0.01015382
000270 99 b8 99 3a d8 b2 dd 3c 11 0b ab 3c d1 ed bd bc
       0.0011727988 0.027062818 0.0208793 -0.023184689
000280 26 7c 16 bc cd 00 3f bc b5 17 02 3c 21 82 21 3a
       -0.009184873 -0.011657906 0.0079402225 0.00061610533
000290 d2 4c cd bb eb f8 ae 3c ae 50 30 3d 67 93 24 3c
       -0.006265261 0.021358928 0.043045692 0.010044909
0002a0 ee 7e 5a 3b 05 0f 0e 3d ac 6f eb bb 30 ec d3 3c
       0.0033339816 0.034682292 -0.007184943 0.025869459
0002b0 c9 66 02 bd 87 bc 56 bb 17 48 e0 3b d5 53 51 bc
       -0.031836305 -0.003276618 0.0068445313 -0.012776335
0002c0 09 ba 5a bb 6f e7 b7 bc 71 62 4f bb 21 b1 8d 3c
       -0.0033375046 -0.022449223 -0.003164437 0.017296376
0002d0 61 51 40 bc 92 89 19 3b ca d3 de 39 fa f4 83 3c
       -0.011738152 0.0023427946 0.00042500935 0.016108025
0002e0 6a 5a 79 bb 3e f7 11 bd a5 79 bc 3b d0 60 17 3c
       -0.0038048276 -0.03563618 0.005751806 0.0092393905
0002f0 90 ee 46 bc ae 87 c8 bc f7 2b b1 bb e1 1e eb 3c
       -0.012141839 -0.02447876 -0.0054068523 0.028701248
000300 7d b5 79 bc b1 4f 92 bb 81 bd 6c bb cc 9b 50 39
       -0.015241024 -0.0044650664 -0.0036123695 0.00019894465
000310 9c 23 86 3c f1 95 26 bd 0d 25 58 bc 86 84 8d 3c
       0.016374402 -0.04067034 -0.013192427 0.017275106
000320 5d ef b3 bb 0f c6 d0 3b 8c 0e 03 bc 43 67 c8 3b
       -0.005491181 0.0063712667 -0.007999074 0.0061158254
000330 60 ce 32 ba 51 a2 45 3c 22 b8 ca 3b 7b 99 5a 3c
       -0.00068209134 0.012062625 0.006186501 0.013342257
000340 5e 30 40 bb fe e3 8e 3c 2d 1b 5b 3b 11 50 ba 3b
       -0.0029325704 0.0174427 0.0033432946 0.005685814
000350 7c 75 8a bc c5 51 b7 3a 4a f3 df 3c 82 ce 1a 3d
       -0.016901724 0.0013986161 0.027337689 0.037794597
000360 ff 60 c7 bc 2d 40 20 3c 35 6f 92 bc 78 c5 91 bb
       -0.024338244 0.009780926 -0.017875293 -0.004448589
000370 eb 10 8e bc 5c 75 ca 3b 9a 86 30 bd df 63 d6 3b
       -0.017342051 0.006178541 -0.043097116 0.0065426673
000380 b7 44 7f bc a2 a5 f6 bb 5c 4e 2f bb 48 a0 b9 3c
       -0.015580348 -0.007527069 -0.0026749587 0.022659436
000390 d0 60 35 3c 55 54 7e bc 41 e3 04 bc d9 82 30 bc
       0.011070445 -0.015523036 -0.008110822 -0.010773384
0003a0 fb 93 e2 3b 2c 76 1a bc b5 18 18 bd 67 f6 a9 bc
       0.0069146133 -0.009427588 -0.037132937 -0.020747377
0003b0 3b 38 23 bc bc dc f2 bc c3 6b d4 bc ba 26 06 bd
       -0.009962137 -0.02964627 -0.025930291 -0.032751776
0003c0 7a 88 70 bb b5 dc d0 bc e7 4d c8 bb 62 ee 43 bb
       -0.003670244 -0.025495866 -0.0061128023 -0.0029896726
0003d0 dd 20 25 3b 49 7d 3e 3c bc 8e 23 bd aa 33 78 bb
       0.002519659 0.01162655 -0.039931044 -0.003787259
0003e0 12 0e da 38 67 fc 98 ba 12 34 2a bb d0 16 0a bc
       0.00010397671 -0.0011671901 -0.0025970978 -0.0084282905
0003f0 b7 ae 47 3b 57 e2 27 3d 6c 7e 9c bb 8d c1 89 3c
       0.0030469128 0.04098734 -0.004775813 0.016815925

action_model._discrete_distribution.branches.2.bias f4 [2]
000000 d7 19 80 bb d7 19 80 3b
       -0.0039093303 0.0039093303
