results/07/My Behavior.onnx (onnx, 77162 bytes, 13 tensors)

discrete_action_output_shape f4 [1, 4]
000000 00 00 00 40 00 00 00 40 00 00 00 40 00 00 00 40
       2.0 2.0 2.0 2.0

network_body._body_endoder.seq_layers.0.weight f4 [128, 4]
000000 7a f1 7a be 5a 1c d4 3e 86 3f fc 3e 62 9f 71 bd
       -0.24506178 0.4142788 0.49267215 -0.05898989
000010 6f 3a 97 bd d8 18 70 3e 9b b5 3c 3f 2b 32 4b be
       -0.07384192 0.23446977 0.7371461 -0.19843356
000020 06 40 34 3e 63 46 32 be 3e 59 30 bf 00 70 8d 3e
       0.17602548 -0.17409663 -0.6888617 0.27624512
000030 9a 7d 15 bf 29 ed 00 bf 89 4a 45 bf d2 30 60 3f
       -0.5839478 -0.5036188 -0.77066857 0.87574494
000040 1c bb 58 3d 0c 07 3c be cf 9e 56 bf 84 ee 74 bf
       0.052912816 -0.18362063 -0.8383607 -0.95676446
000050 08 cd c3 3d d2 8c 0b bf 2a 4e c2 bd 79 84 3e bf
       0.09560591 -0.5451175 -0.09487565 -0.7442089
000060 43 f5 9b bd 51 12 0e 3f 2f fb 3d 3d a1 94 18 bf
       -0.07615139 0.554967 0.046382125 -0.5960179
000070 14 c0 5b 3b d2 3c b3 be 6a e1 88 be 07 d9 ce be
       0.0033531236 -0.3500734 -0.26734477 -0.40399954
000080 86 8c 15 bf 23 82 0d be 09 67 7b 3f 7c cf c9 3e
       -0.58417547 -0.13819174 0.98204094 0.3941611
000090 e2 db 4c 3f f4 48 8a 3d 79 9a bd 3c e9 b8 8f be
       0.80023015 0.06752196 0.023144947 -0.28070763
0000a0 5f 90 8d be ae 13 c6 3e 2e f8 ec 3e cd 02 4e 3f
       -0.2764921 0.3868689 0.46283096 0.80473024
0000b0 4f 2e 58 3e 60 cb b9 3e 90 31 70 3d ea 92 84 be
       0.21111415 0.36287975 0.058641016 -0.25893337
0000c0 67 ac 62 bd a0 08 69 3f 39 32 b1 3e b0 08 91 3f
       -0.055340197 0.91028786 0.3460863 1.1330776
0000d0 50 18 3e 3e b2 50 1b 3f 33 36 95 3f 1c 84 2c bd
       0.18563962 0.60670006 1.1657165 -0.042118177
0000e0 7d b3 9a 3f 4c 13 66 be 7f 39 29 bf 01 89 b6 3e
       1.2086025 -0.22468299 -0.6610336 0.356514
0000f0 e4 93 d5 be 52 42 9e 3d c4 00 8c bf fc d7 1a bf
       -0.41714394 0.07727493 -1.0937734 -0.60485816
000100 aa 92 cb 3c 27 bb e1 be 64 9e 3c 3f 2f 45 29 3e
       0.024850208 -0.44088098 0.73679185 0.16530298
000110 c0 ca d3 3e 84 87 40 bf d7 44 15 bf 75 7c c8 3c
       0.41365623 -0.7520678 -0.58308166 0.024473408
000120 41 56 ea be 7a 1b f9 be 88 12 23 3d b9 b3 1e 3e
       -0.45768932 -0.48653775 0.039812595 0.15498246
000130 ab d5 39 bf af b7 b7 bd df 91 0c bf cf 79 2b bd
       -0.72591656 -0.08970582 -0.5491008 -0.041864213
000140 eb 0f 02 3f 61 c3 08 be 3f 25 40 3f 39 da 8a be
       0.5080554 -0.13355781 0.75056833 -0.27119616
000150 25 22 d8 3d 08 15 ae 3e 0f 9d 2d 3f fc d1 12 be
       0.105533876 0.3400042 0.6781778 -0.14337915
000160 05 4c c8 be 47 7a de 3c 8e d7 a9 be d9 3a 7f 3e
       -0.39120498 0.027157916 -0.33172268 0.24924792
000170 43 76 c6 3d 5b 49 b8 3d 12 3c 81 be 22 d2 5e bf
       0.096905254 0.089983664 -0.25241143 -0.8703939
000180 26 c1 da 3c 1f 2c d0 3f df 49 8a 3e 28 b9 16 bf
       0.026703428 1.6263465 0.27009484 -0.58876276
000190 48 d5 8a 3d 7f c0 fa 3d c2 6d 80 3f 37 d1 46 bf
       0.067789614 0.12243747 1.0033495 -0.77662987
0001a0 65 f2 65 bd 66 f4 9b bf b5 78 4c 3c 05 97 22 3e
       -0.05613937 -1.218396 0.012479951 0.15877922
0001b0 bb 03 29 3f 84 8e 91 be f0 bb ac 3d 43 8e 9c bf
       0.6602132 -0.28429043 0.08434284 -1.2230915
0001c0 3f 9b 7c be 53 50 b3 3e 73 66 b9 be 83 15 ab be
       -0.24668597 0.3502222 -0.36210975 -0.3341485
0001d0 e4 a9 ce 3d b6 5f 09 3f c0 5d d4 be f3 20 bf bd
       0.10090998 0.5366167 -0.41477776 -0.093324564
0001e0 fd 6e 1e 3e 01 e4 90 be e2 ed 80 bf e6 5e 5b 3e
       0.15472026 -0.28298953 -1.0072596 0.2142292
0001f0 a6 93 95 3e ac 3a 2a 3e ac d5 bd be 09 00 00 3f
       0.2921421 0.16623944 -0.3707708 0.50000054
000200 85 07 7b 3e 17 ef b7 be 5e 67 08 3e 2a 9b 6a 3e
       0.24514587 -0.359246 0.13320681 0.22910753
000210 62 28 e6 be 79 71 1e 3f ae 16 c6 bc 6e 44 12 3e
       -0.44952685 0.61891896 -0.024180736 0.14283916
000220 c5 52 8d 3e 47 b1 16 3f 1f b8 aa 3f ef 92 c7 be
       0.2760221 0.58864254 1.3337439 -0.3897929
000230 4b b7 25 3e da 90 1d 3f 84 6a 80 3f 99 e2 83 3f
       0.16183202 0.6154915 1.0032506 1.0303527
000240 67 71 72 bd 45 34 07 be 01 9e e3 be c7 ac b2 3e
       -0.05919018 -0.13203533 -0.44456485 0.34897444
000250 2a e4 5b be 2f 43 9e bd 5a c9 5b 3f 23 97 b1 3e
       -0.21473756 -0.07727658 0.85854113 0.3468562
000260 3f 2a 23 be bb d6 d7 be ab 9c c3 3e 7d 1a 73 3f
       -0.15934084 -0.42156014 0.38205466 0.9496229
000270 a3 32 22 3e 07 92 94 3e ce 08 3b be 99 9a b9 3e
       0.15839629 0.2901766 -0.18265077 0.3625076
000280 f7 7d 02 3f 9e a5 1e be 34 64 29 3f d5 19 d8 be
       0.5097346 -0.15492865 0.6616852 -0.42207208
000290 5a 92 0e bf e7 95 74 bf d8 e5 a4 3e 90 99 8a 3e
       -0.55692065 -0.9554123 0.32206607 0.27070284
0002a0 cf d0 a2 3e 68 f7 1a 3f 8c ad ca 3d 2e 8d 9e 3e
       0.31799933 0.6053376 0.09896383 0.30967087
0002b0 80 0e 02 bf cd 0a b9 be 0a 1c 02 3e bf e8 db bb
       -0.50803375 -0.36141053 0.12706009 -0.006711095
0002c0 bb 7b a1 3e 56 3d 0e 3f 8b f3 cc 3d c5 48 e5 be
       0.3153971 0.5556234 0.1000739 -0.4478208
0002d0 3b 60 35 3e 91 02 87 bd a1 e7 2d be 23 32 59 3e
       0.1771249 -0.065922864 -0.1698289 0.21210532
0002e0 82 a3 6a bf cd 49 5a 3e a3 81 a5 bd 0c 0c 6d 3e
       -0.91655743 0.21317215 -0.08081367 0.23149127
0002f0 75 6b 0d bf 2b fa 93 3f 51 bd fd 3e aa 10 ea 3d
       -0.5524209 1.156072 0.495585 0.1142896
000300 6c 92 05 bf 3c b1 9f 3d e2 a8 7d be fb 74 d2 3e
       -0.5217655 0.07797477 -0.24771455 0.41104874
000310 ae 9f f6 3e 5b 24 a6 3e 20 ee 2e bf 0b fc 23 bf
       0.481687 0.32449612 -0.683321 -0.6405646
000320 20 d2 a7 3b fe ca cf 3d 58 c8 19 3e e4 48 8e 3e
       0.0051214844 0.101461396 0.15017831 0.27789986
000330 24 ec c9 be 0b 70 ff be 81 a1 d3 3e 97 2d cb bd
       -0.39437973 -0.4989017 0.41334155 -0.09920805
000340 80 57 f1 3e 23 d9 38 3e 3c 31 b4 be 92 22 fa 3e
       0.4713707 0.18051581 -0.35193813 0.488545
000350 be cf 17 3f 1a 61 9c 3c bf b7 86 be 2f da 3b bf
       0.59301364 0.01908927 -0.26312062 -0.73379797
000360 65 2a e3 3b 7a 4b 66 be 50 c7 ae bd 32 de 3c bf
       0.006932544 -0.2248973 -0.085341096 -0.73776543
000370 2f df ad 3f b3 fc 11 bf 0a 6b f4 bc 33 3c 50 3f
       1.3583735 -0.57026213 -0.029836196 0.81341857
000380 19 2d d6 3d 0c 9c e2 3e f0 42 84 bd 4d 19 34 bf
       0.104578204 0.4425968 -0.0645808 -0.70351106
000390 ae b9 51 3f 75 52 42 bf f1 02 91 3e 73 3f f1 3e
       0.8192395 -0.7590707 0.28322557 0.4711872
0003a0 ad 8b 01 3f 1a 44 72 3f 5d e4 4e bd 59 3b 2c 3f
       0.50603753 0.94635165 -0.050510753 0.6727806
0003b0 31 b1 5b 3f f0 5f 16 3f bf 57 b4 bd 66 62 1c 3f
       0.8581725 0.5874014 -0.08805799 0.61087644
0003c0 d1 4c 13 be 2a 7b 68 be 25 db 28 be 10 53 8b 3e
       -0.14384772 -0.22703233 -0.16489847 0.2721181
0003d0 b1 96 5c 3d 5b db 01 3f 78 b0 64 bf 95 f0 c3 3d
       0.053854648 0.50725335 -0.8933177 0.09567372
0003e0 34 e1 34 be 6e 89 25 bf 5c e4 2b 3f 6c 29 1d 3f
       -0.17664033 -0.64662826 0.67145324 0.6139133
0003f0 93 14 f4 3d 14 d8 5b bd 56 0e dc bd 76 33 61 3f
       0.11917987 -0.053672865 -0.10744922 0.8796915

network_body._body_endoder.seq_layers.0.bias f4 [128]
000000 00 00 00 00 00 00 00 00 00 00 00 00 00 00 00 00
       0.0 0.0 0.0 0.0
000010 00 00 00 00 00 00 00 00 00 00 00 00 00 00 00 00
       0.0 0.0 0.0 0.0
000020 00 00 00 00 00 00 00 00 00 00 00 00 00 00 00 00
       0.0 0.0 0.0 0.0
000030 00 00 00 00 00 00 00 00 00 00 00 00 00 00 00 00
       0.0 0.0 0.0 0.0
000040 00 00 00 00 00 00 00 00 00 00 00 00 00 00 00 00
       0.0 0.0 0.0 0.0
000050 00 00 00 00 00 00 00 00 00 00 00 00 00 00 00 00
       0.0 0.0 0.0 0.0
000060 00 00 00 00 00 00 00 00 00 00 00 00 00 00 00 00
       0.0 0.0 0.0 0.0
000070 00 00 00 00 00 00 00 00 00 00 00 00 00 00 00 00
       0.0 0.0 0.0 0.0
000080 00 00 00 00 00 00 00 00 00 00 00 00 00 00 00 00
       0.0 0.0 0.0 0.0
000090 00 00 00 00 00 00 00 00 00 00 00 00 00 00 00 00
       0.0 0.0 0.0 0.0
0000a0 00 00 00 00 00 00 00 00 00 00 00 00 00 00 00 00
       0.0 0.0 0.0 0.0
0000b0 00 00 00 00 00 00 00 00 00 00 00 00 00 00 00 00
       0.0 0.0 0.0 0.0
0000c0 00 00 00 00 00 00 00 00 00 00 00 00 00 00 00 00
       0.0 0.0 0.0 0.0
0000d0 00 00 00 00 00 00 00 00 00 00 00 00 00 00 00 00
       0.0 0.0 0.0 0.0
0000e0 00 00 00 00 00 00 00 00 00 00 00 00 00 00 00 00
       0.0 0.0 0.0 0.0
0000f0 00 00 00 00 00 00 00 00 00 00 00 00 00 00 00 00
       0.0 0.0 0.0 0.0
000100 00 00 00 00 00 00 00 00 00 00 00 00 00 00 00 00
       0.0 0.0 0.0 0.0
000110 00 00 00 00 00 00 00 00 00 00 00 00 00 00 00 00
       0.0 0.0 0.0 0.0
000120 00 00 00 00 00 00 00 00 00 00 00 00 00 00 00 00
       0.0 0.0 0.0 0.0
000130 00 00 00 00 00 00 00 00 00 00 00 00 00 00 00 00
       0.0 0.0 0.0 0.0
000140 00 00 00 00 00 00 00 00 00 00 00 00 00 00 00 00
       0.0 0.0 0.0 0.0
000150 00 00 00 00 00 00 00 00 00 00 00 00 00 00 00 00
       0.0 0.0 0.0 0.0
000160 00 00 00 00 00 00 00 00 00 00 00 00 00 00 00 00
       0.0 0.0 0.0 0.0
000170 00 00 00 00 00 00 00 00 00 00 00 00 00 00 00 00
       0.0 0.0 0.0 0.0
000180 00 00 00 00 00 00 00 00 00 00 00 00 00 00 00 00
       0.0 0.0 0.0 0.0
000190 00 00 00 00 00 00 00 00 00 00 00 00 00 00 00 00
       0.0 0.0 0.0 0.0
0001a0 00 00 00 00 00 00 00 00 00 00 00 00 00 00 00 00
       0.0 0.0 0.0 0.0
0001b0 00 00 00 00 00 00 00 00 00 00 00 00 00 00 00 00
       0.0 0.0 0.0 0.0
0001c0 00 00 00 00 00 00 00 00 00 00 00 00 00 00 00 00
       0.0 0.0 0.0 0.0
0001d0 00 00 00 00 00 00 00 00 00 00 00 00 00 00 00 00
       0.0 0.0 0.0 0.0
0001e0 00 00 00 00 00 00 00 00 00 00 00 00 00 00 00 00
       0.0 0.0 0.0 0.0
0001f0 00 00 00 00 00 00 00 00 00 00 00 00 00 00 00 00
       0.0 0.0 0.0 0.0

network_body._body_endoder.seq_layers.2.weight f4 [128, 128]
000000 54 b5 92 bd 5a 04 58 3c f4 35 fd 3d 73 5a 39 3d
       -0.07163492 0.013184631 0.12363806 0.045252275
000010 0c 1f 0d bd c3 f2 68 bd e7 8b 8e 3d d4 95 5c bc
       -0.034453437 -0.05687214 0.06960278 -0.013463456
000020 cf 46 4a be 3b b6 3f bc e3 f6 28 3d b6 fa 2a 3e
       -0.19753574 -0.011701162 0.041251075 0.16697201
000030 89 5f 68 3c 81 65 f3 bc 9e 28 88 3d 97 e6 78 3d
       0.014182934 -0.029711487 0.06648372 0.060766783
000040 f3 c6 86 3d 8e 1c 39 bd e3 be 16 be 0b 3e 60 bd
       0.06580915 -0.045193247 -0.14721255 -0.05474667
000050 64 79 dc bb f6 5b 11 bd 6e 62 a2 bc 7a bf f9 bc
       -0.006728338 -0.03548809 -0.019822326 -0.030486811
000060 1c a6 2b 3d 0f 95 01 be 12 70 1a bd 60 d4 5b be
       0.04190646 -0.12654518 -0.037704535 -0.21467733
000070 0f f2 e5 3d 84 ca 02 be e1 ac ea bd 88 d8 fb 3d
       0.1122781 -0.12772566 -0.11458755 0.122971594
000080 9c 7b 84 3e 1e 14 5b 3c dc c7 6a bd 44 af c2 bd
       0.25875556 0.0133714955 -0.057319507 -0.095060855
000090 a9 d2 67 3a 3c d5 11 3e 25 89 6b bd 53 5f ea 3c
       0.00088433415 0.14241499 -0.057503838 0.028609907
0000a0 38 85 0c bd a4 f6 7c 3d 56 4e 1f be 88 08 12 bb
       -0.034306735 0.061758652 -0.15557227 -0.0022282917
0000b0 db e9 6c 3d 49 32 1c bd 45 a0 91 bd d1 c8 aa 3d
       0.05784021 -0.038133893 -0.07110647 0.08339084
0000c0 d9 4a 39 3e 8b 14 0c be 14 7f c0 bc 05 b4 52 3d
       0.18094958 -0.13679712 -0.023498096 0.05144121
0000d0 96 cb f7 bd d5 12 24 bd cb 68 95 3d 04 8d 15 3d
       -0.12099378 -0.040057022 0.07295378 0.036511436
0000e0 61 2b af 3d 69 57 5b 3e 1c be 6c bb 49 27 17 3e
       0.08553196 0.21420063 -0.0036124056 0.1476108
0000f0 5b 5c 99 3d 85 74 9a bd 6d e2 87 3b f9 6f 28 3e
       0.074883185 -0.075417556 0.004146865 0.16448964
000100 8c 38 02 3e 77 06 92 bc e4 e3 08 bc d7 ca 05 bc
       0.12716883 -0.017825348 -0.008355115 -0.008166037
000110 b5 4c 87 3d e5 57 1f be af 4e bd bd f7 19 12 bd
       0.066064276 -0.15560873 -0.09243523 -0.035669293
000120 74 e1 1c bc f2 cb ee 3d 5e 72 99 bc 83 97 53 3d
       -0.009575237 0.11659993 -0.018731292 0.051658165
000130 89 1d 54 bd 36 52 15 3c 6d f5 cd 3c 78 20 13 be
       -0.05178598 0.009113839 0.025141442 -0.14367855
000140 e7 82 da bb bf 8c c2 bc 0e cc 6d 3d b2 8a d1 3d
       -0.006668437 -0.023748754 0.05805593 0.10231532
000150 22 13 21 3c b8 2e 1d bd 9c d9 1e be d6 d2 f7 3d
       0.009831222 -0.038374633 -0.15512699 0.12100761
000160 5b af c0 bd 91 3d ad bd ea 8e 2c 3d 57 84 1e 3e
       -0.094084464 -0.084590085 0.04212848 0.15480171
000170 90 d8 01 be 51 ec ad 3d 02 f3 08 3e 61 e5 79 3d
       -0.12680268 0.084923394 0.1337395 0.06100977
000180 9b 04 b4 bd 8b f5 77 3d 22 22 b6 3c a9 4b 87 3d
       -0.08789941 0.060536902 0.022233073 0.06606228
000190 12 fe 67 3d ed 9f c6 bc 4e b2 16 bd 53 33 ad 3c
       0.056638785 -0.02424618 -0.03679114 0.021142637
0001a0 b7 05 be 3d 36 5c 98 3d 8e ff 94 bc 0b b5 d6 bc
       0.09278434 0.07439463 -0.018188264 -0.026209375
0001b0 bf 5a 56 bd cd a4 e0 3c 82 86 00 3e b5 1e 41 bc
       -0.052332636 0.027422333 0.1255131 -0.011787106
0001c0 36 d7 4d bd 21 64 3c be 32 81 46 bd 02 6c bb bd
       -0.05025407 -0.18397571 -0.048463054 -0.0915146
0001d0 c1 59 80 3d e2 ef 91 bd 8b 97 17 bd 8e 10 35 3e
       0.06267119 -0.07125832 -0.037009757 0.17682096
0001e0 fa 64 8c 3a ef 59 23 3e 67 a5 b2 bd 99 43 eb 3d
       0.0010711246 0.15952276 -0.08722954 0.114875026
0001f0 cb 0c 8d bd e6 7f 11 be c8 00 6a 3c be e4 b5 3d
       -0.06887206 -0.14208946 0.014282413 0.0888152
000200 7f 28 dd bd ee 22 39 3c 4d 72 a0 bd 88 a1 7a bb
       -0.1079874 0.011299832 -0.07834301 -0.0038243253
000210 08 9f 70 3d ae 2d e2 bd 64 90 91 bd 6d 76 f7 3d
       0.058745414 -0.11043869 -0.071076185 0.12083135
000220 10 96 e9 3c 3d 09 a2 bb 62 0f 48 bd a3 7e a9 bc
       0.028513938 -0.004944949 -0.048842795 -0.020690268
000230 89 70 b1 3d e1 27 84 3d 09 63 60 bc 64 f4 06 bd
       0.086640425 0.06452919 -0.013695487 -0.032947913
000240 7f 47 96 bd 1c a3 5c bd f3 c6 3e 3c ee be b7 bd
       -0.073378555 -0.05386649 0.011644113 -0.08971964
000250 de 65 85 bd e0 8c f7 bd e7 e8 48 3c 2b 9a a6 bd
       -0.0651357 -0.12087417 0.0122625595 -0.08134874
000260 4a a0 2f be ab 39 86 3d 35 aa 4c be 7d 20 fb bd
       -0.17150989 0.06553968 -0.19986804 -0.12262056
000270 0f e1 3a 3d 9d 2f 0e bd f1 ca 55 bd 1c 3f ce 3d
       0.04562479 -0.034713376 -0.052195493 0.10070631
000280 0f a4 b2 3c 3b 4e 12 3d 2e c9 d1 3d 86 63 42 3c
       0.021806745 0.035719138 0.1024345 0.011864549
000290 f5 19 80 bd 85 46 34 be 89 31 b0 bc 95 10 35 bd
       -0.06254951 -0.17605026 -0.021507995 -0.044205267
0002a0 b7 4b a6 bd 49 0e 86 3d 73 0d 8c bb 2c a5 1a 3c
       -0.0811991 0.065456934 -0.004274064 0.009438794
0002b0 49 bf b8 bc 16 df b8 3d 7b 1a 2c 3e db 8f 6d be
       -0.02255215 0.09026925 0.16806976 -0.23199408
0002c0 3f 23 b2 3d 18 a3 ca 3d 8a 91 f5 3d 8a b3 88 3d
       0.08698129 0.09894389 0.1199065 0.06674869
0002d0 fa ed 67 3d 12 cf b6 bd aa da d8 bd 44 91 b3 3d
       0.056623437 -0.08926214 -0.10588582 0.087679416
0002e0 c9 14 27 3d f3 45 71 bc ad 3a ec bd e3 38 94 bc
       0.040791307 -0.01472615 -0.11534629 -0.018093532
0002f0 18 1c c2 bd e1 aa 25 be 41 5c 81 3d 8b 82 06 3e
       -0.09478015 -0.16178466 0.06316424 0.13135736
000300 c3 02 5c bc ab a9 ca 3d c9 73 b1 3a ec 14 0d bb
       -0.013428393 0.09895643 0.0013538535 -0.0021527363
000310 fd 2d 6d bd c8 00 8f bc 9d fe 37 bd 82 c3 20 3e
       -0.057905186 -0.017456427 -0.044920553 0.1569958
000320 29 d1 14 3d 8f 4b 03 be 0b ab 16 be 24 96 59 3e
       0.036332283 -0.12821792 -0.14713685 0.2124868
000330 fb ac 84 bc c1 0d 23 3d ae 5a 05 be b9 0a 8e bd
       -0.016195765 0.03980804 -0.13022873 -0.06935639
000340 6b ec d3 3d 3a f1 03 3e 58 ae 7c 3c 07 ec 95 bd
       0.103478275 0.1288499 0.015422426 -0.07320409
000350 b4 14 b7 3d 4c 55 69 3d 46 35 a4 3c 61 1d ca 3d
       0.08939496 0.05696611 0.020044934 0.09868885
000360 c8 1c 66 3b 4a b0 0c 3c cf 1e ed bd f6 0b e5 3d
       0.003511237 0.008586952 -0.11578142 0.11183922
000370 a0 b2 86 bd 2d 5c e9 3c 37 c8 2a bd ac a1 91 3c
       -0.06577039 0.028486336 -0.041694846 0.017777286
000380 4c 2a 71 3d 97 df 92 3c 1b eb 94 bd c9 4f 1f bd
       0.058878228 0.017928882 -0.07271405 -0.03889445
000390 cc 04 b9 3c b8 19 35 be 5d 3a 17 bd 91 f6 0f 3e
       0.022585295 -0.17685592 -0.036920894 0.14058901
0003a0 03 95 3c bd 83 64 2c 3d 30 bc 16 bd 59 e0 95 bc
       -0.046040546 0.042088043 -0.036800563 -0.018295454
0003b0 4a 81 38 3e d2 db da 3d 03 3e 29 3d 4a 5f 15 3e
       0.1801807 0.10686459 0.041318905 0.14587131
0003c0 86 44 0d 3e 39 df 5d 3e b5 c6 91 3d 8e 52 bb 3d
       0.13795671 0.21667184 0.071179785 0.091466054
0003d0 20 a8 45 3c 25 4e 8a 3d 0a b7 2d bd 3d 14 9b bd
       0.01206401 0.06753186 -0.042410888 -0.075722195
0003e0 27 44 03 bd 8b 21 c7 bc c0 f9 7f bd 36 75 79 bd
       -0.032047417 -0.024307987 -0.06249404 -0.060902797
0003f0 9d 78 05 3c 11 26 cb 3d 75 ec 29 bd 4a c7 f2 bd
       0.008146432 0.0991937 -0.04148527 -0.118544176

network_body._body_endoder.seq_layers.2.bias f4 [128]
000000 00 00 00 00 00 00 00 00 00 00 00 00 00 00 00 00
       0.0 0.0 0.0 0.0
000010 00 00 00 00 00 00 00 00 00 00 00 00 00 00 00 00
       0.0 0.0 0.0 0.0
000020 00 00 00 00 00 00 00 00 00 00 00 00 00 00 00 00
       0.0 0.0 0.0 0.0
000030 00 00 00 00 00 00 00 00 00 00 00 00 00 00 00 00
       0.0 0.0 0.0 0.0
000040 00 00 00 00 00 00 00 00 00 00 00 00 00 00 00 00
       0.0 0.0 0.0 0.0
000050 00 00 00 00 00 00 00 00 00 00 00 00 00 00 00 00
       0.0 0.0 0.0 0.0
000060 00 00 00 00 00 00 00 00 00 00 00 00 00 00 00 00
       0.0 0.0 0.0 0.0
000070 00 00 00 00 00 00 00 00 00 00 00 00 00 00 00 00
       0.0 0.0 0.0 0.0
000080 00 00 00 00 00 00 00 00 00 00 00 00 00 00 00 00
       0.0 0.0 0.0 0.0
000090 00 00 00 00 00 00 00 00 00 00 00 00 00 00 00 00
       0.0 0.0 0.0 0.0
0000a0 00 00 00 00 00 00 00 00 00 00 00 00 00 00 00 00
       0.0 0.0 0.0 0.0
0000b0 00 00 00 00 00 00 00 00 00 00 00 00 00 00 00 00
       0.0 0.0 0.0 0.0
0000c0 00 00 00 00 00 00 00 00 00 00 00 00 00 00 00 00
       0.0 0.0 0.0 0.0
0000d0 00 00 00 00 00 00 00 00 00 00 00 00 00 00 00 00
       0.0 0.0 0.0 0.0
0000e0 00 00 00 00 00 00 00 00 00 00 00 00 00 00 00 00
       0.0 0.0 0.0 0.0
0000f0 00 00 00 00 00 00 00 00 00 00 00 00 00 00 00 00
       0.0 0.0 0.0 0.0
000100 00 00 00 00 00 00 00 00 00 00 00 00 00 00 00 00
       0.0 0.0 0.0 0.0
000110 00 00 00 00 00 00 00 00 00 00 00 00 00 00 00 00
       0.0 0.0 0.0 0.0
000120 00 00 00 00 00 00 00 00 00 00 00 00 00 00 00 00
       0.0 0.0 0.0 0.0
000130 00 00 00 00 00 00 00 00 00 00 00 00 00 00 00 00
       0.0 0.0 0.0 0.0
000140 00 00 00 00 00 00 00 00 00 00 00 00 00 00 00 00
       0.0 0.0 0.0 0.0
000150 00 00 00 00 00 00 00 00 00 00 00 00 00 00 00 00
       0.0 0.0 0.0 0.0
000160 00 00 00 00 00 00 00 00 00 00 00 00 00 00 00 00
       0.0 0.0 0.0 0.0
000170 00 00 00 00 00 00 00 00 00 00 00 00 00 00 00 00
       0.0 0.0 0.0 0.0
000180 00 00 00 00 00 00 00 00 00 00 00 00 00 00 00 00
       0.0 0.0 0.0 0.0
000190 00 00 00 00 00 00 00 00 00 00 00 00 00 00 00 00
       0.0 0.0 0.0 0.0
0001a0 00 00 00 00 00 00 00 00 00 00 00 00 00 00 00 00
       0.0 0.0 0.0 0.0
0001b0 00 00 00 00 00 00 00 00 00 00 00 00 00 00 00 00
       0.0 0.0 0.0 0.0
0001c0 00 00 00 00 00 00 00 00 00 00 00 00 00 00 00 00
       0.0 0.0 0.0 0.0
0001d0 00 00 00 00 00 00 00 00 00 00 00 00 00 00 00 00
       0.0 0.0 0.0 0.0
0001e0 00 00 00 00 00 00 00 00 00 00 00 00 00 00 00 00
       0.0 0.0 0.0 0.0
0001f0 00 00 00 00 00 00 00 00 00 00 00 00 00 00 00 00
       0.0 0.0 0.0 0.0

action_model._discrete_distribution.branches.0.weight f4 [2, 128]
000000 cf 45 79 3c eb b4 18 3b 71 58 21 bc 8b 55 bb 3b
       0.015214398 0.0023301195 -0.009847746 0.0057169846
000010 23 6c b0 bb 63 ba 26 3c aa 8c cf bb 00 72 0f 3b
       -0.0053839847 0.010176274 -0.006333907 0.0021888018
000020 b8 e8 f5 39 97 48 6d 3c 2d c0 0c bc 1c db bb bb
       0.0004690343 0.014482639 -0.00859074 -0.005732907
000030 92 a2 79 bb c6 45 22 3c bd ab fc 3b 22 04 5e 3b
       -0.0038091284 0.009904331 0.0077109025 0.0033876975
000040 94 9b 1f 3c 9f ed 9d bc 15 44 eb 3b 87 22 f0 3b
       0.009741683 -0.019278346 0.007179747 0.0073283347
000050 2b f4 99 bb 4d e4 52 bb c3 9c f4 3b 56 c0 a1 bc
       -0.0046982965 -0.0032179535 0.0074649765 -0.019745033
000060 74 8d ca 3b a2 0b 4f 3a ab 5a d7 bb 7b 44 82 3a
       0.0061814133 0.0007898157 -0.0065720878 0.0009938622
000070 ed e1 a1 bb 04 5b 0b bc ed 19 67 3c ca 3e e6 3a
       -0.0049402625 -0.008505587 0.014105302 0.001756632
000080 3a 53 f7 bb 1f 63 41 bc 4b 77 24 bc 2a ae d8 bb
       -0.007547763 -0.0118034175 -0.010038207 -0.006612559
000090 8b dd e1 3b bd 84 52 bc df 31 f8 3a 17 12 53 bb
       0.006892865 -0.01284903 0.0018935761 -0.0032206827
0000a0 8f 65 b3 bb 6f 90 2c 3c 74 76 1b 3c de 95 b5 3b
       -0.005474753 0.0105324825 0.009488691 0.005541547
0000b0 2b 50 59 3c 35 7b 86 3c 68 85 ee bb 66 fc 3f 3b
       0.013263742 0.016416172 -0.007279087 0.0029294728
0000c0 7f 0f 81 3b dc f8 c8 3b 5b 69 4b 3b 80 6f e8 3b
       0.003938615 0.006133182 0.0031038139 0.00709337
0000d0 bb 07 0e 3c 34 5a c7 3b 4c 20 39 b9 de 0c af bb
       0.008668835 0.006083751 -0.00017655006 -0.00534211
0000e0 23 e6 61 3c 15 af 8d 3b 77 c3 45 3a f5 42 7e bc
       0.013787779 0.00432385 0.000754408 -0.0155188935
0000f0 05 96 ec ba 99 e8 80 bb ab b7 ac b9 57 80 9c bb
       -0.001805008 -0.003933978 -0.0003294324 -0.0047760415
000100 bf c7 37 bc d2 76 31 3b af bf 13 3c d1 a1 92 bc
       -0.011217057 0.002707888 0.009017869 -0.017899426
000110 9d 18 a7 3c da a9 ce bb 03 3a 99 bb c0 7b b7 3b
       0.020397479 -0.006306869 -0.004676105 0.005599469
000120 9a 9d 72 bb 33 4e 19 3c 22 f4 62 ba ff 9d 5e bc
       -0.0037020207 0.009357023 -0.00086575944 -0.013587474
000130 5b 18 32 3c fa 84 9a bb 97 9d 81 3c 27 f4 be bb
       0.010870065 -0.004715559 0.015822215 -0.005827445
000140 16 c3 02 3b 33 71 8c bb 49 a4 0c 3c 00 87 b8 bb
       0.0019952706 -0.0042859553 0.0085840905 -0.0056313276
000150 63 f8 1a bb 28 3b 88 bc 57 8d 77 b9 bf ef f5 3a
       -0.0023646585 -0.01662977 -0.00023608409 0.0018763467
000160 78 ee 12 ba 16 5d ac 3c 66 f3 b3 bb d8 9d 7a bc
       -0.00056049926 0.02104048 -0.005491662 -0.015296422
000170 21 b9 ba 3b dc 57 94 bb 77 9e 41 3a b8 a5 3c bc
       0.0056983386 -0.004527075 0.0007385979 -0.01151412
000180 f5 e6 be bb 52 5d 5f 3b 74 e3 4a bc 8f 0f f7 3a
       -0.005825872 0.0034082723 -0.012383331 0.0018849241
000190 4a 00 d7 3b 1a 3b 7d 3c 7a 7c 53 bc 24 4b 87 bb
       0.0065613138 0.015455985 -0.0129080955 -0.0041288305
0001a0 2b b5 0f bc 6b 66 45 bb 24 e4 0c bc 77 81 94 3b
       -0.008771221 -0.003012086 -0.008599315 0.004532035
0001b0 9f c7 9c bb ed 74 7f bb d8 d0 86 3b e3 b8 f7 3b
       -0.004784539 -0.0038979605 0.0041142516 0.007559882
0001c0 38 1e c2 bb e3 0a 17 ba fc c7 09 bb 4d c6 fb 3b
       -0.0059240125 -0.0005761815 -0.002102374 0.0076835514
0001d0 4b d6 1c 3b 2b 72 3d bc bd 32 56 3c c8 46 1a bc
       0.002393144 -0.011562864 0.01307362 -0.00941629
0001e0 20 d0 32 bb 78 78 15 ba 50 91 75 ba 4a f1 35 bc
       -0.0027284697 -0.000570185 -0.00093676616 -0.011104891
0001f0 49 2c 13 3c e2 84 20 bc a3 7f 9d 3b ab 8c 44 b9
       0.008982726 -0.009797307 0.0048064752 -0.0001874442
000200 63 c0 0a 3b 65 53 34 3c cd 43 08 3c ef 8e 31 3c
       0.00211718 0.011006211 0.008316946 0.010837301
000210 fd ba 71 3c 6e 79 3e bb 23 21 e0 ba 7d 34 9d 3a
       0.014754054 -0.0029064077 -0.0017099719 0.0011993792
000220 ea 1f 6d bc 32 db 2c 3c cf 4d 31 3b be 4a 96 3b
       -0.014472941 0.010550307 0.0027054434 0.0045865467
000230 ff e1 23 3c 21 c7 9b 3a d9 b9 b3 3b 07 9e dc bb
       0.010002612 0.0011884907 0.0054848013 -0.0067327055
000240 e7 2b ab b9 62 15 ca 3b 67 c9 a8 ba 87 e9 c2 bb
       -0.0003264837 0.0061671 -0.0012877405 -0.005948249
000250 3e 22 44 3c a0 39 9e bc 01 2d 93 39 fc bf 9f 3b
       0.011971055 -0.019314587 0.00028071555 0.0048751812
000260 6f a5 b7 bc f2 56 70 3c c3 3d b9 bb 77 b3 df 3b
       -0.022417752 0.014669167 -0.0056531145 0.006826814
000270 e7 d0 23 3c 6c 3a 42 3b 13 aa 7e ba 60 09 0f 3c
       0.009998537 0.0029636873 -0.0009714674 0.0087302625
000280 98 c3 9b 3b 23 be b4 3b fd de 60 bb 1d 01 59 bc
       0.004753541 0.00551583 -0.00343126 -0.013244894
000290 59 9e 94 3b 56 b9 b9 bb 33 e4 88 bb af c4 95 bc
       0.004535478 -0.0056678457 -0.004177594 -0.018282263
0002a0 bd ef 49 bc 50 ba e8 3b 77 2e 86 3c 33 c8 9e 3b
       -0.0123252245 0.0071022883 0.016379578 0.004845643
0002b0 c2 aa 6a bc ec 7e c8 3a dd ec 44 3c 1b ce 36 3c
       -0.014322938 0.0015296615 0.012019363 0.011157538
0002c0 66 0a c3 ba c0 6a 5d 3b a8 60 f3 3a 73 32 47 3c
       -0.0014880418 0.0033785552 0.0018568235 0.012158024
0002d0 6f 8e 48 bc b7 66 17 3c d4 c1 33 bc a2 7f 21 3c
       -0.01224099 0.009240798 -0.010971505 0.00985709
0002e0 fe 54 27 3c 11 cf b0 3b c6 0b 8a 3b 03 5a 03 b9
       0.010213135 0.005395778 0.0042128293 -0.00012526666
0002f0 59 57 3e 3b a5 ef f5 3b 8b 3d 07 3b 04 4f 2f bc
       0.0029043762 0.0075053745 0.0020636048 -0.010699991
000300 1d b7 21 ba 3b c4 ff 3b 7b 4c 25 3b c8 c3 d3 bb
       -0.00061689486 0.007805375 0.0025222588 -0.006462548
000310 83 f3 fe b9 59 08 ca 39 fb 50 48 3b c4 f9 ae bb
       -0.00048628086 0.00038534662 0.0030565846 -0.005339833
000320 18 87 e4 bb 4d 67 9f bc 87 39 94 3b 35 a9 c0 ba
       -0.0069741122 -0.019458437 0.0045234594 -0.0014698865
000330 79 c9 1b bb 85 10 e0 bb ab 5b 60 3c f3 5d f8 ba
       -0.002377121 -0.006837907 0.01369373 -0.0018948897
000340 fb ae b5 bb 8b 08 04 3c b0 7d 87 3b 45 ac 1f bb
       -0.005544541 0.008058677 0.004134856 -0.0024364155
000350 73 b6 15 bc cf b9 a9 3b 4f 01 f8 bb a6 da b4 3b
       -0.009137738 0.005179621 -0.0075685154 0.005519229
000360 63 57 0e bc 06 0d 90 bc ec 51 24 3c 56 76 90 bb
       -0.008687827 -0.017584335 0.010029297 -0.004408638
000370 1d bb 25 bc c6 ab 2e bc 63 e4 38 3b 25 89 3f bc
       -0.010115412 -0.010661071 0.00282123 -0.011690413
000380 75 d0 8d bb 0b 3f 18 3c 37 f8 a7 bb c0 88 ed bb
       -0.0043278285 0.009292374 -0.005126025 -0.007248968
000390 bb 66 52 bc 16 4b ca 3b 33 d0 34 bc 2d 37 0d 3c
       -0.012841876 0.0061735017 -0.011035967 0.008619112
0003a0 65 f5 e1 bb af ec a4 3a 9a 94 da bb 7e 58 8b 3b
       -0.0068957084 0.0012582744 -0.0066705467 0.0042524925
0003b0 a7 55 ec bb cb 69 c0 bb ba 84 34 bc 69 d1 39 bc
       -0.007212359 -0.0058719865 -0.011017973 -0.011341431
0003c0 96 b8 27 bc 3b 8f d1 3b fe 9e 8d 3b 97 7a e1 ba
       -0.01023688 0.006395248 0.004321932 -0.0017202672
0003d0 32 a7 79 3c 82 f6 4b 3b 97 fc ba b9 59 d4 16 3b
       0.015237616 0.0031122272 -0.0003566488 0.0023014753
0003e0 be d9 c3 ba ed 19 a2 bb 42 6f e8 bb fb 63 2f bb
       -0.0014942212 -0.0049469383 -0.007093341 -0.0026762474
0003f0 00 d6 e4 bb eb 6a 51 bc 89 79 1a bb a1 21 3a bc
       -0.0069835186 -0.012781839 -0.0023570976 -0.011360557

action_model._discrete_distribution.branches.0.bias f4 [2]
000000 00 00 00 00 00 00 00 00
       0.0 0.0

action_model._discrete_distribution.branches.1.weight f4 [2, 128]
000000 a5 58 80 3b ef d0 ad 3b 50 1c 74 ba 65 22 e9 bb
       0.0039168173 0.005304448 -0.000931208 -0.007114696
000010 33 5b 38 3c ab 74 e5 3b 38 52 e8 bb 8f 09 d7 b9
       0.011252212 0.0070024333 -0.0070898794 -0.00041015117
000020 1a 3b 52 bc 7a d4 a1 3c 0e 88 a9 bb 05 72 9c bb
       -0.012831474 0.019754637 -0.0051736897 -0.0047743344
000030 80 1c 30 3c 39 86 3f 3c b4 a4 9e b8 1f ba 16 3b
       0.010748982 0.011689716 -7.5647054e-05 0.002299912
000040 f5 f8 12 39 c8 ab f8 ba 5f 07 cf 3b 2d b7 ed bb
       0.00014016389 -0.0018972093 0.0063180174 -0.0072545023
000050 9d 77 81 bc 6f 22 cf 3b 1e 72 04 bb 65 cc f3 bb
       -0.015804106 0.0063212435 -0.002020962 -0.007440137
000060 f2 7d 92 3c 0e 93 b8 ba ba b7 2f bc 5f 10 a1 b9
       0.017882321 -0.0014081912 -0.010724956 -0.0003072051
000070 c2 50 49 bb 18 d6 a4 38 31 ff a0 3b 2f d7 89 3b
       -0.0030718301 7.8600075e-05 0.0049132337 0.00420656
000080 98 85 59 bb 33 86 ac 3b 35 ef 70 3b 48 ee 71 3b
       -0.00331912 0.005265021 0.0036763672 0.0036915708
000090 ac bc 3b 3b 94 20 bb 3c 60 7e 02 3b 72 19 8d 3b
       0.0028646393 0.022842683 0.001991175 0.004306012
0000a0 a3 8b 23 bc cb a7 fe bc 37 11 24 bb 32 24 4d 3b
       -0.009982022 -0.03108587 -0.0025034675 0.0031302092
0000b0 17 c0 04 3c d7 98 9f 3b 3d 7f 26 bc bb a5 24 bb
       0.008102438 0.004870515 -0.010162172 -0.0025123197
0000c0 be 67 aa bb ea c2 8e bb 71 e3 16 bc 3b 91 49 bc
       -0.0052003553 -0.0043567317 -0.0092095 -0.012302692
0000d0 62 ea 81 3b a4 c7 c8 bb e3 09 86 bb 38 ee f7 3b
       0.003964708 -0.0061273146 -0.004090534 0.0075662397
0000e0 8d 58 3d 3b ab a1 15 3c 4b e0 ac bb 7d 16 9d 3c
       0.0028891892 0.009132783 -0.0052757612 0.019175762
0000f0 ca 74 3f 3b 60 12 8f 3b f5 6f 3a 3c e0 4a 4d bc
       0.0029213899 0.004366204 0.011379232 -0.012530059
000100 22 dd ad bb 5a 1e 96 b9 83 cc b4 bb d7 c8 38 bb
       -0.005305902 -0.00028632843 -0.0055175438 -0.0028195882
000110 eb 94 42 bc ba 2a c3 ba 46 9b 89 bb 98 31 73 3c
       -0.011876325 -0.0014890053 -0.0041994182 0.014843367
000120 e3 fd b1 39 35 cc 63 3c e6 e5 c5 3a a8 77 15 3c
       0.0003394923 0.013903667 0.0015098422 0.009122767
000130 44 14 25 3c 40 70 07 bc a4 a3 3f 3b 3d 52 76 b9
       0.0100756325 -0.008266509 0.0029241825 -0.00023491024
000140 08 88 2d bc 4b d8 21 bb ad 2b 4f bb 07 f1 16 3c
       -0.010591514 -0.002469557 -0.0031611726 0.009212739
000150 75 2b 83 3c 48 b5 3a 3c 63 66 bf bb e2 5b 23 3c
       0.016011933 0.01139576 -0.005841063 0.009970637
000160 d5 18 0d 3c 7b 80 64 3c ec 57 c8 ba 95 9e dc bb
       0.008611877 0.013946648 -0.0015284992 -0.0067327716
000170 ec d2 81 3c 58 f9 0e 3b c6 76 88 b9 47 04 2b 3c
       0.015847646 0.00218161 -0.00026028435 0.0104380315
000180 4b e5 d9 3b 90 14 66 bb 83 7b cc 3b b3 41 b9 3c
       0.0066496483 -0.003510747 0.0062403097 0.022614336
000190 0b 1a 56 3b 02 68 09 bc 73 85 58 bc d2 f1 60 3c
       0.0032669331 -0.008386614 -0.0132154105 0.013729529
0001a0 0d e9 f6 3b 8f 93 77 3a e0 00 80 bc 8f d2 fb 3b
       0.007535106 0.000944429 -0.015625417 0.0076850126
0001b0 9a f4 2f 3c e7 a8 53 bb 63 2a 1a 3c c2 5e 03 bc
       0.01073947 -0.0032296719 0.00940952 -0.0080181975
0001c0 90 9f d9 bb cd 39 d8 3b 61 92 85 bb 8d 8d da bb
       -0.006641336 0.0065986873 -0.0040762876 -0.006669706
0001d0 65 01 78 ba 96 35 a0 3b 2e 3c 27 bb 45 b5 a8 3b
       -0.0009460657 0.0048892004 -0.0025518048 0.005148562
0001e0 4f 36 38 3c 55 8b a9 39 97 8c ab 3b b3 fa 3a bb
       0.011243417 0.00032338002 0.0052352655 -0.0028530776
0001f0 cf f2 34 bc 0e 83 3b 3a 4c 56 a4 bb 36 4b 43 bc
       -0.011044218 0.00071530126 -0.00501517 -0.011919787
000200 8a 06 04 bc 40 60 b0 3b a0 ed 04 bc 33 d7 e6 3b
       -0.0080582 0.0053825676 -0.008113295 0.0070446967
000210 ac b8 4c bc ff 73 32 b9 47 c4 db ba 5d 0d 5a bb
       -0.012495201 -0.00017018615 -0.0016766869 -0.0033272125
000220 2c ef 9e 3b bb c0 9d 3b 4f 46 29 3c af de 7f bc
       0.004850289 0.004814235 0.010331704 -0.015617057
000230 10 cf a9 3b 6c 34 0f 3c 5a 42 2e bc f9 74 0f bc
       0.0051821545 0.008740526 -0.010635937 -0.008755916
000240 76 4f 86 3b 57 4e c6 3b f3 a2 f9 b9 eb 6f 55 b9
       0.004098828 0.0060518193 -0.00047614388 -0.00020354956
000250 23 1b c4 bb c7 5b 99 b8 dd 1e 5a bc 7c 8d 1f bc
       -0.0059846803 -7.3127034e-05 -0.013313022 -0.009738322
000260 18 78 7d bb a0 28 64 3b ef bf ec bb fe a5 39 bb
       -0.0038676318 0.0034814253 -0.0072250287 -0.0028327699
000270 f2 6b 35 bc 78 b5 ee 3b 5f 44 ba 3b c1 a0 1a bc
       -0.011073099 0.0072848164 0.00568442 -0.009437741
000280 27 1a c5 3b 07 ab a4 3b 15 ee 50 bc 88 73 26 39
       0.0060150805 0.005025271 -0.012752076 0.00015874032
000290 75 e6 a3 bb 66 4f 22 bc 2b ac 02 bc 40 88 b9 bb
       -0.005001838 -0.009906625 -0.007975618 -0.005661994
0002a0 d7 fc 00 3b 13 41 b3 3a 45 9f e3 3a 8b 9b 24 bb
       0.0019681954 0.001367601 0.0017366192 -0.0025117125
0002b0 6f 09 1e 3c c6 f5 09 ba 0b fe 43 bc 70 7e 57 bb
       0.009645804 -0.00052627583 -0.011962424 -0.003288176
0002c0 18 bb 5c 3c f8 31 c0 3a 03 b4 59 bc 9d c5 26 3c
       0.013472341 0.0014663329 -0.013287547 0.010178951
0002d0 ca 93 a9 bb d7 89 f2 bb 3a 33 66 3b e8 9a 61 bc
       -0.0051750885 -0.0074016857 0.0035125748 -0.013769843
0002e0 40 2d cf 3b d5 f7 f8 ba 14 c4 cb 3b e9 a5 c6 36
       0.006322533 -0.0018994758 0.0062184427 5.9201743e-06
0002f0 08 8d 32 3c 31 47 bd bb 30 3d 8b bb d3 7f 3c bc
       0.010897882 -0.005776309 -0.0042492375 -0.011505085
000300 e5 79 ec 3b c2 a0 20 bc a7 9f b2 3c c2 e9 11 bc
       0.0072166794 -0.009803953 0.021804644 -0.00890583
000310 a3 56 8b 3c d6 a3 99 bb 0b b1 42 3b 67 ec 11 bc
       0.017009085 -0.00468872 0.0029707577 -0.00890646
000320 3a 77 f7 3a 8d 5c 4d ba 43 d2 d6 bb fd 6c 82 3b
       0.0018880137 -0.00078339205 -0.006555827 0.0039802776
000330 ec 0d b9 ba 6b c0 a6 bc 87 d5 52 3c f0 3d a7 3b
       -0.0014118529 -0.020355424 0.012868292 0.005103819
000340 ff 46 99 3c 36 de ac 3b 3b b4 d8 3b ee b0 8d b9
       0.018710611 0.005275513 0.006613282 -0.0002702544
000350 1a df 66 3c 23 3a 49 bb 90 68 e8 3b d8 91 f3 3b
       0.0140912775 -0.0030704818 0.007092543 0.0074331574
000360 0d 98 1b 3c 2d 3f aa bc e0 35 26 bc 6a 1c 94 3c
       0.009496701 -0.020782078 -0.010144681 0.018079955
000370 55 03 ee ba 18 cf 55 3b a5 43 fa b9 eb 4a b7 3b
       -0.0018158952 0.0032624658 -0.00047734115 0.0055936477
000380 9a 30 15 3c 4a 27 b6 3c 78 25 b2 ba 5d 91 fe ba
       0.009105826 0.022235531 -0.0013591489 -0.0019421984
000390 42 b4 65 bb 0b 63 80 3b f9 d2 1b bb a2 78 bb 38
       -0.003505007 0.003918057 -0.0023776873 8.9393245e-05
0003a0 97 8c 71 bc da f1 6d 3c 65 33 ba bb 3d d6 8f 3c
       -0.014742992 0.014522994 -0.0056823962 0.017558211
0003b0 4b ae a0 bb 0e e3 84 3b 6f 91 98 bc 98 02 7e bb
       -0.00490359 0.0040553873 -0.018624036 -0.003875887
0003c0 16 77 11 3c dd 60 ce 3b 8d d7 ad bb 6d 9d 69 3c
       0.00887849 0.006298168 -0.0053052367 0.014258725
0003d0 f5 4c d6 ba eb 68 d2 ba 43 d0 54 3c fc 94 28 bb
       -0.0016349839 -0.0016052997 0.012989107 -0.0025723567
0003e0 d7 de b8 bb 77 4e 01 bc 32 ee 4a 3b 5f 6a 15 bb
       -0.005641799 -0.007892243 0.003096473 -0.0022798998
0003f0 93 24 61 3c 5f 62 ec bb e7 7d a6 3b 2d 58 6e bc
       0.01374163 -0.007213875 0.0050809267 -0.01454739

action_model._discrete_distribution.branches.1.bias f4 [2]
000000 00 00 00 00 00 00 00 00
       0.0 0.0

action_model._discrete_distribution.branches.2.weight f4 [2, 128]
000000 90 c9 0c 3b 0b bc 3a 3c 77 ee 42 bc 1b 10 8d 3b
       0.0021482445 0.011397372 -0.011897675 0.0043048984
000010 ab e8 a0 bc 98 f3 64 ba 8a 91 fb bb 6e ac 87 bb
       -0.019642195 -0.0008733808 -0.0076772617 -0.0041404283
000020 53 46 87 3b 36 15 90 3b 3b 37 3a b8 9f 5c cd ba
       0.0041282563 0.00439706 -4.4397293e-05 -0.0015667862
000030 22 71 50 bb 9b 77 af 3b 68 d0 13 bb 70 e6 9e 3c
       -0.0031805714 0.0053548343 -0.002255464 0.01939699
000040 0b 19 c0 bb fa 1c b1 3b 40 a0 6e 3b 08 ad 6f 3b
       -0.0058623604 0.0054050656 0.0036411434 0.003657164
000050 86 0c 32 3a cd 85 09 bb da ef 54 ba 61 b4 15 bb
       0.0006792027 -0.0020984292 -0.0008122899 -0.002284311
000060 b4 7c 01 bc 45 21 3b 3b 7f 2b b7 ba 25 29 58 3b
       -0.007903267 0.0028553766 -0.0013974755 0.0032983508
000070 97 19 0d 3b 0e 23 bb 3a 49 93 02 bb 65 93 52 b9
       0.0021530145 0.0014277415 -0.0019924215 -0.0002008207
000080 1b 26 ac bb 25 00 11 3c 55 ea 80 3c a7 92 b9 3b
       -0.005253566 0.008850132 0.015736738 0.0056632343
000090 c9 43 2e bb fe 11 1f bc 97 3d a4 3b 58 aa 4e bc
       -0.0026590696 -0.0097088795 0.005012225 -0.012613855
0000a0 0b ed 68 ba 35 9e cd bb a2 02 85 3a 9f 63 cb bb
       -0.000888542 -0.0062749633 0.0010147879 -0.006206944
0000b0 39 22 2b bc 9a 80 67 bb 7b 87 91 3b 08 20 1c 3b
       -0.010445171 -0.0035324455 0.0044411994 0.0023822803
0000c0 86 02 c2 ba db 5d 1f 3c 08 53 72 3a db df 8d 3b
       -0.0014801777 0.009726967 0.000924394 0.004329664
0000d0 64 b2 95 b9 97 89 47 bc 37 da 73 bc 43 cf a3 bc
       -0.00028552406 -0.0121788 -0.014883569 -0.019996291
0000e0 6a 63 50 3a 6f 6a 01 bc fd a3 9a bc 2f 22 a9 3a
       0.0007949384 -0.007898911 -0.018877024 0.0012903864
0000f0 72 5d e3 bb a5 5f c6 3b 78 56 83 3b c1 2f be ba
       -0.00693863 0.006053882 0.0040081106 -0.0014510081
000100 ad 87 95 3a 5c 2f 8d bb c8 33 f2 3b 32 16 07 3b
       0.0011408232 -0.004308624 0.0073914267 0.0020612595
000110 af f8 0d 3c 34 ce 3c 3c 6f e7 e1 ba 69 62 87 3b
       0.008665248 0.011523772 -0.001723511 0.0041316045
000120 6f 8f 7e bb df 18 d6 bb f7 25 f2 37 31 76 93 3b
       -0.0038842817 -0.0065337266 2.8866327e-05 0.0045001735
000130 8f e5 3a 3b 98 58 7b bc a8 54 b0 3b df 18 2a 3c
       0.0028518175 -0.015340947 0.0053811856 0.010381906
000140 0f 52 74 bb bd 49 0d bc f3 e1 33 bb d8 d6 8d 3b
       -0.0037280356 -0.008623538 -0.0027447909 0.00432859
000150 09 87 07 3c 32 af 77 bc a4 4b 93 bb 98 16 59 3b
       0.008271941 -0.015117453 -0.004495101 0.003312504
000160 58 71 57 bc bd 8b 82 3b 07 d6 3e 3c fd eb 01 3c
       -0.013149582 0.0039839433 0.011647708 0.007929799
000170 3d 9e 52 bc 7d 94 4d bb 62 21 3e 3c 80 dc b3 bb
       -0.01285511 -0.0031369023 0.011604639 -0.005488932
000180 ab e8 ec 3b 61 5e 0c bc 27 ad a4 3a e3 c7 11 bc
       0.0072298846 -0.008567424 0.001256381 -0.008897754
000190 29 62 10 3b 0a 16 ab bb 13 28 b4 3a ec eb b8 39
       0.0022031164 -0.005221133 0.0013744853 0.0003527099
0001a0 f2 10 11 bc 11 39 07 bc d9 75 c0 3b 93 b3 e1 3b
       -0.008854138 -0.008253352 0.0058734235 0.006887862
0001b0 25 b0 d4 3b 6b a5 cd bb 4d 78 53 bb 0b d7 84 3c
       0.0064907246 -0.006275823 -0.003226775 0.016215822
0001c0 dd 7d 81 b9 6b 57 bb 3b a9 de 23 b9 75 95 d1 bb
       -0.00024698573 0.005717208 -0.00015627839 -0.0063959905
0001d0 38 d3 38 bc e3 b1 68 bc 39 77 4b bc 73 e8 a2 ba
       -0.011280827 -0.014202568 -0.012418562 -0.0012428894
0001e0 1c 72 14 bc 08 21 e7 bb cc b2 8b bb c7 41 79 3c
       -0.009060409 -0.007053498 -0.0042632576 0.015213436
0001f0 21 61 33 bc 6a ff 95 bb 19 46 b4 3b 2a de e1 3b
       -0.01094845 -0.004577567 0.0055015204 0.006892939
000200 0a a7 f4 b9 53 7a 8c 3b e3 b5 b6 bb f0 73 74 bc
       -0.0004666376 0.004287043 -0.005575882 -0.01492022
000210 ba 23 73 3c cf e8 5e 3c ec 1c 8f ba 9d a5 74 bc
       0.014840061 0.013605311 -0.0010918654 -0.014932063
000220 9e 3b 98 3b 78 7b 9c bb ab 25 c5 3a da 61 10 3c
       0.004645779 -0.004775461 0.0015041133 0.008812392
000230 33 0a 4f 3a db ff f7 3a de 2e 36 3c 25 0b 97 3b
       0.0007897943 0.0018920855 0.011119572 0.004609483
000240 a3 69 10 bc 52 90 83 bc 90 34 ce 3b d7 94 af 3b
       -0.008814248 -0.016060028 0.006292887 0.0053583193
000250 f9 40 8b 3b 93 fb 4f 39 10 20 8c 3b 2b c8 8f bb
       0.0042496887 0.00019834777 0.004276283 -0.0043878756
000260 cb e1 12 3c bd dc 8c bb 22 0f ba 3a 77 64 e6 bb
       0.008964966 -0.004298775 0.0014195184 -0.0070310193
000270 4a 50 fe 3b d4 92 12 bc db 07 21 3c 13 80 81 ba
       0.007761036 -0.008946139 0.009828533 -0.0009880088
000280 0c 56 99 3c 9f d9 81 ba 8b d5 3c 3c 57 c1 23 bb
       0.018717788 -0.0009906775 0.011525522 -0.0024987066
000290 a8 91 6f bc 86 29 cc 3a 1f 75 b1 3b 99 a8 b5 bb
       -0.0146221295 0.001557634 0.0054155733 -0.00554378
0002a0 87 0a 64 bc d4 8e 3d 3b cb a7 2b bc bb 06 22 3c
       -0.013918526 0.0028924244 -0.010477017 0.0098893
0002b0 42 94 74 bc 81 61 18 3c 33 cb 36 3b b3 09 3a bc
       -0.014927926 0.0093005905 0.0027892112 -0.011354852
0002c0 b4 ae 19 bc ff 84 01 bc df 0a 42 b9 83 d4 94 bc
       -0.009380031 -0.007905244 -0.00018505332 -0.01816774
0002d0 55 17 6e bc 75 85 16 bc f7 73 1e 3c e7 7b 6b 3c
       -0.01453193 -0.009187092 0.009671203 0.014372802
0002e0 78 d6 c7 3a 4d 6f e8 3b ad 15 59 bc 5b de 32 bc
       0.0015246412 0.007093346 -0.013249797 -0.0109172715
0002f0 4f 99 bd bb df b2 85 3b 42 03 5f 3b 18 e6 18 bb
       -0.005786098 0.004080161 0.0034029041 -0.0023330506
000300 c8 68 61 3a 06 68 8c bb 62 15 d2 bb bc 94 22 bb
       0.00085986825 -0.0042848615 -0.0064112404 -0.002480789
000310 7b 34 04 bc 25 f6 a5 3c 36 4a 41 3c 16 e7 0e bb
       -0.008069153 0.020258972 0.011797478 -0.0021805218
000320 53 31 1b 3c 16 c2 49 39 e7 2a 30 3c 3f 38 8f 3a
       0.009472209 0.00019241156 0.010752416 0.0010926797
000330 e5 b4 ef bb 90 96 27 3c 0f 79 2a 3b 05 15 eb ba
       -0.0073152655 0.010228768 0.0026012098 -0.0017935341
000340 68 26 da bb bc 66 8d ba 5c 42 10 bc 3d d6 57 bc
       -0.0066574104 -0.0010788064 -0.008804884 -0.013173637
000350 fb 68 5e 3c e3 6d 09 3b 37 0b 44 36 a3 a9 96 3b
       0.013574834 0.0020970039 2.9212804e-06 0.004597859
000360 42 6b 8a bb 45 5e 52 3b de d7 31 bc e7 75 54 bc
       -0.004224212 0.0032099646 -0.010854689 -0.012967563
000370 2b 47 96 3c 28 42 5e bb a2 b9 ec bb d8 b7 88 3b
       0.018344482 -0.0033913944 -0.0072242776 0.0041723065
000380 ba 02 35 3c 2f ee 9a bc af 12 15 39 19 98 27 3c
       0.011048013 -0.018912403 0.00014216707 0.010229134
000390 03 72 48 3c 23 05 26 3c 4c ad 2d 3b 8b 7b 2e bc
       0.012234214 0.010133061 0.0026500998 -0.010649572
0003a0 09 de 00 b9 67 25 65 3b c2 7c a5 bb ba a6 75 bc
       -0.00012289746 0.003496492 -0.0050502727 -0.014993364
0003b0 df 49 fa bb c1 eb 4a 3a e8 0a 82 bb 54 e2 19 3c
       -0.0076382007 0.00077408185 -0.0039685853 0.00939234
0003c0 0b 6b fe ba 5b 59 30 bc 5b ca 37 3b e3 72 22 bc
       -0.0019410563 -0.0107634915 0.0028044197 -0.009915086
0003d0 3d 82 4b 3c 4a 9d 4f 3c fb 40 d4 3c 0b b5 ed bb
       0.012421188 0.012671778 0.025909891 -0.007254248
0003e0 62 49 88 3a d6 af 39 bc af ef 2e 3c 88 91 25 3c
       0.0010397846 -0.011333426 0.010677262 0.010105498
0003f0 e8 83 82 3b ec 1a a0 3b 5f 1d 54 bc 4b 85 e3 3b
       0.0039830096 0.004886022 -0.012946456 0.00694338

action_model._discrete_distribution.branches.2.bias f4 [2]
000000 00 00 00 00 00 00 00 00
       0.0 0.0

action_model._discrete_distribution.branches.3.weight f4 [2, 128]
000000 3f f9 43 3c 97 53 00 bc 5f ba a1 3a bf fe ab 3b
       0.01196128 -0.007832429 0.0012338868 0.005248874
000010 23 56 ac bb 5b 32 32 bb 1b 5a 7c 39 5a 13 96 3b
       -0.0052592917 -0.0027190659 0.0002406616 0.0045799436
000020 62 88 a6 bb 35 e2 22 3b 05 cc 0d 3c 87 01 29 3c
       -0.005082176 0.0024854068 0.008654599 0.010315306
000030 02 19 1a bc 43 87 56 3c 5b e9 36 bc a7 05 2e bc
       -0.009405376 0.013093772 -0.011164035 -0.010621465
000040 62 79 ce bb 52 a1 e0 bb b3 34 2a bb f7 25 f2 3b
       -0.006301091 -0.0068551684 -0.0025971353 0.0073897797
000050 f3 a4 a3 38 7a 2f 29 3b 66 7c 1c 3a b0 b2 bd bc
       7.80317e-05 0.0025815652 0.00059694645 -0.023156494
000060 cf 86 1f bc 73 4e 6c 3b 09 f9 35 3c 81 85 8b ba
       -0.009736731 0.0036057502 0.011106738 -0.0010644646
000070 ea 8f e4 bb 70 90 78 3c 2b 54 16 3c 4f db 19 3b
       -0.0069751637 0.015171155 0.009175341 0.0023476665
000080 c3 26 8e 3c 93 be 01 3c d8 a5 e3 bb f5 83 02 bc
       0.017352467 0.007918972 -0.0069472603 -0.007966031
000090 73 1b 3c 3b 0a a5 01 3c 25 66 a8 bb 7a fe 57 3b
       0.0028702884 0.007912884 -0.0051391297 0.0032958076
0000a0 6f d4 6c bb 44 fc 1f 3c 2a 70 01 bb 2c 0b 2f bc
       -0.0036137362 0.009764735 -0.0019750693 -0.010683816
0000b0 22 7f c6 3b a0 df c6 ba c5 7a 0e bb 93 fd 6c 3b
       0.006057636 -0.0015172847 -0.0021740657 0.0036161884
0000c0 93 51 a7 bb 5d 75 79 3a 53 73 82 3b 43 23 55 3b
       -0.00510616 0.00095160847 0.003981033 0.0032522238
0000d0 53 c4 9b bb 0f 98 d9 bb c1 97 0b 3b 4d 7d 8a bb
       -0.0047536283 -0.0066404413 0.002130017 -0.004226363
0000e0 da 96 c3 bb 9f f7 41 3b 7b 91 59 b9 ef 68 56 ba
       -0.0059689106 0.0029597057 -0.00020748928 -0.00081790885
0000f0 ba 78 09 bc d0 f1 3a bc 6c 57 28 bc 8b 2f 9e bb
       -0.0083906 -0.011410192 -0.010274749 -0.004827445
000100 86 bf 3e bb 09 10 a9 bb 7b d5 43 bc 45 f7 13 3c
       -0.0029105856 -0.0051593822 -0.011952753 0.009031122
000110 4c b9 41 bc 83 d3 5a bc 33 78 48 bb 3d 82 5f 3c
       -0.011823963 -0.013356092 -0.0030589222 0.013641891
000120 27 3d 72 bc 50 65 2e 3b 2d 84 e3 bc d8 8a 36 3c
       -0.014785088 0.002661068 -0.027772987 0.011141501
000130 23 60 16 3b c8 b8 65 3c 25 e3 0f bb 60 59 4a bc
       0.0022945486 0.014021106 -0.0021955457 -0.01235041
000140 cf 1e 5a 3c ab 71 1e 3c cb 9b 2c bb c3 ec 19 3b
       0.013313009 0.009670655 -0.0026337977 0.0023487068
000150 22 e1 c1 3b 7f df cc 3b 51 63 84 3b 97 42 de bb
       0.0059167305 0.0062522287 0.0040401598 -0.0067828405
000160 bd 42 62 3b da e1 4a 3b 99 be 29 bc 02 19 3f bc
       0.0034524642 0.0030957372 -0.010360383 -0.011663677
000170 e2 ab 3a 3b 72 45 04 3b 86 ff 91 bb e1 0a 18 bc
       0.0028483798 0.0020182994 -0.0044555096 -0.0092799375
000180 0c 4b 28 3c a8 0d 54 3c 61 8c 24 3c ba 48 a0 3b
       0.010271799 0.012942709 0.010043235 0.004891482
000190 aa d8 10 3c 29 4c 08 bc 7a 27 a4 bc 8e 55 b8 bb
       0.008840719 -0.008318939 -0.020038355 -0.0056254333
0001a0 5b 57 c0 3b 7e 70 8a bb d3 5e ff bb e5 f1 33 b9
       0.0058697886 -0.004224836 -0.0077932863 -0.00017160883
0001b0 6b cb 8a bb 30 2b 63 3b 7b d6 41 3b 11 a3 03 bc
       -0.004235675 0.0034663193 0.0029577303 -0.0080344835
0001c0 3b 8c 69 bb 67 3e 28 bc d3 95 dc bb 1b 44 02 bc
       -0.0035636562 -0.010268784 -0.0067317276 -0.007950808
0001d0 82 b5 d5 bb e9 4f b8 3b 98 dd b9 bb 4b c5 89 bc
       -0.0065218816 0.0056247604 -0.005672168 -0.01681771
0001e0 df f1 eb bb 45 bc 0c 3c 3f e2 55 bc 66 e5 11 bc
       -0.007200464 0.008589809 -0.01305443 -0.0089047905
0001f0 64 cc bc bb f3 1e 33 bc 0a 20 5c 3c 13 33 bc bb
       -0.00576167 -0.010932672 0.013435373 -0.005743393
000200 f0 bc 68 bb be 0d 12 bc be 56 a9 bb 8a 5f 2d b8
       -0.0035513006 -0.008914409 -0.005167811 -4.1335392e-05
000210 f0 5f 51 bc 4c 35 0d 3c 2f 5a bf 3a 18 e9 13 3c
       -0.012779221 0.008618664 0.001459902 0.009027742
000220 d2 0b 6f bc eb d5 3c bb 1f c8 35 3c 9c ae 20 bc
       -0.0145902205 -0.0028814028 0.011095076 -0.009807255
000230 12 39 71 3b c0 78 d8 ba c3 8b d3 3a 1d b9 1e 3c
       0.0036807698 -0.0016515478 0.0016139675 0.009687689
000240 57 eb f7 3a c5 56 54 ba 0b cf 96 39 36 36 ae 3b
       0.0018914741 -0.0008100088 0.00028764489 0.005316521
000250 7c f8 31 bc 47 29 d5 39 95 78 75 bb cd e0 65 3c
       -0.010862466 0.0004065728 -0.0037455906 0.014030647
000260 e5 81 15 bc 82 84 42 bb 67 37 05 3c 64 5a 81 3b
       -0.009125208 -0.0029681032 0.008130885 0.003947543
000270 ab d0 92 3b 3d 0b 58 3b 85 41 b7 bb 9b 70 9f b9
       0.0044804416 0.0032965683 -0.0055925273 -0.0003041074
000280 31 75 47 3c d7 e3 8c 39 d7 8e 8f 3c 7b 6c a6 3a
       0.012173937 0.00026872635 0.017524166 0.0012697125
000290 d1 fa 3f 3c 53 5b 19 bc 7f e4 db 3b c0 59 ea 3b
       0.011717514 -0.009360152 0.0067105885 0.0071518123
0002a0 38 22 6b 3c 14 6f a8 3c 53 31 aa 3a 2f 41 67 bc
       0.01435142 0.020560779 0.001298467 -0.014114662
0002b0 13 21 a9 3b 6f 88 b3 bb 30 ff 2e 3b ff 50 8e bb
       0.0051614135 -0.0054789106 0.0026702397 -0.0043431516
0002c0 cd f8 aa bb 03 ec 9f bb 30 18 7d bc 1e 4d 13 bc
       -0.0052176476 -0.0048804297 -0.015447661 -0.008990554
0002d0 8f 29 7d bb df 42 95 3c e7 df 05 3c af ec 46 3b
       -0.0038629507 0.018220363 0.008171058 0.0030353477
0002e0 4b 64 b4 bb aa 89 a7 bb 27 67 c6 3c 18 5d f3 ba
       -0.00550512 -0.0051128464 0.024219109 -0.0018567173
0002f0 ff 13 04 3c 57 82 14 3c 00 af 58 bc b9 b3 3e 3b
       0.008061408 0.009064279 -0.013225317 0.0029098822
000300 3b 31 95 bc 78 40 ea bb eb a7 16 3c 06 9b 14 3a
       -0.018211951 -0.0071487986 0.009195308 0.0005668852
000310 1d 36 68 3a c3 d1 ff ba 2e 36 c0 bb eb 4c c0 bb
       0.0008858161 -0.001951747 -0.0058658337 -0.0058685443
000320 20 2d 0a 3b da 26 5d 3b bc fa 3f 3b 1e a1 8e 3b
       0.0021084026 0.003374508 0.0029293736 0.0043527028
000330 58 59 d1 3b e6 a8 06 3c 52 af 9d 3c 77 04 8c 3b
       0.0063888244 0.008218979 0.019248638 0.004272993
000340 ce bb 1a 3a e5 36 57 3c e0 ab e7 3a 94 a3 82 bc
       0.0005902619 0.0131356465 0.0017675124 -0.01594714
000350 df d6 de bb 3b 3f d3 bb ea f5 80 3b 1d 25 d8 3a
       -0.006800517 -0.0064467466 0.0039355652 0.0016490553
000360 e6 d7 94 39 db e6 2e 3c 20 86 f0 3b 43 dc b0 bb
       0.00028389617 0.010675157 0.0073402077 -0.005397351
000370 09 e3 11 bb cd 50 e1 bb 3f db 1f bc f3 c9 15 bc
       -0.0022260568 -0.0068760873 -0.009756862 -0.009142387
000380 ff 04 9c bb aa db 7c bc 00 44 3a bc e7 2b 81 3b
       -0.004761338 -0.015433231 -0.0113687515 0.003942001
000390 db bf b7 bb df 3c 13 3b 67 1f 78 3b bc 39 8f bc
       -0.0056075878 0.0022466702 0.0037860514 -0.017483585
0003a0 6d e5 5e bb fc 53 33 3c b2 67 15 3b c5 51 a3 3a
       -0.003401126 0.010945316 0.0022797403 0.0012460282
0003b0 fa 25 2a bb d4 54 05 3c 04 be 2c 3b 89 26 ad 3b
       -0.0025962577 0.0081379 0.0026358375 0.0052841348
0003c0 e3 f9 75 ba 9f 4c 34 bc 72 e0 4e 3b 8b 73 30 bc
       -0.00093832443 -0.011004596 0.0031566885 -0.010769735
0003d0 d9 10 9b 3c 82 ab 00 bc a8 54 c1 3a e1 f2 b4 3b
       0.018928932 -0.007853391 0.0014749961 0.0055221175
0003e0 dd 94 f4 bb e2 29 2b bb ce db 24 3c f5 d7 06 3c
       -0.007464035 -0.0026117493 0.010062171 0.008230199
0003f0 ea 55 c7 ba 8f 7d 1e bc 0f 16 50 bc 7a 26 89 bc
       -0.00152081 -0.00967349 -0.012700572 -0.01674198

action_model._discrete_distribution.branches.3.bias f4 [2]
000000 00 00 00 00 00 00 00 00
       0.0 0.0
