results/11/SmartAgent/SmartAgent-22023.onnx (onnx, 10766 bytes, 11 tensors)

discrete_action_output_shape f4 [1, 4]
00000000: 0000 0040 0000 0040 0000 0040 0000 0040
2.0 2.0 2.0 2.0

network_body._body_endoder.seq_layers.0.weight f4 [128, 4]
00000000: 9d9a 80be bd93 eebe 49b3 733c 5d13 b03e
00000010: 73e3 a8be 22f0 273f e9d3 543e 1a30 70bf
00000020: b9a4 dbbe 45ed f0be f7a4 1f3f 6925 01be
00000030: f90d 913e e1f8 7bbe abe1 d83e f931 c4be
00000040: bfc2 fe3e 239b 16be 3d04 10be cc16 04be
00000050: 8526 e83e 2c38 243f 9bd3 ac3e 44dd a03e
00000060: 96f5 073f a943 863f e7f5 65be d452 0e3f
00000070: 1a72 563f 34d0 87bf b99a a13e 798d 4f3f
00000080: aafa 1e3f 6724 be3e a5cd c93e 1ecf 283e
00000090: d9bb 1ebf a2f5 99be e251 883e 515e 9dbe
000000a0: 8536 8c3e dc15 b0be 5079 8d3e 3ae0 61bd
000000b0: 1197 f2bd 2cf0 483f 6c96 5d3e 3a83 c0bd
000000c0: d4bd 70bf 2dd2 5d3f 6b97 393f b63d 55bf
000000d0: b9fb 88bd 3e02 9dbe 630c 9d3e 8103 d53e
000000e0: 7daf 8ebe ebdc c23d b4aa 0f3e 18c4 6e3e
000000f0: 1c1f 14bd 6829 423b 27f7 6d3e 17dd adbf
00000100: c330 e93e 29e6 febe 7951 763d abd7 143e
00000110: f0a2 c7bd c621 48bf d95c 333f 13c0 41be
00000120: 458a c63e 5d30 6c3e 6b92 52bd b426 a0be
00000130: 0afa 0dbd 694e c6be 43af 8abe b269 253f
00000140: 4e16 d23e 53ce b73e 4152 383d fac6 febe
00000150: 436e 163d e257 5ebe 9227 a53e 8ea8 aa3e
00000160: 4646 3d3f f6d3 6abe 4dbb 8b3e ab2c 49be
00000170: 6bd0 46bf 2149 173e 9a9a 23bf 9d93 d33e
00000180: d946 033f f4f1 3cbe 4b46 dabd 9e52 45be
00000190: 2362 a93d d671 71be 56d9 633f b990 08bf
000001a0: 3fcb 3b3f 2089 5e3d 7a0f d23e 8efe e43e
000001b0: 253c a13d e178 6fbe cb5a 4fbd db49 e7be
000001c0: 01af cc3e 8db0 f1bc 14bd 8cbe 8280 c2bd
000001d0: c0ba 8ebf 7eb3 2b3e 23c1 fe3e 7482 073d
000001e0: aaa0 873e 4612 013f 16c4 dfbd d3ce ecbe
000001f0: 6f47 813d 5415 f43d 3a1b 1fbf 4480 153e
00000200: d041 83bf 7c74 be3e 4c81 3b3f 0098 c93e
00000210: 27eb ab3d 1f90 f8bc 247c cbbe 867b dabd
00000220: 41c4 62be 6676 bcbe aa5d ea3e 8964 98be
00000230: 5c6e 5f3e bb61 503f 199c 1abf 4b37 69bd
00000240: e382 d53e c286 fd3e f806 39bf b7ba 843e
00000250: 7fcc 3ebf 8a89 5e3d e41c 213f d63d 96be
00000260: d9ad c4be 8b7d 8dbe 6a5b ad3e 6cf7 cf3c
00000270: 1bce 26be 00e9 6cbf 5be4 b43e cb6e fd3e
00000280: 4962 dcbe e152 acbe 0888 ae3e 6a09 293e
00000290: 0b93 933e ec22 f33d cd6e 8f3f 0c54 0cbf
000002a0: d775 523f 89eb c13e 597b 1c3f c391 a83d
000002b0: 927f a73e 9497 fa3e 79d8 e2be cb49 c93e
000002c0: 8de7 6abf 3dd9 473f 1eba 2f3f a80d 81be
000002d0: f3b6 c03e 5af7 b43e b0ee 76bf 1e9e 52be
000002e0: e867 82be 77f9 eebd 44f6 db3d 2539 c4be
000002f0: 1415 c8be e216 d03d 5324 09bd 1d7f 0f3f
00000300: 2c48 003f bccd 45bf fc26 ee3e 1d64 193f
00000310: d7c8 a6be 52a1 2dbe 5aa7 493e b1a5 a9be
00000320: ba95 0bbf 2f43 62bd 9332 b63e 520b 8dbe
00000330: ef9d 2bbf a2b3 2a3f e832 0d3f a201 43bf
00000340: b8f4 0abf 5326 5f3e 88e8 4d3e 4604 07bf
00000350: 8ecd d1be a6ce 043f 3b4e ce3e 3582 3dbf
00000360: abdf 683e a3fe 123d 214e 35be aa5d f23d
00000370: 0621 903f 518b fc3e d2a7 863e da58 16bf
00000380: 7847 a43f 7f3a 98bc 78f2 9f3e 2f24 fbbe
00000390: 85a2 263f 3b74 013e 8254 52be 2ca6 a8be
000003a0: 097f 873e 639c 8a3e fa02 c63e f2e4 03bf
000003b0: 9f4e 3c3f 1543 debe b4a6 b1be 6c44 c03e
000003c0: 3e9b ee3d 2eb8 973c f85d 853d f5e2 683e
000003d0: 54ea 653f 07b7 ba3d 9b3d 26be d2f3 52bd
000003e0: 414a be3e acef e3be b15e 4dbe 6063 b23e
000003f0: c3fc 3c3f fce3 b43e 0105 08bf fbcf 5f3e
-0.2511796 -0.4659709 0.014874288 0.34389773 -0.3298603 0.6560079 0.20783962 -0.938234
-0.4289911 -0.47056022 0.6236109 -0.12611927 0.28330973 -0.24606659 0.4235967 -0.38319376
0.49757954 -0.14707617 -0.14064117 -0.12899321 0.45341888 0.6414821 0.33755192 0.31418812
0.5310911 1.0489398 -0.22457086 0.55595136 0.83767855 -1.0610414 0.31563357 0.81075245
0.62101233 0.37137148 0.39414707 0.16485259 -0.6200538 -0.30070215 0.26624972 -0.3073602
0.27385345 -0.34391677 0.27631617 -0.05514548 -0.1184522 0.78491473 0.21639413 -0.094000295
-0.94039655 0.8664883 0.7249667 -0.8329729 -0.06688637 -0.30665773 0.30673513 0.41604236
-0.27868262 0.09514793 0.14029962 0.23316991 -0.03616248 0.002962673 0.23238812 -1.3583096
0.45545015 -0.49784973 0.060136292 0.14535396 -0.09747875 -0.78176534 0.7006355 -0.18920927
0.38777366 0.23065324 -0.051409166 -0.31279528 -0.034662284 -0.38731697 -0.2708684 0.64614403
0.41032642 0.358996 0.04500032 -0.49761182 0.036726248 -0.21713212 0.32256752 0.33331722
0.73935354 -0.22932419 0.27291337 -0.19645946 -0.7766177 0.1477399 -0.6390778 0.41323557
0.5127998 -0.18451673 -0.106579386 -0.19269797 0.08270671 -0.23578581 0.89003503 -0.5334583
0.73357004 0.05432999 0.41027433 0.4472546 0.078728 -0.23385955 -0.050623696 -0.45173535
0.39977267 -0.029503131 -0.27488005 -0.09497167 -1.1150742 0.1676769 0.49756727 0.033083394
0.26489764 0.5041851 -0.10926072 -0.46251544 0.06312453 0.119181305 -0.6215092 0.1459971
-1.0254459 0.37198246 0.73244166 0.3937378 0.08394461 -0.03034216 -0.3974315 -0.106680915
-0.22145177 -0.3680908 0.45774585 -0.29764202 0.21819443 0.81399125 -0.60394436 -0.056937497
0.4170142 0.49516875 -0.7227626 0.25923702 -0.74530786 0.054330386 0.6293471 -0.29344052
-0.38413885 -0.27634844 0.33858806 0.025386535 -0.1628956 -0.9254303 0.3533047 0.4949859
-0.43043736 -0.33656982 0.3408816 0.16507497 0.28823122 0.11871895 1.1205689 -0.54815745
0.8221106 0.37875012 0.61125714 0.08230927 0.32714516 0.4894377 -0.4430578 0.39314112
-0.9175957 0.78065854 0.6864337 -0.2520573 0.3763958 0.35344964 -0.9645796 -0.2056813
-0.254699 -0.116686754 0.10740331 -0.38324848 -0.3907858 0.101606146 -0.033481907 0.56053334
0.50110126 -0.7726705 0.46514118 0.59918386 -0.32575104 -0.1695607 0.19692746 -0.33134225
-0.5452534 -0.055239853 0.3558546 -0.275477 -0.6703786 0.6668035 0.551558 -0.76174366
-0.5427966 0.21791963 0.20108235 -0.52740896 -0.40977138 0.5187782 0.4029406 -0.74026805
0.22741573 0.03588737 -0.17705585 0.11834271 1.1260078 0.4932504 0.26299912 -0.58729327
1.283431 -0.01858258 0.31239676 -0.49051043 0.65091735 0.12641995 -0.2054005 -0.3293928
0.26464108 0.2707244 0.38674146 -0.5152122 0.73557466 -0.43410555 -0.34697497 0.37552202
0.11650704 0.01852044 0.06512064 0.22742827 0.8981068 0.09116941 -0.16234438 -0.051502056
0.37166026 -0.44518793 -0.20055653 0.34841442 0.73823184 0.35330188 -0.53132635 0.21856682

network_body._body_endoder.seq_layers.0.bias f4 [128]
00000000: 9fca e0bc 4881 9a3c b164 723d d4f5 a03b
00000010: 055f 803d b57e d3bc 23fa 4abc 605c 46bd
00000020: 6e08 8fbc 3af2 123e 56f1 503d 4e3a 4bbd
00000030: 2c55 883d af99 babc 9f93 62bd 27b3 1abc
00000040: 0378 723d 0ac4 843d 4b18 efbb 597f 8fbd
00000050: 14db 31bc d2b4 36bc eb77 bcbb 76aa bd3e
00000060: 32b4 873d 9ff1 e2bb 7064 883c 8475 103e
00000070: a087 003e 001f 9d3c 462b 43bd 1593 c33d
00000080: f9bb 48bd 44a1 a23e df7e 303c 48f8 bdbc
00000090: 5ddd 50bb 41cb 9c3c e83f 2e3e 04eb 02bd
000000a0: cd19 f73c d832 d43b 5d9e 3bbd 8581 ee3c
000000b0: 714a 5d3d ae40 093e 4800 343e d87c 3dbd
000000c0: 6737 7ebd cefa 583c 8ceb d03d 331f 083e
000000d0: 7048 213e 4a97 0a3e bea7 993c 268f 6dbc
000000e0: b1a9 fd3b f4c8 9a3d 412c 59bd 3c0e 7b3d
000000f0: 2892 49bd f9e6 d33b 01fe 7f3d 2f5f babb
00000100: e7d7 0fbc 38ac d3b7 d82d 143c 3eac 753c
00000110: b883 183e d1e4 a3bb 2478 29bd 503a 283e
00000120: 52d3 afba 6d15 993d 1e73 ad3e 8e9d 59bd
00000130: 1d1d 1dbd 608d 723c 979c a23d 2556 9bbc
00000140: c6b8 b6bc dc88 ee3d 6dec 2c3e 7ccd 0dbd
00000150: 78e7 673d 92f5 d93d 357a f43a d54e b7bb
00000160: 5a9e 563c fc00 ea3d 370b 39bb d014 61bd
00000170: aa93 133e 872b f2bb a7d6 2f3d 34d5 7bbc
00000180: c809 63be 8b7d 18bc 8298 babc 89be 823e
00000190: d1bf 67bb 0c7b 473e 268d a23d 9109 ac3c
000001a0: 7827 013e 668e d33d d9a7 a03d e156 eb3c
000001b0: c28c e0bd 3361 4dbc 810a bd3d 4297 1a3e
000001c0: fdf5 203c ad7e 053d c24e 14bd b7e3 4b3e
000001d0: 3400 603c 453a a23d d9d4 fcbb 9894 3e3e
000001e0: 99f5 ef3c 0eee 18bc e4da a53e 9695 6fbc
000001f0: 50fe 683c 0548 7b3d 16ec 8cbd d666 f83b
-0.027440367 0.018860474 0.059178058 0.0049121175 0.062681235 -0.025817255 -0.012388739 -0.04842794
-0.017460074 0.14350215 0.051011406 -0.04961615 0.0665687 -0.02277836 -0.055316564 -0.009442127
0.059196483 0.06482704 -0.007296597 -0.070067115 -0.010855455 -0.011151509 -0.0057516 0.37044114
0.066261664 -0.006925776 0.016649455 0.14107329 0.12551737 0.019179821 -0.04764869 0.09549538
-0.04900739 0.3176366 0.010772436 -0.023189679 -0.0031870224 0.019139888 0.17016566 -0.03196241
0.03016367 0.0064757876 -0.045805324 0.029114494 0.05402607 0.1340358 0.17578232 -0.04626164
-0.062064555 0.01324339 0.10201177 0.13293152 0.15750289 0.13534275 0.018756744 -0.014499461
0.007741176 0.0755786 -0.05302072 0.06129287 -0.04921165 0.006466743 0.062498096 -0.0056876163
-0.0087795025 -2.5233356e-05 0.009044133 0.014994679 0.14893997 -0.0050016423 -0.04137434 0.16428494
-0.0013414419 0.0747479 0.3387689 -0.05312877 -0.038357843 0.014804214 0.079400234 -0.018961975
-0.022304904 0.116471976 0.16887064 -0.034619793 0.05661723 0.10642542 0.0018652143 -0.0055941143
0.013099277 0.11425969 -0.0028235444 -0.05495149 0.14411798 -0.007390443 0.042929318 -0.015370656
-0.221717 -0.0093072755 -0.0227778 0.25535992 -0.0035362134 0.19480532 0.07937078 0.021000655
0.12612712 0.10329895 0.078445144 0.02872795 -0.109643474 -0.012535381 0.09230519 0.15096763
0.009824273 0.03259151 -0.03620792 0.19911085 0.013671923 0.0792127 -0.007715803 0.18611372
0.029291915 -0.0093341 0.32393563 -0.014623066 0.014220789 0.06134798 -0.06880967 0.0075806184

action_model._discrete_distribution.branches.0.weight f4 [2, 128]
00000000: d1d9 37bd ba28 973c 4365 6cbc ff85 08bd
00000010: b26b debc 9eb6 813b a170 143c 5f10 20bd
00000020: c03e 62b8 e07e ffbd 3f7f 63be 1c64 913c
00000030: e1a5 833c c35d d4bb d39a 6b3c 5e1b 553c
00000040: 932e 2bbd 50ae a1bc 6a73 bdbb 4c0d 1f3b
00000050: 5816 093b 9522 84bc f0e8 c0bc 0445 233d
00000060: 3d13 71bc 29d6 9fbc a786 e73b 971c 36be
00000070: 98e4 713c a39b a33c a67a 7ebb eb1e 28be
00000080: 2b1e 9c3c 2679 3c3c 64d2 e6ba 6a88 e439
00000090: dc65 b93b a386 8d3c dcd7 57bc 6238 31bd
000000a0: 60a3 92bd 6a18 3e3c efc4 2f3b 9bb7 52bb
000000b0: d18d 063d da8d 1cbe 22b4 8cbe 100a 323c
000000c0: 6d79 16bd e03b 85bd c04d e33c 0c83 c43c
000000d0: 51e2 813a f4cc ba3c 79b6 373b 01e9 8cbc
000000e0: eb51 ae3b e386 4fbd ffa8 dc3b 56de cabc
000000f0: 86e7 333c ba08 b63b 6372 3fbd 1b50 0dbb
00000100: 81e4 3e3c 0851 763b f05a be38 f384 c83c
00000110: 4921 273e 386b df3b ad2d 8dbc 484d f33c
00000120: 2459 1b3b f8ec 81bc 67f8 9abd 9bc2 13bb
00000130: 76cd e93c 3e0a 0ebe 8120 f5bb 8b58 7d3b
00000140: 1da7 5dbc 3746 e6bd 6f0e 0fbe d4e3 24bd
00000150: 0332 35bd 01fc 09bf 028c acbc d090 71bb
00000160: 1926 9dbc 698d 83bc ec3e 64bc 6c3a b0bc
00000170: 4a63 ce3d d599 0bbd 9c87 eebc bd60 9bba
00000180: e137 8fbc e0cf 2cbc 7d4e 44bc 9ba8 343d
00000190: d3f7 13bd 1a36 43be abf2 9dbd ae46 57bc
000001a0: 0476 ccbd 92be 6f3b 297c b8bd 3378 903a
000001b0: d3f7 6bbc bde9 a33c 0c95 f23c aba9 2c3c
000001c0: 3d89 35bc 4e5b f1bc cdc0 e9bb 603b 463e
000001d0: 008f 43bc db89 af3c c185 25bd faad 36be
000001e0: 58cb c13c bc97 423c 7804 973c d32a 11bc
000001f0: aa8d 803c 4609 803c 8c16 1ebd c234 c93b
00000200: c6b5 2f3d dc79 f8bc 9537 253c 52e4 9b3b
00000210: 7920 0e3d 1693 cfba f406 c5bb ebab de3c
00000220: c256 38bc f018 e53d 8885 5a3e 1cee babc
00000230: b240 d1bc 4685 173c abe7 dfbc dd35 1abb
00000240: 9ce1 f03c 2400 993c 2f7c 953c 3145 5e3b
00000250: fae5 87ba e904 253c bd27 523c 4862 0ebd
00000260: 6aba f53c df12 ea3c 0bab f33b 3034 373e
00000270: de92 d4bc 5c6e 5abc 78ca ed3b c791 233e
00000280: f44f 67bc e356 7abc 7ab4 723c e0fb fcba
00000290: 4114 0fbc e722 97bc e45e d1ba e2ed 053d
000002a0: c7a7 453d c76f 353b 04a3 273b ceb3 b8bc
000002b0: 4d57 cfbc 1b04 283e 6775 803e 1503 e4bc
000002c0: a33a 0e3d 6ce6 8c3d a11f 04bd fd2f bbbc
000002d0: 64db 0ebc e41c 0bbd 426c 3dbc 3999 333c
000002e0: 5d8c ba3a 2152 503d a5c2 75bc 5bb4 073d
000002f0: 2e06 be3b 1b4f b03b cd92 f73b 14ca 5fbc
00000300: b4ae 0dbc 1f86 253c 4e19 0e3c 8e77 05bd
00000310: 5140 33be a39e 853c 1cb9 beba 7467 3fbd
00000320: 4284 d5bb 2cd7 533c d258 523d 561e fcb9
00000330: 7720 46bc 7fbf 2f3e 3bce 563b ec82 68bc
00000340: 3a8c a83c 5ca8 023e 2724 143e 94d9 6d3c
00000350: f11d 3f3d b7be 073f ef32 be3c 0c6c ec3b
00000360: fade cf3c cac9 393c 3027 003c 709a ba3b
00000370: 69ef a7bd a424 023d 8356 0f3d 37e8 8a3a
00000380: 5e50 8e3c 81e8 a03b f519 b53b 5845 15bd
00000390: 6ca6 1a3d 75d1 423e 5d3f 943d f828 933b
000003a0: b1e2 bb3d 7cd9 a33a a2a4 a53d 83ab 693c
000003b0: 1f81 9d3c 1023 8bbc d2e0 c9bc 10fd 18b6
000003c0: 5b04 503c 7388 0a3d 3e3c 12bc 29ea 3bbe
000003d0: ef69 4bbc 7653 92bb e9c9 c33c 29a8 2e3e
000003e0: f791 89bc cbcc 80bb a1a6 5abc c6b6 673b
000003f0: 9e9b 5bbb 61ae 0b3c e4b1 663d 60ed 9abc
-0.04488546 0.018452037 -0.01442844 -0.033330914 -0.027150963 0.0039585372 0.009060056 -0.039078113
-5.394104e-05 -0.12475371 -0.2221651 0.017747931 0.016070308 -0.006480904 0.014380175 0.013007013
-0.041792464 -0.019736439 -0.0057815807 0.00242694 0.002091786 -0.016129771 -0.023548573 0.03986074
-0.014714059 -0.0195113 0.0070656124 -0.17784344 0.014763974 0.019971674 -0.0038830428 -0.16418044
0.019057354 0.011503493 -0.0017610309 0.00043589185 0.0056578945 0.017276114 -0.0131740235 -0.04326666
-0.071600676 0.0116025 0.0026820262 -0.0032152894 0.03285009 -0.15288487 -0.2748118 0.010866657
-0.036736894 -0.06505561 0.027747035 0.02398827 0.0009909366 0.022802807 0.0028032346 -0.017200949
0.005319824 -0.050665747 0.006734013 -0.024764221 0.010980492 0.0055552395 -0.046739947 -0.002156264
0.011651159 0.003758492 9.0768444e-05 0.024477458 0.16321291 0.0068182014 -0.017233694 0.029699937
0.0023704255 -0.015860066 -0.0756691 -0.0022546414 0.028540354 -0.13871095 -0.0074806814 0.0038657512
-0.013528612 -0.11243861 -0.1397035 -0.040256336 -0.044237148 -0.5390015 -0.021062855 -0.0036859997
-0.019183205 -0.01605864 -0.013931017 -0.021512233 0.10077532 -0.034082253 -0.029117398 -0.0011854392
-0.0174827 -0.010547608 -0.011981604 0.044106107 -0.036125015 -0.19063607 -0.07712301 -0.01313941
-0.09983447 0.0036582095 -0.09008057 0.001102215 -0.014402348 0.020008916 0.029612087 0.010538499
-0.011080083 -0.029462483 -0.0071335793 0.19358587 -0.011935949 0.02142804 -0.04041076 -0.17839804
0.023656532 0.011876997 0.018434748 -0.008860308 0.01569255 0.015629422 -0.03859572 0.0061403224
0.042897962 -0.030331545 0.010084053 0.0047574425 0.034698937 -0.0015836682 -0.006012792 0.027181586
-0.011251153 0.11186397 0.2134 -0.022818618 -0.025543544 0.009248083 -0.027332148 -0.002353064
0.029404454 0.018676825 0.018247692 0.0033915753 -0.0010368221 0.010071971 0.012826857 -0.034761697
0.029996116 0.028573452 0.0074361614 0.17891002 -0.025948938 -0.013331976 0.007256802 0.15973578
-0.014118183 -0.0152795045 0.014813537 -0.0019301139 -0.008732856 -0.01844926 -0.0015973714 0.032697566
0.048255708 0.0027685033 0.0025579343 -0.022546675 -0.025310183 0.16407816 0.2508957 -0.0278335
0.03472389 0.06879887 -0.032256726 -0.022850031 -0.008719299 -0.0339631 -0.011561455 0.010961824
0.0014232505 0.050859574 -0.01500002 0.033130985 0.0057990765 0.005380524 0.007555342 -0.013659019
-0.0086476095 0.010102778 0.008673025 -0.03258472 -0.17505004 0.016310995 -0.0014551017 -0.04672952
-0.0065160105 0.012929719 0.051354237 -0.00048087788 -0.012092701 0.17162894 0.0032776732 -0.01419137
0.020574678 0.12759537 0.14466916 0.014517207 0.046659414 0.5302538 0.023217646 0.0072150286
0.025374878 0.011339614 0.007821843 0.00569468 -0.08199961 0.031773224 0.034994613 0.001059777
0.017372306 0.004910529 0.005526776 -0.036443084 0.03775637 0.19025214 0.07238648 0.004490968
0.09174097 0.0012500728 0.08088042 0.014262083 0.019226609 -0.016984493 -0.024643335 -2.2797067e-06
0.012696351 0.033821534 -0.008925496 -0.18351044 -0.012415393 -0.0044655157 0.02389999 0.17056336
-0.016793234 -0.003930663 -0.0133453915 0.0035356744 -0.0033509503 0.008525462 0.056321993 -0.018912017

action_model._discrete_distribution.branches.0.bias f4 [2]
00000000: 171b c23b e71a c2bb
0.0059236395 -0.005923617

action_model._discrete_distribution.branches.1.weight f4 [2, 128]
00000000: c476 8ebd c19a 29bd 5d56 023d 4bda af3c
00000010: afd8 ff3c 3617 a4bc 7079 47bc fff6 e0ba
00000020: e20a ddbb cfa4 303d af31 293e 9c05 a8ba
00000030: 14de 923b b9ed 0abd 05bf 26bd 702e 793d
00000040: 43d3 0d3d f62b 313d 8c96 ccbc d29f d93b
00000050: 8a39 f7bc 6fdf 013c a80c 463c e73e 8a3e
00000060: 9632 bb3c 428e d93c 2ba5 bbbb 6bda 0d3d
00000070: 19e5 08bc 3e4a 84bc 50a3 5bbc 02ba 1a3e
00000080: 4920 25bd b689 c5be d8fb 303d 9f4b 783c
00000090: f645 f03c 4dd7 183d 82e8 043c 017c a43b
000000a0: 4699 5b3b 578c d4bb 953e 90bc 1c41 dc3b
000000b0: 02db b8bc 6ed5 59bd 2053 8ebd 78b3 11bd
000000c0: 0f52 ad3c 380b d33c 325b 5e3d ff3c 433c
000000d0: d872 9a3d e0a4 d0bb 0e1c 6c3c 2e36 9cbb
000000e0: e753 5e3c d093 60bc 5a91 92bb 43e7 863c
000000f0: 868c fbbb ca26 503b f441 2c3c 1f7d 7f3c
00000100: ee5d 55bc 19c3 383a ee3d 493c 70ab 13bd
00000110: 668b 80be 0eb8 98bc 98bb 10bc ccc6 69bd
00000120: a045 8bbc 74eb b53d fd7a 8a3e 991b 6fbc
00000130: f86b 0ebc ff85 fdbd 3fc7 163d 4a20 68bc
00000140: d0df d73c 7662 2abd f077 723e 1192 bf3c
00000150: c034 993d 4b13 c5bd bd9d 103c e6d2 b4bc
00000160: 6ccf 93bd f50b ba3b 8272 a7bb 26b8 893c
00000170: 208b 83be cc31 d53c 9958 5e3c c06e 19bd
00000180: 6a41 05be b9d6 d73b 3bc7 e0bb 727d 06be
00000190: e54f 033d cb4b 4a3e 31ef 173b d30d a53c
000001a0: bd5d c03c a15d 273c ca32 893b 8f95 c63c
000001b0: 710b b83c 0e11 10bc ee9a e6bb e0a4 d53c
000001c0: 1fdb a93c a9dd 9cbd 7a0b 0a3c 8d49 893c
000001d0: 189d 963a 2d7b 193d e98b 863b 2e16 773e
000001e0: 37db 2cbc e5f8 a7bc 973b e4bc feb1 863c
000001f0: 4dc9 68bb 70c2 c53c bb7e 54be bb66 20bc
00000200: f2d3 993d 667e 223d 67e8 39bd 1651 e9bc
00000210: 1bb4 5ebc cd20 b03b 17e9 193c 8b26 3dbc
00000220: 60fc 993c 99a7 3bbd 899a 26be 98e8 e83c
00000230: 4fc0 9c3c 66de 903c 2d08 1f3d ee37 23bd
00000240: 4c3e 1bbd fcc6 5ebd ece9 063c e80c 41bc
00000250: f3e8 da3a e0f1 79bc 3ef2 79bc 3d7e 97be
00000260: ee0a b9bb d068 a2bc 29f9 0dbc 4c64 c5b9
00000270: 6636 ea3a 9ff1 bc39 4130 e63c f709 29be
00000280: 9cfb d63c 3c83 b93e 004b 27bd 6e74 a7bb
00000290: e7d7 71bc ef13 e7bc 7285 43bc c841 11bc
000002a0: 3098 0cbd 7b09 623b 692e 2a3b af05 b3bb
000002b0: d87a 9abb 537b 283d d53a 413d 3f2f 003d
000002c0: 0bb3 46bc 5c59 0cbd 92a9 28bd 73be acbc
000002d0: cf71 b3bd 5840 bcbb 7b14 61bc 4e69 90bc
000002e0: 1f88 febb ffd1 063c 39c7 ff3b ae19 ffbc
000002f0: d3d7 b53b d201 54bb 2d8b f5bb e9a1 4abc
00000300: f4f5 d33b 17ab 3cbc 9453 9dbc 8bce 243d
00000310: 3c2d 833e 2cff 313c 05ab 3a3b c5b9 403d
00000320: a476 633c 1a67 a4bd 730c 92be 625f c73c
00000330: b145 483c 067e 093e 09ad d6bc 7ef0 4c3c
00000340: a37a eebc a883 0f3d 4832 74be bbea aebc
00000350: 50d5 a2bd a87b d73d a321 91bc 9312 9e3c
00000360: 2fc3 a03d fc2e 103c 9677 9b3c 2751 8fbb
00000370: 99df 873e 9077 81bd 00e6 29bb 9a02 213d
00000380: 45c8 053e bfaa 873c cf72 013c ddbd fd3d
00000390: 90d1 95bc 65b2 45be 391c 5ebc 9f2e 52bc
000003a0: d24a dbbc 9d40 d5bb 9a40 b4bb ba6b 30bd
000003b0: 74f8 25bd 9958 483c f89c 9b3b d02c 48bd
000003c0: 4962 28bd ef9b 983d e630 10bc 4ebd 18bd
000003d0: 77d0 1f3c be03 65bc 2368 a5bc eb85 79be
000003e0: ec47 67bb a451 b739 f860 1c3d 6659 24bc
000003f0: 09cc 803a a721 98bc c317 473e 90db 40bc
-0.069562465 -0.04140735 0.031820644 0.021466395 0.031231252 -0.0200306 -0.012174949 -0.0017163454
-0.006745682 0.043125924 0.16522859 -0.0012819055 0.00448204 -0.033918116 -0.040709514 0.060835302
0.034625303 0.043254815 -0.02497413 0.0066413665 -0.030178804 0.007926806 0.012087978 0.27001116
0.02285127 0.026557092 -0.0057264767 0.034632128 -0.008355402 -0.016148683 -0.013405636 0.15110019
-0.040313993 -0.38581628 0.043208927 0.015154748 0.029330235 0.0373147 0.008112075 0.005019665
0.0033508106 -0.0064864564 -0.017607966 0.006721629 -0.022565369 -0.053182058 -0.069494486 -0.035571545
0.021157293 0.025762185 0.05428619 0.011916398 0.07541436 -0.006367311 0.014410986 -0.004767201
0.013569809 -0.013707116 -0.0044728937 0.016467696 -0.007676664 0.0031761401 0.010513771 0.015593796
-0.013022883 0.0007048115 0.012282832 -0.036052167 -0.25106353 -0.018642452 -0.008833788 -0.057074353
-0.017000973 0.088828 0.27046958 -0.014593982 -0.008692734 -0.12379073 0.03681111 -0.014167855
0.02635184 -0.041597806 0.23678565 0.02338508 0.074807644 -0.096228205 0.00882667 -0.02207322
-0.07217297 0.005677695 -0.005110086 0.016811442 -0.2569208 0.026024722 0.013570928 -0.037459135
-0.13013235 0.006586876 -0.0068596876 -0.13133791 0.032058615 0.19755475 0.002318334 0.020148193
0.023482198 0.010215194 0.0041869627 0.024241237 0.022466393 -0.008793129 -0.007037512 0.026079595
0.020734368 -0.07659466 0.008425588 0.016758705 0.0011490909 0.037470985 0.004106034 0.24129555
-0.010550312 -0.020504424 -0.027860446 0.016442295 -0.0035520375 0.024140567 -0.20751469 -0.009790118
0.075111285 0.039671324 -0.04538765 -0.028481048 -0.013592745 0.005375004 0.009393952 -0.011544834
0.0187971 -0.04581413 -0.16269888 0.028431222 0.019134669 0.017684173 0.038826156 -0.03984826
-0.037901208 -0.054388985 0.008234482 -0.011782862 0.0016701504 -0.015255421 -0.015255509 -0.295885
-0.005647055 -0.01982537 -0.008665361 -0.00037649495 0.0017868995 0.00036038176 0.028099181 -0.16507708
0.026243024 0.36232936 -0.04084301 -0.005110315 -0.014760948 -0.028207747 -0.011933671 -0.008865781
-0.034324825 0.0034490514 0.0025967604 -0.005463324 -0.004714351 0.041133236 0.047175247 0.031295057
-0.012127648 -0.034264907 -0.04117734 -0.021086907 -0.08761942 -0.005744975 -0.013737793 -0.017628338
-0.0077676917 0.008228778 0.0078057316 -0.031140175 0.00554941 -0.0032349718 -0.0074933977 -0.012367704
0.006468529 -0.0115154 -0.019204892 0.040236037 0.2562045 0.01086406 0.0028483283 0.047052164
0.013883267 -0.080274776 -0.28525123 0.024337474 0.012223647 0.1342698 -0.026205556 0.01250851
-0.029111212 0.035037667 -0.23847306 -0.021352163 -0.079508424 0.105216324 -0.017716235 0.019295966
0.07849728 0.008800264 0.018977921 -0.004373688 0.2653778 -0.06321633 -0.0025924444 0.03930912
0.13064678 0.01656091 0.007900908 0.12389729 -0.018288404 -0.19306333 -0.0135565335 -0.012828498
-0.026769076 -0.0065079466 -0.005500865 -0.043071486 -0.040520146 0.012228155 0.0047489367 -0.04887086
-0.041109357 0.07451617 -0.008800721 -0.03728991 0.009754292 -0.013977943 -0.020191258 -0.24367492
-0.0035290672 0.00034965307 0.038178414 -0.01003108 0.0009826432 -0.018570734 0.19442658 -0.011771098

action_model._discrete_distribution.branches.1.bias f4 [2]
00000000: f4d0 083d b5d0 08bd
0.0334024 -0.033402164

action_model._discrete_distribution.branches.2.weight f4 [2, 128]
00000000: a6f6 9f3c 0b97 4a3d 854c 8e3c ced4 893c
00000010: 4a57 683c c36b 72bc aaae 3cbc 4d2b 1e3c
00000020: b670 203c 7369 a23b 55b4 1cbe 3c0e edbc
00000030: 27f4 503c 694b d4bb ceae 1d3b 8aa3 9cba
00000040: dd76 013d 0391 be3c 751d 97bb fe73 7dbc
00000050: 447f 1abc 60ad 663c ecaf 86bc 60ee 49bd
00000060: 6421 c4bc 5063 10bc 425d 123c 9a82 74bd
00000070: 6407 eb3b 2afb 523c f233 91bc ce6b 753c
00000080: 3db6 0abc dce5 ac3e e565 713b 2e98 e43c
00000090: ddb8 8a3c 6acf 173c 1a77 ab3d 23aa 8f3c
000000a0: 3dc2 5d3d d11c cbbb 94e6 a1bb 8326 8dba
000000b0: 39ca 23bd 9b60 a6bd a4f0 25bd 91d5 40bc
000000c0: 8c37 be3c eae6 f43c 0708 f63c 0cbc db3c
000000d0: 75b6 443d be75 043d c7c5 923b 367c a13b
000000e0: 0167 e8bb ef2b 903b 351b 0ebc 7f2c 653c
000000f0: aba0 c13b 37f5 f3bb 4a77 6e3d 7955 293c
00000100: da5a 33bc c758 b23c 8463 6c3c ecb0 7ebd
00000110: fd28 123e 08ee 993b cf61 5bbc 3614 e93d
00000120: 6cd7 903c 0ef9 6ebd 3976 813d 5efe 5d3b
00000130: a804 91bc 17eb 063e 2785 1b3d c5c5 253c
00000140: 7af2 f33c d8a2 3ebd 1256 e3bd e740 2f3c
00000150: 9889 05bb 7f25 483d 6d63 9f3c b9a8 52bd
00000160: 5e59 89bd fd72 f13c ba3c 933c e739 ac3c
00000170: a7ea e63d 54a5 85bd baf1 b73c c239 003c
00000180: 12d3 b03c 57c9 933b b231 70bd 3621 48be
00000190: 8ec2 b63b 2e59 0f3e 27fe 9ebd dfe4 003d
000001a0: 1d9b 803b f91c c5bd 85a9 63bd 40e6 133d
000001b0: 6450 863c f4bd cfbb 6d8f 85bc 23bf 6e3d
000001c0: 6d7b 4f3c 18e3 75bd f57c b13c 0fb3 8ebe
000001d0: 6e7a 08bc 4fa2 cc3c e58c 28bc e27b 883d
000001e0: 8d1a 203c df16 023c e1af 05be f9a0 923c
000001f0: 4c52 0db9 5c9c d53b d094 d23c 0946 b2bc
00000200: a9d0 0f3b 7289 80bd 681f 11bd b3a5 8a3b
00000210: 03ad 653c ad46 403c 016c 5e3c 0cdb 4bbc
00000220: e667 95bb fef2 90bc 90bc 243e bf0f 8c3c
00000230: a883 5bbc af80 013b 4603 793c 8ea4 b1b8
00000240: 2e48 e2bc a65a 9fbc cbd1 04bc 642e 95bb
00000250: 7ec9 a83a bec0 92bb d261 33bc effd 893d
00000260: 3a7c d83c 888c 84bb bc7d e7bb 2e19 663d
00000270: 6a62 923b 9112 26bc 2f4f 703c 9eff 94bc
00000280: 4ae1 1b3c 9e3e a8be f9b6 eabb 7500 dbbc
00000290: 9b9c cbbc 37c7 cbbb 719d c5bd 32de 3abc
000002a0: 4651 27bd 6ed8 58bb a449 e4bb f049 993b
000002b0: 61cf e93b 291f 8e3d 6580 4e3d 5ef2 003b
000002c0: 123c 4cbc 0b83 d83a 3197 acbc c4dc a5bc
000002d0: 418d 88bd 3206 14bd a8a2 bcbc 5ee8 f5b9
000002e0: dad3 8b3a 49d7 8b3b d4cd 8a3c d261 8bbc
000002f0: 1876 fcb8 945b a3bc e764 a7bd b9c6 71bc
00000300: 7e2f bd3c 0530 9cbc b617 62bc 4442 713d
00000310: 1b9e 1dbe 0d5b 0ebc 7233 fc3c 31fa f7bd
00000320: c642 ab3b 6c66 433d 22bb 80bd 0403 13bb
00000330: e4a2 fc3c 6008 0abe c5dd 15bd c8e0 1bba
00000340: ff78 b7bc 22c5 0f3d bd14 ec3d eac2 2ebc
00000350: 87cf 8d3c 1c00 86bd 1c8c 13bb 16b1 8e3d
00000360: 422d 823d eee0 80bc 42b1 8cba 59d6 d3bc
00000370: 88d7 05be ab70 5c3d 86e6 37bc fe04 4b3c
00000380: e61f 26bc e4e2 b33b 525d 3a3d 7cc8 4a3e
00000390: 8100 1a3c e2a7 1bbe 1ef5 bc3d 6bdb 33bd
000003a0: 0106 b4b9 14fa 9d3d 21b0 773d 3180 12bd
000003b0: af0f 33bc 6047 83bb 4c42 ac3c 710b 56bd
000003c0: 6736 ceb9 9b19 823d 619b 58bc 9b1e 923e
000003d0: 12d5 ebbb 0d3a dcbc e7ac b0bb 3c4c 85bd
000003e0: e180 c93b 81b5 9a3c bf71 0b3e eeac 62bc
000003f0: 8d55 61bc f8a1 73bc 2a96 04bd a5c1 fd3b
0.01952679 0.049460452 0.017370472 0.016825106 0.014180968 -0.0147962 -0.0115162525 0.009653878
0.009792497 0.004956418 -0.15303166 -0.028937452 0.012753523 -0.006478716 0.002406049 -0.0011950594
0.031607497 0.023262506 -0.004611666 -0.015469549 -0.009429757 0.014079422 -0.016441308 -0.049299598
-0.023941703 -0.00881274 0.008933367 -0.059694864 0.007172512 0.012877265 -0.017724965 0.014979316
-0.008466301 0.3376912 0.0036834416 0.027904596 0.016933853 0.00926576 0.08372326 0.017537182
0.05414032 -0.0061985035 -0.004940817 -0.0010768924 -0.039987776 -0.08123895 -0.040512696 -0.011769668
0.023219846 0.029895265 0.030033125 0.026823066 0.048025567 0.03233885 0.0044791433 0.004928137
-0.007092357 0.0043997685 -0.008673479 0.0139876595 0.0059090457 -0.0074450034 0.05821923 0.01033532
-0.010946954 0.021770848 0.014428023 -0.062180445 0.14273448 0.004697565 -0.013390019 0.11380808
0.017680846 -0.058342986 0.06321377 0.0033873538 -0.017702416 0.13175617 0.03796878 0.010117953
0.029778708 -0.04654202 -0.11100401 0.010696626 -0.0020376202 0.048863884 0.01945659 -0.051430438
-0.067064986 0.029473776 0.017973293 0.021023704 0.11275225 -0.065256745 0.022454131 0.007826271
0.021585021 0.0045100856 -0.058641143 -0.19543919 0.005577392 0.13998863 -0.077633195 0.03146827
0.003924741 -0.09624667 -0.05558159 0.036108255 0.016395755 -0.006339783 -0.016303742 0.05828775
0.012663704 -0.060031027 0.02166603 -0.27870986 -0.008329971 0.024979739 -0.010287498 0.06664254
0.009771955 0.007940023 -0.13055374 0.017899023 -0.00013477466 0.0065188836 0.025705725 -0.021761911
0.002194444 -0.062762156 -0.035430342 0.0042311787 0.0140183 0.0117356 0.013575555 -0.012442362
-0.004559505 -0.017693993 0.16087556 0.017097352 -0.0133980885 0.001976054 0.015198534 -8.4706684e-05
-0.027622309 -0.019452404 -0.008106659 -0.0045526493 0.0012877432 -0.004478543 -0.010948615 0.06737887
0.026426423 -0.004045073 -0.0070645493 0.056176357 0.0044672983 -0.0101362625 0.014667316 -0.018188294
0.009514162 -0.32860273 -0.0071629253 -0.026733616 -0.024854949 -0.0062188166 -0.0964917 -0.011405515
-0.040848993 -0.0033087987 -0.0069667865 0.0046780035 0.007135317 0.06939537 0.050415415 0.0019675712
-0.012465494 0.0016518546 -0.021068187 -0.02024687 -0.06667567 -0.03613872 -0.02302678 -0.0004690317
0.0010667995 0.0042676073 0.01694385 -0.017014418 -0.00012038293 -0.019941129 -0.081735425 -0.014756852
0.023093935 -0.019065866 -0.013799598 0.058901086 -0.15392344 -0.0086887 0.03078625 -0.12108267
0.005226466 0.0477051 -0.06285693 -0.0022432217 0.030839391 -0.13479757 -0.03658845 -0.0005946276
-0.022396563 0.03510011 0.11527393 -0.010666588 0.01731087 -0.065429896 -0.0022513932 0.0696737
0.063562885 -0.015732255 -0.0010733979 -0.025859045 -0.130705 0.053818386 -0.011224395 0.012391327
-0.010139441 0.005489694 0.045499153 0.19803041 0.009399534 -0.15200761 0.0922644 -0.043910425
-0.0003433675 0.07713714 0.060470704 -0.035766784 -0.010929032 -0.0040063113 0.021027707 -0.052257005
-0.00039331915 0.0635254 -0.013220639 0.28538975 -0.007197031 -0.02688315 -0.0053917053 -0.06508681
0.0061493968 0.018885376 0.1361761 -0.013835175 -0.013753307 -0.014870159 -0.03236977 0.0077440315

action_model._discrete_distribution.branches.2.bias f4 [2]
00000000: 80e1 803b 63e0 80bb
0.0039331317 -0.003932999

action_model._discrete_distribution.branches.3.weight f4 [2, 128]
00000000: be54 c4bb 2152 59bc b404 fabc 9568 9fbc
00000010: 73ab 873c b4fe 56bc 58e3 243b 53e2 24bc
00000020: 471c dbba eef3 31bc 56e6 75bd 2b82 1ebc
00000030: 17e9 1dbb e912 823c 2e37 013d 9f6c 08bd
00000040: 621d 88bc ee1d fabc 21cc f1bb 6cd8 bebc
00000050: ee7a 513c 6216 9ebc db93 8d3b 9d8b f8bc
00000060: c199 1ebc 6326 72bc c4d0 0e3c da7d 38be
00000070: ee9a 0e3d 88d2 59bc 6841 5fbb df5c d9bb
00000080: 4f11 503d caf1 9ebe c1f6 56bc 6fd2 81bc
00000090: 4eac a6bc c2ed c83b 791c 04bd cdfc debc
000000a0: 4739 39bd f805 64bc d768 d5bb bbb1 15bb
000000b0: 7fa6 443b 8fee 433d cfa3 91bd 9443 dcbc
000000c0: 804f 72bb 3bc6 e1bc b70d 6fbc f11d a23c
000000d0: 817c 363d 58ae 823c 6fe5 9d3c c294 303b
000000e0: c146 6739 62a1 26bc ff57 0e3b d212 193d
000000f0: a751 35bc 5427 253c 69f0 4b3c e3a6 75bb
00000100: 4f4a 9cbb 6bbb 00bb d040 503b 3db0 be3b
00000110: d4db 1bbc 579d 9fbb 92a1 d9bc 60da 073d
00000120: 1b59 bfbb f8cb 69bc 2d78 e33d 7033 7c3c
00000130: 77fa cc3c 688f a4bd 3d4c 4d3c d40f 35bb
00000140: d2f8 25bc b4f4 39be 3214 febc f653 f9bc
00000150: 7be1 24bd ffff 11bf a757 25bc 75b7 b8bd
00000160: 276c 203d 3b32 2f3d cc3b c3bb de99 b6bb
00000170: 415b 2cbd e50f 59bc b84e 293d 4757 0e3c
00000180: 11e8 88bd b70b 02bb e754 5c3b 2d47 86bd
00000190: 5fd8 e3bc c930 35bc 148d 18bd c2b7 343b
000001a0: 9454 ecbc dcd9 683d f879 57bd ebdd b93c
000001b0: 9e1c e6bc 9b1a 943b 871d 603c 86bf 05bd
000001c0: d5ba adbc 1b62 a83c fdc4 32bc a297 10be
000001d0: a244 773c 00ff 08bc a1b2 a4bc ffec 20be
000001e0: e3e7 2b3d 819b b8bb 322d 333e 6005 85bc
000001f0: 8774 513c 4f70 d63b 9c75 edbd 3ae1 45bb
00000200: a8b9 f5bb fef0 523c 9ecc ac3c a52c b43c
00000210: c8d2 48bc ecf7 623a 990d 66bc 23d9 b33c
00000220: 3d0b 03bc b46c a63c 4b68 653d e684 1a3b
00000230: 992d 50bb b97f 9cbb ce3b eabc 0ecb 413d
00000240: 42e6 a43a 3c6d d83c 23b2 b73b 68dd ec3c
00000250: 2573 543c c1af 373b 9fd9 873b 39b3 f73c
00000260: b16c 8cbb 0580 2c3c e038 bfbb c886 473e
00000270: 5f31 cfbc f0db fd39 cb19 5dbb c966 c03c
00000280: 3c82 4abd d8f8 8b3e 9f2b d73c eda3 9d3c
00000290: d184 633c f307 dcba 3c95 373d f3d7 f83c
000002a0: 9b54 ec3c c76e 2cbc 70cc 49bc b7fc 07bc
000002b0: 6a46 28bc 1b17 a5bd d641 ab3d a52b 393b
000002c0: 09f6 6e3c ee96 aab9 c9ea 90bb b1e5 acbc
000002d0: 0c35 26bd 7a5f b43a 0663 953b 7b6b f03b
000002e0: 6ec5 32bc b7a5 633c 4965 89bc 4f60 86bc
000002f0: 6abb c6bb afb2 40bc f72e 00bc 39e9 203c
00000300: 7a7f a6bb fc4e 583c b2d6 9bbb d5a3 80bc
00000310: 69a2 883c b30f 233c d283 e83c af0c 3dbd
00000320: a4ea 7d3c 9bd4 f83c e138 eebd 3c86 a4ba
00000330: a904 ccbc 8d7e 9f3d 55f3 f03b 471a a939
00000340: 9abd bf3c 9542 2e3e f632 a33c b885 093d
00000350: ae52 103d 02a4 0f3f a6d8 d13b c5cc 8c3d
00000360: 54a6 1ebd ef0a 2cbd 6dbf 593b 3b43 703b
00000370: 3016 493d fa0c 033d 62fb 32bd 5641 69bb
00000380: fa67 303d a28f cabb 12af 9cbc d037 993d
00000390: 21d6 4fbc 0df8 5b3c e44c 073d ba31 6fbc
000003a0: 97c7 813c bb4e 7bbd bc54 223d 7c92 b73b
000003b0: 100d 353d bb73 7cbb 9ba8 8cbc a0b1 c63c
000003c0: cac8 f33c 0767 dcbc b0d4 4e3c 1111 003e
000003d0: 256f 84bc dde4 b83b d27a 84bc 471e 2e3e
000003e0: 2884 1abd dae8 37bc 669d 35be c877 8f3b
000003f0: 365a 78bc c78d 38bc 7f43 0e3e 0894 4fbc
-0.0059915474 -0.01326421 -0.03051982 -0.019459048 0.016561246 -0.013122249 0.0025159921 -0.0100637255
-0.0016716801 -0.01086138 -0.06003412 -0.009674589 -0.0024095231 0.015878158 0.031546764 -0.033306714
-0.016615573 -0.03053185 -0.0073790704 -0.023296557 0.012785656 -0.019297782 0.0043206043 -0.03034001
-0.0096802125 -0.01477966 0.008716766 -0.18016759 0.03481572 -0.0132948235 -0.0034066085 -0.0066333856
0.050797757 -0.31043845 -0.013120354 -0.015847413 -0.020345833 0.0061318586 -0.032253716 -0.027220154
-0.04522064 -0.013917439 -0.006512742 -0.0022841531 0.0030006466 0.04783493 -0.07111322 -0.026887693
-0.0036973655 -0.027560344 -0.014590672 0.019789668 0.04455233 0.015952274 0.019274442 0.0026944135
0.00022056235 -0.010170313 0.002171993 0.037371464 -0.011066831 0.010080177 0.012447455 -0.0037483505
-0.0047696005 -0.001964296 0.0031776913 0.005819349 -0.00951286 -0.0048710513 -0.0265663 0.033167243
-0.0058394796 -0.014269821 0.11106906 0.015393123 0.025021775 -0.08035165 0.012530384 -0.0027627843
-0.010130124 -0.18159753 -0.03101549 -0.030435544 -0.040254097 -0.57031244 -0.010091699 -0.09019367
0.039165642 0.042772513 -0.005958056 -0.0055725416 -0.042079214 -0.013248418 0.041334838 0.008687801
-0.06684888 -0.0019843408 0.0033619942 -0.065565445 -0.027813135 -0.011058995 -0.037243918 0.0027575349
-0.028848924 0.056848392 -0.052606553 0.022688827 -0.028089818 0.004519773 0.013678915 -0.032653354
-0.021207253 0.020554593 -0.0109112235 -0.14120343 0.015092047 -0.008361578 -0.020104708 -0.15715407
0.04196919 -0.005633772 0.1749771 -0.016237915 0.01278413 0.00654415 -0.11594698 -0.003019406
-0.0074989386 0.01287484 0.021093663 0.021993944 -0.012257285 0.0008658159 -0.014041328 0.021954125
-0.007998285 0.020315506 0.056007665 0.0023577749 -0.003176546 -0.004775968 -0.02859297 0.04731279
0.0012580829 0.026419275 0.0056059523 0.028914168 0.012966906 0.0028028341 0.0041458155 0.030236827
-0.004285418 0.010528569 -0.0058356375 0.19485009 -0.025292097 0.00048419787 -0.0033737298 0.023486512
-0.049440607 0.2733829 0.026265917 0.019243205 0.013886646 -0.0016787037 0.044820055 0.03037641
0.028848937 -0.010524458 -0.012316808 -0.008299998 -0.010270694 -0.08061048 0.083621666 0.0028254774
0.014585027 -0.00032537378 -0.00442252 -0.02110562 -0.040577933 0.0013761364 0.0045589237 0.0073370314
-0.010911329 0.01389449 -0.01677193 -0.016403345 -0.006064822 -0.0117613515 -0.007823697 0.00982123
-0.0050811144 0.013202425 -0.0047558183 -0.015703121 0.016679006 0.009952473 0.02838317 -0.046154674
0.015497837 0.030374816 -0.116319425 -0.0012552212 -0.024904566 0.077878095 0.007353226 0.0003225377
0.023405839 0.17017587 0.019921761 0.03357479 0.0352351 0.5610963 0.0064040003 0.06874994
-0.03873284 -0.042002615 0.003322567 0.0036661166 0.049093425 0.031994797 -0.04369677 -0.0035591922
0.04306791 -0.006181673 -0.019126449 0.074813485 -0.01268533 0.013425839 0.033032313 -0.014599258
0.015842242 -0.06135438 0.03963159 0.005602179 0.04420191 -0.003852113 -0.017170241 0.02425462
0.02975883 -0.026904596 0.012623951 0.1250651 -0.01616628 0.005642517 -0.016171847 0.17003737
-0.03772369 -0.01122495 -0.17735824 0.0043782927 -0.015158227 -0.011264271 0.13892935 -0.012669571

action_model._discrete_distribution.branches.3.bias f4 [2]
00000000: e68c 0b3d 6c8c 0bbd
0.034069918 -0.034069464
