results/08/SmartAgent.onnx (onnx, 77162 bytes, 13 tensors)

discrete_action_output_shape f4 [1, 4]
0	0x40000000	2.0
1	0x40000000	2.0
2	0x40000000	2.0
3	0x40000000	2.0

network_body._body_endoder.seq_layers.0.weight f4 [128, 4]
0	0x3df75a0a	0.120777205
1	0x3eed2926	0.46320456
2	0x3e9b63eb	0.3034967
3	0xbf32d2e6	-0.69853055
4	0xbeca0a27	-0.3946087
5	0x3e5dfc36	0.21678242
6	0x3e308717	0.17239033
7	0x3dd2360f	0.10264217
8	0x3eddd60a	0.4332736
9	0x3e944d8c	0.28965414
10	0x3d9f0b6c	0.077658504
11	0xbe9ede83	-0.31029138
12	0x3cfbf437	0.0307561
13	0xbee6ad51	-0.45054105
14	0x3da0a847	0.07844596
15	0xbe20461d	-0.15651746
16	0xbed7a982	-0.42121512
17	0x3f6d0d2a	0.9259821
18	0xbdfa06cd	-0.122083284
19	0xbf7176c2	-0.94321835
20	0x3e57add0	0.21062398
21	0x3eb16651	0.34648374
22	0xbe1fe8e0	-0.15616179
23	0x3f21d52b	0.63215894
24	0x3d0c9432	0.034321018
25	0x3df47fcb	0.11938437
26	0x3f1cf354	0.6130879
27	0x3f16dc7b	0.58930176
28	0xbec11f54	-0.37719214
29	0xbeb8780a	-0.36029083
30	0x3f36eff6	0.714599
31	0x3eda3161	0.42615798
32	0x3e19b8f2	0.15011957
33	0xbe742cac	-0.23845166
34	0x3e44824a	0.19190326
35	0x3ec9b9e4	0.39399636
36	0xbcd581db	-0.026062896
37	0xbed5163f	-0.41618535
38	0x3f145e98	0.5795684
39	0xbea8c443	-0.32962236
40	0x3d357f24	0.044310704
41	0xbf1fd172	-0.62428963
42	0x3d35da62	0.04439772
43	0x3e36d9cd	0.17856522
44	0xbea2f8ab	-0.31830344
45	0xbf33f558	-0.7029624
46	0xbf0a260a	-0.53964293
47	0x3ebbd02c	0.3668226
48	0xbf03c6a3	-0.5147497
49	0xbdd0e71f	-0.10200333
50	0xbf55cf8d	-0.8351982
51	0x3ec65786	0.3873865
52	0x3c3f7f5e	0.011688082
53	0x3d81d1e6	0.06338863
54	0xbeba4076	-0.36377305
55	0x3de90579	0.11377997
56	0xbe6d672d	-0.2318389
57	0x3de9ceae	0.11416374
58	0xbd1267b1	-0.03574342
59	0x3f639568	0.8889985
60	0xbe8fea32	-0.28108364
61	0x3ced5bce	0.02897444
62	0xbe00b30c	-0.12568301
63	0x3c9e7160	0.01934117
64	0xbedb2491	-0.42801335
65	0xbf0fe9dd	-0.5621622
66	0x3e13a331	0.14417721
67	0xbf12f6ac	-0.5740764
68	0x3df78a99	0.12086982
69	0x3f4f8ce2	0.81074345
70	0x3dd14bdb	0.102195464
71	0x3ed637c5	0.41839424
72	0x3f2ed1ce	0.68288887
73	0xbed3d93b	-0.4137667
74	0xbf6f106f	-0.9338445
75	0x3e88e653	0.26738223
76	0x3e864971	0.26227906
77	0x3e5133a5	0.20429857
78	0xbb8d8958	-0.004319351
79	0x3ea7d568	0.32780004
80	0xbf212006	-0.6293949
81	0xbcdd4b14	-0.02701334
82	0xbd94a025	-0.07257108
83	0xbeb7c833	-0.35894927
84	0x3a0e7ac1	0.0005435162
85	0xbe3f048b	-0.18654077
86	0x39921253	0.00027860943
87	0x3f197f35	0.5995973
88	0xbea292aa	-0.3175252
89	0xbdf49418	-0.11942309
90	0xbf367df2	-0.7128593
91	0x3efec7e2	0.49761873
92	0x3f3a0c14	0.7267468
93	0xbd8d969f	-0.06913494
94	0xbe08e16c	-0.13367242
95	0xbf0eb6b4	-0.5574753
96	0xbe8d8e36	-0.2764756
97	0xbee0bbe7	-0.43893358
98	0xbf5a6a08	-0.8531804
99	0x3de43fe6	0.11145
100	0x3e0a388a	0.1349813
101	0x3dd20145	0.102541484
102	0x3f169537	0.58821434
103	0x3eee1343	0.4649907
104	0x3cd1d442	0.025613908
105	0xbe233785	-0.15939148
106	0xbeca202e	-0.39477676
107	0xbf60ab73	-0.8776161
108	0xbe04ee2e	-0.12981483
109	0x3e9ab459	0.3021572
110	0x3efe111f	0.49622437
111	0x3e505df9	0.20348348
112	0xbe5463ee	-0.20741245
113	0xbe06f877	-0.1318072
114	0x3f0183bb	0.5059163
115	0x3f299784	0.6624682
116	0x3bb004e6	0.0053716777
117	0xbe68bae6	-0.22727546
118	0xbf16fd20	-0.5897999
119	0xbf5c385f	-0.86023515
120	0xbf567ff4	-0.8378899
121	0x3e03dfbb	0.12878315
122	0x3e9dd989	0.3083003
123	0x3ef72dd7	0.4827716
124	0x3d6703d1	0.056400124
125	0x3f1f0bf7	0.6212763
126	0xbf50ff39	-0.8163944
127	0xbe99ccfb	-0.300392
128	0x3f880819	1.0627471
129	0x3e80a602	0.25126654
130	0xbe94105d	-0.28918734
131	0xbf2b5c41	-0.66937643
132	0xbf5e4a2a	-0.86831915
133	0xbeabc75d	-0.3355054
134	0xbf14c637	-0.5811495
135	0xbe91358a	-0.2836116
136	0xbe9a2ed7	-0.3011386
137	0x3e966302	0.29372412
138	0xbeae49f1	-0.34040788
139	0x3c7fe170	0.015617713
140	0xbea588d1	-0.32330945
141	0xbea68f49	-0.32531193
142	0xbe95ff1b	-0.29296193
143	0x3e4a2478	0.19740474
144	0x3ec98f49	0.3936713
145	0x3e8f2909	0.27960995
146	0x3ebc0f7e	0.3673057
147	0x3f1e8708	0.6192479
148	0xbd8639c2	-0.06553985
149	0x3f437f60	0.76366234
150	0x3e3f1fce	0.18664476
151	0xbe9ecb80	-0.31014633
152	0x3df263c5	0.11835436
153	0xbde96882	-0.113968864
154	0xbfa308f2	-1.2737105
155	0xbe290822	-0.16507009
156	0xbe3262a1	-0.17420436
157	0xbe919071	-0.28430513
158	0x3cc88261	0.024476232
159	0x3eb77bb2	0.3583656
160	0xbf49a505	-0.78767425
161	0xbd4953a8	-0.049152046
162	0x3f447945	0.7674754
163	0xbf007e31	-0.5019255
164	0x3eede0e9	0.46460655
165	0xbe8dd74a	-0.27703315
166	0x3d64becd	0.055846024
167	0x3ec7c549	0.39017704
168	0x3ef47f65	0.47753444
169	0xbe22309c	-0.15838856
170	0x3ef04766	0.46929473
171	0xbe6211a7	-0.22077046
172	0xbe22d5e8	-0.15901911
173	0x3e40811b	0.1879925
174	0xbe9a88b6	-0.30182427
175	0x3f9bccba	1.2171853
176	0x3e958990	0.29206514
177	0x3edc4eff	0.4302902
178	0x3e7b8383	0.24561886
179	0xbf6b9f0d	-0.9203957
180	0xbde70575	-0.11280338
181	0x3eca1913	0.39472255
182	0x3f6c6ff2	0.92358315
183	0xbdfff1c8	-0.12497288
184	0x3fa791c5	1.309136
185	0x3e31a387	0.17347537
186	0xbeddf8bf	-0.4335384
187	0x3ead8c96	0.3389632
188	0xbe39459c	-0.1809296
189	0x3e2a5a35	0.16635974
190	0x3f13bb08	0.5770726
191	0xbebdd6fe	-0.3707809
192	0x3e9e517e	0.3092155
193	0x3c92cc04	0.017919548
194	0xbf105337	-0.56376976
195	0xbee8a3df	-0.45437524
196	0x3e7586fa	0.2397727
197	0xbcd33aff	-0.025784967
198	0x3f51d83c	0.8197057
199	0x3eb9ed93	0.36314067
200	0x3d152d79	0.03642032
201	0x3ea27ae1	0.31734374
202	0xbe927ab9	-0.28609255
203	0x3f636c5a	0.88837206
204	0xbe067d35	-0.131337
205	0x3e83d248	0.2574637
206	0x3ead401a	0.33837968
207	0x3f131226	0.5744957
208	0xbe89f682	-0.26945883
209	0xbe103cdc	-0.14085716
210	0xbe8578b3	-0.2606865
211	0xbe2e9d22	-0.17052129
212	0x3f146955	0.57973224
213	0x3e87fe7f	0.26561353
214	0xbf87ca9c	-1.0608706
215	0xbeec266e	-0.4612307
216	0x3dfe0dab	0.12404951
217	0xbe312d8e	-0.17302534
218	0xbe4b124f	-0.19831203
219	0x3e724ac7	0.23661338
220	0xbd2a154b	-0.041524213
221	0xbea8e710	-0.32988787
222	0xbd647332	-0.05577392
223	0x3e721fb8	0.23644912
224	0xbf9bbf42	-1.2167742
225	0xbe49b788	-0.19698918
226	0xbe23dc2a	-0.16001955
227	0xbf5383c4	-0.82622933
228	0x3edc5575	0.4303395
229	0x3f3822c1	0.7192803
230	0x3e9fd6fa	0.31218702
231	0xbe805bfd	-0.2507018
232	0x3f9514c7	1.1646966
233	0x3f0b141d	0.54327565
234	0xbf77838a	-0.9668509
235	0xbe8f4d48	-0.27988648
236	0x3f43b0b4	0.764415
237	0xbdc21674	-0.09476939
238	0x3eaed0a1	0.34143546
239	0xbf1de7dd	-0.6168192
240	0x3f01bbe0	0.506773
241	0x3e5c0b7e	0.21488759
242	0xbced346c	-0.02895566
243	0x3ed08f50	0.4073434
244	0xbe57a8c6	-0.21060476
245	0x3f059249	0.5217634
246	0xbd81bf2e	-0.06335293
247	0x3f76cc42	0.9640542
248	0x3ea81164	0.32825768
249	0x3e96a89a	0.29425508
250	0x3f9d56b7	1.2292088
251	0xbdb08979	-0.08619971
252	0xbe6d4055	-0.23169072
253	0x3f68fb96	0.9100889
254	0xbdc4c852	-0.096085206
255	0xbf5619e4	-0.83633256

network_body._body_endoder.seq_layers.0.bias f4 [128]
0	0x00000000	0.0
1	0x00000000	0.0
2	0x00000000	0.0
3	0x00000000	0.0
4	0x00000000	0.0
5	0x00000000	0.0
6	0x00000000	0.0
7	0x00000000	0.0
8	0x00000000	0.0
9	0x00000000	0.0
10	0x00000000	0.0
11	0x00000000	0.0
12	0x00000000	0.0
13	0x00000000	0.0
14	0x00000000	0.0
15	0x00000000	0.0
16	0x00000000	0.0
17	0x00000000	0.0
18	0x00000000	0.0
19	0x00000000	0.0
20	0x00000000	0.0
21	0x00000000	0.0
22	0x00000000	0.0
23	0x00000000	0.0
24	0x00000000	0.0
25	0x00000000	0.0
26	0x00000000	0.0
27	0x00000000	0.0
28	0x00000000	0.0
29	0x00000000	0.0
30	0x00000000	0.0
31	0x00000000	0.0
32	0x00000000	0.0
33	0x00000000	0.0
34	0x00000000	0.0
35	0x00000000	0.0
36	0x00000000	0.0
37	0x00000000	0.0
38	0x00000000	0.0
39	0x00000000	0.0
40	0x00000000	0.0
41	0x00000000	0.0
42	0x00000000	0.0
43	0x00000000	0.0
44	0x00000000	0.0
45	0x00000000	0.0
46	0x00000000	0.0
47	0x00000000	0.0
48	0x00000000	0.0
49	0x00000000	0.0
50	0x00000000	0.0
51	0x00000000	0.0
52	0x00000000	0.0
53	0x00000000	0.0
54	0x00000000	0.0
55	0x00000000	0.0
56	0x00000000	0.0
57	0x00000000	0.0
58	0x00000000	0.0
59	0x00000000	0.0
60	0x00000000	0.0
61	0x00000000	0.0
62	0x00000000	0.0
63	0x00000000	0.0
64	0x00000000	0.0
65	0x00000000	0.0
66	0x00000000	0.0
67	0x00000000	0.0
68	0x00000000	0.0
69	0x00000000	0.0
70	0x00000000	0.0
71	0x00000000	0.0
72	0x00000000	0.0
73	0x00000000	0.0
74	0x00000000	0.0
75	0x00000000	0.0
76	0x00000000	0.0
77	0x00000000	0.0
78	0x00000000	0.0
79	0x00000000	0.0
80	0x00000000	0.0
81	0x00000000	0.0
82	0x00000000	0.0
83	0x00000000	0.0
84	0x00000000	0.0
85	0x00000000	0.0
86	0x00000000	0.0
87	0x00000000	0.0
88	0x00000000	0.0
89	0x00000000	0.0
90	0x00000000	0.0
91	0x00000000	0.0
92	0x00000000	0.0
93	0x00000000	0.0
94	0x00000000	0.0
95	0x00000000	0.0
96	0x00000000	0.0
97	0x00000000	0.0
98	0x00000000	0.0
99	0x00000000	0.0
100	0x00000000	0.0
101	0x00000000	0.0
102	0x00000000	0.0
103	0x00000000	0.0
104	0x00000000	0.0
105	0x00000000	0.0
106	0x00000000	0.0
107	0x00000000	0.0
108	0x00000000	0.0
109	0x00000000	0.0
110	0x00000000	0.0
111	0x00000000	0.0
112	0x00000000	0.0
113	0x00000000	0.0
114	0x00000000	0.0
115	0x00000000	0.0
116	0x00000000	0.0
117	0x00000000	0.0
118	0x00000000	0.0
119	0x00000000	0.0
120	0x00000000	0.0
121	0x00000000	0.0
122	0x00000000	0.0
123	0x00000000	0.0
124	0x00000000	0.0
125	0x00000000	0.0
126	0x00000000	0.0
127	0x00000000	0.0

network_body._body_endoder.seq_layers.2.weight f4 [128, 128]
0	0x3dbbc3f8	0.091682374
1	0xbcfc21d9	-0.030777859
2	0x3d3a574c	0.04549341
3	0xbe61b1c1	-0.22040464
4	0xbe3fb7f6	-0.1872252
5	0xbdebe840	-0.115189075
6	0xbc3f65eb	-0.011682014
7	0xbe1f3bad	-0.15550108
8	0x3d1e0c9a	0.038586237
9	0x3db453bb	0.08805033
10	0xbd33f35b	-0.043933254
11	0x3d1f9b6f	0.038966592
12	0x3db238a0	0.087022066
13	0xbde165e7	-0.110057645
14	0x3d607f60	0.054808974
15	0x3c5b857a	0.0133985225
16	0xbd03a5c4	-0.03214051
17	0x3d4767f2	0.048683114
18	0x3e0c2382	0.1368542
19	0x3d5b72f0	0.05357641
20	0x3def1f8c	0.11675939
21	0x3d901f3f	0.0703721
22	0x3ca12971	0.019673081
23	0x3d8adfdc	0.06780979
24	0x3e3bda78	0.18345058
25	0xbcad66a1	-0.021167101
26	0xbdaee362	-0.085394636
27	0xbd40e90b	-0.047097247
28	0x3e48170a	0.19540039
29	0x3ca6b66c	0.020350657
30	0x3d774fff	0.060379025
31	0xbd8e1624	-0.06937817
32	0xbc487393	-0.012234586
33	0xbd57a757	-0.052649822
34	0xbcf77211	-0.030205758
35	0x3d3e2842	0.04642511
36	0x3d6a3743	0.057181608
37	0xbe5b43b4	-0.21412545
38	0x3e6aa6aa	0.2291514
39	0xbcba3299	-0.022729205
40	0x3d89c49d	0.06726954
41	0xbd42d1dd	-0.047563422
42	0x3dc91092	0.09817614
43	0x3c16eb2b	0.009211342
44	0x3cc2685a	0.0237314
45	0xbd161ec9	-0.036650453
46	0xbd85a9ae	-0.065265045
47	0xbc8b0c17	-0.016973538
48	0x3c097ac4	0.008391086
49	0x3cac425e	0.02102774
50	0x3d485e88	0.048918277
51	0xbde4ca52	-0.11171402
52	0x3c818d17	0.015814347
53	0x3d9030ac	0.070405334
54	0xbdad2b48	-0.08455521
55	0x3d0d3bb8	0.03448078
56	0x3d4877cf	0.048942383
57	0x3b0958e1	0.0020957517
58	0xbe682fca	-0.2267448
59	0x3cea1993	0.028576648
60	0xbb716e94	-0.0036839591
61	0x3e16426a	0.14673772
62	0x3e0031e2	0.12519029
63	0xbd830391	-0.063971646
64	0x3dc2b507	0.095071845
65	0x3ddb4b40	0.10707712
66	0x3dacc7bc	0.08436534
67	0x3ca5c8e6	0.020237397
68	0xbcd7c811	-0.026340516
69	0x3d68faf1	0.05687994
70	0x3c7714bc	0.015080627
71	0xbe4014f6	-0.18757996
72	0x3da1acbb	0.07894274
73	0xbd966890	-0.073441625
74	0xbda82eb6	-0.082120344
75	0xbd64c4ba	-0.055851676
76	0x3bb7b29c	0.0056060087
77	0x3d024653	0.031805348
78	0x3c27463e	0.010209618
79	0x3c9b1153	0.01892916
80	0x3d8fa0dd	0.07013104
81	0xbd809e3d	-0.062801816
82	0xbda3a4eb	-0.0799044
83	0xbd80f989	-0.06297595
84	0x3d873267	0.0660141
85	0x3d82f359	0.06394071
86	0xbd2da816	-0.042396627
87	0xbd92bf10	-0.071653485
88	0x3d1cd1f1	0.038286153
89	0x3dc4292e	0.09578167
90	0xbd074ad4	-0.033030346
91	0x3d7dc92b	0.061959427
92	0xbcda4de8	-0.026648477
93	0xbd4694e4	-0.048481837
94	0x3d4832fe	0.048876755
95	0xbe042305	-0.12903984
96	0xbcabb58c	-0.020960592
97	0x3e0bd4e3	0.13655429
98	0x3d47bd7e	0.0487647
99	0xbd31fced	-0.0434541
100	0xbe00aa7a	-0.12565032
101	0x3c1a5dd8	0.009421788
102	0xbd0bfcc1	-0.03417659
103	0x3d1fabc7	0.03898218
104	0x3cee4ea3	0.029090231
105	0xbe0d3306	-0.13788995
106	0xbe2ad0e1	-0.16681243
107	0xbe1f618b	-0.15564553
108	0x3dfb05b4	0.12256947
109	0x3d5419b6	0.051782332
110	0x3e37ca93	0.1794837
111	0xbbfd83d5	-0.007736663
112	0xbb3ff293	-0.0029288873
113	0x3e82502b	0.25451788
114	0xbb36fb67	-0.0027920844
115	0xba517cb6	-0.00079913007
116	0x3cfe07f1	0.031009646
117	0x3dc15df7	0.094417505
118	0xbda0425a	-0.078251556
119	0xbd76e2a1	-0.060274724
120	0xbd2fd4eb	-0.042927664
121	0xbdae633c	-0.08515021
122	0x3dbe29a5	0.09285287
123	0xbe112c98	-0.14177167
124	0xbd8b4614	-0.06800476
125	0xbd7b5357	-0.061358776
126	0x3e0c413a	0.13696757
127	0x3d8ea6d0	0.06965411
128	0x3d80b89f	0.06285214
129	0xbd4b455d	-0.049626697
130	0xbd885784	-0.06657317
131	0x3b8ce613	0.004299888
132	0xbe823599	-0.25431517
133	0x3d8b2934	0.06794968
134	0x3c37eb24	0.0112254955
135	0x3d97d5ed	0.0741385
136	0xbcd2a929	-0.025715427
137	0x3c81ee75	0.015860775
138	0x3def632d	0.11688838
139	0xbe46d783	-0.19418149
140	0x3daa1688	0.08305079
141	0x3c9169f1	0.017750712
142	0xba539bd5	-0.0008072232
143	0x3de949e1	0.113910444
144	0x3c87b70c	0.016566776
145	0x3c3c4a46	0.011492318
146	0xbd374aac	-0.044748947
147	0xbd9a2d4d	-0.07528172
148	0xbd0cdf0e	-0.03439241
149	0x3cf0d165	0.029396722
150	0xbe45596a	-0.1927239
151	0xbd79061c	-0.060796842
152	0x3beadcdc	0.007167442
153	0x3dd94c69	0.10610277
154	0x3b115431	0.0022175426
155	0x3df4a229	0.11944992
156	0x3d9ce9b2	0.07661761
157	0xbda9d459	-0.08292455
158	0x3c6531f1	0.013988958
159	0x3c704226	0.0146642085
160	0x3da6c131	0.08142317
161	0xbc60d6af	-0.01372306
162	0xbd86218d	-0.06549368
163	0x3dcc3cf6	0.09972565
164	0x3e2f6075	0.17126639
165	0x3a0a7449	0.000528161
166	0xbb3fc5a1	-0.0029262083
167	0x3d8b0e7a	0.067898706
168	0xbce5de6e	-0.028060164
169	0xbcf4e59f	-0.029894648
170	0xbb7c359f	-0.003848411
171	0xbe42d42e	-0.19026253
172	0xbd72b692	-0.059256144
173	0xbd6737d6	-0.056449734
174	0x3adbddc4	0.0016774465
175	0xbd36cdc2	-0.04462982
176	0xbdcc2a4a	-0.099690035
177	0x3e11ab9d	0.14225622
178	0x3d92b300	0.07163048
179	0xbd152674	-0.036413625
180	0x3bd4ac7b	0.006490288
181	0x3dad9af7	0.08476823
182	0x3d8e91ea	0.06961425
183	0x3d0f30a4	0.034958497
184	0xbe0ef44e	-0.13960382
185	0x3e079ab9	0.13242616
186	0xbc3722b0	-0.011177704
187	0xbb1dc3fe	-0.002407312
188	0x3d938f1a	0.07205029
189	0x3b210ad9	0.0024573116
190	0x3dff5801	0.12467957
191	0xbc861934	-0.01636944
192	0x3de36fdd	0.111053206
193	0x3b74f7ec	0.0037379218
194	0x3df23601	0.11826707
195	0xbd5e858d	-0.054326583
196	0xbd3720cb	-0.04470901
197	0x3cbcbb2d	0.023038471
198	0xbd64d46c	-0.055866644
199	0x3dd35664	0.10319212
200	0xbd217379	-0.039416764
201	0x3d672fc5	0.05644204
202	0xbe3f9f54	-0.18713123
203	0x3d930210	0.07178128
204	0xbc94bf73	-0.018157696
205	0xbdbf0e35	-0.09328882
206	0xbb8f9a20	-0.004382387
207	0x3bf8c47a	0.007591781
208	0x3d79deae	0.06100338
209	0xbddc0487	-0.10743051
210	0xbe12a58b	-0.14320962
211	0x3d15452f	0.03644293
212	0xbcbc2510	-0.022966892
213	0x3d62ecac	0.05540149
214	0xbc7de3c6	-0.0154962
215	0x3dc4e785	0.09614471
216	0xbd944c5e	-0.072411284
217	0x3d490c27	0.049083855
218	0xbca5dbe1	-0.020246448
219	0x3c015be0	0.00789544
220	0x3df2f762	0.11863591
221	0x3dfe5e04	0.12420276
222	0xbc08e2ff	-0.008354901
223	0xbcb79751	-0.02241102
224	0x3dc3a631	0.09553183
225	0xbd5f4c02	-0.054515846
226	0x3e009a45	0.12558849
227	0xbc77bcce	-0.015120698
228	0x3dcb0fe9	0.09915144
229	0x3dedd43e	0.116127476
230	0xbd04f369	-0.032458697
231	0xbdd0ab6a	-0.10188945
232	0xbcfe63f0	-0.031053513
233	0xbd0924d3	-0.033482384
234	0xbdd80e6b	-0.10549625
235	0x3d57918a	0.05262903
236	0x3d7d5cef	0.061856207
237	0x397a453d	0.00023867651
238	0xbdd640bb	-0.10461565
239	0xbcb24df8	-0.021765694
240	0xbe53bd6b	-0.20677726
241	0x3d6d2719	0.057898615
242	0x3b1a48b2	0.0023541865
243	0xbcc6486f	-0.02420446
244	0xbca0ee6d	-0.01964494
245	0x3c901630	0.017588705
246	0x3d09ab14	0.03361042
247	0x3c06f82c	0.00823788
248	0xbda7d26b	-0.08194431
249	0x3d903386	0.07041077
250	0xbdbcaf2e	-0.092131004
251	0xbda17b4e	-0.07884847
252	0x3dfcd888	0.123459876
253	0x3cf50ad7	0.029912395
254	0xbc7efdf8	-0.015563481
255	0x3cf833f6	0.030298214

network_body._body_endoder.seq_layers.2.bias f4 [128]
0	0x00000000	0.0
1	0x00000000	0.0
2	0x00000000	0.0
3	0x00000000	0.0
4	0x00000000	0.0
5	0x00000000	0.0
6	0x00000000	0.0
7	0x00000000	0.0
8	0x00000000	0.0
9	0x00000000	0.0
10	0x00000000	0.0
11	0x00000000	0.0
12	0x00000000	0.0
13	0x00000000	0.0
14	0x00000000	0.0
15	0x00000000	0.0
16	0x00000000	0.0
17	0x00000000	0.0
18	0x00000000	0.0
19	0x00000000	0.0
20	0x00000000	0.0
21	0x00000000	0.0
22	0x00000000	0.0
23	0x00000000	0.0
24	0x00000000	0.0
25	0x00000000	0.0
26	0x00000000	0.0
27	0x00000000	0.0
28	0x00000000	0.0
29	0x00000000	0.0
30	0x00000000	0.0
31	0x00000000	0.0
32	0x00000000	0.0
33	0x00000000	0.0
34	0x00000000	0.0
35	0x00000000	0.0
36	0x00000000	0.0
37	0x00000000	0.0
38	0x00000000	0.0
39	0x00000000	0.0
40	0x00000000	0.0
41	0x00000000	0.0
42	0x00000000	0.0
43	0x00000000	0.0
44	0x00000000	0.0
45	0x00000000	0.0
46	0x00000000	0.0
47	0x00000000	0.0
48	0x00000000	0.0
49	0x00000000	0.0
50	0x00000000	0.0
51	0x00000000	0.0
52	0x00000000	0.0
53	0x00000000	0.0
54	0x00000000	0.0
55	0x00000000	0.0
56	0x00000000	0.0
57	0x00000000	0.0
58	0x00000000	0.0
59	0x00000000	0.0
60	0x00000000	0.0
61	0x00000000	0.0
62	0x00000000	0.0
63	0x00000000	0.0
64	0x00000000	0.0
65	0x00000000	0.0
66	0x00000000	0.0
67	0x00000000	0.0
68	0x00000000	0.0
69	0x00000000	0.0
70	0x00000000	0.0
71	0x00000000	0.0
72	0x00000000	0.0
73	0x00000000	0.0
74	0x00000000	0.0
75	0x00000000	0.0
76	0x00000000	0.0
77	0x00000000	0.0
78	0x00000000	0.0
79	0x00000000	0.0
80	0x00000000	0.0
81	0x00000000	0.0
82	0x00000000	0.0
83	0x00000000	0.0
84	0x00000000	0.0
85	0x00000000	0.0
86	0x00000000	0.0
87	0x00000000	0.0
88	0x00000000	0.0
89	0x00000000	0.0
90	0x00000000	0.0
91	0x00000000	0.0
92	0x00000000	0.0
93	0x00000000	0.0
94	0x00000000	0.0
95	0x00000000	0.0
96	0x00000000	0.0
97	0x00000000	0.0
98	0x00000000	0.0
99	0x00000000	0.0
100	0x00000000	0.0
101	0x00000000	0.0
102	0x00000000	0.0
103	0x00000000	0.0
104	0x00000000	0.0
105	0x00000000	0.0
106	0x00000000	0.0
107	0x00000000	0.0
108	0x00000000	0.0
109	0x00000000	0.0
110	0x00000000	0.0
111	0x00000000	0.0
112	0x00000000	0.0
113	0x00000000	0.0
114	0x00000000	0.0
115	0x00000000	0.0
116	0x00000000	0.0
117	0x00000000	0.0
118	0x00000000	0.0
119	0x00000000	0.0
120	0x00000000	0.0
121	0x00000000	0.0
122	0x00000000	0.0
123	0x00000000	0.0
124	0x00000000	0.0
125	0x00000000	0.0
126	0x00000000	0.0
127	0x00000000	0.0

action_model._discrete_distribution.branches.0.weight f4 [2, 128]
0	0x3c3da588	0.01157511
1	0xb988b2e2	-0.0002607322
2	0xbc7dcfa7	-0.015491403
3	0xbca513d1	-0.02015105
4	0xbb5abe32	-0.0033377525
5	0x3c671942	0.014105143
6	0x3b5674c3	0.0032723404
7	0xbba6577b	-0.0050763465
8	0xbb0375cf	-0.0020059233
9	0xbb9584a5	-0.0045629316
10	0x3c3c9f1a	0.011512542
11	0xbc10f8b8	-0.008848362
12	0xbc24e753	-0.010064918
13	0x3c6dd4d8	0.014516078
14	0x3c5af69d	0.013364461
15	0xbc3f147a	-0.011662597
16	0xbcc76e2d	-0.024344528
17	0x39f26692	0.00046234258
18	0xbc8bfd23	-0.017088478
19	0x3b1e4707	0.0024151222
20	0xbb9d806f	-0.0048065702
21	0xbc896d09	-0.016775625
22	0xbbf559f7	-0.0074875313
23	0x3c52c823	0.012865099
24	0x3c136572	0.008996354
25	0x3b966a2d	0.004590294
26	0x3b118458	0.0022204127
27	0x3c6edb85	0.014578705
28	0x3a2ca3be	0.0006585679
29	0xbb5a7bfa	-0.0033338056
30	0xbb399632	-0.0028318283
31	0xbb3ce5b3	-0.0028823435
32	0xbbe52447	-0.00699285
33	0x3c853b4d	0.016263628
34	0xbbbb8b69	-0.005723406
35	0x3aeb9453	0.0017973281
36	0xbb807574	-0.0039202515
37	0x3a47178d	0.0007594757
38	0x3c43f054	0.011959154
39	0xbb77bcff	-0.003780186
40	0xbbc03aa9	-0.005866368
41	0xbcab237e	-0.020890947
42	0x3c19d917	0.009390137
43	0xbc4a124d	-0.012333465
44	0xbcae0a7f	-0.02124524
45	0xbb76fd27	-0.0037687512
46	0xbc324e08	-0.010882862
47	0xbc437ca7	-0.011931575
48	0xbbe70e23	-0.007051246
49	0xbbba9fbf	-0.0056953127
50	0xbb8cf788	-0.004301969
51	0x3b9a39a7	0.0047065797
52	0x3bb1a91a	0.00542177
53	0x3b84583e	0.0040388396
54	0x3cc2eb6e	0.023793902
55	0xbb4404b2	-0.0029910025
56	0xbb331e6f	-0.0027331372
57	0x3bd44e97	0.006479095
58	0x3c405d46	0.011740988
59	0xbc2e1a2f	-0.01062636
60	0xba4ce358	-0.0007815859
61	0x3c82ee46	0.015982758
62	0x3b8d61d9	0.004314643
63	0xbccc5102	-0.024940971
64	0xbc926318	-0.017869517
65	0x3bab58fd	0.005229114
66	0xbb5590e8	-0.0032587592
67	0xbad83038	-0.0016493862
68	0x3b77aa9b	0.0037790898
69	0xbc4e7982	-0.012602212
70	0x3cac5cca	0.021040339
71	0x39913b9f	0.00027700976
72	0xbc43a1d4	-0.011940438
73	0x3c0b23cf	0.008492424
74	0x3b357fa7	0.0027694495
75	0x3bb4a5f6	0.005512948
76	0x39dbfabd	0.0004195775
77	0xbb1e8e8f	-0.0024193858
78	0xbc9ca515	-0.019121686
79	0x3c8cfdbe	0.017210837
80	0x38b5b1ed	8.663894e-05
81	0xbc65582b	-0.013998072
82	0x3bea3f0a	0.007148628
83	0xbb84e514	-0.0040556286
84	0xbc275671	-0.01021348
85	0xbc12b82f	-0.008955046
86	0xb95534aa	-0.00020332882
87	0x3c3000f2	0.010742413
88	0xbb85d473	-0.004084164
89	0xbcabbcf3	-0.020964121
90	0x3c2dd24a	0.010609219
91	0x3a6ae2f5	0.0008960211
92	0xba45df94	-0.00075482694
93	0x3b5539f7	0.003253577
94	0x3bb2df7b	0.00545877
95	0x3b944170	0.0045244023
96	0x3b3ac3b7	0.0028498003
97	0xbc35c398	-0.011093996
98	0xba935975	-0.001124187
99	0x3c0e919e	0.00870171
100	0x3ba11341	0.0049156253
101	0xbc4090c2	-0.011753263
102	0x3c4605ae	0.012086315
103	0x3b8ba6fd	0.00426185
104	0xbc27fe1b	-0.010253455
105	0x3ba16981	0.004925907
106	0x3c0739df	0.008253544
107	0x3c0d383c	0.008619364
108	0xbc38d55b	-0.011281337
109	0xbc1ffe88	-0.009765275
110	0xbaa53289	-0.0012603562
111	0xb8801595	-6.1075356e-05
112	0x3b57bc67	0.0032918693
113	0xbc66ac20	-0.014079124
114	0xbc2f0b60	-0.010683864
115	0xbafebf5a	-0.0019435689
116	0xbc0e4fdd	-0.008686033
117	0xbc05cd3b	-0.008166607
118	0xbc10c207	-0.008835322
119	0x3be42fa2	0.006963686
120	0xbbd073d0	-0.006361462
121	0x3c0664ab	0.008202712
122	0x3a60391f	0.00085534336
123	0xbb5c8967	-0.0033651234
124	0x3b4fa70d	0.0031685263
125	0x3c57f7d0	0.013181642
126	0xbbae3a1f	-0.005316987
127	0xbc0ecbc0	-0.00871557
128	0x3b0aecfb	0.002119838
129	0xbb9dfa2f	-0.004821084
130	0x3be16d57	0.0068794894
131	0xba3b1d55	-0.00071378547
132	0xbbc60fc4	-0.00604436
133	0xbbdddb55	-0.006770531
134	0x3b383434	0.0028107287
135	0xbb044f6b	-0.0020188938
136	0x3bdfe033	0.0068321466
137	0x3c4e5f92	0.012596028
138	0xbc49f5a9	-0.012326636
139	0x3b0869c1	0.0020814987
140	0x3bfdc5cf	0.007744528
141	0x3c945d9e	0.018111046
142	0x3bac046a	0.0052495496
143	0x39cc3831	0.00038951778
144	0x3afa9ec3	0.0019120801
145	0xba592590	-0.00082834903
146	0xbc3aa25c	-0.011391249
147	0xbb33d813	-0.0027442023
148	0xbc09925c	-0.008396711
149	0x3bbb6b16	0.0057195527
150	0xbb9cbb27	-0.0047830525
151	0xbc13ebf4	-0.009028424
152	0x3c626dd8	0.013820134
153	0xb929e70f	-0.00016203172
154	0x3c7b8a57	0.015352807
155	0xbc30bf98	-0.010787867
156	0x3ab83cf2	0.0014056249
157	0x3c003578	0.007825248
158	0x3c014a4a	0.007891247
159	0xbc780fea	-0.015140513
160	0x3c239497	0.009984157
161	0x3b9ce04c	0.0047874805
162	0x3b2e9b12	0.0026642722
163	0xbb52812f	-0.0032120456
164	0xbb993de7	-0.004676569
165	0x3c1cceb7	0.009570769
166	0xbb0599c7	-0.0020385848
167	0xbc27beb9	-0.010238343
168	0xba73a822	-0.0009294768
169	0xbc892819	-0.016742753
170	0xbba3aefa	-0.004995224
171	0xbb16037b	-0.0022890258
172	0x3c242a32	0.010019826
173	0x3c7f3fff	0.015579223
174	0xbbfbd915	-0.0076857903
175	0x3b6afe1d	0.003585703
176	0x3a9f35eb	0.0012146806
177	0x3ba40c23	0.0050063296
178	0x3a8f67a3	0.001094092
179	0x3c1a1183	0.009403589
180	0xbb060aff	-0.0020453332
181	0x3bb8598f	0.0056259106
182	0xbc21ed03	-0.009883168
183	0xbc2bd925	-0.010488783
184	0xbb3d9cef	-0.002893265
185	0xbbbb8a44	-0.0057232697
186	0x3bf4e430	0.007473491
187	0xbbe71d8f	-0.007053084
188	0xba2652c9	-0.00063447334
189	0xbb805465	-0.0039163106
190	0x3b23abd2	0.002497424
191	0xbc13138e	-0.00897683
192	0x3ba118eb	0.0049163005
193	0x3c24ec57	0.010066113
194	0x3c5a0b1d	0.013308314
195	0xbc70bdd7	-0.014693699
196	0xbb03fa47	-0.002013819
197	0xbb9d21d7	-0.004795294
198	0xbba40c69	-0.005006362
199	0xbb21dd09	-0.0024698398
200	0x3a944506	0.0011312074
201	0x3c7df1d2	0.015499549
202	0x3bcf0802	0.0063180933
203	0x3bf0d96b	0.007350137
204	0xbb8ddbe6	-0.0043291925
205	0x3c1ce896	0.009576937
206	0x38e25bf8	0.0001079365
207	0xbc9e4ae3	-0.019322818
208	0xbc034abb	-0.008013423
209	0x3ac90d38	0.0015339023
210	0xbc4646c0	-0.012101829
211	0x3b6b0637	0.0035861859
212	0xbbb6f507	-0.0055834088
213	0x3c211320	0.00983122
214	0x3b872f1b	0.0041254885
215	0xbb10b2e2	-0.0022079279
216	0xba8f673f	-0.0010940804
217	0xbb09aad0	-0.0021006353
218	0x3c90ee72	0.017691825
219	0x3b414b44	0.0029494325
220	0xbb8ad288	-0.004236523
221	0xbc6b0005	-0.014343266
222	0xbb4d1bb7	-0.0031297037
223	0x3b7d3647	0.0038637088
224	0xbc044e07	-0.008075244
225	0x3c0fdc0b	0.00878049
226	0xbc01a45c	-0.0079127215
227	0x3b1e65c8	0.0024169553
228	0xbbafabb1	-0.0053610434
229	0x3c00dbbc	0.007864889
230	0xbc1ec8af	-0.009691401
231	0xbaf1eea0	-0.0018457957
232	0x3c079b06	0.008276707
233	0xbc1df273	-0.009640324
234	0xba984917	-0.0011618462
235	0xbb16a1b3	-0.0022984564
236	0x3c1c6d89	0.0095476
237	0xbbb0c96b	-0.0053951046
238	0xbb8099e6	-0.003924596
239	0x3bc24ac5	0.0059293234
240	0xbb867be5	-0.004104125
241	0x3c10b298	0.008831643
242	0x3bbcc5e4	0.005760895
243	0xbab8dd42	-0.0014104026
244	0x3c5ab792	0.013349431
245	0xbc8a3716	-0.01687197
246	0xbc035326	-0.00801543
247	0x3a53b6ff	0.000807628
248	0xbbb3d070	-0.005487494
249	0xbbd4eb5d	-0.006497784
250	0x3be8dff2	0.0071067745
251	0xbb5ab0b5	-0.0033369486
252	0x3bdd9860	0.0067625493
253	0xbbf590ef	-0.007494084
254	0xbc100777	-0.008790842
255	0xba1209b2	-0.0005570903

action_model._discrete_distribution.branches.0.bias f4 [2]
0	0x00000000	0.0
1	0x00000000	0.0

action_model._discrete_distribution.branches.1.weight f4 [2, 128]
0	0xbad64b35	-0.0016349318
1	0xbbe4ecd3	-0.0069862395
2	0xbc28821f	-0.01028493
3	0x3acd6087	0.0015669026
4	0xbc0da180	-0.008644462
5	0xbbf455aa	-0.007456501
6	0xbb8d49f3	-0.004311794
7	0xbb461da3	-0.0030230067
8	0x3bcdddf8	0.0062825643
9	0x3ad95413	0.0016580842
10	0xbbb36fba	-0.0054759653
11	0x3cde41f0	0.02713105
12	0x3c0768a9	0.008264699
13	0x3c17e471	0.009270773
14	0xbc3116cf	-0.010808661
15	0x3c0f0daf	0.00873129
16	0xbbd17fd3	-0.0063934117
17	0x3bb1aa37	0.0054219025
18	0x3c2744c3	0.010209265
19	0xbbacf1bb	-0.00527784
20	0x3c1f7357	0.009732089
21	0x3ad01de0	0.0015878044
22	0x3c09db80	0.008414149
23	0x3b6d46f0	0.0036205612
24	0xbc7d235d	-0.015450326
25	0xbc0f9123	-0.008762631
26	0xbade70bb	-0.0016970852
27	0xbc193326	-0.009350574
28	0x3b96e180	0.0046045184
29	0x3ba0076b	0.004883697
30	0xbc33f9b1	-0.010984824
31	0xbbfe7555	-0.007765452
32	0x3c7763cb	0.015099476
33	0xbbfa48a7	-0.0076380554
34	0xbc0fb53b	-0.008771236
35	0x3beba775	0.0071915933
36	0x3c085134	0.008320142
37	0xbd22ceca	-0.03974799
38	0xbc4c9abc	-0.012488063
39	0x3b527020	0.0032110289
40	0xbc1caeef	-0.009563192
41	0xbbadce92	-0.005304166
42	0xbbf85997	-0.0075790393
43	0x3b6434a7	0.0034821422
44	0xbaa20d5b	-0.0012363599
45	0xba42d22f	-0.00074318325
46	0xbaf61fb0	-0.0018777754
47	0x3c69ccc5	0.014270012
48	0xbb935fc7	-0.0044975015
49	0x3b75d71f	0.0037512255
50	0x3c0f2000	0.008735657
51	0xba3f9658	-0.0007308475
52	0x3bb87fd6	0.0056304736
53	0xbb0b9cef	-0.0021303257
54	0xbb1072ba	-0.0022041039
55	0xbbf138db	-0.007361514
56	0x3cac79dc	0.0210542
57	0xbbc6b100	-0.0060635805
58	0x3acc0d6b	0.0015567964
59	0xbb88cacc	-0.004174566
60	0xbbe07d2f	-0.0068508605
61	0x39e60fa7	0.0004388068
62	0xbc246bf3	-0.010035503
63	0x3c3d7120	0.011562616
64	0x3ca0fe2e	0.019652452
65	0xbb305c81	-0.0026910605
66	0x3c4a3735	0.012342264
67	0xbc6c86c5	-0.014436428
68	0xbbf6f64b	-0.0075366846
69	0x3aeda7ca	0.001813167
70	0x3c1084f3	0.00882076
71	0xbbd98885	-0.006638589
72	0x3b330d47	0.0027321146
73	0x3a38f728	0.0007055872
74	0x3c69d84b	0.01427276
75	0xba8bef97	-0.0010676262
76	0xba2f7110	-0.0006692568
77	0x3c1e929b	0.009678508
78	0x3cdc9ac2	0.026929263
79	0x3c08f818	0.008359931
80	0x3be15a57	0.0068772244
81	0x3c739878	0.014867894
82	0xba4166e3	-0.0007377697
83	0x3c50bed7	0.012740812
84	0x3bd24d8a	0.006417935
85	0x3bdafd4a	0.0066830264
86	0x3bd746aa	0.006569703
87	0x3978685a	0.00023689997
88	0xba74f2d2	-0.00093440444
89	0xbb35f383	-0.0027763552
90	0x3b842099	0.0040322063
91	0xbc068ec8	-0.008212753
92	0x3c50c03d	0.012741146
93	0xbc6a8b95	-0.0143155055
94	0xba877cdc	-0.0010336894
95	0xbb85dc1f	-0.0040850784
96	0xbc7336e8	-0.014844634
97	0x3bb4dccb	0.0055194846
98	0xbbba41e6	-0.0056841252
99	0xbc620b9d	-0.013796714
100	0x3cc8bc53	0.024503862
101	0xbaea6d0f	-0.0017885285
102	0xbb2d52ca	-0.0026447051
103	0x3aa37de8	0.0012473436
104	0xbc2b0512	-0.010438221
105	0x3aff067f	0.0019456892
106	0xbc5f0a73	-0.013613331
107	0x3c48f315	0.0122649865
108	0x394d9efd	0.00019609551
109	0x3beb265b	0.007176203
110	0x3c597e05	0.013274674
111	0x3a7cc05a	0.00096417
112	0x3c8bb7ea	0.01705547
113	0x3bbd0873	0.0057688295
114	0xbb96af6f	-0.00459855
115	0x3c1d8e33	0.0096164225
116	0xb8642a7a	-5.4398995e-05
117	0xbc82012b	-0.015869698
118	0xbb19eab2	-0.0023485837
119	0x3c2ea826	0.010660207
120	0x3af36f70	0.001857264
121	0x3c5c6ba8	0.013453402
122	0x3b38bf1b	0.002819008
123	0x3978df02	0.000237342
124	0xbb40e42b	-0.0029432874
125	0x3c2f965a	0.010716999
126	0x3b17eeee	0.0023183185
127	0xbba61b12	-0.005069145
128	0x3b8afacb	0.0042413226
129	0xbbac3464	-0.005255269
130	0x3c2992a9	0.010349908
131	0x398f4540	0.0002732668
132	0x3c9932ef	0.018701045
133	0x3bc0d597	0.005884837
134	0x3bbc9907	0.005755547
135	0xbc29c6bf	-0.010362326
136	0xbc12b561	-0.008954377
137	0xbbdb60c8	-0.006694887
138	0x3b83abe3	0.004018293
139	0xbc5c226f	-0.013435944
140	0xbbb210a2	-0.0054341117
141	0x3c4abf75	0.0123747485
142	0x3b0a9cf7	0.0021150687
143	0xbb857582	-0.004072846
144	0xbb2171d1	-0.002463449
145	0x3919e4f1	0.00014676504
146	0x3c3fc4f8	0.011704676
147	0xbc80c9bf	-0.0157212
148	0x3b677363	0.0035316579
149	0xbb7bbc95	-0.0038411964
150	0xbb4d1c5a	-0.0031297416
151	0x3bf65c53	0.00751833
152	0xbbe7d3c5	-0.0070748054
153	0xb8cdf248	-9.82029e-05
154	0x3c04dd79	0.008109444
155	0x3c02b95e	0.007978765
156	0xbb63ee58	-0.0034779515
157	0x3bc7846f	0.0060887854
158	0xbb291940	-0.0025802404
159	0xbc016c1b	-0.0078993095
160	0xbc0189af	-0.0079063615
161	0x3b849882	0.0040465007
162	0x3bbc5ab0	0.0057481155
163	0x3b578a3b	0.0032888788
164	0xbb5a6cc5	-0.0033328992
165	0x3aa17f8e	0.001232134
166	0x399b228c	0.00029589643
167	0x3b3f3de8	0.0029181186
168	0xbc410ae0	-0.011782378
169	0xb97db797	-0.00024196353
170	0xbbc6a4c6	-0.006062123
171	0xbbdf397f	-0.006812274
172	0xbc5e85a8	-0.013581671
173	0xba677def	-0.0008830716
174	0x3b92e0e2	0.0044823745
175	0x3c826c4a	0.015920777
176	0xbbcd2f5b	-0.0062617487
177	0x3ca58820	0.020206511
178	0xbc15f728	-0.009153165
179	0x3b6a4eba	0.003575249
180	0xbbf65c2a	-0.007518311
181	0xbb76d25f	-0.0037662012
182	0x3ba665cf	0.0050780545
183	0xbbedb83d	-0.007254629
184	0x3b71721f	0.0036841703
185	0x3c0a3a49	0.008436748
186	0xbc0cea16	-0.008600732
187	0x3c15572f	0.0091150245
188	0xbab6dc77	-0.0013951202
189	0xbba3b741	-0.004996211
190	0x3b01df44	0.0019816915
191	0x3b20eecb	0.0024556394
192	0x3b2690b1	0.0025415833
193	0x3bd7bd2a	0.0065838294
194	0x3ab751af	0.0013986136
195	0xbc5abbc8	-0.013350435
196	0xbb827080	-0.003980696
197	0x3c64dfc7	0.013969368
198	0x3a86ef6b	0.0010294741
199	0x3c7f3d9b	0.015578653
200	0x3b1b280e	0.0023674998
201	0x3c05eaff	0.008173703
202	0x3b95e035	0.0045738467
203	0xbc716262	-0.014732929
204	0xbb781ab5	-0.0037857716
205	0xbbbf8612	-0.00584484
206	0xbc2a2b73	-0.010386336
207	0x3b2ed44d	0.0026676834
208	0x3c9fb871	0.019497128
209	0x3c917399	0.017755317
210	0x3c7e6d32	0.015528964
211	0xbc3ef2aa	-0.011654535
212	0x3c25a0ee	0.010109169
213	0x3c9a65db	0.018847397
214	0xbb496167	-0.0030728222
215	0xbb978d67	-0.004625011
216	0xbc50d130	-0.012745187
217	0xbc802493	-0.01564244
218	0x3c10e980	0.008844733
219	0xbbc0f92d	-0.005889079
220	0x3bd8e57b	0.006619153
221	0x3b0bbda7	0.0021322758
222	0xbae4ae17	-0.0017446902
223	0xbc013e31	-0.007888363
224	0x3bbea3c8	0.005817864
225	0x3b7ddc12	0.0038735908
226	0x3c05ce37	0.008166841
227	0xbc39b10a	-0.011333713
228	0xbb0e8ee1	-0.0021752643
229	0x3ac49b38	0.0014999872
230	0xbc52380f	-0.012830748
231	0xbb9f6939	-0.0048648384
232	0x3bd5f110	0.006528981
233	0xbb1eba18	-0.0024219807
234	0xbc162a70	-0.009165391
235	0x3b86a1b1	0.0041086306
236	0xbb220ef2	-0.0024728146
237	0xbc3406eb	-0.0109879775
238	0x3bf9ff92	0.0076293433
239	0x3b4b4fab	0.0031022828
240	0xbb234396	-0.002491211
241	0x3c537aa2	0.012907656
242	0x3a184417	0.0005808486
243	0xbb18fd1f	-0.0023344231
244	0x3b06c4f7	0.0020564178
245	0xbc5a12db	-0.01331016
246	0xbc88fb28	-0.016721323
247	0xbbddbaef	-0.006766669
248	0x3b3654e6	0.00278216
249	0xbbf23e42	-0.0073926756
250	0xbb4dab2f	-0.003138255
251	0xbc7b35bf	-0.015332638
252	0xbbccf500	-0.006254792
253	0x3b1efd27	0.0024259777
254	0xbac91a8c	-0.0015342995
255	0xba51ad27	-0.0007998519

action_model._discrete_distribution.branches.1.bias f4 [2]
0	0x00000000	0.0
1	0x00000000	0.0

action_model._discrete_distribution.branches.2.weight f4 [2, 128]
0	0x3c04f5c4	0.008115236
1	0xbbe4bd13	-0.006980547
2	0xbc95ffdd	-0.018310482
3	0xbbed8317	-0.007248293
4	0xbb298d6f	-0.0025871655
5	0xbc015e33	-0.007895994
6	0x3bfc90c7	0.0077076885
7	0xbb0598f0	-0.0020385347
8	0xbae091b5	-0.0017133268
9	0x3c0e8c4e	0.008700443
10	0x3c41163e	0.011785088
11	0xbb2e1487	-0.0026562528
12	0x3abae859	0.0014259919
13	0xbbfcb938	-0.0077125095
14	0xbc3152af	-0.010822936
15	0x3c39c899	0.01133933
16	0xbba086af	-0.004898868
17	0xb9f69a0b	-0.00047035547
18	0x3cc906a8	0.024539307
19	0xbc16e099	-0.009208822
20	0xba29448a	-0.00064570515
21	0x3c4cdc62	0.012503715
22	0x3c4c309d	0.012462762
23	0xb97a238a	-0.00023855097
24	0x3c4aaacf	0.0123698255
25	0x3c43c12b	0.01194791
26	0xbbac80d4	-0.005264381
27	0xbc46984f	-0.012121274
28	0xbc4ce5a3	-0.012505922
29	0x3b884408	0.0041585006
30	0xbc2665d2	-0.010156112
31	0x3c032f82	0.008006932
32	0x3c64056d	0.013917309
33	0x3beed11f	0.007288113
34	0xbc477549	-0.012173959
35	0xbc4de918	-0.012567781
36	0xbae06942	-0.0017121213
37	0x3c372938	0.011179261
38	0xbb37dc18	-0.002805477
39	0x3ae3a96a	0.0017369215
40	0x3b8f5c85	0.004375043
41	0x3c07c38f	0.008286371
42	0xbc02cf31	-0.007983969
43	0x3c4090da	0.011753285
44	0xbb5af903	-0.0033412583
45	0xbbf9984d	-0.0076170326
46	0x3c7d36af	0.015454932
47	0xbb9beda1	-0.004758552
48	0xbc7221bd	-0.014778552
49	0xbb91bfc7	-0.0044479105
50	0xbc809729	-0.015697079
51	0xbc039996	-0.008032223
52	0x3bb423f7	0.0054974514
53	0xb90d3e27	-0.00013469961
54	0xbc029c6e	-0.007971866
55	0x3b096c69	0.0020969159
56	0xbb05a43b	-0.0020392078
57	0x3a931be5	0.0011223523
58	0xba452375	-0.0007520237
59	0x3c5fa883	0.013651016
60	0x3c3cf975	0.011534085
61	0x3c0b2501	0.008492709
62	0xbc3a75eb	-0.011380653
63	0x3c97156f	0.018442838
64	0xbaf7e217	-0.0018911985
65	0x3bb3c262	0.0054858187
66	0x3bded245	0.0067999684
67	0xbbfa5af2	-0.007640236
68	0x3b31de2a	0.0027140477
69	0x3ab55a19	0.0013836055
70	0xbbff7bd0	-0.007796742
71	0x3c12875f	0.008943408
72	0x3a828d46	0.0009960316
73	0x3ba7890e	0.0051127737
74	0xbc052865	-0.008127307
75	0x3ba1f444	0.004942449
76	0x390352cb	0.00012523976
77	0x3c8c2699	0.017108249
78	0x3b7efc2d	0.0038907633
79	0xbc8140bb	-0.015777936
80	0xbaf21dfb	-0.001847207
81	0x3c27c3c2	0.010239543
82	0xbad84148	-0.0016498948
83	0xbbdebf4f	-0.006797708
84	0x3c6fc752	0.014634924
85	0x3bb64018	0.00556184
86	0x3c996109	0.018723028
87	0xbbca87ff	-0.006180763
88	0x3ca53c2f	0.0201703
89	0xbba9026f	-0.005157761
90	0x3b241853	0.0025038912
91	0x3baa2242	0.005192072
92	0xbb6f3aaa	-0.0036503472
93	0xbc458ced	-0.012057525
94	0x3b82ccc8	0.003991697
95	0x3c9784fb	0.018496027
96	0x3b7d779f	0.0038676036
97	0xbc8e1730	-0.017345041
98	0xbc520bd7	-0.012820206
99	0xbc1ae1ae	-0.00945322
100	0xbac9cb37	-0.0015395646
101	0xbbe86aba	-0.007092801
102	0xbc222c28	-0.009898223
103	0xba70ff4b	-0.0009193315
104	0x3bd47e8f	0.0064848135
105	0xbc0ffbd4	-0.008788068
106	0xbc5b27a2	-0.013376148
107	0xbb8f5bc8	-0.004374955
108	0xba0f67d5	-0.0005470489
109	0xbc31c05e	-0.010849087
110	0xbb9ac0d2	-0.004722693
111	0x3c865de2	0.016402189
112	0x3c0895d7	0.008336506
113	0xbca736ce	-0.020411875
114	0x3c125271	0.008930788
115	0xbc8a02b7	-0.016846998
116	0x3b507707	0.0031809227
117	0xbba08b2c	-0.004899403
118	0xbb510f27	-0.00318999
119	0x3c3f2019	0.0116653675
120	0xbc204404	-0.009781841
121	0x3c2eb5fb	0.010663505
122	0x3c6d9368	0.014500476
123	0xbb112514	-0.0022147344
124	0x3be29ca7	0.006915647
125	0x399f0ecb	0.00030337865
126	0x3c576aaf	0.013147994
127	0xbc3176b9	-0.010831528
128	0xbcb9ad5d	-0.022665674
129	0x3bbd883d	0.005784063
130	0x3b36883b	0.0027852196
131	0x3a9f6485	0.0012160694
132	0xbb3b47b2	-0.002857667
133	0xbc32da4b	-0.010916303
134	0xbad85037	-0.0016503398
135	0xbb98b33b	-0.004660038
136	0x3befa517	0.0073133814
137	0xbbeeedc0	-0.0072915256
138	0xbb8fa73a	-0.0043839486
139	0xbb111271	-0.0022136236
140	0x3b77bb0a	0.0037800693
141	0xbad7d150	-0.0016465578
142	0x3a0073e5	0.0004900082
143	0x3b976193	0.004619786
144	0x3c80b563	0.015711492
145	0xbb7559ba	-0.0037437514
146	0xbb4eab17	-0.0031535083
147	0x3c06d9e7	0.008230663
148	0xbc4f9a15	-0.012671013
149	0xbc4bb60a	-0.012433538
150	0x3be76ff8	0.0070629083
151	0x3b389910	0.0028167404
152	0xbc24f030	-0.010067031
153	0xbba67917	-0.005080353
154	0xbc5c2c9a	-0.013438368
155	0xba48941b	-0.0007651464
156	0xbb20ec23	-0.002455481
157	0xbc4b33d1	-0.012402491
158	0x3c1b7bfb	0.0094900085
159	0x3c2f93e6	0.010716414
160	0xbc5e90ed	-0.013584358
161	0xbbab5918	-0.0052291267
162	0x3b41f93c	0.0029598018
163	0x3925add7	0.00015800387
164	0x3bf583e2	0.0074925283
165	0xbb42be1e	-0.002971537
166	0x3c066c6e	0.008204563
167	0xbbb358cf	-0.0054732333
168	0x3ab53f6a	0.0013828103
169	0xbbb407c7	-0.005494091
170	0x3b57942d	0.0032894716
171	0x398a39da	0.00026364514
172	0x3bd7b0e2	0.0065823654
173	0x3bc7db4c	0.0060991403
174	0xbc0f347b	-0.00874054
175	0xbbb129f5	-0.005406613
176	0x3bd09e8a	0.0063665556
177	0x3c8979c2	0.016781691
178	0xbb825703	-0.0039776578
179	0xbacd0765	-0.0015642463
180	0xbb62004d	-0.0034485043
181	0x3ca9234b	0.020646712
182	0xbc5e8e9d	-0.013583806
183	0xbcd1fe72	-0.025634024
184	0xbbd67b72	-0.0065454775
185	0xbbac0c70	-0.005250506
186	0x3b618ff3	0.0034418076
187	0xbc13019b	-0.008972551
188	0x3bb75327	0.0055946293
189	0xbc785373	-0.015156615
190	0x3b56be8d	0.0032767386
191	0x3c4e3f18	0.012588285
192	0x3bfa73eb	0.007643213
193	0xbb67de65	-0.003538036
194	0xba15cb2f	-0.00057141756
195	0x3c5ea335	0.013588716
196	0xbc40a7d7	-0.011758766
197	0xbc084402	-0.008316996
198	0x3c3cac99	0.01151576
199	0xbb780825	-0.0037846651
200	0xba6c1d45	-0.0009007047
201	0xbb0d3517	-0.0021546537
202	0x3b7575c7	0.0037454234
203	0x3b946d93	0.004529664
204	0xbac37888	-0.001491324
205	0x3bb4b17d	0.0055143223
206	0xbb223989	-0.0024753532
207	0xbbd9f9e3	-0.0066521033
208	0x3c4260ee	0.01186393
209	0xbbe23e13	-0.0069043725
210	0x3bcedb13	0.006312737
211	0xbc3846e5	-0.011247371
212	0xba921f05	-0.001114816
213	0x398fb744	0.0002741163
214	0xbb960905	-0.004578712
215	0x3bfdacf8	0.0077415667
216	0xba9fe5c2	-0.001219921
217	0xb99bdc2b	-0.00029727942
218	0x3b6f2e73	0.0036496192
219	0xbc793aad	-0.015211743
220	0xbc1548b7	-0.009111575
221	0xbad48265	-0.0016213177
222	0x3bfdad10	0.007741578
223	0xbb4a9c97	-0.0030916089
224	0xbc124897	-0.00892844
225	0xbbf5910f	-0.007494099
226	0xbbd8343d	-0.006598024
227	0x3c0986f4	0.008393992
228	0x3c35b23f	0.01108986
229	0xbbbdc99d	-0.0057918564
230	0x3c36e07e	0.011161922
231	0x3c0514e8	0.00812266
232	0xbb779655	-0.0037778814
233	0x3bc1ef0b	0.0059183887
234	0x3c073824	0.008253131
235	0xbc9c46a8	-0.01907666
236	0xbb820beb	-0.003968706
237	0xbbda4a20	-0.0066616684
238	0xbca56523	-0.020189827
239	0xbc2a6627	-0.010400332
240	0xbbdee293	-0.006801912
241	0xbc34d1db	-0.011036362
242	0xbc8b9e39	-0.01704322
243	0xbb4e4030	-0.0031471364
244	0x3c67b000	0.014141083
245	0x3c6d2718	0.014474653
246	0xbc2fb928	-0.010725297
247	0x3ba12d8e	0.0049187606
248	0x3c2c24e7	0.010506845
249	0x3c851b60	0.016248405
250	0xbc1c06bf	-0.009523093
251	0x3a5daac5	0.00084559276
252	0xbb5d3c13	-0.003375773
253	0x3b49b750	0.0030779429
254	0xbb024fec	-0.0019884063
255	0x3b2ace1a	0.0026062788

action_model._discrete_distribution.branches.2.bias f4 [2]
0	0x00000000	0.0
1	0x00000000	0.0

action_model._discrete_distribution.branches.3.weight f4 [2, 128]
0	0x3c3684d6	0.011140069
1	0xbc0176f6	-0.007901898
2	0x3c0c4b96	0.008562943
3	0x3bc268af	0.0059328894
4	0xbb1f63ee	-0.0024321037
5	0xbab4f4cf	-0.0013805869
6	0x3bdfd5c7	0.006830904
7	0x3c60f892	0.013731139
8	0x3b57c9b3	0.0032926619
9	0x3ac8b0d3	0.0015311487
10	0xba72dc63	-0.00092644076
11	0x3b2ab457	0.0026047432
12	0x3b3a3455	0.002841254
13	0x3b9c3f83	0.0047683134
14	0x3c3650ea	0.01112769
15	0xbb7b9a17	-0.0038391405
16	0x3b591f53	0.0033130243
17	0x3bf7bc1d	0.0075602666
18	0x3be1d840	0.006892234
19	0x3be4319a	0.006963921
20	0x3addbc3d	0.0016917061
21	0x3818d15b	3.64346e-05
22	0xbb180e67	-0.0023201944
23	0x3bc8596f	0.006114177
24	0xbc75cf28	-0.015003003
25	0xbbb3b664	-0.005484389
26	0xbc39f831	-0.011350677
27	0x3c650405	0.013978009
28	0xbb19622b	-0.002340446
29	0xbba6bc9e	-0.005088403
30	0x3c85e4ce	0.016344454
31	0xbb6e080b	-0.0036320712
32	0x3c6e9c45	0.014563625
33	0x3cb17e45	0.021666655
34	0x3bdede68	0.0068014152
35	0xbbaf1e3b	-0.00534418
36	0xbc1dcee8	-0.00963185
37	0x3aa63d1e	0.0012683009
38	0xbc871f45	-0.016494403
39	0x3b464e52	0.0030259085
40	0xbc1deedd	-0.009639469
41	0xbc4520a0	-0.012031704
42	0x3bf898ef	0.0075865905
43	0xb94ba86b	-0.00019422329
44	0xb88fb61f	-6.852694e-05
45	0xbb1badb7	-0.0023754665
46	0x3a79c2ca	0.0009527622
47	0xbc7aa2c8	-0.015297599
48	0x3b7cebd8	0.0038592722
49	0xbb31d6f1	-0.0027136172
50	0xbc78d163	-0.01518664
51	0x3b1aefd7	0.002364149
52	0xbb3ce566	-0.0028823256
53	0xbcad3dbf	-0.021147607
54	0x3982131f	0.0002480978
55	0x3c45f543	0.012082401
56	0xbc44aa0f	-0.012003436
57	0x3b9d03d8	0.004791718
58	0x3b8bbfbe	0.004264801
59	0x3bdd2330	0.0067485794
60	0x3ae3803b	0.0017356941
61	0xbcb1d152	-0.021706257
62	0xbbc9ee53	-0.0061624437
63	0x3ba731a6	0.005102354
64	0x3bea8785	0.0071572685
65	0x3bdd1b72	0.0067476565
66	0xbb7ea272	-0.003885415
67	0xbc2eb74f	-0.010663821
68	0x3c2b9db3	0.01047461
69	0xbc424e88	-0.011859544
70	0xbad3a328	-0.0016146647
71	0x3c5dff7a	0.01354968
72	0x3a86a58b	0.0010272724
73	0xbbf0d9ad	-0.0073501677
74	0x3c162af2	0.009165512
75	0xbaea94ad	-0.0017897092
76	0xbc0e2f92	-0.008678334
77	0xbb571aab	-0.0032822292
78	0x3c0a311c	0.00843456
79	0x3bb04533	0.005379343
80	0xbb4bab83	-0.003107757
81	0x3bcf072a	0.0063179927
82	0xbb51fbad	-0.003204088
83	0xbb3dbd64	-0.0028951997
84	0x3c13d07f	0.009021877
85	0x3a249fdf	0.0006279926
86	0x3bde47ad	0.0067834468
87	0x3be7f380	0.007078588
88	0x3aa3d037	0.0012497966
89	0x3b269742	0.0025419747
90	0x3c015e37	0.007895998
91	0x3b22db1e	0.0024849842
92	0x3c120c6a	0.008914093
93	0xbc16d1d1	-0.009205298
94	0x3be45702	0.00696838
95	0xbc7f871b	-0.0155961765
96	0xbb2a6559	-0.002600035
97	0x3cb71b94	0.022352017
98	0xbbbc03f9	-0.0057377783
99	0xbc6f7218	-0.014614604
100	0x3c53738a	0.012905965
101	0xbbee7e13	-0.007278213
102	0x3ca679fa	0.020321835
103	0xbc68f30a	-0.014218101
104	0xbb80a5c4	-0.003926011
105	0xbc214736	-0.009843638
106	0x3b52dd7a	0.0032175467
107	0x3bed33b5	0.00723883
108	0xbb9e627e	-0.0048335185
109	0x3a8a704f	0.0010562035
110	0xbc29cdc6	-0.010364002
111	0xbb75b338	-0.0037490856
112	0xbb098d3e	-0.0020988728
113	0x3be79660	0.0070674866
114	0xbb16d0fd	-0.002301275
115	0x3b19e7b5	0.0023484055
116	0xbb18fd68	-0.0023344401
117	0xbc38808e	-0.011261119
118	0x3c440a93	0.011965412
119	0xbc2752c7	-0.010212607
120	0xba5d83eb	-0.0008450138
121	0x3c783edb	0.015151705
122	0xbbdcabe2	-0.006734357
123	0x3c1c01fb	0.009521957
124	0xbc1d9dd7	-0.0096201515
125	0x3b6fa2a0	0.0036565438
126	0x3c29d9a7	0.010366834
127	0xbbc28ac0	-0.0059369504
128	0xbc5253f7	-0.012837402
129	0x3c7c9340	0.0154159665
130	0xbc479c15	-0.012183209
131	0xb60d2faf	-2.1038393e-06
132	0x3a4bb978	0.00077714724
133	0x3c144ef9	0.009052032
134	0xbc6e5893	-0.014547485
135	0xbc8ceea8	-0.017203644
136	0x3c17621f	0.0092397025
137	0xbc8354db	-0.016031673
138	0x3c93ebf9	0.018056856
139	0xbc447248	-0.011990137
140	0xbc2c9c81	-0.01053536
141	0xbc4c4c4a	-0.012469361
142	0xbc20e2ac	-0.009819668
143	0xbb97e5ea	-0.004635562
144	0xb61f7f0e	-2.3766802e-06
145	0xbc04d707	-0.008107907
146	0xbb3bff47	-0.0028686093
147	0xbc4d4975	-0.012529721
148	0xbc15c48d	-0.0091411
149	0xbc12bcbf	-0.008956133
150	0x3b3ade27	0.002851376
151	0xbc3d8db7	-0.011569432
152	0x3cb29ebb	0.021804204
153	0xbc07bb72	-0.008284437
154	0xbc8c4cf0	-0.01712653
155	0x3b09ed02	0.0021045809
156	0x3b3e3747	0.0029024647
157	0xbb06fba3	-0.0020596765
158	0x3b7c0d92	0.0038460237
159	0xbc0a4ba3	-0.008440885
160	0x3be02108	0.006839875
161	0xb93c8ab3	-0.00017980747
162	0xbc463d63	-0.012099597
163	0x3c4e3eb5	0.012588193
164	0x3bfcd10f	0.0077153514
165	0xbb812b33	-0.0039419173
166	0xbbaba45b	-0.0052380986
167	0xbc2d9b79	-0.01059615
168	0x3be40940	0.0069591105
169	0x3c8e5d37	0.017378433
170	0xbc45a6ac	-0.012063663
171	0xbc9b0dc4	-0.018927462
172	0x3bb5ce96	0.0055483086
173	0xbb7ba4ea	-0.0038397857
174	0xbc64a5c8	-0.013955541
175	0xbc31dec3	-0.010856333
176	0x3a1514ce	0.0005686999
177	0x3b6e463d	0.0036357783
178	0x3a98690f	0.001162799
179	0x3c0fe123	0.008781704
180	0xbc034df2	-0.008014189
181	0xbc048aaa	-0.008089701
182	0x3c35e671	0.011102305
183	0xbb8bc325	-0.0042652064
184	0xbac9d7bd	-0.0015399378
185	0x3b86e5b7	0.0041167396
186	0xbc495a1b	-0.012289549
187	0x3bdfe90d	0.0068332017
188	0xbb9c7803	-0.0047750487
189	0x3c73b690	0.014875069
190	0x3c7388d7	0.014864168
191	0xbb0529b7	-0.0020319053
192	0xbb7c5e65	-0.0038508412
193	0xbba968e3	-0.005169974
194	0xbb2f61ab	-0.0026761096
195	0x3b9a9ccf	0.0047184
196	0x3b8051b9	0.003915992
197	0x3ba96a67	0.005170155
198	0x3b15bdcf	0.002284873
199	0xbc3337dc	-0.010938611
200	0x3b5bf1ff	0.003356099
201	0x3a409a9f	0.0007347259
202	0xbc87a2d3	-0.016557133
203	0xba87474b	-0.001032093
204	0x3ca94247	0.020661486
205	0x3ca05562	0.019571964
206	0x3ab7330f	0.0013977009
207	0xbace71ad	-0.0015750431
208	0x3c2a8a06	0.010408884
209	0x3b994ae7	0.0046781185
210	0xbb8ddccf	-0.004329301
211	0xbb8de8fa	-0.0043307515
212	0x3bcad6ca	0.0061901556
213	0x3ca7333e	0.020410176
214	0xbc8dcf0e	-0.017310645
215	0x3c22ca2c	0.009935897
216	0x38e03e43	0.000106927495
217	0x3be9224d	0.0071146847
218	0x3ab55ccb	0.0013836859
219	0xbb5644c3	-0.0032694794
220	0x3c3b79a3	0.011442575
221	0x3bc3bae5	0.0059732073
222	0x3c076dd4	0.008265931
223	0x3bb88a72	0.0056317383
224	0x3bc64fb3	0.0060519814
225	0x3c03dcf9	0.008048289
226	0xbc6866d0	-0.014184669
227	0x3a746c28	0.0009323978
228	0xbc3c5916	-0.011495849
229	0x3a6859f2	0.00088635006
230	0x3c598cd3	0.013278204
231	0x3c091884	0.008367661
232	0xbb22e51b	-0.0024855796
233	0x3bf4620a	0.007457976
234	0x3beef3ad	0.007292232
235	0x3c028fdd	0.00796887
236	0xbc8c874b	-0.017154356
237	0xbbdc622f	-0.0067255716
238	0xbc57afa7	-0.013164437
239	0xbc48bce3	-0.012252065
240	0xbc0d6ff3	-0.008632648
241	0x3baed377	0.005335267
242	0x3b1bd06f	0.002377536
243	0x3bd65517	0.006540905
244	0xbbb1c323	-0.0054248734
245	0x3b4d4ae2	0.0031325151
246	0xbbe1228b	-0.006870573
247	0xbb2664df	-0.0025389714
248	0x3b96f79e	0.004607155
249	0x3c0dba9e	0.00865045
250	0xbc549520	-0.012975007
251	0x3bb4c3fc	0.005516527
252	0xbc85f7fb	-0.016353598
253	0xbc39d51a	-0.011342311
254	0x3c5dd2d2	0.013539033
255	0x3bb7021f	0.0055849697

action_model._discrete_distribution.branches.3.bias f4 [2]
0	0x00000000	0.0
1	0x00000000	0.0
