results/21/SmartAgent/SmartAgent-13740.onnx (onnx, 745161 bytes, 15 tensors)

discrete_action_output_shape f4 [1, 4]
0	0x40000000	2.0
1	0x40000000	2.0
2	0x40000000	2.0
3	0x40000000	2.0

network_body._body_endoder.seq_layers.0.weight f4 [256, 200]
0	0xbd8d815d	-0.0690944
1	0xbc01e525	-0.0079281675
2	0xbcc8e1e2	-0.024521772
3	0xbdbf1376	-0.09329884
4	0xbd90df2e	-0.07073818
5	0x3b051237	0.0020305046
6	0xbcfbb57e	-0.03072619
7	0x3c91d9fe	0.017804142
8	0xbbf6ac63	-0.0075278743
9	0xbdaad262	-0.083409086
10	0xbd0b6c89	-0.034039054
11	0x3c23641f	0.009972601
12	0xbdc0cd6e	-0.094141826
13	0x3cc02993	0.023457324
14	0xbafa9ea4	-0.0019120765
15	0x3ce02d41	0.027365329
16	0xbc4c5f3a	-0.012473876
17	0xbdb3ca78	-0.08778852
18	0x3e265769	0.16244282
19	0x3c01119a	0.007877732
20	0x3c655f7a	0.013999814
21	0x3dad5543	0.08463528
22	0xbd4bbbb5	-0.04973956
23	0xbda22f4e	-0.07919179
24	0xbd98e723	-0.07465961
25	0xbe01abd7	-0.12663208
26	0x3e14ee0d	0.14543934
27	0x3b423e87	0.002963932
28	0x3c2e0ea2	0.010623606
29	0x3d4ecefd	0.05049037
30	0xbd4a1601	-0.04933739
31	0x3e161d0f	0.14659522
32	0x3db79b36	0.08965151
33	0x3d936570	0.07197082
34	0x3e2082f5	0.15674956
35	0xbcd7ebef	-0.02635762
36	0x3dbea2ca	0.09308393
37	0x3dd81c75	0.10552303
38	0x3e0e776d	0.13912745
39	0xbca91496	-0.020639699
40	0xbc9fb78b	-0.0194967
41	0x39e4be66	0.00043629407
42	0x3cc57ae5	0.024106452
43	0x3d385841	0.04500604
44	0x3bcfc1db	0.006340248
45	0x3d817888	0.06321818
46	0x3dbd64aa	0.09247716
47	0x3e3a5c96	0.18199381
48	0xbd7dd70f	-0.061972674
49	0x3d2116d9	0.03932843
50	0x3b25870b	0.0025257494
51	0x3d7127fd	0.058876026
52	0x3cc5d5e1	0.024149837
53	0xbd809583	-0.06278517
54	0xbcff8a13	-0.031193769
55	0x3ce110ec	0.02747389
56	0x3d04f23f	0.032457586
57	0xbd2e9614	-0.042623594
58	0x3d45769d	0.04820882
59	0xbd46b1f3	-0.04850955
60	0x399a31e9	0.00029410355
61	0x3dc85406	0.09781651
62	0xbd7a31c4	-0.061082616
63	0xbd848ec7	-0.06472545
64	0xbdc47114	-0.095918804
65	0x3ce73428	0.028223112
66	0xbce5d439	-0.028055297
67	0x3d330d45	0.043713827
68	0x3d2a7214	0.0416127
69	0x3cc83885	0.024441013
70	0x3d2974e3	0.041371237
71	0x3c8c1646	0.017100465
72	0x3d600521	0.05469239
73	0x3cf840f8	0.030304417
74	0xbdc5bc2b	-0.09655031
75	0x3deb89ed	0.11500917
76	0xbcdeaac6	-0.02718104
77	0x3c496f06	0.012294536
78	0x3d39b061	0.045334224
79	0xbdbc136d	-0.09183393
80	0x3d868805	0.065689124
81	0x3d832fb3	0.06405582
82	0x3e034e9a	0.12822953
83	0x3da07d02	0.07836343
84	0xbd499999	-0.049218748
85	0x3cbfeca7	0.023428274
86	0x3b9b338d	0.00473637
87	0xbd84fb3c	-0.06493232
88	0xbc4b4b37	-0.012408069
89	0xbe23cc93	-0.15996008
90	0x3c375f4d	0.011192155
91	0x3c89a9d6	0.016804617
92	0x3e703a57	0.23459755
93	0x3e11da97	0.14243542
94	0x3ca71922	0.020397726
95	0x3d8afb33	0.06786194
96	0x3db5cba5	0.08876733
97	0xbdf8dba7	-0.1215127
98	0xbc316b11	-0.010828749
99	0x3d438d88	0.047742397
100	0x3c7a688d	0.015283716
101	0xb9e54f7e	-0.0004373751
102	0x3d6b9b8d	0.05752139
103	0xbdbeeac3	-0.09322121
104	0x3d452462	0.0481304
105	0xbd60f7df	-0.05492389
106	0xbcd7d53b	-0.026346793
107	0xbe094249	-0.13404192
108	0x3d249634	0.040182307
109	0x3e0d8370	0.1381967
110	0x3c69fc6e	0.014281375
111	0xbb182278	-0.0023213904
112	0x3d54ef37	0.051985946
113	0x3d2080f9	0.039185498
114	0xbdb5ef78	-0.08883566
115	0x3d173f75	0.03692575
116	0xbcd2d7cb	-0.025737664
117	0x3d5ea0c6	0.054352544
118	0x3dd70575	0.10499088
119	0xbe189639	-0.14901055
120	0xbd046358	-0.032321304
121	0x3e143421	0.1447301
122	0x3caf43e4	0.021394677
123	0x3da50810	0.080581784
124	0x3c008682	0.007844569
125	0x3c3d5d36	0.011557868
126	0x3cd51e85	0.02601553
127	0x3da62795	0.081130184
128	0xbd6cf0c7	-0.05784681
129	0x3cb1c364	0.021699615
130	0xbcb2f6ad	-0.02184614
131	0xbd02cd26	-0.031933926
132	0xbcbc8238	-0.023011312
133	0xbc90ae2f	-0.017661182
134	0xbd0c2832	-0.03421802
135	0xbd9ece36	-0.07754175
136	0x3d9fa6d2	0.0779549
137	0x3e38e4b4	0.18055993
138	0xbd16ffcb	-0.036865037
139	0xbd69166f	-0.05690616
140	0x3ce49f01	0.02790785
141	0xbcbc328d	-0.022973323
142	0x3df8cbdc	0.12148258
143	0xbd5ed821	-0.054405335
144	0x3dabd527	0.08390265
145	0xbdd636f2	-0.10459699
146	0x3ba72330	0.00510063
147	0x3d871b1c	0.065969676
148	0x3cfaf0bc	0.03063237
149	0x3dd7006b	0.104981266
150	0xbe0a9ce9	-0.13536419
151	0xbdaca84a	-0.08430536
152	0xbc16f6d6	-0.009214124
153	0xbe13b4c4	-0.14424425
154	0x3dd1d2cd	0.10245285
155	0x3e3f3089	0.18670858
156	0xbd7e4ffe	-0.062088005
157	0x3da0afd8	0.078460395
158	0xbdc2e60e	-0.09516536
159	0xbd6400b8	-0.055664748
160	0xbdf3d3f1	-0.11905659
161	0xbcc40a97	-0.02393083
162	0xbd263729	-0.04057995
163	0xbd65b3a1	-0.05607951
164	0x3daec05a	0.08532782
165	0x3ca0ad44	0.01961387
166	0x3d67b1a0	0.05656588
167	0x3e0783b0	0.13233829
168	0x3da5e881	0.08100987
169	0x3d7fec06	0.06248095
170	0xbc8ec619	-0.017428445
171	0xbd0836a8	-0.03325525
172	0x3e090176	0.13379464
173	0xbd2f4628	-0.042791516
174	0xbd376aa6	-0.044779442
175	0xbe32c90c	-0.17459506
176	0xbdab1a55	-0.08354632
177	0xbcac1518	-0.021006152
178	0x3d3fa3f9	0.046787236
179	0xbe43933d	-0.19099136
180	0xbd7888a0	-0.06067717
181	0x3b3fded8	0.0029277112
182	0x3bb6d3b7	0.0055794376
183	0x3d01fbe3	0.03173436
184	0xbd1e11bb	-0.038591128
185	0x3e0d128d	0.13776608
186	0xbdd0c112	-0.10193075
187	0x3c883d13	0.016630685
188	0x3e3301b8	0.17481124
189	0x3c49257e	0.012277005
190	0x3dd52f78	0.104094446
191	0x3de335ab	0.11094221
192	0x3df1e06f	0.118103854
193	0xbd6e6008	-0.05819705
194	0xbcc3b57c	-0.02389025
195	0x3da0e911	0.07856954
196	0x3d856416	0.065132305
197	0x3d1e6c73	0.038677644
198	0xbe074cad	-0.13212843
199	0x3d811637	0.06303065
200	0x3deaeae9	0.11470587
201	0xbbc24338	-0.0059284233
202	0xbd87c76b	-0.06629833
203	0x3c8cfd30	0.017210573
204	0xbb4d52fb	-0.0031329978
205	0x3deb3948	0.11485535
206	0xbc5cf39d	-0.013485816
207	0x3cfffad5	0.031247536
208	0x3d50f65c	0.051016197
209	0x3dbe3795	0.09287945
210	0x3d24c2a5	0.04022469
211	0x3dfc8447	0.123299174
212	0x3cef6e78	0.02922748
213	0x3d356518	0.044285864
214	0xbd61991b	-0.055077653
215	0x3ca88bf1	0.020574542
216	0x3d7f6787	0.06235459
217	0x3ae16770	0.0017196964
218	0xbe6a1573	-0.22859745
219	0x3c1a0820	0.009401351
220	0x3d1a2903	0.037636768
221	0x3d52ee10	0.051496565
222	0x3d4c0903	0.04981328
223	0x3dab42b0	0.08362329
224	0x3d290d6d	0.04127257
225	0x3ce6fcb2	0.028196666
226	0xbd823e5d	-0.06359551
227	0xbd872aba	-0.06599946
228	0xbcb617ab	-0.022228083
229	0x3dbe296d	0.09285245
230	0x3c9ba88d	0.01900127
231	0xbd32bb70	-0.043635786
232	0xbcf41363	-0.0297944
233	0xbd72c3c8	-0.059268743
234	0x3dd6f667	0.10496216
235	0x3c40552d	0.0117390575
236	0x3c7f1623	0.015569243
237	0xbdb0affb	-0.086273156
238	0x3e0f61b9	0.14002122
239	0x3df6b67d	0.120465256
240	0x3d5166a9	0.051123295
241	0x3db1187e	0.0864725
242	0x3d9b1462	0.07572247
243	0x3d7c9e03	0.06167413
244	0x3d3f1b91	0.04665715
245	0x3cc41ee4	0.023940511
246	0x3c8225f3	0.015887236
247	0xbc49917d	-0.0123027535
248	0x3d974858	0.07386845
249	0x3e1763d7	0.1478418
250	0x3d076d94	0.033063486
251	0x3c351cc9	0.011054226
252	0x3d3b6340	0.04574895
253	0x3e1486a3	0.14504485
254	0x3e24103c	0.16021818
255	0xbd84c692	-0.06483187

network_body._body_endoder.seq_layers.0.bias f4 [256]
0	0xbb71c931	-0.00368936
1	0x3d0bff4e	0.034179024
2	0xbcee5a85	-0.029095897
3	0xbc1f1f19	-0.009712004
4	0x3ce9e8cc	0.028553389
5	0x3ce00e33	0.02735052
6	0xbce85951	-0.028362902
7	0x39e37264	0.00043382042
8	0x3c5cfed0	0.013488486
9	0xbd192989	-0.037393127
10	0x3d20ffa7	0.03930631
11	0xbcffce7a	-0.031226385
12	0x3d5e0185	0.054200668
13	0xbc0517e5	-0.008123373
14	0xbd0979f5	-0.033563573
15	0x3cf1c548	0.029513016
16	0x3c93e760	0.018054664
17	0x3ca3ed25	0.02001054
18	0x3ce398f4	0.027782895
19	0x3d2dd4d3	0.042439293
20	0xbcb6f154	-0.022331871
21	0xbc82e683	-0.015979057
22	0x3cdd5f00	0.027022839
23	0xbce58d1d	-0.02802139
24	0xbd310aca	-0.04322318
25	0xbcd37c72	-0.025816176
26	0xbd11349a	-0.035450555
27	0xbd106bbb	-0.03525899
28	0x3d3bfa7f	0.04589319
29	0x3c9fa84b	0.019489428
30	0x3d6a7520	0.057240605
31	0x3c38d8fd	0.011282203
32	0x3c072cfa	0.008250469
33	0xbd184483	-0.037174713
34	0x3c9807f3	0.018558478
35	0xbd014fe9	-0.03157035
36	0x3cf7328d	0.030175472
37	0x3c7fd6bf	0.015615164
38	0xbd345b67	-0.04403248
39	0x3ca21f5e	0.019790348
40	0x3ba0c070	0.004905753
41	0xbcc0d5dc	-0.023539476
42	0xbc30f6da	-0.0108010415
43	0xbc5169f8	-0.012781613
44	0xbd0b0105	-0.03393652
45	0xbd2aee61	-0.041731242
46	0xbc38c9b0	-0.011278555
47	0x3d0b9c2b	0.03408448
48	0xbc67448d	-0.014115465
49	0xbbc9ef45	-0.0061625564
50	0xbd8fa5dd	-0.07014058
51	0x3c22ea07	0.009943492
52	0xbd247231	-0.040147964
53	0x3d127cd7	0.035763588
54	0x3b9b14d9	0.00473271
55	0x3c8826a2	0.016619984
56	0xbba4500b	-0.0050144247
57	0x3c2b58b4	0.01045816
58	0xbcfe85d5	-0.031069675
59	0x3d6c2640	0.057653666
60	0x3b97fc2f	0.004638217
61	0xbd14ae77	-0.036299195
62	0xbd303889	-0.043022666
63	0x3d05d71a	0.03267584
64	0xbd5c4873	-0.05378003
65	0xbd1ee74b	-0.038794797
66	0xbcfa9a71	-0.030591222
67	0xbcc94017	-0.024566693
68	0x3cb60860	0.02222079
69	0x3d5100ba	0.051026084
70	0x3c20837e	0.009796975
71	0x3d3f3a89	0.046686683
72	0xbd37f14a	-0.044907846
73	0x3b400d5c	0.0029304838
74	0x3d4e06a3	0.050299298
75	0xbbe024f8	-0.0068403445
76	0xbd5d1719	-0.053977106
77	0xbbdde754	-0.006771961
78	0xbd1cfb26	-0.03832545
79	0xbca054fb	-0.019571772
80	0xbc2db1dc	-0.010601487
81	0xbc017508	-0.007901438
82	0xbc45ad2b	-0.012065212
83	0xbcc49d21	-0.024000706
84	0x3b04e607	0.0020278709
85	0x3c1e9dca	0.0096811745
86	0xbcc69294	-0.024239816
87	0xbd42a0da	-0.04751668
88	0x3bdb450f	0.006691582
89	0x3d12c7d5	0.035835106
90	0x3cd3e2a4	0.025864907
91	0xbc9578b7	-0.018246038
92	0xbcd56485	-0.026048908
93	0x3d511d5f	0.0510534
94	0x3d43f8d0	0.047844708
95	0xbcf42cca	-0.029806513
96	0xbbc5ab80	-0.0060324073
97	0xbac5c36a	-0.0015088145
98	0xbcd08fdb	-0.02545922
99	0xbb1054b9	-0.0022023155
100	0xbd25e2e1	-0.04049957
101	0x3cecf96a	0.028927524
102	0xbcf9f5f2	-0.030512784
103	0xbce7ce28	-0.028296545
104	0x3c6f10a6	0.014591372
105	0x3c9f03e4	0.019411035
106	0xbc52964f	-0.012853219
107	0x3c1f9c23	0.009741816
108	0x3be19ca1	0.0068851267
109	0x3cc5b2b7	0.02413307
110	0x3d0d380f	0.03447729
111	0xbd098ca2	-0.033581384
112	0xbceff2a6	-0.029290508
113	0xbcda8b59	-0.026677774
114	0xbc80efc7	-0.015739335
115	0xbcbc5fdd	-0.02299493
116	0xbd10e889	-0.035378013
117	0x3c89f059	0.01683824
118	0xbd05ee2d	-0.032697845
119	0xbc1bf0df	-0.009517877
120	0xbd449044	-0.047989145
121	0x3cc0f845	0.023555884
122	0xbceb3447	-0.028711451
123	0xb8c1f83c	-9.2491944e-05
124	0x3d2ff53b	0.04295848
125	0xb9caebfa	-0.0003870426
126	0xbcfc8abd	-0.030827874
127	0xbcaf0f1d	-0.021369511
128	0x3a71e2ff	0.00092272455
129	0xbc09602a	-0.008384744
130	0xbcda6a79	-0.026662098
131	0x3cc19203	0.023629194
132	0xbd19ca95	-0.037546713
133	0x3b9f9289	0.0048697633
134	0xbba9e05f	-0.005184218
135	0xb8b28418	-8.512306e-05
136	0xbcac3b99	-0.021024512
137	0xbd4523dd	-0.048129905
138	0xbba3c7d2	-0.0049981857
139	0xbca92712	-0.020648513
140	0xbd88eed2	-0.06686176
141	0x3c5f514e	0.013630224
142	0x3d30f7c3	0.043205034
143	0xbd16b441	-0.036792997
144	0x3c703eb3	0.014663386
145	0x3c4ff549	0.012692758
146	0xbd87dcd8	-0.066339195
147	0xbd1762a8	-0.03695932
148	0xbd442236	-0.04788419
149	0xbbd32c16	-0.0064444644
150	0x3cc43ea9	0.02395566
151	0xbce93132	-0.028465841
152	0xbcb1d391	-0.021707328
153	0x3c20d5c9	0.009816595
154	0xbcec4614	-0.02884201
155	0xbd3a0528	-0.045415074
156	0x3cdd0fa0	0.02698499
157	0xbc695a86	-0.014242774
158	0xbce14bb3	-0.027501917
159	0x3d216558	0.03940329
160	0xbca31760	-0.019908607
161	0xbc318bb8	-0.010836534
162	0x3cf286ef	0.029605357
163	0xba199b4d	-0.00058596284
164	0x3c8ca930	0.017170519
165	0x3b323f52	0.0027198386
166	0xbd31633d	-0.04330753
167	0x3ccca895	0.02498273
168	0x3cc16f63	0.023612684
169	0xbceb6327	-0.028733803
170	0xbd245f4e	-0.040129952
171	0x3c4fd2d0	0.012684539
172	0x3c84a250	0.016190678
173	0xbc5173e3	-0.012783977
174	0xbc025eb1	-0.0079571465
175	0x3c485205	0.012226586
176	0xbd2cedce	-0.042218976
177	0xbd4b1d8a	-0.049588718
178	0xbbbe6289	-0.005810086
179	0x3c7750d4	0.0150949545
180	0xbcac4b7b	-0.021032086
181	0xbd2190e7	-0.03944483
182	0xbd0692d7	-0.03285488
183	0x3a6236da	0.00086293893
184	0x3c58e1ae	0.0132374
185	0xbc6ecc7c	-0.01457512
186	0x3d7d06a5	0.061773915
187	0xbc5f76c7	-0.013639159
188	0xbcbeeaf5	-0.023305396
189	0x3c864a27	0.01639278
190	0x3d26a317	0.04068288
191	0xbcc0cf0e	-0.023536231
192	0x3d015ec6	0.031584524
193	0x3b05f89a	0.0020442368
194	0xbc46243a	-0.012093598
195	0x3d0b50c4	0.03401257
196	0xbc88248c	-0.01661899
197	0x3c88547d	0.01664185
198	0x3cae5c29	0.02128418
199	0xbd23b643	-0.03996874
200	0x3d027303	0.031847965
201	0x3ca8bca5	0.020597765
202	0xbcc2904f	-0.023750452
203	0x3c840420	0.016115248
204	0xbc73769a	-0.01485982
205	0x3d31265b	0.04324947
206	0xbc54adc2	-0.01298088
207	0xbb487412	-0.0030586761
208	0xbcf363cf	-0.029710678
209	0x3bd230e1	0.006414518
210	0xbd09a659	-0.033605907
211	0xbcd75f0b	-0.026290437
212	0x3cc98003	0.024597174
213	0xbc74abae	-0.01493351
214	0xbc5ad179	-0.013355606
215	0x3cd81c2d	0.026380623
216	0xbd0d5f63	-0.034514796
217	0x3cd2d9f6	0.025738697
218	0xbcfd9551	-0.030954989
219	0xbccaadf6	-0.024741154
220	0x3d22f675	0.03978582
221	0x3d3f88a8	0.046761185
222	0xbca871ba	-0.020562042
223	0xbcc83b64	-0.024442382
224	0xbd73d6cd	-0.059531022
225	0x3c3981bc	0.011322435
226	0x3d7cc889	0.061714683
227	0xbd249661	-0.040182475
228	0xbcdcd08d	-0.026954914
229	0xbbc1c855	-0.005913774
230	0xbc92d5d9	-0.017924236
231	0xbc076036	-0.008262685
232	0xbc75c93d	-0.015001592
233	0x3d003842	0.03130365
234	0x3c28e404	0.010308269
235	0x3c822f51	0.015891703
236	0xbd1e8258	-0.038698524
237	0xbc87d4ea	-0.016581018
238	0x3d3fe196	0.046845995
239	0x3b393d2a	0.0028265216
240	0x3d07dbab	0.033168476
241	0x3c07d2e5	0.008290027
242	0xbc475421	-0.012166054
243	0x3d3b5444	0.04573466
244	0x399bfdc2	0.00029752968
245	0xbcd60705	-0.026126394
246	0x3981d9fa	0.00024767203
247	0xba6a2c0b	-0.00089329545
248	0x3cb096e8	0.021556333
249	0x3c9924da	0.01869433
250	0xbc7d916d	-0.015476567
251	0x3c89a8dc	0.016804151
252	0x3d264663	0.04059447
253	0x3c80b22f	0.015709965
254	0xbd102eae	-0.035200767
255	0x3c5c71a8	0.013454832

network_body._body_endoder.seq_layers.2.weight f4 [256, 256]
0	0x3b468475	0.0030291353
1	0xbdc9f15b	-0.09860488
2	0x3e0c4b01	0.13700487
3	0xbda4f4c9	-0.080545016
4	0xbe1c3c49	-0.15257372
5	0xbb95242d	-0.0045514316
6	0xbcdb8144	-0.026795037
7	0xbb7489df	-0.0037313623
8	0xbca33351	-0.01992193
9	0x3c9b674c	0.018970154
10	0xbd8e4401	-0.069465645
11	0x3ca663e7	0.020311309
12	0x3df1ab94	0.11800304
13	0x3bef4129	0.007301469
14	0x3cc2a16f	0.023758618
15	0xbda68118	-0.081300914
16	0x3d10d971	0.03536362
17	0x3c1efef2	0.009704338
18	0x3d5412a0	0.051775575
19	0x3c58b0bf	0.013225733
20	0xbd25556e	-0.040364675
21	0x3b99680c	0.004681593
22	0x3e0d6cf3	0.13811092
23	0xbd0d08de	-0.034432285
24	0xbb1a905f	-0.0023584587
25	0xbca2e925	-0.019886563
26	0x3d4186ee	0.04724782
27	0xbcf74dce	-0.030188467
28	0xbd687d5f	-0.05676019
29	0x3d37add8	0.044843525
30	0x3d96fa1c	0.07371923
31	0xbdc2ce77	-0.09512036
32	0x3cc312f6	0.023812752
33	0x3cd0b4ed	0.025476897
34	0xbdceccfd	-0.10097692
35	0x3e175778	0.1477946
36	0xbc9a6519	-0.018847035
37	0xbdb23be1	-0.08702827
38	0xbd349e3c	-0.044096217
39	0xbca3a455	-0.01997582
40	0x3d6f8ba1	0.05848277
41	0x3cb52da1	0.022116484
42	0xbce8fcba	-0.028440822
43	0x3dc8956d	0.09794126
44	0xbd0c84a2	-0.034306176
45	0x3d1d91bb	0.038469058
46	0xbd458fec	-0.048232958
47	0xbd88626f	-0.066594
48	0xbd0891f4	-0.033342317
49	0x3d22ea33	0.03977413
50	0xbd0bd6a3	-0.03414024
51	0xbd87f51f	-0.0663855
52	0xbc1e9836	-0.009679845
53	0xbdc753e9	-0.097328015
54	0x3c41c989	0.011827835
55	0xbd8a7152	-0.067598954
56	0xbc612baa	-0.0137433205
57	0x3c9018b2	0.0175899
58	0x3e187f63	0.14892344
59	0xb96b1950	-0.00022420776
60	0xbd9ea746	-0.077467486
61	0x3abe6bd0	0.001452798
62	0x3b836587	0.0040099057
63	0xbd644b89	-0.0557361
64	0xbd7f6317	-0.06235036
65	0xbcb70bd5	-0.02234451
66	0x3dac506d	0.084137775
67	0xbd08e2e1	-0.033419494
68	0x3d237797	0.03990897
69	0x3d40b60d	0.047048617
70	0xbc8794c9	-0.016550438
71	0xbdd294a9	-0.10282261
72	0x3cb307f5	0.02185438
73	0x3d03343c	0.032032236
74	0x3c1369b4	0.00899737
75	0x3c16c5be	0.009202419
76	0xbc5f0776	-0.013612619
77	0xbda69f27	-0.08135825
78	0x3d56722a	0.05235497
79	0x3cde66dd	0.027148658
80	0xbd681cf4	-0.056668237
81	0x3c250354	0.010071594
82	0x3d48b826	0.049003743
83	0xbd5ca1e2	-0.05386532
84	0xbcc85c54	-0.024458088
85	0x3d23ba5a	0.03997264
86	0xbdbfc767	-0.09364205
87	0xbd815a47	-0.06316047
88	0xbd8d6f24	-0.06905964
89	0x3c0aa091	0.008461134
90	0xbc4137a1	-0.011793048
91	0x3d3d488d	0.046211768
92	0x3d08c648	0.03339222
93	0x3db64236	0.088993475
94	0xbe0accf5	-0.13554747
95	0xbda4825a	-0.08032675
96	0xbc9e9fbd	-0.019363279
97	0xbcb47471	-0.02202818
98	0xbd8ddd0f	-0.06926929
99	0x3df0d6ef	0.11759745
100	0xbd0e868c	-0.034796283
101	0x3d8e244b	0.06940516
102	0xbd1b9550	-0.037984192
103	0x3d5ef80e	0.054435782
104	0x3be3716c	0.006941011
105	0x3d14a71d	0.036292184
106	0xbdca69b4	-0.098834425
107	0x3d141a6b	0.036158007
108	0x3dc2728d	0.09494505
109	0xbe188461	-0.14894249
110	0x3c8f2993	0.017475879
111	0x3d2cad94	0.042157724
112	0xbd8d1e34	-0.068905264
113	0x3d2b5d7c	0.0418372
114	0x3dfe683f	0.12422227
115	0xbd8c6c78	-0.06856626
116	0x3d36e979	0.04465625
117	0xbc1a6330	-0.009423062
118	0x3c8b44b9	0.017000543
119	0xbc178f48	-0.0092504695
120	0xbb728869	-0.0037007576
121	0xbd69dd3a	-0.057095744
122	0xbd60ef46	-0.05491569
123	0x3dc9d24d	0.09854565
124	0x3c89c89d	0.016819293
125	0xbdd3aa48	-0.10335213
126	0x3c15347a	0.00910675
127	0xbd93b7c6	-0.072127864
128	0xbde6372c	-0.11240992
129	0xbcb03d38	-0.021513566
130	0x3c483cba	0.01222151
131	0x3d0230f3	0.031784963
132	0xbc35580d	-0.011068356
133	0x3d3f7b54	0.046748474
134	0xbd11c793	-0.03559072
135	0xbd918aef	-0.071065776
136	0xbd10f6c9	-0.035391603
137	0x3d9c6b71	0.0763768
138	0xbd5e65f9	-0.054296467
139	0x3d0c7a3f	0.03429627
140	0xbb514598	-0.003193235
141	0xbe149bba	-0.1451253
142	0xbca2c54a	-0.019869465
143	0x3d5a006f	0.05322307
144	0x3d141f8a	0.03616289
145	0xbc9c017c	-0.019043677
146	0x3c73697d	0.014856693
147	0x3c627e20	0.013824016
148	0xbdaa0b94	-0.083029896
149	0x3cce91e6	0.025216054
150	0x3dcbdc10	0.09954083
151	0xbd12efed	-0.035873342
152	0xbb6d2cdd	-0.003619007
153	0x3c4f0ca1	0.012637288
154	0xbcecd384	-0.028909452
155	0x3dfbcef2	0.12295331
156	0x3d5e9e8c	0.05435042
157	0xbe01c8dc	-0.12674278
158	0x3e057eca	0.13036647
159	0x3d12bf79	0.035827134
160	0x3cab90a5	0.020942995
161	0x3c240226	0.010010278
162	0x3cb06461	0.02153224
163	0x3c1e758a	0.009671578
164	0x3d378271	0.044802133
165	0xbbf86b2c	-0.0075811353
166	0xbcefd1e4	-0.029274888
167	0x3ba15274	0.0049231593
168	0x3d4a2566	0.049352072
169	0xbc603dfe	-0.013686655
170	0x3dae028d	0.0849658
171	0x3d95c078	0.07312101
172	0xbc8fddeb	-0.017561873
173	0x3d657f7e	0.05602979
174	0x3dcd42b8	0.10022491
175	0xbd225e78	-0.039640874
176	0xbc699ba9	-0.014258304
177	0x3d1c37c8	0.038139135
178	0xbd42d957	-0.047570553
179	0x3d2529e0	0.04032314
180	0x3cd12400	0.025529861
181	0x3db451f9	0.088046975
182	0xbd03f3bf	-0.032214876
183	0xbd3fb2e4	-0.046801463
184	0xbd721ba8	-0.059108406
185	0x3d8fb70f	0.070173375
186	0x3d2d61d4	0.042329624
187	0xbb880feb	-0.004152288
188	0x3cbcee4a	0.023062844
189	0x3c93ca2e	0.018040743
190	0x3ca0993a	0.019604314
191	0x3d1b81c6	0.03796556
192	0xbe0aed25	-0.13567026
193	0x3dc75814	0.097335964
194	0x3d439f61	0.047759417
195	0xbb761c4f	-0.0037553494
196	0x3dd3c501	0.1034031
197	0x3cd26c65	0.025686452
198	0xbd2e8477	-0.042606797
199	0xbb791c25	-0.003801116
200	0xbd883191	-0.06650079
201	0xbc4aef80	-0.012386203
202	0x3ccaacb4	0.024740554
203	0xbe104d06	-0.14091882
204	0x3c7e727d	0.015530226
205	0xbbd4708e	-0.006483144
206	0x3db39839	0.087692685
207	0x3d299f98	0.041411966
208	0x3c8e5d24	0.017378397
209	0xbd6fe173	-0.058564615
210	0xbc20d50e	-0.009816421
211	0xbddc5f1c	-0.10760328
212	0xbd8841b5	-0.066531576
213	0x3e1a8cfe	0.15092847
214	0xbcc11042	-0.023567323
215	0xbcb950b5	-0.022621492
216	0x3c12547d	0.008931276
217	0xbdd7046c	-0.1049889
218	0x3e1d13b6	0.1533955
219	0x3d0ff67a	0.035147168
220	0xbdfe018d	-0.124026395
221	0xbc02dd9b	-0.007987405
222	0xbbed341f	-0.0072388793
223	0x3d9a596f	0.07536589
224	0xbd23b1b2	-0.039964385
225	0x3ca35f09	0.019942777
226	0xbd3704e1	-0.044682387
227	0xbd0e34b7	-0.03471824
228	0x3d86cfd3	0.06582608
229	0xbd8103b8	-0.062995374
230	0x3d9c68ad	0.07637153
231	0xbd179855	-0.03701051
232	0x3ce814f4	0.028330304
233	0xbdd925f0	-0.10602939
234	0x3d474928	0.04865375
235	0x3c98c264	0.01864738
236	0x3d18d109	0.037308726
237	0xbc039b97	-0.008032701
238	0xbd434e0a	-0.047681846
239	0x3de07196	0.10959165
240	0x3c6b7f0f	0.014373555
241	0xbdea69d1	-0.11445964
242	0x3c08ad69	0.008342125
243	0xbc99b205	-0.018761644
244	0xbd910e8c	-0.07082853
245	0x3d41d3f8	0.04732129
246	0x3d46933d	0.04848026
247	0x3c390c37	0.011294416
248	0x3e06b532	0.13155058
249	0x3c6a86c8	0.014314361
250	0xbc907ec2	-0.017638568
251	0xbc4e70bc	-0.01260012
252	0x3d8232ec	0.06357369
253	0xbdaf04b2	-0.085458174
254	0xbcc69214	-0.024239577
255	0x3e182bec	0.14860505

network_body._body_endoder.seq_layers.2.bias f4 [256]
0	0xbd174520	-0.036931157
1	0xbc851d28	-0.016249254
2	0xbcb06319	-0.021531628
3	0xbc1f2a9d	-0.00971475
4	0xbb4c4605	-0.0031169665
5	0xbc1fbdd1	-0.009749846
6	0x3b996751	0.0046815057
7	0xbaa6edc0	-0.001273565
8	0x3c861c8d	0.016371036
9	0xbc85cd50	-0.016333252
10	0x3bb3b1a0	0.005483821
11	0xb9a5d9b0	-0.00031633442
12	0xbc47f28b	-0.012203823
13	0x3bcc34d1	0.006231882
14	0xbb683275	-0.0035430465
15	0x3ca5a5bb	0.020220628
16	0x3c966a57	0.018361254
17	0xbc5e27a9	-0.01355926
18	0x3c5ad8ca	0.013357351
19	0x3c83327a	0.01601528
20	0x3c8c7163	0.01714391
21	0x3b663240	0.0035125166
22	0xbcad060a	-0.021121044
23	0x3be93e67	0.0071180346
24	0xbb3803e0	-0.0028078482
25	0xbce9e96f	-0.028553693
26	0x3c06caf9	0.008227103
27	0x3b75389b	0.0037417773
28	0x3c7f58ed	0.015585166
29	0xbb5af5c6	-0.0033410653
30	0x3bdf0ba7	0.006806809
31	0xbc94472c	-0.018100344
32	0x3bdc425b	0.0067217774
33	0x3c10b9f9	0.008833402
34	0xbc919238	-0.017769918
35	0xbc94b7a3	-0.018153971
36	0x3c8917ce	0.016734984
37	0x3b9d2708	0.0047959127
38	0xbc77b34a	-0.015118429
39	0x3c212025	0.009834324
40	0xbc0638ff	-0.0081923
41	0xbb8ba3b0	-0.0042614564
42	0xbc9b3b6e	-0.018949237
43	0xbcb97c70	-0.022642344
44	0x3c00a869	0.007852652
45	0xbcba00ff	-0.022705553
46	0xbc2b1edc	-0.010444369
47	0x3b753003	0.003741265
48	0xbaa13a4f	-0.0012300703
49	0x3c17ce38	0.009265475
50	0xbc2fe1d3	-0.010734993
51	0x3c3e3c3f	0.0116110435
52	0xbc7cbb27	-0.01542548
53	0xbc8b8f72	-0.017036173
54	0x3c2816b6	0.010259321
55	0xbcba20a3	-0.02272064
56	0xb9274bca	-0.00015954595
57	0xbcd860a7	-0.026413275
58	0x3bf37ba5	0.007430511
59	0x3bd610c6	0.0065327613
60	0x3bd9ce3c	0.0066468995
61	0xbc8f1bd6	-0.017469328
62	0x3c3d3826	0.011549031
63	0x3cd44b3f	0.025914786
64	0xbc066e66	-0.008205032
65	0xbbc3accd	-0.005971527
66	0xbcbf9940	-0.023388505
67	0x3c7cefe2	0.015438052
68	0xbb6872c8	-0.0035468806
69	0x3c8d7c9a	0.017271329
70	0xba614a56	-0.0008594146
71	0xba4ed916	-0.00078906247
72	0x3b3345e7	0.0027354897
73	0x3c51c75b	0.012803878
74	0x39a206b2	0.00030904036
75	0x3c646d28	0.0139420405
76	0xbc0bfcfa	-0.008544201
77	0xbc1bd4f0	-0.0095112175
78	0x3c212b73	0.009837019
79	0xbc0fc6b2	-0.0087754
80	0x3cc5d827	0.024150921
81	0xbcbada81	-0.022809269
82	0xbb66b648	-0.0035203863
83	0xbcdee887	-0.027210487
84	0xbcd946e9	-0.02652307
85	0xbcb17599	-0.02166252
86	0xbbcd8641	-0.006272108
87	0xbc30bce4	-0.010787223
88	0x3bd9ada0	0.006643012
89	0x3a863318	0.0010238616
90	0xbc848424	-0.01617629
91	0xbcc54035	-0.024078468
92	0xbcbed979	-0.023297058
93	0xbb372c97	-0.0027950162
94	0x3c23354b	0.0099614365
95	0xbcaf3670	-0.021388263
96	0x3bfacf51	0.0076541086
97	0xbc164609	-0.009171971
98	0x3c795a09	0.01521922
99	0x3c821702	0.015880112
100	0xbb462630	-0.0030235164
101	0xbcf36fdb	-0.029716423
102	0xbc9313d0	-0.017953783
103	0xbc06b7ed	-0.008222562
104	0xbccdb1a9	-0.025109129
105	0xbc35d463	-0.011098
106	0xbb41747b	-0.002951889
107	0xbb2cbac8	-0.0026356447
108	0xb9e53eb4	-0.00043725
109	0xbc13aba4	-0.00901309
110	0x3ab3fd84	0.001373217
111	0x3c66b316	0.014080783
112	0x3b2d850e	0.0026477012
113	0x3c339341	0.010960401
114	0xbc3e6703	-0.01162124
115	0x3c1b0a51	0.009462909
116	0xbc2f3989	-0.01069487
117	0xbd01b138	-0.03166315
118	0x3ab2012e	0.0013580674
119	0x3ba70a81	0.0050976877
120	0x3c7b38bd	0.015333352
121	0x3b88a14f	0.00416962
122	0xbc2fce5c	-0.010730352
123	0x3bcca813	0.006245622
124	0xbc06fd82	-0.008239152
125	0xbbbf5b6e	-0.0058397567
126	0xbb2fb698	-0.0026811715
127	0x3cb0edfe	0.021597859
128	0x3c8cc237	0.017182453
129	0xbbb2479f	-0.005440667
130	0xbcfe0e8f	-0.031012801
131	0x3c8aea46	0.016957413
132	0x3c6df919	0.014524722
133	0xba6b114c	-0.0008967116
134	0x3cdeb619	0.02718644
135	0xbc359f1d	-0.011085299
136	0x3c51edf8	0.012813084
137	0xbbe6216e	-0.007023028
138	0x3c82e010	0.015975982
139	0xbb83507c	-0.004007397
140	0x3b38a910	0.002817694
141	0xbbc72e66	-0.006078529
142	0xbba362c1	-0.0049861376
143	0x3c0cdbc0	0.008597314
144	0xbc3870fc	-0.011257406
145	0xbcaa8c20	-0.02081877
146	0xbc8de766	-0.017322253
147	0xbc6ee986	-0.0145820435
148	0xbc0ed820	-0.00871852
149	0xbca1239b	-0.019670298
150	0x3cc4af42	0.02400935
151	0x3c0362c0	0.008019149
152	0xbc39aefc	-0.011333223
153	0xbc949da1	-0.01814157
154	0x3ba52efe	0.0050410023
155	0x3b74a417	0.003732925
156	0x3c003f0e	0.007827533
157	0xbc240e38	-0.010013156
158	0xbc554932	-0.013017939
159	0xbc830756	-0.015994709
160	0xbb27ab56	-0.0025584302
161	0x3c0fdfd5	0.008781393
162	0xbd1fc579	-0.039006684
163	0xb818de00	-3.6446378e-05
164	0x3bbfe200	0.0058557987
165	0xbb945e16	-0.0045278175
166	0xba9f010f	-0.0012131053
167	0x3cc450ac	0.023964249
168	0x3cb3b630	0.02193746
169	0x3c8ee7aa	0.01744445
170	0x3c5eff83	0.013610723
171	0x3c6ff1b6	0.014645031
172	0x3c359eea	0.011085251
173	0xbcaedc39	-0.021345245
174	0x3b961c17	0.0045809853
175	0xbc6f2e97	-0.01459851
176	0x3c7d2d94	0.015452761
177	0xbca14cbd	-0.019689912
178	0xbc3948f6	-0.011308899
179	0x3ca4aa59	0.02010076
180	0xbc842c4a	-0.0161344
181	0xbbfb6c52	-0.007672825
182	0x3cae8dfb	0.021307936
183	0xbc88afb2	-0.01668534
184	0xbc8cff05	-0.017211447
185	0xbb90e010	-0.0044212416
186	0xbd094833	-0.03351612
187	0xbc4d1476	-0.012517085
188	0x3c204ff2	0.009784685
189	0x3bf54a02	0.007485629
190	0xbce5a129	-0.028030949
191	0x3c8ff3bc	0.017572276
192	0x3c39189b	0.01129737
193	0x3ad2d8b6	0.0016086313
194	0x3acc9ccd	0.0015610695
195	0x3b8f7181	0.0043775444
196	0x3c858003	0.016296392
197	0xbccf12be	-0.025277492
198	0xbbc02d3f	-0.0058647688
199	0x3cdfa68e	0.0273011
200	0xbc53b030	-0.012920424
201	0x3c0449a1	0.008074195
202	0xbcd878c4	-0.026424773
203	0x3b26ecb8	0.0025470685
204	0xbb1f41c5	-0.0024300676
205	0x3cc2cfe2	0.023780767
206	0xbcce7cee	-0.025206055
207	0x3c8156bd	0.01578843
208	0x3ca400d9	0.020019935
209	0x3c3cb416	0.011517545
210	0xbc2416e4	-0.010015223
211	0xbc677f3c	-0.014129456
212	0x3c858f51	0.01630369
213	0xbcb55511	-0.02213529
214	0xbcb8ecfd	-0.022573942
215	0x3c48f087	0.012264377
216	0xbcbfce75	-0.023413876
217	0xbc495c1e	-0.012290029
218	0x3b4d9bd8	0.0031373408
219	0x3c1e90d0	0.009678081
220	0x3c65cf0a	0.014026413
221	0xbaa34152	-0.001245538
222	0xbc133932	-0.008985804
223	0xbc118516	-0.008881828
224	0xbc9aef02	-0.018912796
225	0x3bc6cf6b	0.0060672066
226	0xbcabdb42	-0.020978574
227	0xbb994e44	-0.0046785194
228	0xbc90dfb9	-0.017684804
229	0xbb47209e	-0.0030384432
230	0xbbefc993	-0.0073177307
231	0x3c4b6716	0.012414714
232	0x3c831f20	0.016006052
233	0x3c2a5579	0.010396355
234	0x3c340024	0.010986362
235	0xbbfe1140	-0.007753521
236	0x3bff5458	0.007792037
237	0xbc8a3666	-0.016871642
238	0x3bcf0ddd	0.0063187913
239	0xbc9fb48d	-0.019495273
240	0x3c86e53c	0.01646673
241	0x3bb40ac2	0.0054944465
242	0xbb00dfe1	-0.0019664692
243	0x3cd68f89	0.02619149
244	0x38e6c3a8	0.000110036985
245	0x3c20c6e2	0.009813042
246	0x3b5219a3	0.0032058738
247	0xbc85a2c4	-0.016312964
248	0xbb936ce9	-0.004499067
249	0x3c5c6b70	0.0134533495
250	0x3b1f278f	0.0024285053
251	0x3ac9504e	0.0015359016
252	0xbc0c1225	-0.008549248
253	0xbc0f06e9	-0.008729675
254	0xbc6df6eb	-0.014524202
255	0xbc83c9be	-0.01608741

network_body._body_endoder.seq_layers.4.weight f4 [256, 256]
0	0x3a9b23ba	0.0011836209
1	0xbd8477f4	-0.06468192
2	0xbd1782d3	-0.036989998
3	0x3a807a1e	0.0009802019
4	0x3cdff8f5	0.027340392
5	0xbdb3e27c	-0.08783433
6	0xbb4880db	-0.0030594382
7	0x3dcfc63a	0.101452306
8	0xbd198fed	-0.037490774
9	0xbc13979e	-0.009008316
10	0xbd49ec09	-0.049297366
11	0x3d1339a9	0.03594366
12	0xbd210aed	-0.03931706
13	0xbca5e3b0	-0.020250171
14	0xbd080e0e	-0.03321653
15	0xbd08d5e9	-0.033407126
16	0x3d40f71e	0.04711067
17	0x3d1ea621	0.03873265
18	0x3cf92e54	0.030417599
19	0x3bcd8f8d	0.006273216
20	0x3a778140	0.0009441562
21	0xbc4b9e7c	-0.012427922
22	0x3d9e5e74	0.07732859
23	0xbc8839cc	-0.016629122
24	0x3c490059	0.012268149
25	0x3c37d7cf	0.011220886
26	0xbd82be4e	-0.06383954
27	0xbc4e8ba2	-0.012606533
28	0xbd0de3fb	-0.034641247
29	0xbd06132d	-0.03273313
30	0x3cfb5a8a	0.03068282
31	0x3d0bb959	0.03411231
32	0xbe042b11	-0.12907054
33	0xbc628638	-0.013825946
34	0xbd0909ce	-0.033456616
35	0x3c8a599d	0.016888434
36	0x3de77459	0.113014884
37	0x3d7a4ff0	0.06111139
38	0x3c3a36dd	0.0113656195
39	0x3dd8aba7	0.10579615
40	0xbce27ef3	-0.027648425
41	0x3d999812	0.07499708
42	0x3d17d437	0.03706762
43	0x3d419eae	0.04727047
44	0xbb815a66	-0.003947544
45	0x3cdde586	0.027086984
46	0x3bc6a455	0.0060620704
47	0xbceb3e0a	-0.028716106
48	0x3e0ade4c	0.13561362
49	0x3cdde018	0.027084395
50	0xbbd2c6f8	-0.0064324103
51	0x3de6e2f7	0.11273759
52	0xbcc1b24e	-0.023644593
53	0xbd2b1798	-0.041770548
54	0x3d23db7a	0.04000423
55	0xba62c0f2	-0.0008649967
56	0x3d2bb21d	0.04191791
57	0xbd85a3e3	-0.065253995
58	0x3d951918	0.07280177
59	0xbdf30554	-0.11866251
60	0xbd0b0c93	-0.03394754
61	0xbd65db7a	-0.056117512
62	0xbd93fc63	-0.07225873
63	0xbd68c42f	-0.05682772
64	0x3d864201	0.06555558
65	0xbda6a29f	-0.08136486
66	0xbdcae649	-0.09907205
67	0xbc64fc0f	-0.013976111
68	0x3da7ab98	0.08187026
69	0xbc228e7e	-0.009921668
70	0x3dbe8478	0.0930261
71	0xbdc1287e	-0.094315514
72	0x3d01707d	0.031601418
73	0xbbe6fa32	-0.0070488686
74	0x3cb03bbc	0.021512859
75	0xbca80133	-0.020508384
76	0x3e065981	0.1312008
77	0xbdcfc513	-0.10145011
78	0xbdbd63d0	-0.09247553
79	0xbc978f6d	-0.018501008
80	0xbbbd3434	-0.0057740454
81	0x3d21f528	0.03954044
82	0xbc845923	-0.016155785
83	0xbc75716c	-0.014980655
84	0x3de43429	0.11142761
85	0xbd15f995	-0.036614973
86	0x3ddadb7a	0.10686393
87	0xbe2d2c8d	-0.16911526
88	0xbcd91188	-0.026497617
89	0x3c672122	0.014107021
90	0x3bfa8e53	0.007646361
91	0x3c838586	0.01605488
92	0x3ddc8bdb	0.10768863
93	0x3bcc2c6f	0.006230883
94	0x3da103fe	0.078620896
95	0xbd811154	-0.06302133
96	0xbb84cf78	-0.0040530525
97	0xbd18049d	-0.037113775
98	0xbd07b852	-0.033134766
99	0xbd46e11a	-0.048554517
100	0x3cdfb0c0	0.02730596
101	0xbcafa606	-0.02144147
102	0x3dbfdb07	0.09367948
103	0x3da9e79c	0.08296129
104	0xbd603a64	-0.054743186
105	0x3d49f147	0.049302366
106	0xbd7c5e35	-0.06161328
107	0xbe46604f	-0.19372676
108	0x3bb75935	0.005595351
109	0xbc79c35b	-0.01524433
110	0x3e196b15	0.14982255
111	0x3d13eba0	0.03611338
112	0x3c86ebc6	0.016469847
113	0x3db3c771	0.08778275
114	0xbda9cb0c	-0.08290681
115	0x3c030d27	0.007998741
116	0xbe01fba4	-0.1269365
117	0x3c2e415c	0.0106357
118	0xbbd5a9eb	-0.0065205
119	0xbd33fba4	-0.043941155
120	0x3d4e0ff8	0.050308198
121	0xbc9f7897	-0.019466681
122	0xbe0d3258	-0.13788736
123	0xbd5c6cac	-0.053814575
124	0xbc768609	-0.015046605
125	0x3c932ec6	0.01796664
126	0xbd40e49b	-0.047093015
127	0x3e1263ee	0.14295933
128	0xbda06893	-0.07832446
129	0x3d15bc4a	0.03655652
130	0xbb56e4d4	-0.00327902
131	0x3d41c900	0.04731083
132	0xbd5e1c8a	-0.054226436
133	0xbd9dcaf7	-0.07704728
134	0xbdd239a5	-0.10264901
135	0x3cb36095	0.02189664
136	0xbd1204bc	-0.035649046
137	0x3d56bd4c	0.05242662
138	0xbda5fffc	-0.08105466
139	0xbb644d88	-0.0034836251
140	0x3d931e0d	0.07183466
141	0x3d341c07	0.04397204
142	0xbd44d6ee	-0.048056535
143	0x3d260f0b	0.04054169
144	0xbdd167b5	-0.10224859
145	0xbcea8da4	-0.028631993
146	0xbb452e79	-0.0030087514
147	0x3d4b695b	0.04966102
148	0x3d949a73	0.07256021
149	0xbdb7e7c5	-0.089797534
150	0xbd18c1dc	-0.037294254
151	0x3c6956e2	0.014241906
152	0xbd1e23e8	-0.03860846
153	0x3db2cb3c	0.0873017
154	0xbdc50a4b	-0.09621104
155	0xbb8408a1	-0.004029349
156	0x3cd2038a	0.025636453
157	0xbd7f055d	-0.062260974
158	0x3d33ce52	0.043897934
159	0x3c4efe25	0.012633835
160	0x3d89b137	0.06723254
161	0xbd424d45	-0.04743697
162	0xbdadaab6	-0.08479826
163	0x3c592193	0.013252634
164	0xbdd40712	-0.10352911
165	0xbcecb1bb	-0.028893342
166	0xbb789dec	-0.0037935926
167	0xbd5f9a5a	-0.05459056
168	0xbe037230	-0.12836528
169	0xbcea07d3	-0.028568184
170	0xbc272e8c	-0.010203969
171	0x3cfe17c6	0.031017195
172	0x3d2e15c0	0.04250121
173	0x3d36944f	0.04457503
174	0xbd86c119	-0.06579799
175	0xbd88643d	-0.06659744
176	0xbd629748	-0.055320054
177	0xbc98a509	-0.018633382
178	0xbd48d0f3	-0.049027395
179	0xbd857308	-0.06516081
180	0xbbfebf35	-0.0077742585
181	0xbda50a42	-0.08058597
182	0x3cccbf63	0.024993604
183	0x3d71eab5	0.059061725
184	0xbdcaa1f8	-0.09894174
185	0xbdbd06e2	-0.092298284
186	0x3d5eac07	0.054363277
187	0xbb8a36b5	-0.0042179474
188	0xbd972f87	-0.07382112
189	0x3d2dd173	0.042436074
190	0xbcefeb3e	-0.029286977
191	0xbe1cf1d4	-0.15326625
192	0x3d512785	0.05106308
193	0xbcc98215	-0.02459816
194	0x3bb94645	0.0056541287
195	0x3da1b440	0.07895708
196	0x3ce7b2bc	0.02828347
197	0x3d09476b	0.033515375
198	0x3de1779b	0.11009141
199	0xbdc158b3	-0.09440746
200	0xbd33e880	-0.0439229
201	0xbd8fb684	-0.07017234
202	0xbcd8b000	-0.02645111
203	0x3d760461	0.06006277
204	0x3d87ab75	0.066245
205	0x3c8130cc	0.015770338
206	0x3e1b2a00	0.1515274
207	0x3cccd9ae	0.025006142
208	0x3ce1f6a6	0.027583431
209	0xbd59d930	-0.05318564
210	0xbc7108f0	-0.0147116035
211	0x3d3246ff	0.04352474
212	0x3d193e1d	0.03741275
213	0x3cbc3369	0.022973733
214	0xbe056733	-0.13027649
215	0xbd215266	-0.039385222
216	0xbce0d530	-0.027445406
217	0x3d787013	0.060653757
218	0x3d1834fd	0.03715991
219	0x3db2cd85	0.08730606
220	0xbdb03da4	-0.08605507
221	0xbc2e9959	-0.010656678
222	0x3d0f8b16	0.035044752
223	0xbd4d7e2f	-0.050169166
224	0xbb9cd4cd	-0.00478611
225	0xbd76be30	-0.06023997
226	0x3d9ae610	0.07563412
227	0xbcdacaae	-0.026707973
228	0xbcd48a4c	-0.025944851
229	0x3d2d8977	0.042367425
230	0x3db13573	0.08652773
231	0xbe354824	-0.177033
232	0x3e4c4737	0.19949041
233	0x3c1942cd	0.009354305
234	0xbcf55c0a	-0.029951114
235	0xbd8b5f8d	-0.06805334
236	0xbd2ec1f1	-0.042665426
237	0x3d549e26	0.051908635
238	0x3e0cc672	0.13747576
239	0xbd9635fe	-0.07334517
240	0xbdbc57e1	-0.09196449
241	0xbd4e082a	-0.050300755
242	0xbd0f87ae	-0.035041504
243	0x3d6b9afe	0.05752086
244	0xbd6ee66b	-0.058325212
245	0x3c92e745	0.017932544
246	0xbd3d758e	-0.046254687
247	0xbc9618a1	-0.01832229
248	0xbd0187b8	-0.031623572
249	0x3c92b936	0.017910581
250	0x3d3afabf	0.045649286
251	0xbc3fe93f	-0.011713325
252	0xbce97acb	-0.028500935
253	0x3d174cd5	0.036938507
254	0x3c5d28bf	0.013498484
255	0xbdcf9b11	-0.101369984

network_body._body_endoder.seq_layers.4.bias f4 [256]
0	0xbcd6a835	-0.026203254
1	0xbc2d3ec5	-0.010574047
2	0xbbc65f87	-0.006053868
3	0xbc80f221	-0.015740456
4	0x3c98b382	0.018640283
5	0x3c9fa05f	0.01948565
6	0xbc2ea788	-0.01066006
7	0xbb6f9aac	-0.0036560697
8	0xbc1636c1	-0.009168328
9	0xbc9edc57	-0.019392176
10	0xbc6ebb29	-0.01457099
11	0xbd15f5dc	-0.036611423
12	0xbb4c88dc	-0.0031209504
13	0x3c2b95e8	0.010472752
14	0xbd0a8ec1	-0.033827547
15	0xbb2a20a7	-0.0025959404
16	0x3bb5f23b	0.0055525578
17	0x3cd5e972	0.026112292
18	0xbc2db2d6	-0.01060172
19	0xbd14f718	-0.03636846
20	0x3a96b93a	0.0011499294
21	0xbc421e58	-0.011848055
22	0xbc4c45e7	-0.012467838
23	0xbc9ecb62	-0.01938409
24	0x3c740e20	0.014895946
25	0xbc00670e	-0.00783707
26	0xbcd2381c	-0.02566152
27	0xbc48052c	-0.012208264
28	0xbcabe7a2	-0.020984475
29	0x3c6217a0	0.013799578
30	0xbcd049ce	-0.025425818
31	0x3c2c5a4a	0.010519573
32	0xbcc28473	-0.023744797
33	0x3c976d8a	0.01848485
34	0x3c887ccd	0.016661072
35	0xbc996b61	-0.01872796
36	0x3c9260c4	0.017868407
37	0xbc566fbb	-0.013088162
38	0xbcaba598	-0.020952985
39	0xba35202e	-0.0006909397
40	0x3c561c89	0.013068327
41	0xbc819bf1	-0.015821429
42	0xbacf3f8f	-0.0015811789
43	0x3b0a97c4	0.0021147588
44	0x3b5040e4	0.003177696
45	0x3c4ebbea	0.012618044
46	0xbcc2ad0c	-0.023764156
47	0x3c0f8f51	0.008762197
48	0xbd100167	-0.035157587
49	0x3c2a12e8	0.010380484
50	0xbc851545	-0.016245494
51	0xbbf1754d	-0.0073687197
52	0x3c17b839	0.009260231
53	0x3c862d39	0.016378986
54	0xba59551c	-0.00082905754
55	0x3c22ed1c	0.009944227
56	0xbb000e9b	-0.0019539956
57	0xbd1d3d00	-0.038388252
58	0xbc907ce9	-0.017637687
59	0xbcf94088	-0.030426279
60	0x3b894612	0.0041892612
61	0xbc5da347	-0.013527698
62	0xbcb2eb84	-0.021840818
63	0x3ccab399	0.024743842
64	0xbc6a2395	-0.01429071
65	0xbce405d9	-0.02783482
66	0xbbac5c0e	-0.005259997
67	0xbc79146a	-0.015202621
68	0x3bb396c6	0.00548062
69	0xbcd2abd5	-0.025716702
70	0x3be07cf9	0.0068508354
71	0x3c989ec8	0.0186304
72	0x3ca6beed	0.020354712
73	0xbcb71224	-0.022347517
74	0xbce121c1	-0.027481915
75	0x3cf99693	0.030467307
76	0xbbc173c9	-0.0059036952
77	0xbcadb579	-0.021204697
78	0x3c0e2091	0.008674757
79	0xbc516629	-0.012780705
80	0xbc7a5c5d	-0.01528081
81	0xbb86e5f4	-0.004116768
82	0xbcc8d209	-0.024514215
83	0xbc0cfda2	-0.008605393
84	0xbc4e9e7f	-0.012611031
85	0xbbb7c5c1	-0.005608291
86	0x3b4022dc	0.0029317653
87	0x3ccfa225	0.025345871
88	0xbd16fb7f	-0.03686094
89	0xbcb99c1a	-0.022657443
90	0x3c896aaf	0.016774504
91	0xbc92419b	-0.017853549
92	0x3c00f6ec	0.007871371
93	0x3c8a7ed8	0.016906187
94	0xba0d4c0e	-0.0005390056
95	0x3a8db090	0.0010810066
96	0x3b984157	0.004646461
97	0xbd26e7af	-0.040748294
98	0xbb08867f	-0.002083212
99	0xbcea5324	-0.028604098
100	0xbcf65ffd	-0.030075068
101	0x3c8dc512	0.017305885
102	0xbc9c6b21	-0.019094052
103	0xbc949ac4	-0.018140204
104	0x3bfba256	0.007679264
105	0x3c90ba95	0.017667094
106	0xbcd642a7	-0.02615483
107	0xbabe4ec5	-0.0014519325
108	0xbce2bd9b	-0.027678302
109	0xbc4c1cb1	-0.012458012
110	0xbb11f649	-0.0022272042
111	0xbb4ec13f	-0.003154829
112	0xbaabe08e	-0.0013113187
113	0x3b91639b	0.0044369227
114	0x3c8ec602	0.017428402
115	0x3bcf49cf	0.0063259373
116	0x3bfbf5dc	0.007689221
117	0x3c9f291a	0.019428778
118	0xbd00e0c0	-0.03146434
119	0xbbfbd4f5	-0.0076852986
120	0xbc39e606	-0.011346346
121	0x3cec3876	0.028835516
122	0xbcece884	-0.028919466
123	0xbba13da4	-0.004920678
124	0xba2d4839	-0.0006610188
125	0x39d53519	0.00040666087
126	0x3ba1854f	0.0049292217
127	0xbc8f72e1	-0.017510833
128	0xbc2f304d	-0.010692668
129	0x3cc68378	0.024232611
130	0xbc59af44	-0.0132864155
131	0xbcab3ddc	-0.02090352
132	0xbc112b67	-0.008860446
133	0xbcbff2d5	-0.023431221
134	0x3c0e9a19	0.008703732
135	0xba9fb8c9	-0.0012185808
136	0xbd1fd614	-0.03902252
137	0x3bbf8e7d	0.0058458433
138	0xbd191da0	-0.03738177
139	0xbcc3e815	-0.023914376
140	0x3c8f35fd	0.017481798
141	0xbba86f00	-0.0051401854
142	0x3ca43fc3	0.020049935
143	0xbc90a41d	-0.01765638
144	0xbcc89bca	-0.024488349
145	0xbbb44943	-0.0055018975
146	0x3c701900	0.014654398
147	0xbc1a7059	-0.0094262
148	0xbb2c392b	-0.0026279192
149	0xbbb959d3	-0.00565646
150	0xbbf2aa50	-0.0074055567
151	0x3ca0c131	0.01962337
152	0xbb69c875	-0.003567246
153	0xbc8c69e2	-0.017140333
154	0xbb402af5	-0.002932248
155	0x3bd3bbc6	0.0064615933
156	0x3cacc41b	0.021089604
157	0x3c1c4143	0.009537044
158	0x3c68dd1c	0.014212873
159	0xba62c41e	-0.00086504396
160	0x3bc9d5f2	0.0061595375
161	0xbb71e527	-0.0036910267
162	0xbc320497	-0.010865352
163	0x3c1412f2	0.00903772
164	0xbc37b9e3	-0.011213752
165	0xbd0f97a0	-0.03505671
166	0xbb346852	-0.0027528
167	0x3cb93dd5	0.022612492
168	0xbbc35ddd	-0.005962117
169	0xbbd1b39d	-0.0063995854
170	0x3cb29567	0.021799756
171	0xbc3534e1	-0.011059971
172	0x3ca0878c	0.019595884
173	0x3bb56666	0.0055358885
174	0xbba1ce10	-0.0049378946
175	0xbcac0930	-0.021000475
176	0xbca84aa1	-0.020543398
177	0x3bfe6d46	0.0077644913
178	0xbcb901ba	-0.022583831
179	0x3a140eb1	0.0005647941
180	0xbccec786	-0.025241625
181	0xbc6d78e4	-0.014494155
182	0xbcf2248e	-0.029558446
183	0x3c3f2bc4	0.011668149
184	0xbb595897	-0.0033164376
185	0xbc12c07d	-0.008957026
186	0x3c9df226	0.019280504
187	0x3c145388	0.0090531185
188	0x3bfc926f	0.007707886
189	0xbb1dfe6d	-0.0024107948
190	0xbb111347	-0.0022136734
191	0xbccb885b	-0.024845293
192	0x3ca1e98d	0.019764686
193	0x3c168bbc	0.009188589
194	0x3c442ac5	0.011973088
195	0xbc245aa3	-0.010031375
196	0xbd01b026	-0.03166213
197	0xbb7a0f14	-0.003815596
198	0xb9715046	-0.00023013455
199	0x3c96669b	0.018359473
200	0xba2613bf	-0.000633534
201	0xbd05d777	-0.032676186
202	0xbce55b63	-0.027997678
203	0xbcc545f4	-0.024081208
204	0x3ccc10be	0.024910327
205	0xbcf8fe71	-0.030394765
206	0xbcb73ee0	-0.022368848
207	0x3c54d858	0.0129910335
208	0xbc8a4084	-0.016876467
209	0xbcc1aed6	-0.023642939
210	0x3c29b31f	0.010357647
211	0x3b9aad21	0.0047203456
212	0x3c62fb1d	0.013853815
213	0xbc3e45c8	-0.011613317
214	0xbca6d984	-0.020367391
215	0x3ce4b94f	0.027920393
216	0xbc53a008	-0.012916572
217	0xbc9fce14	-0.019507445
218	0x3c71b965	0.014753674
219	0xbd0f114f	-0.034928616
220	0xbca9e0dd	-0.020737106
221	0xbc6d56dd	-0.014486042
222	0x3bb70227	0.0055849734
223	0x3c0f1417	0.008732817
224	0xbc6da8e3	-0.014505598
225	0xbbd37c8f	-0.0064540575
226	0x3bd42399	0.00647397
227	0x3c6286b5	0.013826062
228	0xbc08b44a	-0.0083437655
229	0xbbb0daba	-0.005397168
230	0x3b9ca5e9	0.00478052
231	0xbc932b20	-0.0179649
232	0x3cb1073d	0.021609897
233	0xbc93e6df	-0.018054424
234	0xbba3931d	-0.0049919025
235	0x3c9e5b21	0.019330563
236	0xbcaa7ccc	-0.02081146
237	0x3c49d7ce	0.012319518
238	0xbd054e18	-0.03254518
239	0xbc4d3562	-0.0125249345
240	0x3bd3b046	0.0064602224
241	0x3c8a0639	0.01684867
242	0x3a0c3a2e	0.00053492456
243	0xbcd61023	-0.026130741
244	0x3c979975	0.018505791
245	0xbbc507b1	-0.00601288
246	0xbcb14b58	-0.021642372
247	0x3b7ff897	0.0039058083
248	0xbc5e50b4	-0.013569046
249	0xbcbac56f	-0.022799222
250	0x3c1b629a	0.009483958
251	0xbc4e5a12	-0.012594717
252	0x3c849866	0.01618595
253	0xbc98b5c3	-0.018641358
254	0x3b80a6c9	0.0039261323
255	0xbc799bae	-0.015234871

action_model._discrete_distribution.branches.0.weight f4 [2, 256]
0	0x3c23c136	0.009994796
1	0x3ba636c8	0.0050724484
2	0xbab60549	-0.0013887073
3	0x3bb46881	0.005505622
4	0x3cd37a99	0.025815295
5	0xbd3e5bc9	-0.046474252
6	0xbcfa9aa0	-0.03059131
7	0xbcb39c7e	-0.021925207
8	0x3d1b1dbb	0.03787015
9	0xbc5f2385	-0.013619308
10	0x3c5a7cf5	0.013335456
11	0x3cabe9c7	0.020985497
12	0xbcc414ac	-0.023935638
13	0x3c81864c	0.015811108
14	0x3c9a4db7	0.018835885
15	0x3c6b4268	0.014359094
16	0xbc2f3c9c	-0.010695603
17	0xbb7dd316	-0.0038730553
18	0xbcb6624d	-0.02226367
19	0x3c230c93	0.009951728
20	0x3bc49d40	0.006000191
21	0xbc8f23e4	-0.017473169
22	0x3c906368	0.017625526
23	0x3c056647	0.008142061
24	0xbd1fe9e8	-0.03904143
25	0x3cdbe308	0.026841655
26	0xbd06f068	-0.032944113
27	0xbc116f37	-0.008876613
28	0x3b644f0f	0.0034837162
29	0xbc8e43be	-0.017366286
30	0xba2f07ed	-0.0006676901
31	0x3d094f99	0.033523176
32	0xba9f1f7a	-0.0012140118
33	0x3c6af55b	0.014340724
34	0xbc241dbc	-0.010016855
35	0xbc7407f7	-0.014894477
36	0x3a5b9936	0.0008377017
37	0x3cf58e30	0.029975027
38	0xbbe21fee	-0.006900779
39	0x3c24dee9	0.010062912
40	0xbc7a98f5	-0.015295257
41	0x3c3da30b	0.011574517
42	0x3d0546df	0.03253829
43	0x3c42b98a	0.011885056
44	0xbc97b8b0	-0.018520683
45	0x3c49658d	0.012292278
46	0x3a6440d2	0.0008707169
47	0xbd1762f8	-0.03695962
48	0xbc474e65	-0.012164687
49	0x3b23ca8c	0.0024992554
50	0x3b500f7f	0.0031747518
51	0x3ceadb29	0.028668957
52	0xbc80b831	-0.01571283
53	0xbc461145	-0.012089078
54	0x3ba43a43	0.005011828
55	0x3c54faf8	0.012999289
56	0x3d0e1cc6	0.03469541
57	0x3c9634f2	0.018335793
58	0xbc041cf6	-0.008063545
59	0x3c4d7e8d	0.012542379
60	0x3cb0cd97	0.021582408
61	0x3caf1046	0.021370064
62	0xbcaa9316	-0.02082209
63	0xbd0302ed	-0.031985212
64	0xbc049bf3	-0.008093822
65	0xbafe3e39	-0.0019397206
66	0x3b33f6f1	0.002746042
67	0xbd19f1eb	-0.037584227
68	0xbc8b4e8f	-0.017005233
69	0xbc0ddfb9	-0.008659297
70	0x3cbf2d5a	0.023337055
71	0x3be7a289	0.0070689362
72	0x3bc612be	0.0060447147
73	0xbc4aa254	-0.012367804
74	0xbc88e3b7	-0.016710145
75	0xbcf5366a	-0.029933173
76	0xbac3e622	-0.0014945904
77	0xbc90f47a	-0.0176947
78	0x3c86075a	0.016360927
79	0x3a9022bf	0.0010996683
80	0xbc1b7108	-0.009487398
81	0x3d41a268	0.047274023
82	0xbc32ebb3	-0.010920453
83	0xbc75f1d9	-0.015011274
84	0xbbcb7612	-0.0062091434
85	0xbc9eb674	-0.01937411
86	0x3d1e1028	0.038589627
87	0xbb77d22c	-0.0037814481
88	0x3cd922f8	0.026505932
89	0x3bf4f1bd	0.0074751065
90	0xbc7d2c03	-0.015452388
91	0xbc2cde53	-0.010551053
92	0x3c9313d0	0.017953783
93	0xbbb153d5	-0.005411605
94	0xbc9686b7	-0.018374784
95	0x3ceda656	0.02900998
96	0x3aebfbce	0.0018004121
97	0x3c7e5e3d	0.015525398
98	0x3cc215c2	0.023692016
99	0x3b86df5b	0.0041159815
100	0x3c86625a	0.01640432
101	0xbcbb502e	-0.022865381
102	0x3d07f41a	0.033191778
103	0x3cd58552	0.026064549
104	0xbbd27234	-0.0064223055
105	0xba69695c	-0.00089039444
106	0x3c33b01a	0.010967279
107	0x3c2c3ac9	0.010512062
108	0x3d1edb89	0.038783584
109	0x3c546bdb	0.012965168
110	0xbc04d10a	-0.008106479
111	0xbcac02dd	-0.02099746
112	0xbc9b20c5	-0.018936524
113	0x3c6bb695	0.014386793
114	0x3b1df2b1	0.0024100954
115	0x3c83bb8b	0.016080638
116	0x3b8d82af	0.004318557
117	0x3b912bef	0.004430286
118	0xbc56b673	-0.013105023
119	0xbd132769	-0.035926256
120	0xbce7c007	-0.028289808
121	0xbcc4334f	-0.023950247
122	0x3be44192	0.0069658244
123	0x3c3d782a	0.011564294
124	0x3d1ed9ad	0.03878181
125	0xbd04fcc0	-0.032467604
126	0x3b125ecb	0.0022334333
127	0xbc4fc411	-0.012681023
128	0x3d051378	0.03248927
129	0xbcd42dea	-0.0259008
130	0xba05075f	-0.0005074646
131	0xbc07fab9	-0.008299523
132	0xbcce87aa	-0.025211174
133	0x3c950efb	0.01819562
134	0x3ce9bca7	0.02853234
135	0x3cb00a73	0.021489358
136	0x3ce3ebc1	0.027822377
137	0xbc5c31b0	-0.013439581
138	0x3a82f080	0.0009989887
139	0x3c4eb484	0.0126162805
140	0xbc08013e	-0.008301077
141	0x3bb4765e	0.0055072745
142	0x3bfdfc19	0.0077509996
143	0xbb927879	-0.004469928
144	0x3cfbeeae	0.03075346
145	0x3d070c85	0.032970924
146	0xbc40df66	-0.011772012
147	0x3bccca8b	0.006249731
148	0x3cf96496	0.03044347
149	0xbd486db3	-0.048932742
150	0xbcc23cc3	-0.023710614
151	0xbd25717c	-0.04039143
152	0x3ac0c1b0	0.0014706161
153	0x3c068c6e	0.008212192
154	0xbcc331a7	-0.023827387
155	0xbcfcf418	-0.030878112
156	0x3ca47b71	0.020078393
157	0xbce4ef47	-0.027946128
158	0x3c859834	0.016307928
159	0x3d08ed21	0.03342927
160	0xbc43679c	-0.011926558
161	0x3bc109e0	0.00589107
162	0xbc6d3a44	-0.014479224
163	0x3bec8298	0.0072177164
164	0xbad06604	-0.0015899544
165	0x3c659462	0.014012428
166	0x3ab888c0	0.0014078841
167	0xbc6f5e66	-0.014609909
168	0xbd15f472	-0.036610074
169	0xbc9128ba	-0.017719615
170	0x3b15df19	0.0022868572
171	0xbccff875	-0.025387028
172	0xbab8c0f4	-0.001409559
173	0xbc9153dd	-0.017740184
174	0x3a7ca74d	0.0009637967
175	0x385be140	5.242345e-05
176	0xbbaef302	-0.0053390274
177	0xbba0d9c2	-0.0049087713
178	0x3c70d772	0.014699804
179	0x3cdb0060	0.026733577
180	0xbcbd130f	-0.023080377
181	0x3d0f10c9	0.034928117
182	0x3bc0616f	0.00587099
183	0x3ca96215	0.020676652
184	0x3c340d82	0.010989549
185	0xbc04318f	-0.008068456
186	0x3a1039ac	0.0005501758
187	0xbcd41bdd	-0.025892192
188	0x39a7afe6	0.00031983777
189	0x3d3c518a	0.0459762
190	0xbcc2d858	-0.023784801
191	0x3c3af27b	0.011410351
192	0xbc335bb9	-0.010947161
193	0xbc9bb586	-0.019007456
194	0xbc7b1697	-0.01532521
195	0xbc46aad2	-0.012125688
196	0xbb3010a8	-0.0026865397
197	0xbc185284	-0.009297017
198	0xbd10bec4	-0.03533818
199	0xbcb3e1c9	-0.021958249
200	0x3b7df6a6	0.003875175
201	0xbc281cf6	-0.010260811
202	0x3c0d0a9f	0.008608489
203	0xbb91e25f	-0.0044520344
204	0xbcc979bd	-0.024594182
205	0x3c4ad134	0.0123789795
206	0xbbd82bca	-0.006597017
207	0xbb4d1179	-0.0031290932
208	0xbc83988e	-0.016063955
209	0x3abb37a8	0.0014283555
210	0xbc05e7f2	-0.008172976
211	0xbc70fb7a	-0.014708394
212	0xbc1991ac	-0.00937311
213	0xbcb73658	-0.02236478
214	0xba7345c0	-0.0009280108
215	0xbbc80bad	-0.0061049075
216	0xbc4ce88d	-0.012506616
217	0x3b3573b8	0.0027687382
218	0x3c13fd49	0.009032556
219	0x3b6c380a	0.0036044144
220	0x3c11ea7d	0.008906004
221	0xbc877c9e	-0.016538914
222	0xbd43c870	-0.047798574
223	0xbc849de1	-0.016188564
224	0xbd11b21a	-0.03557024
225	0xbc992cf0	-0.018698186
226	0x3b963e30	0.00458505
227	0xbd273fa6	-0.040832184
228	0xbc7a9ae3	-0.015295717
229	0xbc8e129d	-0.01734286
230	0xbc40e2d7	-0.011772833
231	0x3c89dfa4	0.016830273
232	0xbaa780ca	-0.0012779471
233	0x3d2323a5	0.039828915
234	0xbd29e9bd	-0.041482676
235	0xbd088d78	-0.03333804
236	0x3ce8a489	0.028398769
237	0xbd13fbd1	-0.036128823
238	0x3c38499d	0.0112480195
239	0xbcdce229	-0.02696331
240	0xbc1c1146	-0.009525603
241	0xb9e48c06	-0.00043591874
242	0x3c0bbc16	0.00852873
243	0xbcdfd590	-0.027323514
244	0xbc405d22	-0.011740955
245	0xbd73495c	-0.059396133
246	0xbc7e1e6a	-0.015510181
247	0xbb7bcb91	-0.0038420896
248	0x3c89c5a1	0.01681787
249	0x3a41b000	0.0007388592
250	0xbc826cd1	-0.015921028
251	0xbc87bf02	-0.016570572
252	0xbc7abc88	-0.015303738
253	0x3d19baec	0.03753178
254	0x3c6cf24c	0.014462065
255	0x3c6db2bf	0.014507948

action_model._discrete_distribution.branches.0.bias f4 [2]
0	0xbc7f8fd1	-0.015598253
1	0x3c7f8ff5	0.015598287
