results/14/SmartAgent.onnx (onnx, 123923 bytes, 11 tensors)

discrete_action_output_shape f4 [1, 4]
2.0 2.0 2.0 2.0
00000000: 0000 0040 0000 0040 0000 0040 0000 0040

network_body._body_endoder.seq_layers.0.weight f4 [128, 225]
-0.26422092 -0.08810303 -0.30485368 -0.095715955 0.019922368 -0.036962334 0.30554128 0.31911397
-0.053265765 0.14169577 -0.06962131 -0.020814681 0.10134148 0.03733327 0.33042377 0.009643405
0.08275728 0.20520061 0.08869643 0.011158269 0.08664537 0.19106148 0.24239653 -0.054975387
-0.10444227 0.14960381 0.006401919 -0.059246056 0.016380893 0.29681396 0.15516111 0.26431286
0.4000545 0.17131916 0.03702295 0.12087899 0.15180412 0.056137577 -0.12587601 -0.047564767
0.23070833 -0.15392134 -0.0371694 -0.0062775975 0.06889506 0.11847523 0.11105447 0.0352861
0.26096463 0.14758709 -0.03555847 0.22823218 -0.054801125 0.13443996 0.1346208 0.18902309
0.16713661 0.17342997 0.08662471 0.030031215 0.11022888 0.13899754 0.03891993 -0.11231962
-0.06295557 -0.2458636 0.18104884 -0.08634779 -0.03360153 -0.19269781 0.1073907 0.033313368
-0.029895794 -0.03176875 0.21141227 -0.17380026 -0.09296018 0.10373044 -0.13805765 0.036339086
0.020986237 0.22703363 0.049972005 0.018180592 0.11009048 -0.06254231 -0.00937576 0.286453
0.09973663 0.093673244 0.084600165 0.016691616 0.2186644 0.07702176 -0.19089308 0.18123697
0.3650358 0.016147135 0.10283906 -0.049028266 -0.15878908 0.06661681 0.111163236 0.18947749
0.3810856 -0.18152094 0.19717433 -0.19582476 0.020860191 0.07785449 -0.034729864 0.14389616
-0.25022054 0.12779741 0.12238586 -0.028060453 -0.22219844 0.08790299 0.011574859 -0.05020459
-0.2680699 -0.5292388 -0.2520039 0.051341835 0.11414909 0.10744727 0.043027576 0.03000601
0.07621266 0.03258819 -0.16270588 0.16240557 0.123854496 0.035005774 0.3207023 -0.15882818
-0.093336664 0.032064974 0.13579585 0.17357598 -0.10435084 0.0070449035 -0.14463069 -0.06791111
0.108000964 -0.20390248 0.16093515 0.091463484 0.1312523 0.2675337 0.5718883 0.6389269
0.28147075 0.13542227 0.19893807 -0.1702019 0.042685416 0.112988755 0.119209334 0.023795214
0.040805086 0.17051764 -0.05683629 -0.034527723 0.17015778 0.24217115 0.18056671 0.12033374
0.1663367 0.0027979242 0.22436826 0.06296188 -0.03901673 0.065745 0.25324786 0.2473227
0.022307547 -0.07125869 0.13607131 -0.01754449 0.07822078 0.0034043707 0.13913718 0.0933
0.013717222 0.11587543 0.20587435 0.028643105 -0.015569559 0.15580891 0.028879493 0.08317386
0.08370326 -0.13532679 -0.025347821 0.044733524 0.21598105 -0.06930506 0.02697773 -0.07098803
0.090448864 0.08623572 0.090370074 0.014039442 0.011339717 0.15799764 0.11453187 0.122487634
0.089160554 -0.08730751 -0.039933696 0.08055521 -0.15383741 0.19039465 -0.09128345 0.13016245
0.1820793 0.050452195 0.22087403 -0.011191678 0.006528296 0.25465438 0.011072472 0.21905808
0.17406799 -0.04508119 -0.033404443 -0.3100579 -0.011168684 -0.21800356 -0.24276787 -0.064731166
0.054539837 0.031521637 -0.2486682 0.17625412 0.09591293 0.06210054 0.14571868 -0.039468467
0.058608964 0.15462898 -0.008623008 0.013878049 -0.086453155 -0.08559696 0.121335 0.07186213
0.12128787 0.07866824 0.072534665 0.1874655 0.13786574 0.11561102 0.07468947 0.050468422
00000000: f747 87be 5d6f b4bd c815 9cbe ba06 c4bd
00000010: 3c34 a33c d165 17bd e86f 9c3e e862 a33e
00000020: 342d 5abd b218 113e 9e95 8ebd 8d83 aabc
00000030: 1f8c cf3d c5ea 183d 4e2d a93e 5fff 1d3c
00000040: a67c a93d 1c20 523e 79a6 b53d 2cd1 363c
00000050: 2173 b13d 9fa5 433e cc36 783e df2d 61bd
00000060: d4e5 d5bd be31 193e 30c7 d13b feab 72bd
00000070: 3931 863c 00f8 973e 8ee2 1e3e 0454 873e
00000080: f2d3 cc3e 4a6e 2f3e 60a5 173d 678f f73d
00000090: 8a72 1b3e 84f0 653d a4e5 00be 46d3 42bd
000000a0: ce3e 6c3e 8e9d 1dbe f13e 18bd 4eb4 cdbb
000000b0: da18 8d3d 24a3 f23d 8770 e33d 2888 103d
000000c0: 289d 853e 1221 173e c2a5 11bd b2b5 693e
000000d0: 2577 60bd a1aa 093e 09da 093e 458f 413e
000000e0: dc25 2b3e a097 313e 4c68 b13d 0604 f63c
000000f0: aebf e13d 5f55 0e3e 816a 1f3d d407 e6bd
00000100: daee 80bd abc3 7bbe de64 393e 1cd7 b0bd
00000110: c2a1 09bd 9352 45be a8ef db3d 9973 083d
00000120: 06e8 f4bc f31f 02bd 757c 583e b2f8 31be
00000130: e861 bebd a070 d43d fc5e 0dbe 4bd8 143d
00000140: 54eb ab3c 817b 683e 72af 4c3d 77ef 943c
00000150: 1e77 e13d 2f16 80bd ca9c 19bc f8a9 923e
00000160: b842 cc3d c2d7 bf3d da42 ad3d dbbc 883c
00000170: 8fe9 5f3e 96bd 9d3d 7a79 43be 2f96 393e
00000180: f9e5 ba3e ff46 843c 499d d23d ddd1 48bd
00000190: 9b99 22be 656e 883d 8da9 e33d 6306 423e
000001a0: a71d c33e a0e0 39be 11e8 493e 4986 48be
000001b0: fee2 aa3c 2d72 9f3d e740 0ebd 8459 133e
000001c0: e81c 80be 53dd 023e 70a5 fa3d 09df e5bc
000001d0: fd87 63be 7c06 b43d 7aa4 3d3c 54a3 4dbd
000001e0: 7540 89be 327c 07bf a806 81be d14b 523d
000001f0: 00c7 e93d 500d dc3d af3d 303d 2acf f53c
00000200: 6215 9c3d 327b 053d 5f9c 26be a54d 263e
00000210: 6da7 fd3d 3762 0f3d 1833 a43e dba3 22be
00000220: 4b27 bfbd 9056 033d 110e 0b3e e7bd 313e
00000230: e5b5 d5bd efd8 e63b 111a 14be fb14 8bbd
00000240: 9c2f dd3d d0cb 50be 2fcc 243e 3551 bb3d
00000250: 0167 063e 2dfa 883e 4667 123f b790 233f
00000260: ef1c 903e 23ac 0a3e 6cb6 4b3e 6849 2ebe
00000270: e7d6 2e3d a666 e73d 0624 f43d 2eee c23c
00000280: 3c23 273d 2d9c 2e3e 2bcd 68bd f16c 0dbd
00000290: d73d 2e3e b7fb 773e 7be6 383e 8971 f63d
000002a0: 2b54 2a3e 615d 373b cbc0 653e 28f2 803d
000002b0: 02d0 1fbd 51a5 863d b4a9 813e 2942 7d3e
000002c0: 51be b63c 13f0 91bd 4756 0b3e 76b9 8fbc
000002d0: 3732 a03d dd1b 5f3b fa79 0e3e 1214 bf3d
000002e0: 33be 603c 1950 ed3d bad0 523e f2a4 ea3c
000002f0: 7717 7fbc 5f8c 1f3e b094 ec3c 0f57 aa3d
00000300: 9d6c ab3d 1b93 0abe 3ca6 cfbc 803a 373d
00000310: 232a 5d3e d0ef 8dbd 6700 dd3c 2c62 91bd
00000320: 413d b93d 5a9c b03d f213 b93d b005 663c
00000330: 38ca 393c 22ca 213e af8f ea3d ccda fa3d
00000340: cf99 b63d 48ce b2bd 8491 23bd 21fa a43d
00000350: 8e87 1dbe d1f6 423e d1f2 babd 4e49 053e
00000360: ff72 3a3e f6a6 4e3d cd2c 623e 4d5d 37bc
00000370: 51eb d53b 0f62 823e 5069 353c c350 603e
00000380: e13e 323e 0ea7 38bd 19d3 08bd e9bf 9ebe
00000390: dbfc 36bc 533c 5fbe 2498 78be c691 84bd
000003a0: 2a65 5f3d d51c 013d e0a2 7ebe f67b 343e
000003b0: 006e c43d 235d 7e3d 4737 153e b0a9 21bd
000003c0: f40f 703d 0f57 1e3e 8447 0dbc c260 633c
000003d0: 5a0e b1bd 754d afbd 7c7e f83d 742c 933d
000003e0: c665 f83d d01c a13d 0e8d 943d f5f6 3f3e
000003f0: ad2c 0d3e 78c5 ec3d cbf6 983d fab7 4e3d

network_body._body_endoder.seq_layers.0.bias f4 [128]
0.14458153 0.003062497 -0.19871491 -0.12964708 -0.05693364 -0.025613334 0.15171236 0.013519304
0.17567556 0.08370237 -0.0059245504 -0.021618042 0.043795522 -0.1753718 -0.14323275 0.16925645
0.1222674 0.13391826 0.34900987 0.12385285 -0.172381 0.020996606 -0.011749502 0.3484564
0.023280248 0.022444762 0.26544726 0.18056132 0.07019051 0.12342695 0.02272958 0.2580295
-0.045001313 0.07212143 0.15659148 0.12204695 -0.031978622 0.016642425 -0.074085325 0.16550773
-0.02629657 0.00079566066 -0.09155122 0.12724248 0.15396814 0.0017990316 0.024071144 0.08820706
0.25784466 -0.048284672 -0.12154439 0.037266225 -0.074534714 -0.09039199 0.18696448 -0.06211762
0.046195194 0.111980915 0.2514836 0.05635595 0.018973716 -0.04289229 0.16850361 -0.023677342
0.10497939 -0.059196547 -0.13780065 -0.041347943 0.1135846 0.030565266 0.18840106 -0.06815761
0.06109426 0.23561825 5.0347047e-05 -0.09659884 0.10335373 -0.12745188 -0.04378961 -0.07820011
-0.07615836 -0.03966683 -0.1129275 -0.19746056 -0.10587019 0.056486618 0.0105786035 0.04117153
0.10526318 0.2799232 0.051628556 0.37651348 0.075876296 0.051707055 -0.023288844 0.21502575
0.08667897 -0.0662244 0.07695188 0.073486246 0.014578286 -0.06620828 0.029791148 0.15772073
0.022150325 0.10601227 -0.0152228 0.03681233 0.10495695 -0.00451533 -0.005901269 0.061137185
0.048057977 0.020599976 0.28382987 0.16923745 0.14023454 0.34678856 0.12730333 -0.048821904
-0.027600704 -0.14053734 -0.05159472 0.045475904 0.14822927 0.31332383 -0.103526235 0.025248175
00000000: 2e0d 143e 2cb4 483b ec7b 4bbe 34c2 04be
00000010: 4033 69bd 0ed3 d1bc 7c5a 1b3e 1280 5d3c
00000020: 4be4 333e 266c ab3d bb22 c2bb 5218 b1bc
00000030: ef62 333d aa94 33be 9bab 12be 9051 2d3e
00000040: 5567 fa3d de21 093e 6cb1 b23e 90a6 fd3d
00000050: a584 30be 1301 ac3c fc80 40bc e168 b23e
00000060: 38b6 be3c 14de b73c b4e8 873e 11e5 383e
00000070: 0bc0 8f3d 45c7 fc3d 6233 ba3c 711c 843e
00000080: 4c53 38bd 66b4 933d 8459 203e c0f3 f93d
00000090: 04fc 02bd b255 883c 0cba 97bd dc7a 293e
000000a0: e86b d7bc e293 503a 357f bbbd da4b 023e
000000b0: d3a9 1d3e 7ccd eb3a d930 c53c e7a5 b43d
000000c0: 3704 843e 26c6 45bd 44ec f8bd 78a4 183d
000000d0: a8a5 98bd 701f b9bd 9e73 3f3e 0c6f 7ebd
000000e0: 2c37 3d3d 4056 e53d 75c2 803e 7fd5 663d
000000f0: c46e 9b3c d3af 2fbd 368c 2c3e fcf6 c1bc
00000100: 6fff d63d 1478 72bd 9d1b 0dbe 765c 29bd
00000110: 0b9f e83d 0264 fa3c 35ec 403e 3896 8bbd
00000120: fa3d 7a3d e945 713e bb2b 5338 9dd5 c5bd
00000130: 1fab d33d bf82 02be bc5c 33bd 6127 a0bd
00000140: eaf8 9bbd b079 22bd 8846 e7bd 1a33 4abe
00000150: 78d2 d8bd 835e 673d e151 2d3c 7aa3 283d
00000160: 3994 d73d 1852 8f3e 7778 533d 60c6 c03e
00000170: 0865 9b3d c7ca 533d 3fc8 bebc b62f 5c3e
00000180: be84 b13d a9a0 87bd f298 9d3d f57f 963d
00000190: c3d9 6e3c 3598 87bd 910c f43c 8b81 213e
000001a0: 9974 b53c f61c d93d 0d69 79bc 87c8 163d
000001b0: abf3 d63d 55f5 93bb 6f5f c1bb fc6a 7a3d
000001c0: 71d8 443d 48c1 a83c 2652 913e 954c 2d3e
000001d0: a599 0f3e 458e b13e ce5b 023e 7af9 47bd
000001e0: df1a e2bc 05e9 0fbe fc54 53bd f144 3a3d
000001f0: 6ac9 173e fb6b a03e 9005 d4bd 43d5 ce3c

action_model._discrete_distribution.branches.0.weight f4 [2, 128]
0.21660726 -0.876186 -0.29402417 -0.09284487 -0.14579833 -0.99217796 0.6824958 -0.2484626
0.059989873 -0.6367033 -0.4031023 0.5611755 -0.39282465 0.10372201 0.19626789 0.8844048
0.94198805 -0.89535403 -0.010388762 0.72792757 -0.15770194 0.58323544 0.38359383 0.22258648
0.009286817 0.6958005 0.42832154 0.34991357 -0.68180746 0.67209584 0.17232469 0.411142
0.2936064 -0.47235498 0.7956689 0.46285897 0.46567085 -0.11101981 -0.4516512 0.02613674
-0.3743814 -0.7317599 -0.14315076 0.4677622 0.39607996 -0.55941004 -0.093505934 0.3653589
0.17279297 0.5106047 -0.32421923 0.49760023 -0.4396861 -0.5685961 1.0863495 -0.06367788
0.2808478 0.8070809 0.3009918 0.7825156 -0.51544327 0.15509821 0.90419185 -0.032173656
-0.42981225 0.36495104 0.20790017 -0.66509926 0.73997104 0.25232932 1.065343 -0.19065215
-0.02928342 0.41169742 0.38064218 -0.22899613 0.19043624 -0.049207296 0.21580313 -0.46186832
0.32695448 0.18136026 -0.44226772 -0.38020596 -0.085649945 -0.91441756 0.37027672 0.4594326
-0.5991982 0.549116 0.38542536 0.030696722 0.36582837 0.52549493 0.17100841 -0.4855759
0.7677751 -0.35852334 0.075660594 0.28382778 -0.07259808 -0.055092197 -0.4019833 -0.5336977
-0.9766893 0.038869288 0.47808918 0.6164282 0.56300133 0.5593695 -0.1351127 -0.5341911
0.29380158 -0.44809783 0.18123567 0.9198681 -0.8498284 -0.38021657 0.16854602 0.16825436
-0.6729898 -0.055685315 -0.78174126 0.6919385 0.2850247 0.64254934 -0.82207704 -0.47979972
-0.23294581 0.898421 0.2808472 0.09577097 0.12657756 0.97079706 -0.6832781 0.25158212
-0.06880435 0.6516747 0.4124274 -0.54103494 0.41475737 -0.09982415 -0.21296448 -0.8933211
-0.9423762 0.90248495 0.02745355 -0.73887354 0.15976566 -0.5846796 -0.4005358 -0.21093765
0.0029851454 -0.70575947 -0.42963946 -0.34132877 0.6654432 -0.6861309 -0.19576159 -0.41709253
-0.29994377 0.4735742 -0.80824 -0.4650038 -0.46864018 0.1077006 0.45711228 -0.001205858
0.37406233 0.7527591 0.13305452 -0.45138693 -0.40288514 0.57537776 0.089860864 -0.34205836
-0.16622376 -0.51511997 0.32088742 -0.4861278 0.47447893 0.58599293 -1.084958 0.07166571
-0.27687153 -0.8149151 -0.29078773 -0.77428 0.52615374 -0.1478782 -0.9017336 0.03980053
0.45571548 -0.3732232 -0.22954543 0.6634108 -0.76300883 -0.24067402 -1.0580745 0.18334994
0.027909247 -0.40080982 -0.39995548 0.23811089 -0.18950973 0.042929634 -0.2106327 0.4488486
-0.33213282 -0.18377805 0.43138143 0.36824423 0.099022254 0.898916 -0.35812354 -0.4422795
0.59773946 -0.53536505 -0.40551603 -0.025585819 -0.374724 -0.52137685 -0.16114372 0.4857435
-0.7527628 0.36703002 -0.08439642 -0.2872402 0.076496944 0.04777921 0.38362333 0.5401029
0.9691815 -0.046346966 -0.5012166 -0.597531 -0.55834734 -0.5748033 0.13623904 0.52531165
-0.2866854 0.4225558 -0.20604526 -0.9132722 0.86070496 0.36282307 -0.1634671 -0.14819856
0.6766359 0.06275765 0.79259914 -0.668467 -0.2939711 -0.64498705 0.81694156 0.4858191
00000000: 4bce 5d3e ba4d 60bf 568a 96be 7425 bebd
00000010: 284c 15be 60ff 7dbf 0bb8 2e3f fb6c 7ebe
00000020: f1b7 753d fdfe 22bf 6d63 cebe 33a9 0f3f
00000030: 5020 c9be 356c d43d 73fa 483e 5a68 623f
00000040: 2126 713f ec35 65bf a035 2abc 7659 3a3f
00000050: 9e7c 21be eb4e 153f 6966 c43e b6ed 633e
00000060: bc27 183c fb1f 323f f64c db3e df27 b33e
00000070: ef8a 2ebf 790e 2c3f e275 303e 3481 d23e
00000080: 9453 963e 83d8 f1be f5b0 4b3f dafb ec3e
00000090: 696c ee3e 5b5e e3bd d33e e7be b71c d63c
000000a0: ebae bfbe 9e54 3bbf 1d96 12be 877e ef3e
000000b0: feca ca3e 7f35 0fbf 0a80 bfbd 5210 bb3e
000000c0: a4f0 303e fdb6 023f 1000 a6be 75c5 fe3e
000000d0: 891e e1be 848f 11bf 800d 8b3f 8c69 82bd
000000e0: 48cb 8f3e db9c 4e3f 991b 9a3e f152 483f
000000f0: 17f4 03bf 11d2 1e3e 1e79 673f 86c8 03bd
00000100: 5a10 dcbe ddda ba3e c8e3 543e f243 2abf
00000110: be6e 3d3f 4f31 813e 295d 883f 513a 43be
00000120: c8e3 efbc 01ca d23e 88e3 c23e f67d 6abe
00000130: b801 433e 978d 49bd 7ffb 5c3e 017a ecbe
00000140: 9466 a73e 81b6 393e ea70 e2be 5baa c2be
00000150: 3d69 afbd 4517 6abf e994 bd3e c03a eb3e
00000160: 0e65 19bf de92 0c3f 7956 c53e b177 fb3c
00000170: db4d bb3e d686 063f d41c 2f3e 689d f8be
00000180: e98c 443f 5f90 b7be f1f3 9a3d e051 913e
00000190: 4dae 94bd 5ba8 61bd c1d0 cdbe 6aa0 08bf
000001a0: 4f08 7abf 6735 1f3d 1bc8 f43e 3dce 1d3f
000001b0: db20 103f d732 0f3f fc5a 0abe bfc0 08bf
000001c0: 296d 963e 146d e5be d895 393e 7a7c 6b3f
000001d0: 5b8e 59bf bfab c2be 5497 2c3e df4a 2c3e
000001e0: 0f49 2cbf 4916 64bd 3220 48bf e222 313f
000001f0: c2ee 913e 1d7e 243f a473 52bf 4fa8 f5be
00000200: 5989 6ebe ebfe 653f 34cb 8f3e 9223 c43d
00000210: 8c9d 013e 2886 783f 50eb 2ebf 5fcf 803e
00000220: 4ce9 8cbd 27d4 263f af29 d33e 4481 0abf
00000230: 145b d43e 9b70 ccbd 5c13 5abe b1b0 64bf
00000240: 913f 71bf 4109 673f 44e6 e03c d126 3dbf
00000250: 9c99 233e 90ad 15bf 0713 cdbe 0a00 58be
00000260: 6ea2 433b a7ac 34bf b4f9 dbbe a5c2 aebe
00000270: 7c5a 2a3f 46a6 2fbf ba75 48be 278d d5be
00000280: 3b92 99be 5178 f23e d1e8 4ebf fa14 eebe
00000290: 9bf1 efbe 2292 dc3d 9f0a ea3e e10d 9eba
000002a0: 1985 bf3e d2b4 403f 723f 083e 301c e7be
000002b0: f646 cebe f54b 133f f908 b83d 4622 afbe
000002c0: 9036 2abe e7de 03bf 5b4b a43e bee5 f8be
000002d0: e7ee f23e a203 163f e7df 8abf 79c5 923d
000002e0: 1bc2 8dbe 479e 50bf 21e2 94be 3737 46bf
000002f0: 03b2 063f 626d 17be 03d8 66bf e105 233d
00000300: 8a53 e93e 1c17 bfbe f50d 6bbe 4ad5 293f
00000310: 8c54 43bf 4073 76be fc6e 87bf 16c0 3b3e
00000320: efa1 e43c f236 cdbe f7c6 ccbe 57d3 733e
00000330: d70e 42be fcd6 2f3d 19b0 57be 7ccf e53e
00000340: 500d aabe 5030 3cbe 07de dc3e 828a bc3e
00000350: 2ecc ca3d 5c1f 663f f85b b7be 7572 e2be
00000360: 7405 193f af0d 09bf cc9f cfbe 5a99 d1bc
00000370: d3db bfbe f478 05bf dc02 25be 5fb3 f83e
00000380: 10b5 40bf 5ceb bb3e 08d8 acbd 2611 93be
00000390: 6eaa 9c3d 22b4 433d 476a c43e 2f44 0a3f
000003a0: 471c 783f 51d6 3dbd bb4f 00bf cbf7 18bf
000003b0: daef 0ebf 4f26 13bf 3f82 0b3e d37a 063f
000003c0: 6ec8 92be 3c59 d83e 87fd 52be 35cc 69bf
000003d0: 2957 5c3f f2c3 b93e eb63 27be 5dc1 17be
000003e0: 0338 2d3f 1587 803d c7e7 4a3f a720 2bbf
000003f0: 6183 96be df1d 25bf 1523 513f 48bd f83e

action_model._discrete_distribution.branches.0.bias f4 [2]
0.10656037 -0.10655089
00000000: 533c da3d 5a37 dabd

action_model._discrete_distribution.branches.1.weight f4 [2, 128]
0.15378436 0.14623311 0.63295984 0.72767997 0.76749927 0.89403087 -0.45192263 0.116357505
0.01049911 -0.31690827 0.20622307 0.41174078 -0.18454328 0.72405756 0.23570518 0.20718381
0.33184353 -0.15828425 -0.6778922 -0.088978544 0.16116932 0.10293631 -0.349516 -0.5613188
-0.05534422 0.7796855 -0.22362868 -1.2294061 -0.32763642 -0.7311268 -0.5216645 -0.414068
-0.11518906 -0.16942531 -0.24025841 0.35661042 -0.15834261 0.3935258 0.2509693 -0.34409127
0.5065123 0.21670806 0.26918122 -0.0516686 0.22815283 0.5465118 -0.68481416 -0.88002545
-1.2536284 0.59108007 0.54850334 -0.1079688 0.6271636 0.1318478 0.07891234 -0.09074105
0.024485625 0.025324956 -0.12212376 -0.27832863 0.11646419 0.8665731 -0.20199347 0.95421565
-0.6072323 0.23925847 0.076611385 0.32035634 -0.056156825 -0.04564308 0.0073429896 -0.008317314
0.3091781 -0.4086429 0.9653394 0.7503397 -0.39189756 0.26049137 -0.4345666 0.13379681
0.6226599 -0.4107267 0.81470454 0.1638567 0.85175496 -0.027969763 -0.5076871 -0.41570297
0.27057555 -0.23385158 0.5344948 -0.9824437 -0.4959665 -0.14000817 0.6485085 -0.3820841
-0.17466927 0.7493662 0.19381863 -0.111761644 0.32974255 -0.26441756 -0.12764826 -0.37219146
-0.084492594 -0.3127241 0.30386424 0.13889925 -0.021171289 0.45012125 0.07890059 -0.17575365
-0.22550009 0.59975207 -0.94884515 0.12194494 -0.123506956 -0.7453695 0.17597683 -0.20594767
0.48353237 0.13090807 0.33606306 0.094352424 0.24963754 -0.40310013 0.24412069 0.38392234
-0.1523008 -0.16840833 -0.6190382 -0.72168237 -0.759411 -0.87089324 0.46941844 -0.12263173
0.005279031 0.32161602 -0.19919212 -0.4048414 0.16663596 -0.7279328 -0.22845279 -0.22079082
-0.31799805 0.17446043 0.6875823 0.098333776 -0.15975757 -0.11621155 0.3231356 0.5655892
0.05957721 -0.774872 0.23125418 1.2320613 0.31744716 0.71602756 0.50994414 0.4204559
0.12691565 0.1503936 0.23131205 -0.36372948 0.17505005 -0.3964433 -0.2520189 0.3436896
-0.49333158 -0.22812162 -0.28751755 0.0712721 -0.21812373 -0.5411197 0.64924574 0.875703
1.2412263 -0.5792843 -0.5268094 0.10428401 -0.62337947 -0.14497845 -0.07675975 0.08089219
-0.007886922 -0.05626294 0.1119121 0.27675623 -0.12623318 -0.85715216 0.19742058 -0.9647128
0.62226105 -0.23141322 -0.09052597 -0.33775032 0.058535278 0.044997025 -0.018024227 0.027115813
-0.30280778 0.40199813 -0.95029956 -0.7511468 0.38543308 -0.25475663 0.4304704 -0.14359812
-0.6122821 0.40833694 -0.8091286 -0.16514735 -0.84464395 0.025180971 0.48956525 0.4200145
-0.26478374 0.22569698 -0.5117853 0.97761047 0.50235325 0.12573695 -0.6596819 0.39065063
0.18167321 -0.7369817 -0.19661668 0.116090246 -0.33320192 0.2661498 0.1349045 0.38681132
0.093069986 0.3217583 -0.29206967 -0.13205473 0.02197837 -0.45444834 -0.06565072 0.17492333
0.21882339 -0.60035896 0.950599 -0.11165202 0.12959085 0.73940676 -0.15630037 0.21005683
-0.46819112 -0.11253879 -0.3336174 -0.10348088 -0.23442595 0.41745037 -0.25061926 -0.40468043
00000000: a679 1d3e 22be 153e a809 223f 3c49 3a3f
00000010: d57a 443f 35df 643f 6762 e7be d84c ee3d
00000020: 7604 2c3c cd41 a2be 242c 533e b0cf d23e
00000030: eaf8 3cbe d65b 393f b35c 713e fe27 543e
00000040: 65e7 a93e 4415 22be 588a 2dbf 623a b6bd
00000050: 9209 253e 46d0 d23d c3f3 b2be 97b2 0fbf
00000060: 9fb0 62bd 7899 473f ebfe 64be 2e5d 9dbf
00000070: f6bf a7be 202b 3bbf ce8b 05bf b900 d4be
00000080: 3ee8 ebbd d47d 2dbe 4d06 76be a495 b63e
00000090: 9124 22be 377c c93e 0c7f 803e bb2c b0be
000000a0: caaa 013f b8e8 5d3e 1fd2 893e 74a2 53bd
000000b0: e5a0 693e 33e8 0b3f fb4f 2fbf 5949 61bf
000000c0: e576 a0bf 0651 173f b76a 0c3f bf1e ddbd
000000d0: cb8d 203f 1c03 073e cb9c a13d 72d6 b9bd
000000e0: 1496 c83c 4876 cf3c 061c fabd 1781 8ebe
000000f0: c784 ee3d bcd7 5d3f 60d7 4ebe 7a47 743f
00000100: 9373 1bbf 2c00 753e 6ee6 9c3d bf05 a43e
00000110: b304 66bd 3df4 3abd 769d f03b 5845 08bc
00000120: 984c 9e3e a439 d1be 7c20 773f 4316 403f
00000130: cca6 c8be 205f 853e 837f debe 0802 093e
00000140: a466 1f3f c54a d2be 7a90 503f 0dca 273e
00000150: 9d0c 5a3f d820 e5bc c8f7 01bf 05d7 d4be
00000160: e188 8a3e ca76 6fbe a7d4 083f 6e81 7bbf
00000170: 52ef fdbe 4d5e 0fbe a704 263f 87a0 c3be
00000180: 80dc 32be 77d6 3f3f 6478 463e 4ae3 e4bd
00000190: 04d4 a83e bd61 87be 3ab6 02be e18f bebe
000001a0: 740a adbd 601d a0be 1894 9b3e 9b3b 0e3e
000001b0: 696f adbc 4b76 e63e a296 a13d c4f8 33be
000001c0: 7fe9 66be 5a89 193f 84e7 72bf 45be f93d
000001d0: 37f1 fcbd 89d0 3ebf 4533 343e f2e3 52be
000001e0: 8e91 f73e c40c 063e 7510 ac3e d83b c13d
000001f0: fca0 7f3e 2463 cebe c6fa 793e 7891 c43e
00000200: bef4 1bbe 3c73 2cbe 4a79 1ebf 2dc0 38bf
00000210: c268 42bf dcf2 5ebf 9d57 f03e 5826 fbbd
00000220: b9fb ac3b dbaa a43e 05f9 4bbe 5f47 cfbe
00000230: 9ea2 2a3e ce59 3abf 87ef 69be fd16 62be
00000240: a4d0 a2be c1a5 323e 6505 303f 3863 c93d
00000250: 7d97 23be 5200 eebd 0872 a53e 74ca 103f
00000260: 3c07 743d 035e 46bf e5cd 6c3e 2fb4 9d3f
00000270: 6f88 a23e 954d 373f b38b 023f ff45 d73e
00000280: 2df6 013e c800 1a3e 11dd 6c3e c03a babe
00000290: 5240 333e 9efa cabe 9f08 81be 15f8 af3e
000002a0: f595 fcbe b798 69be 8035 93be 1bf7 913d
000002b0: d45b 5fbe d286 0abf f834 263f 122e 603f
000002c0: 81e0 9e3f fa4b 14bf fbdc 06bf db92 d53d
000002d0: cc95 1fbf 3b75 14be 3734 9dbd ceaa a53d
000002e0: 2638 01bc f873 66bd 2c32 e53d feb2 8d3e
000002f0: 4543 01be 536e 5bbf 9f28 4a3e 6bf7 76bf
00000300: 804c 1f3f 96f7 6cbe ae65 b9bd 9ced acbe
00000310: b0c2 6f3d cd4e 383d 8ba7 93bc fb21 de3c
00000320: 9f09 9bbe b3d2 cd3e d546 73bf 284b 40bf
00000330: 7c57 c53e 766f 82be 9e66 dc3e 630b 13be
00000340: 85be 1cbf 8a11 d13e 0d23 4fbf 631c 29be
00000350: 963a 58bf 5348 ce3c 4ca8 fa3e 240c d73e
00000360: bc91 87be 1c1d 673e 5d04 03bf ae44 7a3f
00000370: 399a 003f 30c1 003e eae0 28bf 5c03 c83e
00000380: 8b08 3a3e d5aa 3cbf e255 49be b9c0 ed3d
00000390: 7199 aabe c944 883e 6824 0a3e 220c c63e
000003a0: 7a9b be3d 81bd a43e 288a 95be 5b39 07be
000003b0: fc0b b43c 74ad e8be e273 86bd 1a1f 333e
000003c0: 3d13 603e 20b1 19bf 755a 733f d0a9 e4bd
000003d0: 77b3 043e c349 3d3f 340d 20be 2319 573e
000003e0: bfb6 efbe bd7a e6bd e6cf aabe c9ed d3bd
000003f0: 5b0d 70be 0ebc d53e 2b51 80be 4632 cfbe

action_model._discrete_distribution.branches.1.bias f4 [2]
-0.20368667 0.20369391
00000000: 3d93 50be 2395 503e

action_model._discrete_distribution.branches.2.weight f4 [2, 128]
-0.46770155 0.14159612 0.4363932 0.14109777 0.098648205 -0.057594445 0.11657686 0.15317734
-0.58036244 0.11671032 0.11751728 0.24802808 0.11266722 0.29480657 0.3313315 -0.48401427
0.16788147 -0.21933675 -0.16379175 0.02732794 0.30055037 0.13352147 0.09742241 -0.8705168
-0.23926368 -0.02915455 -0.09824307 0.507439 0.20369746 0.3283084 0.416536 -0.6791256
-0.0019742714 0.02495863 -0.16409113 -0.587888 0.268035 -0.30974814 0.16884036 -0.49955705
-0.15050139 0.0987464 -0.07646811 -0.22774181 -0.5234017 0.10776302 0.51234835 0.6856725
0.13825858 -0.09240081 0.15852 0.22496693 0.25203693 0.40912408 -0.25694376 -0.09180556
-0.18939991 -0.15050538 -0.57527316 -0.009380892 -0.052302822 -0.021441095 -0.08317279 -0.029293325
0.18860357 -0.24083416 0.079806805 -0.00069708214 0.1009395 -0.10709166 -0.39453724 -0.038862508
-0.15405394 -0.028421586 -0.22226423 0.08343488 -0.006709174 0.53798467 0.7022754 0.2536377
0.049702793 0.2845865 0.22180437 0.15541594 0.15792325 -0.079016834 0.5008834 0.32852933
-0.4619122 -0.43469232 -0.1419432 0.06629969 0.46687633 -0.17149188 0.04476957 -0.5547511
0.027996648 -0.018706141 -0.23453453 -0.3653945 -0.28335145 0.011491348 0.16391502 -0.14482562
0.23036742 0.2246227 0.10730835 0.16116026 -0.25076973 -0.029555898 0.18730089 0.13364145
-0.27473292 -0.4702857 0.06627895 -0.11091136 -0.16187131 -0.43482533 -0.30744162 0.1645483
0.08477152 0.41082552 0.09249999 -0.027699213 -0.67445236 -0.51020753 0.26369584 -0.16494542
0.46453565 -0.1522347 -0.44168675 -0.14689893 -0.07789434 0.07820828 -0.12999205 -0.13950437
0.57743186 -0.12483643 -0.112784185 -0.24620043 -0.12576085 -0.29334807 -0.35817403 0.48716262
-0.15119338 0.23487374 0.16336274 -0.01934851 -0.3098756 -0.1374476 -0.101399004 0.8536812
0.22657499 0.02992401 0.093872 -0.5284885 -0.2043327 -0.33167836 -0.40779886 0.6752194
0.014008074 -0.022008369 0.14176162 0.5882514 -0.23758945 0.33278456 -0.17924908 0.51255125
0.1743012 -0.08543119 0.0785027 0.23926222 0.5349639 -0.103308395 -0.5138293 -0.6851567
-0.1411269 0.10411896 -0.14852764 -0.24155973 -0.25820443 -0.42033088 0.26921886 0.075431265
0.1883214 0.13392079 0.559442 0.026904808 0.06960244 0.012809861 0.06866734 0.045966733
-0.18693374 0.20973164 -0.07521664 0.017963246 -0.078376025 0.12045121 0.36301094 0.030314578
0.17539777 0.03384369 0.21394639 -0.10413935 0.007830579 -0.5036789 -0.70432943 -0.25426006
-0.049747687 -0.28287643 -0.20506108 -0.15209413 -0.1632222 0.07203814 -0.5062878 -0.3198026
0.44768983 0.43993628 0.12097982 -0.04574726 -0.48307508 0.17548598 -0.05861789 0.5552941
-0.033139702 0.017312763 0.24412295 0.3694677 0.28497735 0.012483423 -0.16005023 0.15692529
-0.22460525 -0.22060859 -0.107521184 -0.15995684 0.23626663 0.017062336 -0.18184759 -0.14167325
0.2631456 0.4588315 -0.06638601 0.11675756 0.17848346 0.44487098 0.3094729 -0.1674923
-0.08832495 -0.40352744 -0.09342655 0.05860883 0.6720184 0.4875085 -0.2735535 0.16234292
00000000: 9476 efbe 93fe 103e ee6e df3e ef7b 103e
00000010: 1208 ca3d 27e8 6bbd d9bf ee3d 85da 1c3e
00000020: a292 14bf d205 ef3d e6ac f03d 13fb 7d3e
00000030: 12be e63d e3f0 963e 48a4 a93e b8d0 f7be
00000040: 1fe9 2b3e d099 60be 06b9 27be d8de df3c
00000050: bde1 993e dab9 083e 6785 c73d 30da 5ebf
00000060: 8a01 75be 86d5 eebc aa33 c9bd 86e7 013f
00000070: 1196 503e 0a18 a83e 3544 d53e 2ddb 2dbf
00000080: c762 01bb 0a76 cc3c 8107 28be d47f 16bf
00000090: e23b 893e 4f97 9ebe 7de4 2c3e f1c5 ffbe
000000a0: 091d 1abe 8d3b ca3d 509b 9cbd 2635 69be
000000b0: a7fd 05bf dcb2 dc3d 4329 033f 3c88 2f3f
000000c0: a893 0d3e a33c bdbd 1153 223e bb5d 663e
000000d0: fc0a 813e b678 d13e 228e 83be 8e04 bcbd
000000e0: 0df2 41be 151e 1abe 1a45 13bf 50b2 19bc
000000f0: 7c3b 56bd 3ca5 afbc 7f56 aabd 8ef8 efbc
00000100: 4b21 413e 3b9d 76be c071 a33d 64bc 36ba
00000110: 5eb9 ce3d df52 dbbd c900 cabe 4b2e 1fbd
00000120: 51c0 1dbe 63d4 e8bc 3c99 63be e8df aa3d
00000130: a1d8 dbbb 5db9 093f 52c8 333f cddc 813e
00000140: 2895 4b3d 52b5 913e af20 633e 5b25 1f3e
00000150: a2b6 213e 94d3 a1bd e539 003f ff34 a83e
00000160: c27f ecbe fe8f debe 8f59 11be 22c8 873d
00000170: 6a0a ef3e 919b 2fbe 4c60 373d 2b04 0ebf
00000180: 3a59 e53c 9f3d 99bc d229 70be fd14 bbbe
00000190: 7113 91be 3546 3c3c 57d9 273e 2b4d 14be
000001a0: 70e5 6b3e 7e03 663e 7bc4 db3d 3207 253e
000001b0: e464 80be 361f f2bc cecb 3f3e 4ed9 083e
000001c0: cba9 8cbe 4ac9 f0be 42bd 873d 7f25 e3bd
000001d0: 98c1 25be 6da1 debe fd68 9dbe 597f 283e
000001e0: b19c ad3d b957 d23e a270 bd3d 76e9 e2bc
000001f0: e9a8 2cbf f69c 02bf 2403 873e 74e7 28be
00000200: 9ed7 ed3e 6ae3 1bbe c424 e2be ac6c 16be
00000210: 1187 9fbd aa2b a03d a31c 05be 3cda 0ebe
00000220: 93d2 133f 3eaa ffbd 65fb e6bd f71b 7cbe
00000230: 74c7 00be b831 96be 9662 b7be 616d f93e
00000240: 70d2 1abe be82 703e 9048 273e c480 9ebc
00000250: 04a8 9ebe 10bf 0cbe 48aa cfbd da8a 5a3f
00000260: 4603 683e 3323 f53c f73f c03d 064b 07bf
00000270: 973c 51be bfd1 a9be 03cb d0be 2edb 2c3f
00000280: 1f82 653c e54a b4bc f529 113e a597 163f
00000290: a64a 73be bd62 aa3e 128d 37be 8f36 033f
000002a0: 047c 323e 8cf6 aebd 06c6 a03d 2801 753e
000002b0: 65f3 083f 5a93 d3bd 518a 03bf 6e66 2fbf
000002c0: 9283 10be 523c d53d a117 18be 6f5b 77be
000002d0: 5f33 84be 9c35 d7be 0ed7 893e b57b 9a3d
000002e0: 53d7 403e 8822 093e 9737 0f3f 7967 dc3c
000002f0: b98b 8e3d 74e0 513c 76a1 8c3d 9d47 3c3d
00000300: 8f6b 3fbe e4c3 563e 2f0b 9abd a827 933c
00000310: 9c83 a0bd 20af f63d 92dc b93e 4756 f83c
00000320: 799b 333e ae9f 0a3d c314 5b3e 0347 d5bd
00000330: d44b 003c 1af1 00bf ef4e 34bf 602e 82be
00000340: 3bc4 4bbd 2ed5 90be 88fb 51be 90be 1bbe
00000350: b823 27be bb88 933d 149c 01bf 2bbd a3be
00000360: 9a37 e53e 543f e13e 45c4 f73d 7b61 3bbd
00000370: 9e55 f7be 99b2 333e 5019 70bd c127 0e3f
00000380: 7fbd 07bd 7fd3 8d3c 5efb 793e df2a bd3e
00000390: 8de8 913e 4587 4c3c 35e4 23be 06b1 203e
000003a0: ebfe 65be 38e7 61be 1134 dcbd bacb 23be
000003b0: e1ef 713e 50c6 8b3c 4136 3abe cb12 11be
000003c0: 05bb 863e f6eb ea3e 63f5 87bd 961e ef3d
000003d0: 5ec4 363e 21c6 e33e 3b73 9e3e 1a83 2bbe
000003e0: b6e3 b4bd 269b cebe 6b56 bfbd d00f 703d
000003f0: 6609 2c3f b79a f93e 340f 8cbe 393d 263e

action_model._discrete_distribution.branches.2.bias f4 [2]
-0.08418316 0.084189035
00000000: 3868 acbd 4d6b ac3d

action_model._discrete_distribution.branches.3.weight f4 [2, 128]
-0.42466846 -0.40022925 0.2254458 -0.18487723 -0.43993115 -0.08960802 0.051680446 -0.399655
-0.3664997 -0.14844787 -0.5165503 -0.23018016 -0.4499102 -0.006352955 0.011042598 0.09811057
-0.22202075 -0.09562938 -0.3519261 0.2877781 0.16965781 0.030348824 0.18137488 -0.13603075
0.5623909 0.251984 -0.5449474 0.04997908 0.04337417 0.23054482 0.09635624 0.29498643
0.34217364 -0.37477496 0.49312124 -0.2795177 0.3408192 -0.6166222 -0.36554635 0.45977333
-0.53146714 -0.46438763 0.2983275 0.3021454 0.20421241 -0.32514173 0.008322775 0.04907957
0.20717156 0.4029471 -0.40501043 0.33184755 -0.46487916 -0.2059713 0.1832771 0.4251075
0.54477507 0.23714551 -0.39209935 0.41574866 -0.19451004 -0.20092404 0.22555155 -0.33417216
0.3644363 0.35990167 0.36676964 -0.2926388 0.11988248 0.6658633 0.18538989 0.55153334
-0.45017394 -0.51629853 0.13794032 -0.19648044 0.29538232 -0.17778324 0.3708964 -0.31894985
0.2920981 0.26482671 -0.32273915 0.41880047 -0.08857218 -0.16192533 0.07950588 0.20297049
-0.1657734 -0.35188374 -0.080345325 -0.077121295 0.25004566 0.23523556 -0.3465617 -0.10879723
0.48620334 -0.1517519 -0.5593213 0.3427157 -0.11963349 0.33618936 -0.19689028 -0.1757697
-0.23400207 -0.3726249 0.14406192 0.20762728 0.35517153 0.14667869 -0.39660692 -0.41102713
0.44550538 0.09053492 0.2185095 -0.11298004 -0.19190174 -0.102847815 -0.43745106 0.6362926
-0.52373374 0.21592528 -0.3328986 0.17142485 -0.2141525 -0.20877391 -0.36680365 -0.1717898
0.40918353 0.4085777 -0.22713256 0.17497967 0.43447062 0.0999515 -0.06364003 0.3786591
0.36574504 0.1606042 0.5288496 0.22367604 0.42938772 -0.013932624 -0.042547826 -0.079349674
0.2091963 0.10343576 0.35903946 -0.270991 -0.17704616 -0.033941355 -0.17185038 0.14073932
-0.58065325 -0.25564 0.530862 -0.056053564 -0.03965955 -0.22513549 -0.108737856 -0.30402362
-0.32228053 0.37780252 -0.48723543 0.25897875 -0.34687462 0.60786563 0.39480737 -0.45180005
0.5166361 0.45753774 -0.30063194 -0.28912136 -0.20391273 0.3234767 -0.008150099 -0.03746799
-0.1968712 -0.36745176 0.4208605 -0.34550816 0.4496568 0.19361854 -0.16778563 -0.42604667
-0.5615001 -0.252203 0.38906363 -0.41756544 0.1883633 0.21919571 -0.2513389 0.34590828
-0.37713096 -0.35685423 -0.39479935 0.31904072 -0.12317143 -0.67476785 -0.17925194 -0.5401482
0.45612556 0.5373997 -0.13549784 0.1719689 -0.29669127 0.17945345 -0.37347424 0.314479
-0.3115625 -0.26206148 0.31172383 -0.4208599 0.069687076 0.15095899 -0.07786794 -0.20665069
0.18603124 0.36259958 0.0821241 0.08878635 -0.23060846 -0.23542334 0.33373642 0.09396114
-0.47852224 0.14893302 0.5698058 -0.32761523 0.13201904 -0.36088943 0.2115058 0.17163314
0.21577823 0.35187262 -0.15169258 -0.19188552 -0.33119777 -0.12870657 0.40029046 0.39560735
-0.4386922 -0.1069367 -0.2171968 0.11037507 0.20972888 0.10829198 0.4302497 -0.6280312
0.5093858 -0.22106634 0.31677347 -0.16869515 0.21735103 0.18677366 0.3590296 0.18726584
00000000: 256e d9be d9ea ccbe 44db 663e 7550 3dbe
00000010: a83e e1be 6984 b7bd e0ae 533d 959f ccbe
00000020: d9a5 bbbe b802 18be a43c 04bf 59b4 6bbe
00000030: a15a e6be 732c d0bb 03ec 343c 32ee c83d
00000040: 6859 63be 56d9 c3bd a82f b4be a757 933e
00000050: c7ba 2d3e 199e f83c 56ba 393e a54b 0bbe
00000060: daf8 0f3f 0c04 813e ac81 0bbf ddb6 4c3d
00000070: 1da9 313d f113 6c3e 6c56 c53d 7608 973e
00000080: 6231 af3e 81e2 bfbe 637a fc3e f21c 8fbe
00000090: db7f ae3e f4da 1dbf e428 bbbe 6967 eb3e
000000a0: 3b0e 08bf 37c4 edbe 62be 983e cdb2 9a3e
000000b0: 0f1d 513e fa78 a6be 405c 083c a907 493d
000000c0: c824 543e 154f ce3e 875d cfbe ece7 a93e
000000d0: a404 eebe 24ea 52be feac 3b3e b1a7 d93e
000000e0: 6176 0b3f 46d6 723e 3fc1 c8be 02dd d43e
000000f0: a42d 47be 08bf 4dbe fcf6 663e 9d18 abbe
00000100: 6597 ba3e 0845 b83e 3bc9 bb3e c1d4 95be
00000110: f284 f53d 0476 2a3f d9d6 3d3e 4a31 0d3f
00000120: 337d e6be 242c 04bf 3a40 0d3e 2b32 49be
00000130: 5a3c 973e cf0c 36be 22e6 bd3e 654d a3be
00000140: e28d 953e 5e97 873e 113e a5be 046d d63e
00000150: 5565 b5bd c1cf 25be fbd3 a23d 7fd7 4f3e
00000160: 81c0 29be 1b2a b4be 178c a4bd c5f1 9dbd
00000170: fc05 803e 97e1 703e 8970 b1be 15d1 debd
00000180: a5ef f83e da64 1bbe ae2f 0fbf 6f78 af3e
00000190: 6702 f5bd 0321 ac3e 9b9d 49be f9fc 33be
000001a0: 3d9e 6fbe b1c8 bebe f884 133e 3f9c 543e
000001b0: 0bd9 b53e f032 163e 1010 cbbe 2672 d2be
000001c0: 4819 e43e 5f6a b93d f4c0 5f3e 1462 e7bd
000001d0: e481 44be e0a1 d2bd 96f9 dfbe 12e4 223f
000001e0: 6a13 06bf 841b 5d3e af71 aabe ff89 2f3e
000001f0: cb4a 5bbe d4c8 55be b0cd bbbe aae9 2fbe
00000200: 8180 d13e 1931 d13e 7095 68be df2d 333e
00000210: ef72 de3e 5fb3 cc3d b455 82bd 9bdf c13e
00000220: ef42 bb3e 6d75 243e b062 073f 550b 653e
00000230: b5d8 db3e a945 64bc a146 2ebd 1582 a2bd
00000240: 8e37 563e 21d6 d33d 05d4 b73e 55bf 8abe
00000250: 974b 35be 1706 0bbd 8cf9 2fbe f81d 103e
00000260: b1a5 14bf 3fe3 82be 92e6 073f 6c98 65bd
00000270: 0d72 22bd eb89 66be f4b1 debd fca8 9bbe
00000280: f401 a5be 556f c13e ec76 f9be dd98 843e
00000290: 8d99 b1be 159d 1b3f 3124 ca3e 5652 e7be
000002a0: 4342 043f 6342 ea3e 6eec 99be b707 94be
000002b0: 80ce 50be bd9e a53e fe87 05bc 0978 19bd
000002c0: 9b98 49be a322 bcbe 077b d73e 72e6 b0be
000002d0: 6b39 e63e f043 463e ffcf 2bbe ca22 dabe
000002e0: 78be 0fbf c020 81be 5933 c73e 23cb d5be
000002f0: 4fe2 403e d774 603e 7eaf 80be e41a b13e
00000300: 4f17 c1be 99b5 b6be 2423 cabe 4e59 a33e
00000310: 4d41 fcbd 96bd 2cbf d28d 37be 2747 0abf
00000320: 4a89 e93e 0793 093f f2bf 0abe 9e18 303e
00000330: ebe7 97be a5c2 373e 0438 bfbe 6403 a13e
00000340: 1f85 9fbe ec2c 86be 449a 9f3e f37a d7be
00000350: 19b8 8e3d fe94 1a3e 3a79 9fbd 3d9c 53be
00000360: f97e 3e3e a7a6 b93e ae30 a83d 9ed5 b53d
00000370: a024 6cbe d112 71be 80df aa3e b36e c03d
00000380: de00 f5be e681 183e cbde 113f 2fbd a7be
00000390: 0030 073e 80c6 b8be fa94 583e 99c0 2f3e
000003a0: f8f4 5c3e a628 b43e 4d55 1bbe a37d 44be
000003b0: c192 a9be a8cb 03be dff2 cc3e 0c8d ca3e
000003c0: 449c e0be a101 dbbd d768 5ebe 530c e23d
000003d0: 2bc3 563e 30c8 dd3d b049 dc3e a7c6 20bf
000003e0: 1c67 023f 375f 62be 2230 a23e 6cbe 2cbe
000003f0: 4591 5e3e 9841 3f3e bad2 b73e 9ec2 3f3e

action_model._discrete_distribution.branches.3.bias f4 [2]
0.029338185 -0.029331023
00000000: a256 f03c 9d47 f0bc
