results/28/SmartAgent/SmartAgent-499939.onnx (onnx, 582579 bytes, 6 tensors)

network_body._body_endoder.seq_layers.0.weight f4 [128, 1000]
00000000: c71a b23c 46c5 223c 0705 f8bc 6836 113d
00000010: bcd0 96bc ae0c 3f3d 05db 863d b9de 7d3d
00000020: ae4b 8bbd ecf5 9ebc cefd 9bbc b72e 013d
00000030: f2fe a7bd 884d 98bc 2f8b ccbc b48d 11bd
00000040: 56aa a1bb 98d0 693c 364a 2bbb 5595 5d3d
00000050: d37c 4dbd 9b75 a4bc 4d9b 473c 2715 a63d
00000060: d4fc ac3d 31f9 a7bc ad69 553a a86f 1e3d
00000070: 7698 cc3c 2a82 85bc 8935 073d 971c 913c
00000080: 04af 673c 6ecf 2fbd c92f 29bd 18db 8cba
00000090: 4f6f 893c e80b 10bd 76b2 debc c2b3 b73b
000000a0: 1b63 aabc 3545 79bd f907 f9bb 4750 49bd
000000b0: 9a3d 70bc 718e 983d cac2 0fbd 9329 033d
000000c0: 256c 75bc dbf1 b3bc 43f9 3e3b f643 313c
000000d0: b544 69bc 235f cd3d b037 fe3c 15b8 3d3d
000000e0: 781b cb3c 2973 11bc 0637 9d35 8880 9e3b
000000f0: e90a c73c 14fb d6bb 0dda 4dbd 882f 41bc
00000100: 5c75 9ebc f176 153d 0b42 b9bc 574f c6bc
00000110: 6e2f 783d 8de1 e13c 1911 18bd 7c35 b7bc
00000120: 99fe a7bc 9034 943b d208 f6bc 4aff 423d
00000130: b25c 1d3d 8c4f 52bc 7983 81bd 5bd2 943b
00000140: c786 fbbb 2521 103c 5530 6f3a 9615 253d
00000150: 7b37 94bb cd6a 943c d054 4c3d 1ecd d239
00000160: 56cf 883d be0f d5ba 88ee acbb 2458 2d3c
00000170: b3e4 dbbc 919c 5bbc 7fcc 933c 7b29 2b3d
00000180: 31de 7a3d e548 ed3c 01ec 033d fbf2 8c3b
00000190: c2e7 bfbc ca43 743d 3f3c b5bb 4049 af3c
000001a0: 88e5 88bb 7cee 51bc 4fbc 2cbc d68f da3c
000001b0: 4c3f 01be 57e8 01bd 5e7b 713c cb2a fc3c
000001c0: 31fe 30bb bc7e 793d 02de 78bd 1672 17bc
000001d0: 8b90 183d 9618 c93b 5853 0d3d 96ae 0b3d
000001e0: 6305 93bc 1893 f63c 32b8 863c 4367 403d
000001f0: 3520 a7bb 27b1 dd3b a765 243d cbae 133d
00000200: e1b6 0abd 532e 43bd 6edb 163d c10c 8b3c
00000210: e498 7fbc 59f9 8cbc 2c40 4c3c 413d 7f3d
00000220: 70a4 fcbb 3191 3cbd 289c a7bc b46f 913c
00000230: 972f 823d 22c1 0dbb 2fbf e63b 0de4 1abd
00000240: a953 0c3d 484d e8bc 388c 353d 4581 613d
00000250: e8da 3cbc 1cda c33c 20ae 45bd cbe6 8ebc
00000260: ac8c 14bd 5a7f 65bd c5e7 eb3c 0493 173d
00000270: b3cb c2bb fb6b a7bc 1723 57bd 6e00 22bd
00000280: 6683 2a3d 8fbb d7bb 42ed 58bc 9511 43bd
00000290: 5c5e d53c 1321 c6bc fa41 5c3c 7afa 8e3d
000002a0: cea7 803d 836a f93c ef99 44bd 541b 54bc
000002b0: ee84 15bd 9d3c 62bc 32d6 113d aeea f73c
000002c0: aad9 2b3c 6277 a83c 8bd4 083d 8bbc 31bd
000002d0: 11a7 81bc 0139 aebc e08c 003c a790 dbbc
000002e0: 6517 c53c 344c c9bb f77a c63c abd8 823d
000002f0: 4af5 ffbc e99f 1dbb 67b0 1abd c06e b5bc
00000300: a426 af3b bafc 873b c59f 093d 9be4 8f3d
00000310: bc06 163d f80e 98bc 1f04 bb3b 3eda 6d3c
00000320: f231 cbbc bc83 433a a547 b43c 2859 d03c
00000330: 4286 de3c ba4d 98bc 266f 893c 4d49 213d
00000340: d538 79bd 289a 0abe ead0 c7bc 2b87 d03c
00000350: 4f52 0cbd 1a5f eabb c8fa 9abb 494c 083c
00000360: 7f5f 853c 4fc1 36bd bf0c dd3b e842 283d
00000370: c15c 9bbb af4d 73bc b25f cbbc 292d 01bd
00000380: 040f 023c ccce 083d 79b1 5abd a7f6 f83b
00000390: 7af0 bb3d ef2c 4cbc 193f 563c 821c b73b
000003a0: 3761 1cbd 7729 10bd 6db7 4d39 6627 903c
000003b0: 637e 4cbd 1796 dd3b 4d6c 163d 0b5c 88bc
000003c0: 0157 e7bc 0cb4 60bc 4ec8 ad3c 00e7 913d
000003d0: 9b11 04bd 1905 80bd 19a6 fcbb 1901 d6bc
000003e0: 0836 8f3c bec4 383c 621b bf3c 23a7 bfbc
000003f0: 1d1d b63c 7a40 e83c db23 043b b016 b3bc
0.021741284 0.009934729 -0.030275835 0.035452276 -0.01841008 0.04664295 0.065847434 0.061979983
-0.06801544 -0.019404374 -0.019041922 0.03153869 -0.08202924 -0.018591657 -0.024968712 -0.03553553
-0.0049336357 0.014270924 -0.0026136762 0.054097492 -0.05016787 -0.02007561 0.012183023 0.08109503
0.08446661 -0.020504566 0.0008141052 0.038680702 0.024975043 -0.016297419 0.03301004 0.017713828
0.014140848 -0.04292243 -0.041305337 -0.0010746447 0.016776709 -0.035167605 -0.027184706 0.0056061456
-0.02079921 -0.060857017 -0.0075998274 -0.049148824 -0.014663124 0.074490435 -0.035097875 0.03202207
-0.014979397 -0.021965912 0.002914027 0.010819426 -0.014237572 0.100279115 0.031032413 0.046318132
0.024793372 -0.008877554 1.1713425e-06 0.0048370995 0.024297195 -0.0065606926 -0.050256778 -0.0117911175
-0.01934307 0.036490384 -0.0226145 -0.024207754 0.060592107 0.027573371 -0.03712568 -0.02236437
-0.020507144 0.0045228675 -0.030033503 0.047606744 0.03841848 -0.012836348 -0.063239045 0.004541678
-0.007675979 0.008796965 0.00091243285 0.04030379 -0.0045232153 0.018117333 0.04988557 0.00040207146
0.06680171 -0.0016255302 -0.0052774586 0.010580096 -0.02684245 -0.013404028 0.018041847 0.041787606
0.061247054 0.028965423 0.032207493 0.0043014265 -0.02342594 0.05963496 -0.0055308635 0.021397233
-0.004177753 -0.012813207 -0.010542943 0.026679914 -0.12621802 -0.031715717 0.014738886 0.030782124
-0.0027006979 0.06091188 -0.0607586 -0.009243509 0.037247222 0.006136964 0.03450331 0.034102045
-0.017946905 0.030099437 0.016445253 0.046973478 -0.005100275 0.006765503 0.040136006 0.036055367
-0.033865813 -0.0476516 0.03683036 0.016973855 -0.015600417 -0.017208742 0.012466472 0.062314276
-0.007710032 -0.046036903 -0.020460203 0.01775346 0.06356733 -0.0021630009 0.007041834 -0.037815142
0.034259472 -0.028357163 0.044323176 0.05505492 -0.011526801 0.023907714 -0.04826176 -0.017444035
-0.036266968 -0.056029655 0.02879704 0.03700544 -0.005944693 -0.020437231 -0.0525237 -0.03955119
0.041629218 -0.006583638 -0.01324016 -0.04762419 0.02604597 -0.024185693 0.013443464 0.06981368
0.06282006 0.030446297 -0.047998365 -0.012945969 -0.036503725 -0.013808397 0.035604663 0.030263271
0.010488907 0.020564739 0.03340582 -0.0433927 -0.015826734 -0.021267416 0.007846087 -0.026802374
0.024059007 -0.0061431173 0.024228556 0.063889824 -0.031244893 -0.0024051613 -0.037765887 -0.022147536
0.0053451825 0.0041500004 0.033599634 0.07026025 0.036627516 -0.018561825 0.0057072784 0.014517365
-0.02480409 0.00074582896 0.022006819 0.025433138 0.027163628 -0.01859175 0.016776633 0.039376546
-0.060845215 -0.13535368 -0.02439161 0.025455078 -0.034258183 -0.0071524503 -0.0047296025 0.008318969
0.016280888 -0.044617947 0.006745904 0.04107943 -0.0047412817 -0.014850064 -0.024825905 -0.03153721
0.00793815 0.033400342 -0.053391907 0.0075977626 0.09176727 -0.012461885 0.013076567 0.005588115
-0.03817865 -0.035195794 0.00019618655 0.017596912 -0.04992522 0.006762277 0.036724377 -0.016645452
-0.028239729 -0.0137148015 0.021213677 0.07124138 -0.032243352 -0.06250972 -0.00771023 -0.02612357
0.017481819 0.011277376 0.023328487 -0.023395127 0.02223068 0.028351057 0.0020162973 -0.021861404

network_body._body_endoder.seq_layers.0.bias f4 [128]
00000000: 0a56 723c 0485 973c 848c 9c3b f915 2cbc
00000010: caca c53c c635 f8bb ce11 603c a520 cebb
00000020: 9d9f 24bc b584 12bc f3a6 843c 6f79 d83c
00000030: 8286 45bc 7369 e339 100a ae3c e70e f73c
00000040: 8f95 8b3c 71e7 23bc 0e05 d53c 2906 0a3c
00000050: a609 3bbc bf75 d03c 08bc 8f3b 8e73 db3c
00000060: 1a3e 623a e4de 1e3d b85e 7d3c 2143 983c
00000070: e83b d2bc 6290 eb3a 2dc7 743c 4605 d13c
00000080: bf0c 873c 285e ce3a af64 803c c3a3 ca3b
00000090: 1bef c23c 67ac bf3c b99c 3dbb ed6c 48bc
000000a0: 6cdc 15ba 926d dfbb 3b36 c13c 6042 d73c
000000b0: 6198 36bc 32c0 db3a f081 da3c 8b1a 2f3c
000000c0: b1aa a83c 405f 013d 18b9 ebbb 8fbd 42bc
000000d0: 9cb7 353c c359 9d3c c43f 40bb fc2b fd3c
000000e0: ebeb 923c 4a53 d23c 4342 a03c ecc2 75bb
000000f0: 8ce3 2cba c6c4 2ebc cc92 55b7 db70 fa3c
00000100: 4dee 413c c5bb ab3c 979e 893b 7135 1b3a
00000110: c45a 883c 0861 d5bc 6597 ff3c 30ab 943b
00000120: 38c0 bc3c 4cf1 9d3a 4cac ec3c 46f4 993c
00000130: 52cc a73c d272 9f3c f6db df3b fd24 1c3d
00000140: c8b8 2cbc 25f0 c73c 9260 11bc 6601 063d
00000150: e611 313b 045b e93c 79ac e83b f066 b53c
00000160: 7edf 893c 8672 083b edf9 8fbb 4c12 9c3c
00000170: e4fa 49bb 82d2 00bc 4703 ac3c 1771 5a3c
00000180: 84e0 2b3b 7c33 793c 902b e53c 83fc 833b
00000190: 4771 ad3c 7cfd 8d3c 1a71 c73a 66c7 a43a
000001a0: 4fa6 3cbc 73b4 ce3c ba3a a83a 0599 acbb
000001b0: 1bb7 883b c90c 213c ed83 ca3b ca99 003c
000001c0: 0de0 133c b9a0 253d 0a84 51bb f589 cfbb
000001d0: c91c af3b 55d8 b0bb 713d ae3c e64f 7abb
000001e0: 60a0 643c af50 c73c 3828 543c e44a adbb
000001f0: 1bed 873c 4e55 a13c f2c2 dabb 70c0 ee3a
0.014791021 0.018496044 0.004777493 -0.010503286 0.024144549 -0.0075747697 0.01367612 -0.0062905126
-0.01004782 -0.008942773 0.016192889 0.026425092 -0.012055995 0.0004337538 0.021245033 0.030158473
0.017039089 -0.01000391 0.026003387 0.00842432 -0.011415875 0.02544677 0.0043864287 0.0267885
0.00086304697 0.038786784 0.015464477 0.018586697 -0.025663331 0.0017972107 0.014940065 0.02551521
0.01648557 0.0015744613 0.01567301 0.0061840727 0.023795655 0.023397638 -0.0028932525 -0.012233001
-0.00057167443 -0.0068184817 0.02358543 0.026276767 -0.011144728 0.0016765653 0.026673287 0.010687481
0.020589205 0.031584978 -0.0071936958 -0.011886015 0.011091139 0.01920784 -0.0029334882 0.030904762
0.01793476 0.025674481 0.019562846 -0.0037500216 -0.00065951864 -0.010667032 -1.2729968e-05 0.030571392
0.0118366005 0.020963559 0.0041998136 0.0005920744 0.016644843 -0.026047245 0.03120012 0.0045370087
0.023040876 0.0012050061 0.028890751 0.018793236 0.02048317 0.01946393 0.0068316413 0.038121212
-0.010542102 0.024406502 -0.008873122 0.032716177 0.0027018725 0.028485782 0.0071006385 0.022143811
0.016830202 0.0020820214 -0.004393807 0.019051693 -0.0030819708 -0.007862689 0.020997657 0.013332627
0.002622635 0.015210029 0.027974874 0.0040279045 0.021172179 0.017332785 0.0015216202 0.0012571632
-0.01151426 0.02523253 0.0012834885 -0.005267265 0.0041722185 0.009829708 0.0061802776 0.007849166
0.009025586 0.04043648 -0.003196957 -0.0063335844 0.0053440076 -0.0053968825 0.021269532 -0.0038194596
0.013954252 0.024330465 0.012949042 -0.0052884687 0.016592553 0.019693997 -0.0066760713 0.001821531

network_body._body_endoder.seq_layers.2.weight f4 [128, 128]
00000000: 79e8 a2bd 056a 103d 64c1 c1bc 990f eabc
00000010: fcf4 a73d 9214 b53d 9087 993d ef09 113d
00000020: a719 8b3d 653d 2bbd f4e4 febd c5fd c53c
00000030: 7f5a e53d 4a3d 293d bed1 93bd ca46 4c3c
00000040: d1eb 933d 4e2e 1f3e 73ac b0bd 7fea 2dbd
00000050: c9ba 2bbb 17d6 003d 6347 48bd df8b 253e
00000060: e919 e6bd 003b 313e 4b55 363d bcb3 8dbe
00000070: 1d8d e03c d9aa 83bd 1e2b 143e 92d9 973d
00000080: 39e9 6838 d4ac a03d 7724 113d dee3 713c
00000090: 9a46 e73c 120f 9f3c 4539 e3bc 0795 a4bd
000000a0: 2be6 4d3c a1ab 07be 5c14 1a3e a177 1f3c
000000b0: c50a 69bd ae68 d13c fdb2 06bd a83b f03d
000000c0: 4978 e63d 06a1 cebd 5f84 fbbc 8fb3 cc3c
000000d0: 2d6f 98bd e0ff cd3a 66bb 873d a46a 393e
000000e0: a76a 493b bf37 ba3d c5e5 8ebd 354d dcbd
000000f0: 0a5f 07bd a0e3 96bb e2af eb3c 0b99 003e
00000100: 1742 f5bd 9d5b d93d c21a 6b3d 4b78 913d
00000110: de4a 003e 51ac 81bd c2e5 3bbd 8da0 e43d
00000120: 08b9 2abd 1d14 193e cffc 7cbd e77a 87bd
00000130: 3622 d53a 6e15 2abe 2844 d9bc a526 0a3e
00000140: e666 b8bd 647d 43be a950 de3d 5bd1 8b3e
00000150: 2c02 913d d655 b4bc b972 0a3d f2b3 963d
00000160: 301b 693b de29 59bd b10b 113e a42c 1fbd
00000170: 4dd0 8d3d 9155 d53a 64b8 32be 7b11 fe3d
00000180: a70c c0bc ed9c 063d aab6 58bc b942 c5bd
00000190: a0ff 4a3e 86f9 123e 5b88 febd b464 7ebd
000001a0: ad46 da3c 820d ddbc 029f 1fbd e623 ec3d
000001b0: f85b a7bd ff41 05be d3f6 56bd a919 b23e
000001c0: 407d 1b3c 0303 7b3d d553 c53c 299a 9cbd
000001d0: 5dbe d4bc c47f e3bd 3430 b73d 7423 e6bd
000001e0: 7c81 7c3d cbaf 373e 2e85 c2bb 65ce a2bd
000001f0: f4aa 563e 66e4 cebc ee36 adbd 98b8 e23d
00000200: 4b64 f6bb a361 ea3d 1718 b2bd 7271 14be
00000210: 033b 96bd 255a aebc cf24 3abd a475 933b
00000220: 5d07 4abc 9b05 a7bb 9ab0 e0bd 0b19 f23c
00000230: 0fc9 223d 15cd db3c a7fc 84bc 6b5d b0bd
00000240: fad2 a83d 9fda e7bc e668 f73d f4c3 573d
00000250: aa1f 49bd dbde 1e3e f275 68bd c5c5 5a3e
00000260: 9d2b f03c c300 3c3e fbd3 db3d e634 693c
00000270: c420 babd 85b8 23be ed20 d3bc 1025 243c
00000280: eead cabc 0c65 f93b fd61 053d 7741 9abd
00000290: d7fb f83b f55e 1bbd 3379 913d 1692 bf3d
000002a0: cba3 d1bc 09cc 2f3c a72c 80bd 5c73 373d
000002b0: 989e 223e e8de 74bc 0597 ac3c 8a8e 3f3d
000002c0: b4eb 29be 8fc0 b43d 7c4f e5bd 727e a3bd
000002d0: e577 113e fa94 ea3c 1c77 f6bd b9d6 7d3d
000002e0: 585a 3a3c 6733 263e 6e0b 1fbe 2691 82bd
000002f0: a07b 943d a053 bebd 7ae1 c23d 8396 c63d
00000300: 349d a3bc 2088 ee3d dfca 42be 353d 2ebe
00000310: b847 393d 31e5 12bd 504a 1f3d f4c7 dd3d
00000320: e6b0 fa3c c542 f2bc 9be6 0cbd 9455 97bd
00000330: 80a5 99bd df4c 533c 96f8 80bc df52 b73d
00000340: 23fd 62be 5157 953d 57d2 77bd 6781 b43d
00000350: e3d1 98bd ae01 1d3e 75e7 80bd fe38 2d3d
00000360: 4da3 10be 1071 06bc bf7d 53bd 596a 833d
00000370: fc0d 353b 2830 c9bd 082b d13d f798 783e
00000380: 4fa1 433d fe58 83be 29c5 2bbd 2657 123e
00000390: 5e5c 08be 0edc 353d 5312 363d 12a5 b03e
000003a0: 9a61 8a3d eddd 0ebd 5073 8ebd e84a 4cbe
000003b0: 716f f5bc 1323 8ebd adf9 d73c 5b71 0d3e
000003c0: 5ddd b63d d4b9 893c acd3 303b e892 b93d
000003d0: e88c 69bd 5dd6 f4bd f532 b13d 3e08 30bb
000003e0: 79b3 c83d 9439 1cbd ca88 1b3e cadd eebd
000003f0: f43e da3b d7fa 003e a990 23bd 9aec 00bb
-0.07954497 0.035257358 -0.023651786 -0.02857189 0.08201024 0.08841814 0.074965596 0.035409864
0.06792002 -0.041806597 -0.12446013 0.024168858 0.111989014 0.041318215 -0.072177395 0.012468049
0.07222713 0.15545008 -0.08626642 -0.04245996 -0.0026203862 0.031454172 -0.048896205 0.16166638
-0.11235411 0.17307663 0.044514935 -0.2767619 0.027411038 -0.06429071 0.14469573 0.07414545
5.5530316e-05 0.07845464 0.035435166 0.0147638 0.028231908 0.019416366 -0.02773727 -0.08036237
0.012567083 -0.13249065 0.15046829 0.009733112 -0.056895036 0.02556261 -0.03288554 0.117301285
0.11253411 -0.100893065 -0.030702768 0.024987964 -0.0744308 0.0015716515 0.0662754 0.18107086
0.0030733736 0.09092664 -0.06977419 -0.107569136 -0.03304962 -0.0046047717 0.02877039 0.12558381
-0.11975496 0.10613177 0.057398565 0.07103022 0.1252856 -0.06331695 -0.04587341 0.11163435
-0.041680366 0.14949079 -0.061764535 -0.06615239 0.0016260806 -0.16609737 -0.026521757 0.13491304
-0.09004001 -0.19090801 0.108552285 0.27308163 0.070804924 -0.022013586 0.033800814 0.073585406
0.0035569184 -0.053018443 0.14164616 -0.038860932 0.06924496 0.0016276111 -0.17453152 0.12405678
-0.023443533 0.0328645 -0.013227144 -0.09631867 0.19824076 0.14352998 -0.124283515 -0.062107757
0.026645029 -0.02698398 -0.03897 0.115302846 -0.081718385 -0.13013457 -0.052481484 0.34785202
0.009490311 0.06128217 0.024087826 -0.07646591 -0.025969679 -0.11108354 0.08944741 -0.11237231
0.061646923 0.17938153 -0.0059362864 -0.07949523 0.20963651 -0.025255393 -0.08457743 0.11070365
-0.00751928 0.11444404 -0.08696001 -0.14496401 -0.07335474 -0.021283219 -0.04544526 0.004500108
-0.012330857 -0.005097104 -0.10971184 0.029552957 0.039742526 0.02683119 -0.016233755 -0.08611568
0.082433656 -0.028302489 0.12080555 0.05267711 -0.049102463 0.155147 -0.056753106 0.21364506
0.029317671 0.18359666 0.107337914 0.014233803 -0.09088281 -0.15988357 -0.025772536 0.010018602
-0.02474114 0.0076109227 0.032564152 -0.07532018 0.007598381 -0.037932355 0.07103195 0.093540356
-0.025590798 0.010729798 -0.06258517 0.04478775 0.15880811 -0.014945723 0.021068105 0.046766795
-0.1659382 0.0882579 -0.11196801 -0.07983102 0.14205892 0.02863549 -0.12034437 0.061972354
0.011374079 0.16230546 -0.15531704 -0.06375341 0.07250142 -0.09293294 0.095156625 0.096966766
-0.019972421 0.116470575 -0.19022702 -0.17015536 0.045234412 -0.035863105 0.03888923 0.10829154
0.03060193 -0.029572854 -0.03439961 -0.073893696 -0.0750227 0.0128967455 -0.015743535 0.08951353
-0.22166876 0.07292045 -0.06050333 0.08813744 -0.07461908 0.15332672 -0.06294147 0.04229068
-0.14124794 -0.008205667 -0.051633593 0.064167686 0.0027626744 -0.09823638 0.10213286 0.24277101
0.047761258 -0.25653833 -0.041936073 0.14291057 -0.13316485 0.044399314 0.04445107 0.3450094
0.06756897 -0.034879614 -0.06955588 -0.1995045 -0.029960366 -0.069402836 0.026364172 0.13812773
0.089289404 0.016812243 0.0026981635 0.09061223 -0.057019144 -0.11954949 0.086522974 -0.0026860381
0.09799857 -0.03814085 0.151889 -0.11663397 0.0066603366 0.12595688 -0.03993288 -0.0019672276

network_body._body_endoder.seq_layers.2.bias f4 [128]
00000000: 09f0 ee3c dd0c c43c f134 443b 094f b63c
00000010: 3e5b b43b 8f20 8c3c 0d44 e53c 4318 8039
00000020: e9ce 553c f687 5c3b 9989 073d 6858 b039
00000030: f528 b73c 6e56 453b 5611 463c 6017 883c
00000040: d18c adbb afaf 10ba 3a04 713c e364 863c
00000050: 7e2a fa3c d795 a9ba 45f1 32bc bf6c 6d3b
00000060: cae6 d6bb 57b8 b9bb e515 ce3c 9c01 4739
00000070: e3ec 2a3c f81c 9cbb ac95 80bb 4e6f 04bc
00000080: 3abc 17bc 9bba b03c 61c7 043c 5add 24bc
00000090: f9a7 4b3c 8502 e23b 445d 7c3c 7ced 813c
000000a0: 316a e93a 6455 3bbb 5caa c73c d911 1f3b
000000b0: e6ab dd3c e256 dd3b 3d19 1c3c 7c87 d33c
000000c0: d425 a13c 29b3 043d 82f6 893c ef54 6e3b
000000d0: 914f 093c c05e 8c3c 696e 6a3b c34c d7b9
000000e0: f8d7 073b 3ee6 023d f44a 6c3c 234f d13c
000000f0: 220d 553c 857b 093c 5afa f33a 998b 71bb
00000100: 4067 063c b4ab 993c a0c2 9a3c 6b53 07bc
00000110: 582c 283c 6284 8f3c 98b8 6db8 eb12 2c3a
00000120: 5e9b f63c 1421 c63c 210f 8e3c 2d9b 173a
00000130: da19 7c3c 2470 7d3b b258 c53c 6ceb 633c
00000140: 170b 22bb a0af 053c 3b61 c7bb 6754 303c
00000150: 4760 3b3c 6b3f f63a bf97 a83b 180a 08bb
00000160: e03e 233b 237f ba3c 9019 6a3c 23a0 bd3c
00000170: 317e 13bb bde3 b63c 1c97 1d3b d452 b1bb
00000180: 41c5 cb3c b523 8a3c 4c09 9fbb 7fa9 96ba
00000190: 3701 2eb9 c107 e83b 2c92 643c fa2f 38bb
000001a0: eeff dabb df31 ca3c 6bb4 333b ba53 7a3c
000001b0: 540e ad3c 8074 9f3b c6e8 ab3c c7cb 18bb
000001c0: 4603 623c fc6e 1b3c 0b8a b23c 1388 a03c
000001d0: 1d68 f53c 17a2 b73c 50f2 643c 4cb1 b43c
000001e0: 9424 3c3c eaa2 b63b 11a5 9fbb 5778 73bb
000001f0: 3b48 8d3b d0bc 913c b644 943c 1410 153c
0.029167192 0.023931915 0.0029938782 0.022254484 0.005504041 0.017105369 0.02798655 0.0002443214
0.0130498195 0.0033650375 0.033090208 0.00033635204 0.022358397 0.003011133 0.012089094 0.016612709
-0.0052963276 -0.0005519343 0.01471048 0.016405528 0.03053784 -0.0012938333 -0.010921781 0.0036228148
-0.006558274 -0.005667727 0.025156925 0.00018978718 0.010432455 -0.0047641955 -0.0039240923 -0.008083178
-0.009261185 0.021573355 0.008104176 -0.01006254 0.0124301845 0.006897273 0.015403096 0.015860312
0.0017808137 -0.0028584832 0.024373226 0.0024272113 0.027059507 0.006754742 0.009527502 0.02582144
0.019671358 0.032397423 0.016841177 0.0036366542 0.0083807865 0.017135024 0.0035771376 -0.00041065188
0.0020728093 0.031957857 0.014422167 0.02555043 0.013003619 0.008391266 0.0018614039 -0.0036856888
0.008203328 0.018758632 0.018891633 -0.0082596345 0.010264479 0.01751918 -5.667712e-05 0.00065640983
0.030103382 0.024185695 0.017341198 0.0005783316 0.015387023 0.0038671577 0.024090145 0.013911109
-0.0024725848 0.008159548 -0.006084589 0.010762311 0.0114365285 0.001878721 0.0051450427 -0.002075797
0.0024909303 0.022765702 0.014288321 0.023147648 -0.0022505636 0.022325391 0.0024046367 -0.005411485
0.024874331 0.01686273 -0.004853403 -0.0011494606 -0.00016594386 0.0070810025 0.013950866 -0.0028104768
-0.006683341 0.024681984 0.002742077 0.015278751 0.021124996 0.004866183 0.020985018 -0.002331482
0.013794726 0.00948691 0.02179434 0.019596135 0.029956872 0.022416158 0.013973787 0.022057198
0.01148333 0.00557362 -0.0048719724 -0.0037150586 0.004311589 0.017790228 0.01809917 0.009098072

action_model._discrete_distribution.branches.0.weight f4 [4, 128]
00000000: faa7 ea3b 6acb b3bb 9034 a43c c092 16bd
00000010: e4c0 bb3c acc6 afbc 8d27 703c 8854 233c
00000020: c47b 51bd 4bdb e3bc c1df 013d f81a 113d
00000030: 6eaf 07bc 1f2f 863c c794 13bd 8f58 0dbd
00000040: 3fd9 dfbc e90f 3ebd 0737 63bd a852 b93b
00000050: 4a19 bcbc cd34 5d3d f756 e03c f560 893d
00000060: 6f48 b03c e935 8c3c b55f 3dbb 9edd a1bc
00000070: 130a b33b b47b 433d eb97 193d 697c 3e3c
00000080: a91a 043c 9964 d03c e257 423d 8c35 2cbb
00000090: b0ab 2a3d 9af0 bfbc 2b00 633a 021a 67bd
000000a0: ad57 703c ec89 de3c e9ca 98bd 7584 3a3d
000000b0: 315c 96bd 4b7a 6d3c 7b71 a23b 32f5 04bd
000000c0: 3a12 86bd cd24 24bd e3cc d33c 8854 3f3d
000000d0: 154a 93bc 5706 85bd 3659 283d 5bc6 8b3c
000000e0: ac96 303d 9ec2 7e3b e67f 713d 28ee db3c
000000f0: 2b3d 71bd 8534 14bd 8e62 47bd 8338 c23c
00000100: 0985 6cbc 25d5 72bd 674a 24bd e5f0 df3c
00000110: d112 34bd cc2c 1b3c 122c 673d 7459 183d
00000120: 6ce9 3dbd 3636 a9bc 75ec e53c d9ae 303d
00000130: 4e44 3dbc b13f 573d c8d9 3ebb ceb1 20bd
00000140: 04b8 09bc d5f4 e0bc 0e4d 3d3d fa14 d23c
00000150: c4e1 e83c b00a 4d3d b864 543d 7455 f63c
00000160: 80c3 103d 2848 b9bc d871 a5bc b351 93bd
00000170: 4487 a93c 3211 64bd 5392 093d 7838 b63c
00000180: 0843 9bbd f758 6bbd 7c71 823c bc21 77ba
00000190: 5bda 333d c2ab 4ebd e78a 45bc d4bd ac3c
000001a0: 9840 e43c 591f 40bc daef b1bc e4f1 45bd
000001b0: 7b1c 7cbd ebb8 eebc 91a4 81bd cdad fc3c
000001c0: d055 18bb 5635 14bd 0a4b 403d be42 2c3d
000001d0: dfcd ecbc 9c3e 6ebb cdc5 99bc e6c0 9abd
000001e0: 7e04 2d3d 4c80 cd3c 0522 b53c 3ceb b73c
000001f0: 7346 1fbd f664 5b3d d666 17bd 0de6 22bb
00000200: 295e f53c e666 493d c04a a2bc ebef ce3c
00000210: c431 62bd f2d2 363c 8383 893c caa4 26bd
00000220: 8ee2 04bd 39ba 87bc 5aab da3c add6 65bd
00000230: b9a2 1e3d 2e50 2ebd 7c3f 6ebd 59b9 11bc
00000240: 775a 8abb be3e 9ebc de63 e53b e70d 473d
00000250: a0c9 283d 33c6 25bd 335c a4bc d4e3 6a3b
00000260: 21f5 b9bb 1e4d c43b 3a33 8c3c 685a 07bd
00000270: 6753 7bbd 4914 60bc e6ac 1bbb 5261 09bd
00000280: 7599 343c dbf9 f13c d3ab 0fbd bfe7 01bc
00000290: 5ad0 243b 7588 29bd 3f21 063c dff5 2abd
000002a0: 8e85 2bbd 41c8 4dbd c9c1 063d 93b1 d1b9
000002b0: 8fef 423c 8fb4 54bb 9f22 2cbc 7182 5f3c
000002c0: e266 243b aeab f83c 0fa3 2c3c ce43 18bd
000002d0: 1fce 2fbd d588 0f3c 3c3f 88bd 5c64 35bd
000002e0: bfc5 a9bc 4de5 403d 6029 ad3c 899f cd3c
000002f0: 0191 123d b03c e0bc 6853 3dbc 6582 abbc
00000300: 9d65 3bbd 4ac3 fcbc 94c5 013d 9a82 993c
00000310: df19 60bc 3d12 333d c6df 8c3c bbfc 4c3c
00000320: 90c6 d53c 04a4 b33c 0a46 313d 3c51 0a3b
00000330: b870 af3b 364a 803b b0ff 283d b846 ccbc
00000340: cb9d 0dbd c059 2cbd 18cb 923c b412 39bc
00000350: 2435 ad3c 1aba 973c ab48 14bc 914b c6bc
00000360: 0a4a cc3b 4cd6 153d 94a4 88bb 22fc abbc
00000370: cff1 12bc 2c0f 773c 884d 12bd 69a2 d2bb
00000380: 734d 13bc 9f99 8cbc 397c 183c fb05 09bd
00000390: 171e 45bd 0e5f 08bc 7fd3 6f3d c152 0bbd
000003a0: 2079 4bbc c051 e63c af7f ccbc 0f7e 6fbc
000003b0: 4e87 8dbb 0280 123d 0d13 cabc b9d7 74bc
000003c0: 0a1b 0e3d 5bcb b33c d0e3 8f3c 1a69 273d
000003d0: edeb 3d3d 0656 0b3d 0033 cb3b ad8b 0a3a
000003e0: e755 a8bc 6747 cf3c 9114 01bd 1a7f e33c
000003f0: 5da2 c9bc aa30 f53c f11f 6db9 ed9f 4fbd
0.0071611376 -0.0054868953 0.020044595 -0.036761045 0.022919126 -0.021457039 0.014657867 0.009968884
-0.051143423 -0.027814528 0.03170753 0.03542611 -0.008281572 0.016379891 -0.036030557 -0.034508284
-0.02732527 -0.04640189 -0.0554724 0.0056556053 -0.022961278 0.054005433 0.027385218 0.06707946
0.021518914 0.01711555 -0.0028896157 -0.019758996 0.0054638474 0.047725394 0.037498396 0.011626341
0.008062997 0.025438594 0.047447093 -0.0026277034 0.04166764 -0.023430157 0.0008659388 -0.056421287
0.014669341 0.027165376 -0.07460577 0.045536477 -0.07341803 0.014494489 0.0049573756 -0.0324604
-0.06546445 -0.04007416 0.025854534 0.046711475 -0.017979661 -0.0649535 0.041100703 0.017062357
0.043112442 0.0038873325 0.058959864 0.02684696 -0.058896225 -0.0361829 -0.048677973 0.023708588
-0.014436015 -0.0592853 -0.040110018 0.027336547 -0.043963257 0.00947113 0.056438513 0.037194684
-0.046365187 -0.020655733 0.028066853 0.043135498 -0.01155193 0.052550975 -0.0029121507 -0.039232068
-0.008405689 -0.027460495 0.046216063 0.025644768 0.028427966 0.05005902 0.051853865 0.030070044
0.035342693 -0.022617415 -0.020195886 -0.07193317 0.020694382 -0.05568046 0.03358681 0.022243723
-0.075811446 -0.05745789 0.015923254 -0.0009427329 0.043909412 -0.05045677 -0.012057043 0.02108661
0.027862832 -0.011726224 -0.021720815 -0.048326388 -0.0615506 -0.02914091 -0.06330217 0.030844593
-0.0023244508 -0.036183678 0.046946563 0.042055838 -0.02890676 -0.0036353236 -0.018771077 -0.07556324
0.042240612 0.02508559 0.022110948 0.022451036 -0.038885545 0.05356308 -0.036963306 -0.002485636
0.029952126 0.049170397 -0.019811034 0.025260886 -0.05522324 0.011158692 0.016786342 -0.0406845
-0.032442622 -0.01656829 0.026693035 -0.056112934 0.038729403 -0.042556934 -0.058166012 -0.008894288
-0.00422221 -0.019317027 0.0070004305 0.048597243 0.04120791 -0.04047222 -0.020063495 0.0035841363
-0.0056749736 0.0059906384 0.01711427 -0.033045202 -0.061358836 -0.013676711 -0.0023754179 -0.033540078
0.011022915 0.029538086 -0.035075974 -0.007928788 0.0025148601 -0.0413899 0.008186637 -0.041738387
-0.041875415 -0.050239805 0.03289965 -0.0003999589 0.0118979355 -0.0032456254 -0.010506301 0.0136419395
0.0025085737 0.0303553 0.010536923 -0.03717404 -0.04292118 0.008760651 -0.06652686 -0.044285163
-0.020724175 0.04709368 0.021137893 0.025100486 0.035782818 -0.027372688 -0.01155553 -0.0209362
-0.045751203 -0.03085484 0.031682566 0.018739033 -0.013678043 0.043718565 0.017196547 0.0125114275
0.026095659 0.021928795 0.043279685 0.0021105548 0.0053540133 0.0039150966 0.041259468 -0.024936065
-0.03457431 -0.04207778 0.017919108 -0.011295963 0.021143503 0.018521357 -0.0090505285 -0.024205955
0.006234412 0.036581323 -0.00417001 -0.02099425 -0.0089687845 0.015079301 -0.03571847 -0.006428052
-0.008990633 -0.017163096 0.009306961 -0.03345297 -0.0481244 -0.008323444 0.058551308 -0.034014467
-0.012419015 0.028115153 -0.024963228 -0.014617457 -0.004319108 0.03576661 -0.024667287 -0.01494401
0.034693755 0.021947553 0.017564684 0.040871717 0.046367574 0.034017585 0.006201148 0.00052850955
-0.020548774 0.025302602 -0.031513754 0.027770568 -0.024613554 0.029930431 -0.0002261398 -0.050689626

action_model._discrete_distribution.branches.0.bias f4 [4]
00000000: 2863 46bb 248a 12bb aa42 373c b3f3 15bc
-0.0030271504 -0.002236017 0.011185328 -0.009152341
