results/16/SmartAgent.onnx (onnx, 162323 bytes, 11 tensors)

discrete_action_output_shape f4 [1, 4]
0	0x40000000	2.0
1	0x40000000	2.0
2	0x40000000	2.0
3	0x40000000	2.0

network_body._body_endoder.seq_layers.0.weight f4 [128, 300]
0	0xbd9bd49f	-0.07608914
1	0x3db85ad5	0.090017
2	0xbe3cfbaa	-0.18455377
3	0x3dbb0ff6	0.09133904
4	0x3e31c1ad	0.17359038
5	0xbe0affcc	-0.13574141
6	0xbe2fc1dd	-0.17163797
7	0xbe8253f3	-0.25454673
8	0xbd2fa210	-0.042879164
9	0x3de5a725	0.11213521
10	0xbd93143b	-0.07181593
11	0xbda1f18b	-0.07907399
12	0x3dc27c7b	0.09496399
13	0xbdb0957f	-0.08622264
14	0x3dc3588b	0.095383726
15	0x3db495d9	0.08817644
16	0xbc161718	-0.009160779
17	0xbd8239c5	-0.06358675
18	0xbe392194	-0.18079215
19	0xbe7d3815	-0.24728425
20	0x3d2cc3d7	0.042178955
21	0x3d13b9f4	0.03606601
22	0x3ca15bfc	0.019697182
23	0xbcda357b	-0.02663683
24	0x3d8693a6	0.065711305
25	0xbc7e6c5a	-0.015528763
26	0xbdb62685	-0.08894066
27	0x3dd8572d	0.105635025
28	0x3c4c27b6	0.01246064
29	0xbdd12d45	-0.102137126
30	0x3e907f8e	0.28222317
31	0xbeafcc60	-0.34335613
32	0x3e956d14	0.29184783
33	0xbd946209	-0.07245261
34	0x3dfb4be2	0.12270333
35	0x3da9c8b5	0.08290235
36	0xbd8c7080	-0.06857395
37	0x3e1f216e	0.15540096
38	0x3ccdd0d4	0.025123991
39	0x3d8540f3	0.06506529
40	0xbde15521	-0.11002565
41	0xbe2f7325	-0.17133768
42	0xbe1a0a9f	-0.15043114
43	0x3d945429	0.07242615
44	0xbdbec314	-0.09314552
45	0x3db367cd	0.08760033
46	0x3cbae07a	0.022812117
47	0xbdf72fe2	-0.1206968
48	0xbc3274fa	-0.010892147
49	0x3d95e72c	0.07319483
50	0xbe5b5fd0	-0.21423268
51	0x3d2fe230	0.04294032
52	0x3e58ed56	0.21184286
53	0xbe33e3b4	-0.1756733
54	0xbde21f4e	-0.11041127
55	0x3cc779be	0.024350043
56	0x3c6e7534	0.014554311
57	0x3e082570	0.13295531
58	0xbce56658	-0.028002903
59	0x3dcc0289	0.09961421
60	0xbdb0fe80	-0.08642292
61	0xbabd6379	-0.0014449201
62	0x3d3c0df8	0.04591176
63	0xbde78ee1	-0.11306549
64	0xbe35b26a	-0.17743841
65	0xbdc91e27	-0.09820204
66	0x3e545d67	0.20738755
67	0x3c1ad1c1	0.009449423
68	0x3c18e349	0.009331533
69	0xbc9f0ce7	-0.019415332
70	0x3db21e6c	0.08697209
71	0x3d06973f	0.032859083
72	0x3d1852f2	0.037188478
73	0x3df4ec62	0.11959149
74	0xbd8f13a1	-0.06986166
75	0xbd170bf7	-0.036876645
76	0x3d937b6b	0.072012745
77	0x3d197f15	0.03747471
78	0xbcc28eec	-0.023749791
79	0xbe417343	-0.18891625
80	0x3e140b70	0.14457488
81	0xbdd56f8c	-0.104216665
82	0xbe8593e2	-0.26089388
83	0xbd8cb40a	-0.06870277
84	0xbd9fc235	-0.07800714
85	0x3ccbd1d4	0.024880327
86	0x3d4bad25	0.04972567
87	0x3cda0139	0.026611911
88	0xbceb4ba2	-0.028722588
89	0xbecbc78a	-0.39800674
90	0xbea55378	-0.32290244
91	0x3e525e10	0.20543694
92	0x3e1a260b	0.15053575
93	0xbe4429bb	-0.19156544
94	0x3d539f86	0.051665805
95	0x3ccec3f4	0.025239922
96	0x3d208eb1	0.03919858
97	0xbc075983	-0.008261087
98	0xbeb8d1ad	-0.3609747
99	0xbebc5b19	-0.36788252
100	0x3cbe21ba	0.023209441
101	0xbd4d7fb7	-0.050170626
102	0xbe14833b	-0.14503185
103	0x3e68366e	0.22677013
104	0x3d8fa6fe	0.07014273
105	0xbd3f44e5	-0.046696562
106	0xbda9545c	-0.082680434
107	0xbdfe54b1	-0.12418497
108	0xbdd5a8a4	-0.10432556
109	0x3e848632	0.25883633
110	0xbdd8a99f	-0.10579228
111	0xbd7bd24f	-0.061479863
112	0xbc8463ec	-0.016160928
113	0x3cec4642	0.028842095
114	0x3df231f6	0.118259355
115	0xbd4a3faa	-0.04937712
116	0xbdcc3629	-0.09971268
117	0xbd16599d	-0.036706556
118	0xbc46092e	-0.01208715
119	0xbdabf243	-0.08395817
120	0x3df685ee	0.12037264
121	0x3a927875	0.0011174815
122	0xbccb787f	-0.02483773
123	0x3e6fef70	0.23431182
124	0x3de02e58	0.10946339
125	0x3d8913fd	0.066932656
126	0x3c944b3e	0.018102285
127	0x3d564ade	0.052317493
128	0x3d5a0035	0.053222854
129	0xbc55c2f3	-0.013046968
130	0xbdd92383	-0.106024764
131	0x3de821d1	0.11334575
132	0xbd35092f	-0.04419821
133	0x3e29451a	0.16530266
134	0x3db9ce8d	0.090725996
135	0xbd88e94f	-0.06685125
136	0xbdec54a5	-0.11539582
137	0x3ce0b364	0.02742929
138	0x3cc656aa	0.024211247
139	0xbc51e813	-0.012811678
140	0xbdf0c53c	-0.117563695
141	0x3d9683fa	0.07349391
142	0xba8fba12	-0.0010965487
143	0xbdc8e4f1	-0.09809292
144	0xbe080cd9	-0.13286151
145	0x3d87e0ca	0.06634672
146	0x3e402790	0.18765092
147	0x3d9c37f7	0.07627862
148	0x3c30de0c	0.010795128
149	0x3e22020f	0.15821098
150	0xbc8e0cb0	-0.017340034
151	0xbe039bf2	-0.12852457
152	0x3e3fee35	0.18743213
153	0xbcb01915	-0.021496335
154	0x3e23e737	0.1600617
155	0x3d4f565b	0.050619464
156	0x3b5b5585	0.0033467722
157	0xbc8e1896	-0.017345708
158	0x3d8566b7	0.06513732
159	0xbcb74066	-0.022369575
160	0xbdab34ee	-0.08359705
161	0x3d696def	0.056989606
162	0x3e0eb8d5	0.13937695
163	0xbd8bbcdf	-0.06823134
164	0xbd0156e6	-0.031577013
165	0x3decd5dc	0.11564228
166	0x3e47c06b	0.19506995
167	0x3dd2ebcd	0.10298882
168	0x3dff0f57	0.12454098
169	0xbe7e89ae	-0.24857208
170	0x3a5046c9	0.0007945118
171	0x3d08b94d	0.03337984
172	0x3b7d8946	0.0038686558
173	0xbccbd38e	-0.02488115
174	0xbd67064b	-0.056402486
175	0xbb9be7c8	-0.004757855
176	0x3d3cd87d	0.046104897
177	0x3d4c04fe	0.04980945
178	0x3d18c415	0.037296373
179	0xbedaa187	-0.4270136
180	0x3c7ef31b	0.015560891
181	0x3b96d895	0.0046034553
182	0xbe86d564	-0.2633468
183	0xbd23191c	-0.039818868
184	0xbd0670cc	-0.032822415
185	0xbca4431a	-0.020051528
186	0x3db188a4	0.0866864
187	0x3ce33347	0.027734412
188	0x3d286912	0.041115828
189	0xbe9383ee	-0.28811592
190	0xbea47c3b	-0.3212603
191	0x3e318330	0.173352
192	0x3e6189af	0.22025178
193	0xbd6b0674	-0.0573792
194	0xbbd91938	-0.0066253208
195	0x3e22555b	0.15852873
196	0x3d19fbc3	0.037593614
197	0xbcc77eec	-0.024352513
198	0xbe8c5970	-0.27411985
199	0xbeb0de6c	-0.34544694
200	0xbe4952fd	-0.19660564
201	0x3e18467c	0.14870638
202	0xbd345f96	-0.04403647
203	0xbdc32e0c	-0.09530267
204	0x3d93fea8	0.07226306
205	0x3d9e6acb	0.07735213
206	0x3d2f5a60	0.042810798
207	0x3d791f8f	0.060821112
208	0xbe0d5958	-0.13803613
209	0x3e0d0ab2	0.13773611
210	0x3ba7d16b	0.0051214
211	0xbdffc55d	-0.12488816
212	0x3dab942c	0.08377871
213	0x3d373332	0.044726558
214	0x3e1aa400	0.15101624
215	0x3d813d1a	0.06310482
216	0xbd267860	-0.040642142
217	0x3b25934c	0.0025264798
218	0xbac8e7e6	-0.00153279
219	0x3e3e1f59	0.18566646
220	0xbdb01952	-0.085985795
221	0xbc6da339	-0.014504247
222	0xbd317553	-0.04332478
223	0x3def5026	0.11685209
224	0x3df51cf8	0.11968416
225	0x3e0ca3bd	0.13734336
226	0xbd691e54	-0.05691369
227	0x3db2d2fa	0.08731647
228	0xbc842401	-0.01613045
229	0xbd756168	-0.059907347
230	0x3da38872	0.07985009
231	0xbda98901	-0.082780845
232	0xbc4564d3	-0.012047964
233	0x3e0a7347	0.13520537
234	0x3e1e5ed8	0.15465868
235	0xbe0a3742	-0.13497642
236	0xbe78cd1d	-0.24296995
237	0x3d737042	0.05943323
238	0x3d389ce1	0.045071486
239	0x3d9996b7	0.0749945
240	0x3c9feb89	0.019521492
241	0x3d95643b	0.07294508
242	0x3ba9336e	0.0051636016
243	0x3de5d994	0.1122314
244	0x3d0b8ce2	0.034069903
245	0xbbfdf8e6	-0.0077506183
246	0x3d35eee3	0.044417273
247	0x3cadfc66	0.021238517
248	0x3c1c2f5c	0.009532776
249	0x3e22a3a6	0.1588274
250	0xbdc156af	-0.09440362
251	0xbdd727b0	-0.10505617
252	0x3e118312	0.14210156
253	0xbde66914	-0.11250511
254	0xbcdc6bfc	-0.02690696
255	0x3dfc553f	0.12320947

network_body._body_endoder.seq_layers.0.bias f4 [128]
0	0x3d4d3dbb	0.0501077
1	0x3d563009	0.052291904
2	0xbd3d9d57	-0.04629263
3	0xbd1fad44	-0.0389836
4	0x3e524e78	0.20537746
5	0xbd1363d3	-0.03598387
6	0xbd835737	-0.06413119
7	0x3b864fa7	0.004098851
8	0x3dda377f	0.10655116
9	0x3da9af89	0.08285434
10	0x3c9fef77	0.019523365
11	0x3bf3dda9	0.0074421954
12	0xbd0624d7	-0.032749977
13	0xbcb0ee33	-0.021597957
14	0x3c606731	0.013696478
15	0x3e3ff0b5	0.18744166
16	0x3c07418a	0.008255372
17	0xbcecb94f	-0.028896956
18	0x3d9545ad	0.0728868
19	0xbc22cf87	-0.009937174
20	0x3c02459f	0.007951169
21	0xbcecae21	-0.028891625
22	0x3d384861	0.0449909
23	0xbd8635be	-0.06553219
24	0x3d18008c	0.037109897
25	0x3e14abc5	0.1451865
26	0x3e248ceb	0.16069381
27	0x3e315ba1	0.1732011
28	0x3e2d7bb2	0.16941717
29	0x3cd5ccfa	0.026098717
30	0x3dcb052a	0.09913094
31	0x3e02fbb1	0.12791325
32	0x3d4267bb	0.047462206
33	0x3e1b9235	0.15192492
34	0x3e05c111	0.1306193
35	0x3d67e470	0.05661434
36	0x3c811071	0.01575491
37	0x3da339f9	0.07970042
38	0x3e137a04	0.14402014
39	0x3e40947c	0.18806642
40	0x3e24a8bd	0.16079994
41	0xbb9b3d62	-0.004737542
42	0x3ade8a81	0.0016978533
43	0x3dd3a639	0.10334439
44	0x39915cfe	0.0002772584
45	0x3dc16167	0.09442406
46	0x3e102d21	0.14079715
47	0x3c90fd93	0.017699039
48	0xbd1cb9b9	-0.038263056
49	0x3d703931	0.058648292
50	0x3dd3bffb	0.10339352
51	0x3c7f6a9e	0.015589384
52	0x3cbd5572	0.023112033
53	0x3e596efd	0.21233745
54	0x3e0c9cdf	0.13731717
55	0x3e3d4ec0	0.18487072
56	0x3c2db5cb	0.010602425
57	0x3ced62e0	0.028977811
58	0x3ddc44d7	0.10755318
59	0x3dd1fff8	0.102539
60	0x3e077239	0.13227166
61	0xbc0aa675	-0.008462538
62	0x3e43554d	0.19075508
63	0x3de9d0b1	0.11416758
64	0x3e6738ca	0.22580257
65	0x3bd8a4ef	0.0066114585
66	0x3d37e8fe	0.044899933
67	0x3de87132	0.11349715
68	0xbd76385e	-0.06011235
69	0x3c02ebe8	0.007990815
70	0xbd5604de	-0.052250735
71	0x3e3a1159	0.1817068
72	0x3d741fb1	0.059600536
73	0x3d39c72c	0.04535596
74	0x3e08ac16	0.13346896
75	0x3d2d3939	0.0422909
76	0x3e65df93	0.22448568
77	0xbcacd90b	-0.021099588
78	0x3e5af27e	0.21381566
79	0x3e20f6de	0.15719172
80	0x3e2d44e5	0.16920812
81	0x3e2b9e83	0.16759686
82	0x3d94f1c8	0.072726786
83	0xbbd7ebc5	-0.006589385
84	0xbd4dfbac	-0.05028884
85	0x3c206a1c	0.009790923
86	0x3d844327	0.06458121
87	0x3de4718b	0.11154469
88	0x3e00c054	0.12573367
89	0x3d2a478d	0.041572142
90	0x3e0d38eb	0.13791244
91	0x3d75f19c	0.06004487
92	0xbdb02708	-0.086011946
93	0x3cbd63e6	0.023118924
94	0xbcfffc99	-0.031248378
95	0x3d883bd2	0.06652035
96	0x3daf21ea	0.085513905
97	0x3e33e028	0.17565978
98	0x3df86ab7	0.12129729
99	0x3e4688ae	0.19388077
100	0xbd551095	-0.052017767
101	0x3dd18236	0.10229914
102	0xbd2d14a9	-0.04225603
103	0x3d4c8551	0.049931828
104	0x3e05984e	0.13046381
105	0x3e218520	0.1577344
106	0x3e5c322f	0.21503519
107	0xbc1af091	-0.00945677
108	0xbd87da06	-0.066333815
109	0x3e0cad79	0.1373805
110	0x3e0a1e28	0.13488066
111	0x3c4b6eb0	0.012416527
112	0x3bcbe592	0.0062224353
113	0xbaf7ffc4	-0.0018920829
114	0x3d0ced9b	0.034406286
115	0x3b691e61	0.0035571086
116	0x3df13f4b	0.1177965
117	0x3d4fa955	0.050698597
118	0xbc839a75	-0.016064862
119	0x3d938e9e	0.072049364
120	0x3c14dbe1	0.009085626
121	0xbd40439e	-0.046939485
122	0xbce20e91	-0.027594836
123	0x3d7d3193	0.061814856
124	0x3d60f381	0.054919723
125	0x3e2cd893	0.16879492
126	0x3dcaafe7	0.09896832
127	0x3d30aa93	0.043131422

action_model._discrete_distribution.branches.0.weight f4 [2, 128]
0	0xbe76ce19	-0.24102058
1	0x3ec5f41f	0.38662812
2	0x3e11f62a	0.1425406
3	0x3ebb6696	0.36601704
4	0xbb926bfa	-0.004468438
5	0x3eaf70a0	0.34265614
6	0x3e9930d5	0.29920068
7	0xbf249137	-0.6428408
8	0x3e143d3b	0.14476483
9	0xbecc17b5	-0.39861837
10	0xbecae7c2	-0.39629942
11	0x3ec9b2d0	0.39394236
12	0x3ea89ec7	0.32933637
13	0x3eb65289	0.35609844
14	0x3ea69ecd	0.3254303
15	0xbd8ce4b7	-0.068795614
16	0x3ec92b13	0.39290676
17	0x3e97d2ec	0.29653108
18	0x3e61be39	0.2204522
19	0x3ee40f3a	0.44542867
20	0xbef4804b	-0.4775413
21	0xbebaa304	-0.36452496
22	0x3c1315a7	0.00897733
23	0xbd663189	-0.056199584
24	0xbea8bcf4	-0.3295666
25	0xbec635c6	-0.387129
26	0xbdbadeec	-0.0912455
27	0xbb6092fd	-0.00342673
28	0x3e473b9c	0.19456333
29	0x3e6b1f5b	0.2296118
30	0xbd63011a	-0.055420972
31	0x3c846321	0.01616055
32	0x3db4c90d	0.0882741
33	0xbe12b45b	-0.14326613
34	0xbee87229	-0.45399597
35	0xbec4234e	-0.38308185
36	0x3e62c917	0.22147022
37	0xbd83f389	-0.06442935
38	0xbd603094	-0.054733828
39	0xbe69275a	-0.22768918
40	0xbe42952d	-0.19002219
41	0x3f0bcd40	0.5461006
42	0xbed88678	-0.42290092
43	0x3d26e45f	0.040745135
44	0x3ef3f771	0.4764972
45	0xbd8237b6	-0.06358282
46	0xbe17efbb	-0.14837544
47	0x3e74eabb	0.23917668
48	0x3ee40674	0.44536173
49	0x3e58061c	0.2109608
50	0xbdb306e8	-0.08741552
51	0x3eae6ccc	0.3406738
52	0x3d8c7f5d	0.0686023
53	0xbeb03722	-0.34417063
54	0x3dfb8532	0.12281264
55	0xbd9c74cc	-0.07639465
56	0xbe9aaca2	-0.30209833
57	0xbe15393a	-0.14572611
58	0x3a1241f9	0.00055792887
59	0x3ee8dde9	0.45481804
60	0x3db0e2d8	0.08637017
61	0x3dd7d0c6	0.10537867
62	0xbe29d194	-0.16583854
63	0x3d7d7d1b	0.061886888
64	0xbe37449e	-0.17897269
65	0xbea339ad	-0.3187994
66	0xbb9244cf	-0.004463769
67	0x3e3be402	0.18348697
68	0x3eceff29	0.40429047
69	0xbecfbb05	-0.40572372
70	0xbd2bd6a6	-0.04195275
71	0xbeb43440	-0.35196114
72	0xbe85f64f	-0.2616448
73	0xbeec8b26	-0.46199912
74	0xbe86ce17	-0.2632911
75	0xbe1e083d	-0.1543283
76	0xbf0d0023	-0.55078334
77	0x3e62ccde	0.22148463
78	0x3dc1faf3	0.09471693
79	0xbf013dc4	-0.5048487
80	0xbe9634ab	-0.29337057
81	0xbd7cbdfa	-0.061704613
82	0xbd4e68d2	-0.050392933
83	0x3ec06c2f	0.37582538
84	0xbf130c5a	-0.5744072
85	0x3e0ab174	0.13544255
86	0xbe4313f2	-0.19050577
87	0x3da0f66a	0.078595
88	0xbe1b6615	-0.1517566
89	0x3e7728cb	0.24136655
90	0xbd320914	-0.04346569
91	0x3e16c33b	0.14722912
92	0x3e9efd02	0.31052405
93	0x3e8eb0b1	0.2786918
94	0xbee11f43	-0.43969163
95	0xbe1fafa4	-0.15594345
96	0xbf052a13	-0.52017325
97	0xbeb88bf7	-0.36044285
98	0x3e19ca0f	0.15018485
99	0xbc620ee1	-0.013797493
100	0x3e32b8d2	0.17453316
101	0x3e655a74	0.22397786
102	0x3c74338d	0.014904869
103	0xbf1182b7	-0.5684008
104	0x3e322f36	0.17400822
105	0xbe748306	-0.23878106
106	0xbda0bcf3	-0.07848539
107	0xbf1a91ee	-0.6037892
108	0x3dc58141	0.09643794
109	0xbe97749c	-0.29581153
110	0x3e99bd61	0.30027297
111	0x3e94b2f3	0.29042777
112	0xbe2399c6	-0.15976629
113	0x3d835d3c	0.064142674
114	0xbdd768a1	-0.10518003
115	0x3e29c1c1	0.16577817
116	0xbe40dbc3	-0.18833832
117	0x3eb398c2	0.35077482
118	0x3e61adb3	0.22038917
119	0xbeb2c800	-0.34918213
120	0x3edd739b	0.43252262
121	0x3e80c162	0.2514754
122	0x3e0614f1	0.13093926
123	0x3e3d8d04	0.18510824
124	0x3d9ed7e4	0.077560216
125	0x3c9a5273	0.018838143
126	0x3ed3c038	0.4135759
127	0x3e671c50	0.22569394
128	0x3e744d80	0.23857689
129	0xbec150d6	-0.37756985
130	0xbe160299	-0.14649428
131	0xbeb37dc9	-0.35056904
132	0x3c172ac1	0.009226502
133	0xbeaf51a0	-0.34241962
134	0xbe935a20	-0.28779697
135	0x3f269871	0.6507636
136	0xbe1a4917	-0.15066944
137	0x3ed272e1	0.4110327
138	0x3ecc8885	0.39947906
139	0xbebfa17f	-0.374279
140	0xbe99cad9	-0.30037573
141	0xbeb47cf0	-0.3525157
142	0xbea34640	-0.31889534
143	0x3d7ef06f	0.062241014
144	0xbecef81e	-0.40423673
145	0xbe96e48f	-0.2947125
146	0xbe5c5170	-0.21515441
147	0xbedc5553	-0.43033847
148	0x3ef0b853	0.47015628
149	0x3ebf7709	0.37395504
150	0xbbd4c6dc	-0.0064934324
151	0x3d51ee50	0.051252663
152	0x3ea9995e	0.33124822
153	0x3ec8eb84	0.39242184
154	0x3db9a009	0.090637274
155	0x3b568abe	0.0032736505
156	0xbe560294	-0.20899421
157	0xbe7f0dcb	-0.24907605
158	0x3d68c964	0.056832686
159	0xbcad5a04	-0.021161087
160	0xbde10c7c	-0.10988709
161	0x3e18161a	0.14852181
162	0x3eec21e1	0.46119598
163	0x3ed13ed7	0.40868255
164	0xbe60b23c	-0.21942991
165	0x3dbbba31	0.091663726
166	0x3db43412	0.08798994
167	0x3e604c10	0.21904016
168	0x3e2c756c	0.16841668
169	0xbf0c792c	-0.54872394
170	0x3ed92aa2	0.4241534
171	0xbd44b3ce	-0.048023038
172	0xbef1e4af	-0.47244784
173	0x3da2b8d9	0.07945413
174	0x3e303be0	0.1721034
175	0xbe82ca53	-0.25544986
176	0xbee2a2c8	-0.44264817
177	0xbe4f4790	-0.20242143
178	0x3dcd3e42	0.1002164
179	0xbeabf9f0	-0.33589125
180	0xbdad6011	-0.08465589
181	0x3ea479c0	0.32124138
182	0xbe05d02e	-0.13067695
183	0x3dab71ca	0.08371313
184	0x3e94de9a	0.29076082
185	0x3e218f31	0.1577728
186	0x3b1c61b6	0.0023861951
187	0xbee53f9b	-0.4477509
188	0xbdabc3af	-0.08386933
189	0xbdf1fe0a	-0.11816032
190	0x3e420e9a	0.18950883
191	0xbd5d1c6a	-0.053982176
192	0x3e2f195b	0.17099516
193	0x3ea1645d	0.31521884
194	0xbc48d298	-0.012257241
195	0xbe4d9fcf	-0.20080493
196	0xbed07aa5	-0.4071857
197	0x3ed2eabe	0.4119472
198	0x3d43d46f	0.047810014
199	0x3eb4e903	0.35334024
200	0x3e811761	0.2521315
201	0x3ee65755	0.44988504
202	0x3e732516	0.23744616
203	0x3e187871	0.14889695
204	0x3f0b0fb2	0.54320824
205	0xbe751f55	-0.23937733
206	0xbdd097a2	-0.10185172
207	0x3effb531	0.49942926
208	0x3e921318	0.28530192
209	0x3d8971a2	0.06711127
210	0x3d634018	0.055481046
211	0xbec3d34f	-0.38247153
212	0x3f12e003	0.57373065
213	0xbe169aff	-0.14707564
214	0x3e4b8a3c	0.19876951
215	0xbdaefc07	-0.08544164
216	0x3e0a0066	0.13476714
217	0xbe7f34a3	-0.24922423
218	0x3d23dc16	0.040004812
219	0xbe18100f	-0.14849876
220	0xbea42be7	-0.32064745
221	0xbe98b904	-0.29828656
222	0x3eec71f7	0.46180698
223	0x3e0e8d27	0.13921033
224	0x3f046117	0.5171065
225	0x3eb9c989	0.36286572
226	0xbe292afc	-0.16520303
227	0xbc9ea5c1	-0.019366147
228	0xbe298f68	-0.16558611
229	0xbe61a733	-0.22036438
230	0xbcfee320	-0.031114161
231	0x3f15a5e5	0.5845626
232	0xbe4096f1	-0.1880758
233	0x3e810452	0.2519861
234	0x3da86cd5	0.08223883
235	0x3f1623dc	0.5864847
236	0xbdc3a62f	-0.095531814
237	0x3ea00bb3	0.31258926
238	0xbe96e945	-0.29474846
239	0xbe90e8a8	-0.28302503
240	0x3e23c57e	0.15993306
241	0xbd9ca78a	-0.07649143
242	0x3dc8c09a	0.09802361
243	0xbe400430	-0.18751597
244	0x3e53065b	0.20607893
245	0xbeb62217	-0.35572883
246	0xbe6537d1	-0.22384574
247	0x3eb8fa46	0.36128443
248	0xbed20aa7	-0.41023752
249	0xbe89709c	-0.26843727
250	0xbe0b6ba7	-0.13615285
251	0xbe413f36	-0.1887177
252	0xbda408bd	-0.08009479
253	0xbd12ae6c	-0.035810873
254	0xbeddd8de	-0.4332952
255	0xbe5ec884	-0.21756178

action_model._discrete_distribution.branches.0.bias f4 [2]
0	0xbbbfb698	-0.0058506243
1	0x3bbfc9b7	0.0058529037

action_model._discrete_distribution.branches.1.weight f4 [2, 128]
0	0x3eb05ccc	0.34445798
1	0x3f0bd5c4	0.54623055
2	0xbedbce51	-0.42930844
3	0xbe56041e	-0.20900008
4	0xbdb18313	-0.086675785
5	0xbe9da284	-0.30788052
6	0xbeff0b2e	-0.49813217
7	0xb933ba8a	-0.00017140261
8	0x3ea5cb31	0.32381585
9	0xbdb85438	-0.090004385
10	0xbddb9162	-0.10721089
11	0xbe01d35c	-0.12678283
12	0x39b76c68	0.0003498525
13	0xbe26b11e	-0.16278502
14	0xbdd02e32	-0.10165061
15	0xbdb9dfce	-0.090758905
16	0xbdfa6e9d	-0.12228129
17	0xbe6a1a14	-0.2286151
18	0xbe127fa0	-0.14306498
19	0xbe21030e	-0.15723822
20	0x3eb22fb3	0.34802017
21	0x3e61615f	0.220098
22	0xbe5b6b39	-0.21427621
23	0xbec2cb97	-0.38045952
24	0x3ec9965a	0.39372522
25	0xbd8cf90f	-0.06883442
26	0x3e566924	0.20938545
27	0xbe322abe	-0.17399117
28	0xbdd3e3c8	-0.1034618
29	0x3eccc44a	0.39993507
30	0x3ebcb8b8	0.3685968
31	0x3e22a0da	0.15881673
32	0x3e8a8619	0.27055433
33	0x3ea40bea	0.3204034
34	0xbda35f2d	-0.07977138
35	0x3d346ead	0.04405086
36	0xbdc757ac	-0.09733519
37	0x3e141827	0.14462338
38	0x3d730723	0.059332978
39	0xbe066dc6	-0.13127813
40	0x3e8e7a60	0.2782774
41	0xbd3a9b9e	-0.045558564
42	0x3e8ad3e7	0.27114794
43	0xbeab41c4	-0.33448613
44	0xbc95bc97	-0.018278403
45	0x3eaa412b	0.33252844
46	0xbd325c9e	-0.043545358
47	0xbe9d72d7	-0.30751678
48	0xbdb9af44	-0.090666324
49	0xbea3e1ef	-0.3200831
50	0x3eec5258	0.46156573
51	0x3da62ccc	0.08114013
52	0xbea5d997	-0.3239257
53	0xbe6091a2	-0.21930555
54	0x3e93a29e	0.28835005
55	0xbee06351	-0.43825772
56	0x3e95d4a7	0.29263803
57	0x3e54534d	0.20734902
58	0x3ea8c171	0.32960084
59	0x3ee49d2e	0.4465117
60	0x3e88077c	0.2656821
61	0xbeab18ed	-0.33417454
62	0xbf0f211d	-0.559099
63	0x3e346657	0.17617165
64	0xbec71f05	-0.38890854
65	0x3da8f7ce	0.0825039
66	0x3f1b5b6b	0.6068637
67	0x3dabb6ca	0.083844736
68	0xbf0565c7	-0.52108425
69	0x3d90505d	0.07046578
70	0xbd70ca73	-0.05878682
71	0xbdc70483	-0.097176574
72	0xbd9872a8	-0.07443744
73	0x3d10f219	0.035387132
74	0x3e862b8d	0.26205102
75	0x3e9a2633	0.3010727
76	0xbf034f18	-0.5129256
77	0x3c4f9ca4	0.012671623
78	0xbe4b6146	-0.19861326
79	0xbe467d33	-0.19383697
80	0xbe899b9b	-0.2687653
81	0xbe223cb2	-0.15843466
82	0x3e5efbb0	0.21775699
83	0xbec7d01d	-0.39025965
84	0x3e2d77c0	0.16940212
85	0xbf0ffd5f	-0.5624599
86	0x3ee2ac0c	0.44271886
87	0xbdd55cf6	-0.104181215
88	0xbeed92a5	-0.46400943
89	0x3de85b58	0.113455474
90	0xbcb21022	-0.021736208
91	0x3e81e28e	0.2536816
92	0xbecc9524	-0.39957535
93	0xbea8f54e	-0.32999653
94	0x3ce0eae0	0.027455747
95	0xbb276bb6	-0.0025546378
96	0xbecf9f17	-0.40551063
97	0xbed51672	-0.41618687
98	0x3d83f809	0.06443793
99	0x3dcf2762	0.101149336
100	0xbd7c0562	-0.06152857
101	0xbe286d0c	-0.16447848
102	0xbf39cc08	-0.7257695
103	0x3d98fc9a	0.07470055
104	0x3edc893c	0.43073452
105	0xbe222129	-0.15832962
106	0xbe8401b6	-0.25782555
107	0xbebb8b3a	-0.3662966
108	0xbed0353d	-0.40665618
109	0xbe0b7e23	-0.13622336
110	0x3ea26beb	0.3172296
111	0x3e248b8e	0.16068861
112	0x3e3f7aba	0.1869916
113	0x3f0b82ab	0.5449626
114	0x3e2ff1fd	0.17182155
115	0xbdadd8c1	-0.08488608
116	0x3e41bbb0	0.18919253
117	0x3cda0442	0.026613358
118	0xbd9c9880	-0.076462746
119	0xbe058040	-0.13037205
120	0x3c6ed99e	0.014578251
121	0xbe76925a	-0.24079266
122	0xbe1a4456	-0.1506513
123	0xbd4398f3	-0.047753286
124	0x3ed52561	0.4163008
125	0xbe96f2b3	-0.2948204
126	0x3f163194	0.586694
127	0x3ef009e2	0.4688254
128	0xbeadd8e1	-0.33954528
129	0xbf0cad77	-0.54952186
130	0x3ed4bdcd	0.41551057
131	0x3e5f4662	0.21804193
132	0x3dbbab26	0.09163503
133	0x3ea0b20d	0.31385842
134	0x3f068317	0.5254378
135	0xbbc88dd1	-0.0061204215
136	0xbeacd18f	-0.3375363
137	0x3dbc3104	0.091890365
138	0x3df29f82	0.1184683
139	0x3e0e3b8a	0.138899
140	0x3c4260b0	0.011863872
141	0x3e23efc1	0.16009428
142	0x3dc952b0	0.098302245
143	0x3da348b7	0.07972854
144	0x3e033aab	0.12815349
145	0x3e72a3a6	0.2369524
146	0x3e1dc201	0.15406038
147	0x3e253cf7	0.16136537
148	0xbea884db	-0.3291386
149	0xbe5ab3c6	-0.2135764
150	0x3e771060	0.2412734
151	0x3ec02ed7	0.37535736
152	0xbecaa18f	-0.39576384
153	0x3d857d47	0.065180354
154	0xbe69b687	-0.22823535
155	0x3e3376e8	0.17525828
156	0x3dcf1660	0.101116896
157	0xbec7651e	-0.38944334
158	0xbeb73df5	-0.35789457
159	0xbe35ff9c	-0.17773288
160	0xbe86dced	-0.26340428
161	0xbe9ae2fd	-0.30251303
162	0x3d457aa5	0.048212666
163	0xbd333784	-0.043754116
164	0x3da2e8d0	0.07954562
165	0xbe0ee36c	-0.13953942
166	0xbd7581ea	-0.05993835
167	0x3e03d8a5	0.12875612
168	0xbe919b4f	-0.28438804
169	0x3d9b33fe	0.07578276
170	0xbe86e6a7	-0.2634785
171	0x3ea6da0e	0.32588238
172	0x3c74ad33	0.014933872
173	0xbeadd549	-0.33951786
174	0x3d2dd066	0.042435072
175	0x3e9ecf0d	0.31017342
176	0x3d9cd4d0	0.07657778
177	0x3e9c78cb	0.30560908
178	0xbef9482e	-0.4868788
179	0xbda7ad2d	-0.081873275
180	0x3ea1c5be	0.31596178
181	0x3e54d728	0.207852
182	0xbe9b43e0	-0.30325222
183	0x3ed8c561	0.42338088
184	0xbe9b0f48	-0.30285096
185	0xbe65707f	-0.22406195
186	0xbea6b131	-0.3255706
187	0xbede091c	-0.43366325
188	0xbe8b16fa	-0.27165967
189	0x3ea1caf2	0.31600147
190	0x3f0f9ee7	0.5610184
191	0xbe28f78e	-0.16500685
192	0x3ecb1cce	0.39670414
193	0xbdd5fc41	-0.10448504
194	0xbf1504b2	-0.5821029
195	0xbdcb0edb	-0.09914943
196	0x3f0389d8	0.5138221
197	0xbda54196	-0.0806915
198	0x3d451838	0.0481188
199	0x3de4f2db	0.111791335
200	0x3da34a18	0.07973117
201	0xbcbaedee	-0.022818532
202	0xbe88e022	-0.267335
203	0xbe9c0391	-0.3047147
204	0x3ef83bd8	0.48483157
205	0xbc230db3	-0.009951997
206	0x3e3aef72	0.18255404
207	0x3e463ded	0.1935956
208	0x3e880552	0.2656656
209	0x3e1989cc	0.14993972
210	0xbe5a77c6	-0.21334752
211	0x3ec20d3b	0.3790072
212	0xbe294aae	-0.16532394
213	0x3f1169dc	0.56802154
214	0xbef072eb	-0.46962675
215	0x3de34239	0.11096615
216	0x3ee8177f	0.45330426
217	0xbdcd70cc	-0.1003128
218	0x3c834283	0.016022926
219	0xbe8326c4	-0.25615513
220	0x3ec4ebe0	0.38461208
221	0x3ea477f9	0.32122782
222	0xbce4256e	-0.02784988
223	0x3b8cb5b4	0.0042941216
224	0x3ee263d0	0.44216776
225	0x3ed0fad2	0.4081636
226	0xbdbe6ab9	-0.092976995
227	0xbdc03372	-0.093848124
228	0x3d8c4633	0.06849327
229	0x3e2d5edb	0.16930716
230	0x3f3c0e21	0.7345906
231	0xbd6d0d26	-0.057873867
232	0xbedda6ac	-0.43291223
233	0x3e0fc3fd	0.14039607
234	0x3e8178ee	0.25287575
235	0x3ec4f40e	0.3846745
236	0x3ed6ba2e	0.4193892
237	0x3e07e49d	0.13270803
238	0xbe9e89ce	-0.30964512
239	0xbe3c0d51	-0.18364455
240	0xbe3f8ffb	-0.18707268
241	0xbf047b01	-0.5175019
242	0xbe2cd4cc	-0.1687805
243	0x3d8d8ea3	0.069119714
244	0xbe4c8b86	-0.19975099
245	0xbc3427a4	-0.010995779
246	0x3d884171	0.06653107
247	0x3dfca6ae	0.12336479
248	0xbc4965f8	-0.012292378
249	0x3e7cf501	0.24702837
250	0x3e0e605a	0.13903943
251	0x3d4b20c0	0.04959178
252	0xbed6f070	-0.41980314
253	0x3e9f67e6	0.31133956
254	0xbf0f6719	-0.5601669
255	0xbef8c34e	-0.48586506

action_model._discrete_distribution.branches.1.bias f4 [2]
0	0xbd61a4d1	-0.05508882
1	0x3d61a946	0.055093072

action_model._discrete_distribution.branches.2.weight f4 [2, 128]
0	0x3e2e30d7	0.17010818
1	0x3c38387b	0.011243935
2	0xbee59abb	-0.44844612
3	0xbe8c3a29	-0.27388123
4	0x3e040c47	0.12895308
5	0xbd5d7dfc	-0.054075226
6	0xbe464b13	-0.19364576
7	0x3eeac1d8	0.45851016
8	0xbdf2f9c9	-0.11864049
9	0x3f0330a6	0.51246107
10	0x3e065303	0.13117604
11	0xbdc4129a	-0.095738605
12	0xbf1af296	-0.60526407
13	0xbedbfcf6	-0.4296643
14	0xbf1fa4f7	-0.6236109
15	0x3da8dd1a	0.08245297
16	0xb9c6dfe5	-0.00037932317
17	0xbe247629	-0.160607
18	0x3c641213	0.013920325
19	0xbea3f0bc	-0.32019603
20	0x3ec62641	0.3870106
21	0x3cb6adbc	0.02229964
22	0x3e197647	0.14986525
23	0xbec3a9ea	-0.38215572
24	0x3d24316d	0.0400862
25	0x3eb2557c	0.34830844
26	0xbc2803ce	-0.010254813
27	0x3ebe4537	0.37162182
28	0x3dbdca57	0.09267109
29	0xbe0579c2	-0.13034728
30	0x3d8944e2	0.067025915
31	0x3e72d903	0.23715596
32	0x3ea857bb	0.32879433
33	0xbdbf5a6b	-0.09343418
34	0xbdea7eff	-0.11450004
35	0x3efa5423	0.48892316
36	0xbe912740	-0.28350258
37	0xbe9ed243	-0.31019792
38	0x3e88e7af	0.2673926
39	0x3e093e04	0.13402563
40	0xbda34f88	-0.07974154
41	0xbf0ff493	-0.56232566
42	0x3ecc1d26	0.39865988
43	0x3ee74b6d	0.45174733
44	0xbea4b486	-0.32168978
45	0x3e1fde90	0.15612245
46	0x3e4eb136	0.20184788
47	0xbe9fdbc1	-0.31222346
48	0xbe912996	-0.2835204
49	0x3e0961ff	0.13416289
50	0x3d274e45	0.040846128
51	0xbea5d16f	-0.32386348
52	0xbe17280e	-0.14761373
53	0x3ecf12b8	0.4044397
54	0x3d296996	0.04136046
55	0x3e51f427	0.20503293
56	0x3ea7b4d3	0.32755145
57	0x3ebf7d19	0.3740013
58	0x3e69f03e	0.22845551
59	0xbe1b9275	-0.15192588
60	0x3ea23dd4	0.31687796
61	0xbea154d4	-0.3151003
62	0xbe3d27c5	-0.18472202
63	0xbdbc58f9	-0.09196658
64	0xbde5d4e0	-0.11222243
65	0x3ec146b4	0.37749255
66	0x3e1b0268	0.15137637
67	0x3efec761	0.4976149
68	0xbea1d2af	-0.3160605
69	0x3eb5b953	0.35492954
70	0xbebeb000	-0.37243652
71	0x3d5e8411	0.054325167
72	0x3ea45a3d	0.32100096
73	0x3ed61270	0.41810942
74	0xbda388f9	-0.0798511
75	0x3ead7360	0.33877087
76	0x3dc66aac	0.09688315
77	0xbe044700	-0.1291771
78	0x3df8bafe	0.12145041
79	0x3e876ec4	0.26451695
80	0x3e4e3cbb	0.20140354
81	0x3ebf15e4	0.3732139
82	0x3ed239be	0.4105968
83	0xbdb42d2e	-0.0879768
84	0xbe7ef67a	-0.24898711
85	0xbdce5e18	-0.10076541
86	0x3e8a65df	0.27030846
87	0xbd7e3f86	-0.0620723
88	0xbe02c616	-0.12770876
89	0xbea6d0e5	-0.3258125
90	0xbe21efee	-0.15814182
91	0xbec09717	-0.37615272
92	0xbf18978b	-0.59606236
93	0xbea8ec9e	-0.32993025
94	0xbdfcb439	-0.12339062
95	0x3ec8da29	0.39228943
96	0x3e9a1002	0.30090338
97	0x3cc8921f	0.024483738
98	0xbd00f7cb	-0.031486314
99	0x3db25af5	0.08708755
100	0xbf169224	-0.5881674
101	0xbd91dc87	-0.071221404
102	0xbdd8de72	-0.10589303
103	0x3f0e1d06	0.55513036
104	0xbdad7b16	-0.084707424
105	0x3ea32ef7	0.3187177
106	0x3ed2417b	0.41065583
107	0xbaa46643	-0.0012542683
108	0xbed8d1f0	-0.4234767
109	0x3e8875ff	0.26652524
110	0x3dd8af0c	0.105802625
111	0xbd74f20b	-0.059801143
112	0x3e409db1	0.18810154
113	0xbea9a0d9	-0.3313053
114	0x3e6c4469	0.23072971
115	0xbe682394	-0.22669822
116	0x3ebd8075	0.37012067
117	0xbf3ac1e7	-0.7295212
118	0xbe425a60	-0.18979788
119	0x3de4dbbe	0.11174725
120	0xbf248b2d	-0.64274865
121	0xbf1f0092	-0.62110245
122	0xbdedefa3	-0.11617973
123	0xbea3eac5	-0.32015052
124	0x3db13df8	0.08654398
125	0xbd11ae99	-0.0355669
126	0x3cbd9a1f	0.02314478
127	0x3e28dee1	0.16491272
128	0xbe30a889	-0.17251791
129	0xbc30bb2a	-0.010786811
130	0x3ede9759	0.43474844
131	0x3e8134b1	0.25235513
132	0xbdd03473	-0.10166254
133	0x3da73c8e	0.08165847
134	0x3e2d10e8	0.1690098
135	0xbee900e2	-0.45508486
136	0x3debdfe6	0.115173146
137	0xbf036efe	-0.51341236
138	0xbdf58662	-0.11988522
139	0x3db501f8	0.08838266
140	0x3f15fb44	0.58586526
141	0x3ee2b611	0.4427953
142	0x3f22b091	0.6355067
143	0xbd9f60e9	-0.07782156
144	0xbc3298c1	-0.010900677
145	0x3e2122f7	0.15735994
146	0xbbe6b5fe	-0.007040738
147	0x3e9d45d0	0.30717325
148	0xbecaf4cd	-0.39639893
149	0xbcdb5e67	-0.026778413
150	0xbe132a3e	-0.14371583
151	0x3ecfa2fa	0.4055403
152	0xbd822b92	-0.06355967
153	0xbeb34dd6	-0.35020322
154	0xbc93cc97	-0.018041892
155	0xbec6f09e	-0.3885545
156	0xbded2f3d	-0.115812756
157	0x3e1316d2	0.14364174
158	0xbd8d6c41	-0.069054134
159	0xbe753337	-0.23945318
160	0xbe9c1ac0	-0.3048916
161	0x3db7a481	0.089669235
162	0x3df31ae9	0.11870367
163	0xbefbd72f	-0.4918761
164	0x3e942b11	0.28939107
165	0x3e9d6b58	0.3074596
166	0xbe8b8e09	-0.27256802
167	0xbdfbf6a7	-0.123029046
168	0x3d94d1c1	0.0726657
169	0x3f0d6042	0.55225
170	0xbed3e1e4	-0.41383278
171	0xbee6f434	-0.45108187
172	0x3eb0698f	0.34455535
173	0xbe1476fc	-0.14498514
174	0xbe5c8118	-0.2153362
175	0x3e99a1b2	0.30006176
176	0x3e933dd5	0.28758112
177	0xbe13ae86	-0.14422044
178	0xbd3c6b03	-0.04600049
179	0x3eadd0ff	0.33948514
180	0x3e24f8e6	0.16110572
181	0xbed87c09	-0.4228213
182	0xbd05f04c	-0.032699868
183	0xbe3c1f4f	-0.18371318
184	0xbea5e4e3	-0.3240119
185	0xbeb746cd	-0.35796204
186	0xbe7096ab	-0.23494975
187	0x3e24b1af	0.16083406
188	0xbea9b63f	-0.33146855
189	0x3ea08ef3	0.31359062
190	0x3e3a5df0	0.18199897
191	0x3ddb11df	0.10696768
192	0x3de84b66	0.11342506
193	0xbec4546a	-0.38345653
194	0xbe1d5ee9	-0.15368237
195	0xbf0352da	-0.51298296
196	0x3ea694f0	0.32535505
197	0xbeb13a9f	-0.34615037
198	0x3eb7a20c	0.3586582
199	0xbd2bfcc6	-0.04198911
200	0xbea2d4c1	-0.31802943
201	0xbed5db5c	-0.4176892
202	0x3d90a709	0.070631094
203	0xbea76a11	-0.3269811
204	0xbdc0ffa1	-0.09423757
205	0x3e1bfd29	0.15233292
206	0xbe13bbe2	-0.1442714
207	0xbe8bdb74	-0.27315867
208	0xbe32ab65	-0.17448194
209	0xbebdf538	-0.3710115
210	0xbecc0239	-0.39845446
211	0x3d86ef5b	0.06588622
212	0x3e7e6b90	0.2484572
213	0x3dd2d6e4	0.102948934
214	0xbe8445b6	-0.25834435
215	0x3d8a898e	0.06764518
216	0x3e125b81	0.14292718
217	0x3e9dc3b7	0.3081338
218	0x3e37facb	0.17966764
219	0x3eb53239	0.3538988
220	0x3f1a88a2	0.60364735
221	0x3eb85d20	0.3600855
222	0x3df8fe21	0.12157846
223	0xbec70f96	-0.3887908
224	0xbe955f9a	-0.291745
225	0xbd1cee41	-0.038313154
226	0x3d284444	0.04108073
227	0xbdc390a4	-0.095490724
228	0x3f139b55	0.5765889
229	0x3d95f8dc	0.07322857
230	0x3dd3fd38	0.10351032
231	0xbf10e4bd	-0.56599027
232	0x3daca0d3	0.08429112
233	0xbea61df9	-0.32444742
234	0xbed1e8e4	-0.40997994
235	0x3c8437d0	0.016139895
236	0x3ee420d9	0.4455631
237	0xbe7b6416	-0.24549899
238	0xbde48bfe	-0.11159514
239	0x3d8e9336	0.06961672
240	0xbe337f3a	-0.17529002
241	0x3ea8f7e8	0.33001637
242	0xbe6781c2	-0.22608092
243	0x3e69019e	0.22754523
244	0xbec2c423	-0.38040265
245	0x3f3d1c4e	0.73871315
246	0x3e4fc39a	0.2028946
247	0xbdd6d09f	-0.1048901
248	0x3f26cf6a	0.6516024
249	0x3f204047	0.6259808
250	0x3dda77f9	0.10667414
251	0x3ea1d75a	0.31609613
252	0xbdaa1739	-0.083052106
253	0x3d0e5ac5	0.034754533
254	0xbcb30059	-0.021850752
255	0xbe0429e1	-0.129066

action_model._discrete_distribution.branches.2.bias f4 [2]
0	0x3db01745	0.08598188
1	0xbdb0166f	-0.08598029

action_model._discrete_distribution.branches.3.weight f4 [2, 128]
0	0xbdf087d1	-0.11744655
1	0x3d659232	0.056047626
2	0x3ea9c91c	0.33161247
3	0x3e04baa6	0.12961826
4	0xbede3228	-0.4339764
5	0x3ca22ac6	0.019795787
6	0x3cb6cedf	0.02231544
7	0x3d7bbd8e	0.06146007
8	0xbefa5d33	-0.4889923
9	0x3ea46620	0.32109165
10	0x3ecd99b8	0.4015634
11	0x3a77d6e4	0.00094543234
12	0x3de0c0f9	0.109743066
13	0x3d7baa7d	0.061441887
14	0x3df1343e	0.117775425
15	0xbf181fea	-0.59423697
16	0x3dfa745b	0.12229224
17	0x39b25e96	0.00034021278
18	0xbe743ff0	-0.23852515
19	0xbe3fd0a5	-0.18731935
20	0x3e165403	0.14680485
21	0x3e22b8ca	0.15890804
22	0x3f0dc5d4	0.55379987
23	0x3eaa0020	0.3320322
24	0xbdcfbdf6	-0.10143654
25	0xbe506b58	-0.20353448
26	0xbee4050a	-0.44535094
27	0xbd9ce431	-0.076607116
28	0xbede28ff	-0.43390653
29	0x3e738e92	0.23784855
30	0xbeeef4bc	-0.46671093
31	0xbee99c01	-0.45626834
32	0xbd7edc25	-0.062221665
33	0xbf0c3fe0	-0.54784966
34	0xbbdff7f3	-0.006834978
35	0x3ea58940	0.32331276
36	0x3f0cb59e	0.54964626
37	0xbe9209cc	-0.285231
38	0xbe9f0b8b	-0.31063494
39	0xbeb500c3	-0.35352144
40	0xbedaa679	-0.42705134
41	0x3def5fd8	0.116882026
42	0x3ee6e738	0.4509828
43	0x3ec768c3	0.38947114
44	0x3bc88768	0.0061196573
45	0xbea2e034	-0.31811678
46	0xbe78a3d4	-0.24281245
47	0x3e4bbee1	0.19897033
48	0xbe183c91	-0.14866854
49	0xbdb200dc	-0.0869157
50	0xbeba0c20	-0.36337376
51	0xbdbd3a24	-0.09239605
52	0xbdc5fe1d	-0.09667609
53	0xbe36f463	-0.17866664
54	0xbf077e78	-0.5292735
55	0x3e55ae66	0.20867309
56	0x3eb16724	0.34649003
57	0x3d8fd3f4	0.07022849
58	0xbebf64d2	-0.37381607
59	0xbe30c1c4	-0.17261416
60	0xbe9bc80e	-0.30426067
61	0xbd6430fa	-0.05571077
62	0xbc547d46	-0.012969321
63	0xbef04674	-0.4692875
64	0xbea83f13	-0.32860622
65	0x3e32223c	0.17395872
66	0xbe4320b4	-0.19055444
67	0xbc212d60	-0.009837478
68	0x3e07251b	0.13197748
69	0x3dc6693f	0.09688043
70	0x3d28843e	0.04114174
71	0xbe874b4c	-0.26424634
72	0x3f23b975	0.6395486
73	0x3eae20a7	0.34009287
74	0xbec3d9f8	-0.38252234
75	0xbe1f6322	-0.1556516
76	0x3e94b22a	0.29042178
77	0xbde56626	-0.11201124
78	0xbeed385d	-0.46332064
79	0x3d52a89a	0.051430322
80	0xbd829c99	-0.06377525
81	0xbe713906	-0.23556909
82	0xbe06316d	-0.13104792
83	0xbd0afdfe	-0.033933632
84	0x3e4a160c	0.19734973
85	0x3d310194	0.043214396
86	0xbe0d6ac8	-0.13810265
87	0xbee61468	-0.44937444
88	0xbc8e7c42	-0.017393235
89	0xbe4d560e	-0.20052359
90	0xbefcf645	-0.4940664
91	0xbea6b25a	-0.32557946
92	0x3e1bc542	0.15211967
93	0x3d936803	0.07197573
94	0x3e28b80f	0.16476463
95	0x3f01f1f0	0.5075979
96	0x3e4f5896	0.20248637
97	0xbbfd8482	-0.0077367434
98	0xbed0d966	-0.40790862
99	0xbf18fb83	-0.59758776
100	0x3d938033	0.072021864
101	0xbec02241	-0.37526134
102	0x3ed0865b	0.40727505
103	0x3d132aaf	0.035929378
104	0xbf10482b	-0.5636012
105	0xbe002e2d	-0.12517615
106	0xbe01405b	-0.12622206
107	0x3f014584	0.504967
108	0x3ea85668	0.32878423
109	0xbe58af91	-0.21160723
110	0xbf06246d	-0.5239933
111	0x3ef2d644	0.47429097
112	0x3ed2c61f	0.4116678
113	0x3e130083	0.14355664
114	0x3ef02774	0.469051
115	0xbd8972d6	-0.06711356
116	0xbe8fb22c	-0.28065622
117	0xbd88e776	-0.06684773
118	0xbd3de925	-0.046364922
119	0xbd785ca8	-0.06063524
120	0xbd0ce58b	-0.034398597
121	0xbcf3d11f	-0.029762803
122	0xbe17a47b	-0.14808838
123	0xbe9a40f4	-0.3012768
124	0x3f034186	0.51271856
125	0xbed41755	-0.4142405
126	0xbe930b92	-0.28719765
127	0xbc89c3a6	-0.016816925
128	0x3de33a6a	0.11095126
129	0xbd7a414e	-0.061097436
130	0xbea63b1f	-0.3246698
131	0xbe097adb	-0.13425772
132	0x3ee07c60	0.4384489
133	0xbc9c89c9	-0.01910867
134	0xbd1851e9	-0.03718749
135	0xbd944e6a	-0.07241519
136	0x3ef4d5d4	0.47819388
137	0xbea4f227	-0.32215998
138	0xbed2bc39	-0.41159227
139	0x3be9b5fa	0.007132289
140	0xbdd36516	-0.10322015
141	0xbd657a45	-0.05602481
142	0xbde60e00	-0.11233139
143	0x3f1cd5b2	0.61263573
144	0xbe139237	-0.14411245
145	0xbc90d024	-0.017677374
146	0x3e6f3878	0.23361385
147	0x3e2eb16e	0.17059872
148	0xbe1bf9c8	-0.15232003
149	0xbe18003c	-0.1484384
150	0xbf0bfb86	-0.5468067
151	0xbea8a1f2	-0.32936054
152	0x3dd1cbea	0.10243972
153	0x3e4bee65	0.19915159
154	0x3ee8dd0b	0.45481142
155	0x3d406656	0.046972595
156	0x3ed86e55	0.42271677
157	0xbe84ec5e	-0.25961584
158	0x3eea2ae3	0.45735845
159	0x3ee6e481	0.4509621
160	0x3d3beba3	0.045879018
161	0x3f0d1139	0.55104405
162	0xbb37f32a	-0.002806852
163	0xbea34721	-0.31890205
164	0xbf0b7589	-0.5447622
165	0x3e9659f1	0.29365495
166	0x3e9bb420	0.30410862
167	0x3eafd5f0	0.3434291
168	0x3edfb410	0.43692064
169	0xbddbba06	-0.107288405
170	0xbee5688c	-0.44806325
171	0xbec63bb3	-0.38717422
172	0xbcdc1296	-0.026864331
173	0x3e9bbef1	0.30419114
174	0x3e794bb4	0.24345285
175	0xbe54d49d	-0.2078423
176	0x3e1d5064	0.15362698
177	0x3d96692f	0.07344281
178	0x3eb40979	0.35163477
179	0x3d8d44df	0.06897902
180	0x3daffbae	0.08592926
181	0x3e2fa67b	0.17153351
182	0x3f08830a	0.5332495
183	0xbe520e4e	-0.2051327
184	0xbeaea546	-0.3411047
185	0xbd85d923	-0.06535556
186	0x3ec2ca37	0.38044903
187	0x3e1fdc46	0.15611371
188	0x3e991a9c	0.29903114
189	0x3d3735d4	0.04472907
190	0xbb987c7b	-0.004653511
191	0x3ee96996	0.45588368
192	0x3eadaa9d	0.3391923
193	0xbe37bb92	-0.17942646
194	0x3e5033fb	0.20332329
195	0xbb819c81	-0.0039554243
196	0xbe082c9a	-0.13298264
197	0xbdb6a687	-0.08918481
198	0xbca942a9	-0.020661669
199	0x3e7a5268	0.24445498
200	0xbf233b3e	-0.6376227
201	0xbeb17630	-0.34660482
202	0x3ec62310	0.38698626
203	0x3e24af45	0.16082485
204	0xbe959255	-0.29213205
205	0x3dffa82a	0.124832466
206	0x3ee8844c	0.45413435
207	0xbd8fe6a3	-0.07026412
208	0x3da9d6f7	0.082929544
209	0x3e73ba77	0.238016
210	0x3e0c49ea	0.13700071
211	0x3cdcd6d5	0.026957909
212	0xbe49641e	-0.19667098
213	0xbd7596e9	-0.059958372
214	0x3e00f9ae	0.12595245
215	0x3ee2e9b1	0.44318917
216	0x3cd5560b	0.026042005
217	0x3e396333	0.18104248
218	0x3f029c03	0.51019305
219	0x3ea4a495	0.32156816
220	0xbe0a58f6	-0.13510498
221	0xbd759b05	-0.05996229
222	0xbe20c9f5	-0.1570204
223	0xbf02ca3a	-0.51089823
224	0xbe5d7dea	-0.21630064
225	0x3c472d90	0.012156859
226	0x3eddae41	0.43297008
227	0x3f166f3e	0.5876349
228	0xbda02c90	-0.078209996
229	0x3ec59f13	0.38597926
230	0xbec75b02	-0.3893662
231	0xbccfc4c0	-0.025362372
232	0x3f0ae5a0	0.5425663
233	0x3e0341ee	0.12818119
234	0x3e0f3602	0.13985446
235	0xbef58a5c	-0.47957122
236	0xbea2cdb8	-0.31797576
237	0x3e529f9d	0.205687
238	0x3f060a74	0.523597
239	0xbeea80b4	-0.45801318
240	0xbee2fdfd	-0.44334403
241	0xbe05b110	-0.13055825
242	0xbefb8fd7	-0.4913318
243	0x3d9de487	0.07709604
244	0x3e9018cf	0.28143927
245	0x3d5f8277	0.05456778
246	0x3d1c6a9d	0.03818761
247	0x3da8ea50	0.082478166
248	0x3d59baa4	0.05315651
249	0x3c85221a	0.016251612
250	0x3e0d02cb	0.13770597
251	0x3ea1305c	0.31482208
252	0xbf049839	-0.51794773
253	0x3ed500f0	0.41602278
254	0x3e9af0c6	0.3026182
255	0x3c160934	0.009157468

action_model._discrete_distribution.branches.3.bias f4 [2]
0	0xbd58bc18	-0.052913755
1	0x3d58bf15	0.052916605
