results/19/SmartAgent.onnx (onnx, 745161 bytes, 15 tensors)

discrete_action_output_shape f4 [1, 4]
00000000: 0000 0040 0000 0040 0000 0040 0000 0040
2.0 2.0 2.0 2.0

network_body._body_endoder.seq_layers.0.weight f4 [256, 200]
00000000: 574f 4f3d 26dc ae3d dd55 0c3e 8fef a7bd
00000010: 8012 dcbc 9780 13be 4955 9b3d e6a9 90bc
00000020: 82fd 223e 7165 0c3e b1b3 ce3d 503b aa3b
00000030: 6f88 9fbc b6ce 313d 5f81 06be 9276 15bc
00000040: b771 bdbd 972b 163d 6d5e db3d e77c 59bd
00000050: efa0 843e 1629 b3bc bd9e b23c 0ce2 80bd
00000060: 1d57 40bd c005 983d 365d 0f3d cb02 8fbd
00000070: bb00 103e 5a17 683d 63c9 e9bd 02ce 773d
00000080: 0e43 df3b 4b7d 9d3d 636a c13d 36e9 bc3d
00000090: a3b8 99bd 363f 453e 0a03 9cbd 750b bf3d
000000a0: 7a9f b3bd 9f09 8ebd fa85 40bd 29a3 b03c
000000b0: 9d28 63bd cb0b dabd 752b 703d 61c0 d33d
000000c0: a814 ea3c 0872 8a3d a453 d6bd fb92 bbbd
000000d0: 5665 3ebe 9831 82bd 5a31 673d 4290 a8bb
000000e0: c275 473d 6c72 06bc 5b44 ef3d 7aa3 063e
000000f0: f621 533d 2cae 6e3b 00ea eabd d691 783d
00000100: 6f05 563d 2488 073d c5c5 463d 6316 0b3e
00000110: 306e 983d 4c66 16bd c5d6 163e 7706 81bd
00000120: 9de1 a3bd 6aea 5c3d a705 c7bd d01c e53d
00000130: 76c3 c93b eb0e 28bd 17f4 133e aebf 373d
00000140: 1fbb 0d3e e94e 43be 36fe 123b 80cd 42be
00000150: b63e 103d 9713 263d b7ca 8e3d 23c0 32bb
00000160: 78ae a1bc 8e5e 19bd a29a f9bc d330 1e3d
00000170: 93d8 5f3d 09f5 c4bb b23d 10bd de2c 943d
00000180: bc2b 8d3d 3b0c d9bd 41d1 433d dd4a 9bbc
00000190: a58a d73d 354b c13c 6279 ccbd 87aa b63d
000001a0: 5829 79bd b29f 4dbe eb04 36be 68fe a63e
000001b0: a113 24bd f3e4 93bc 2113 013e 0dc6 39bd
000001c0: 4d32 07bd b74a ad3d 4b65 a7bd 9a64 72bc
000001d0: 6dff cebc 3a99 39bd 75e5 f0bd e8a5 0cbe
000001e0: 6e9d 1e3e a43f 0fbd 2686 bd3d f280 e4bd
000001f0: e192 ab3b 5c43 aa3c 308b 45bd 0bfc d43d
00000200: af27 8c3d 53f9 e6bc 8d56 c0bc ecc1 8abd
00000210: 20fb 47bd 025a 8abd 346a 103e fd7b f5bc
00000220: 85d4 203c 5bb6 df3c b0d3 63bd 4031 b9bb
00000230: 194e f5bd e0cd 09be ba50 6e3d 76c7 05bd
00000240: 5d90 03bd e40b 64bd 506c e1bc 81c1 6cbc
00000250: 6519 cdbd 1d04 f8bc 1f15 373c b925 70be
00000260: 23b0 9eba b62b 6abd 06f3 f03b a5a6 c13c
00000270: 7b24 4e38 856f 3e3d 9d13 2abd 950e 4c3d
00000280: 139c db3c 1063 8fbd 682b fcbd cbaf 6ebd
00000290: 9683 2d3d d251 043e 4ae2 8e3d bb1d f33d
000002a0: 108f a8bd 160f 333e 1432 cabd 5831 b9bd
000002b0: 99c0 4ebd 1cbe a8bc b268 df3c cd9a a23d
000002c0: 558f 6a3d bc72 43be 2cbd 8ebc 7220 3f3e
000002d0: 6bc8 4fbe 9f22 26be 69a4 67bd c2cf 9bbd
000002e0: ad3d 9cbc 272f 203c 7a46 c93c c235 88bd
000002f0: 15f3 a6bd 2397 953d 91a3 ecbd c917 ea3d
00000300: a274 a6bc 1de9 23bd d2fd 2e3c f3df efbd
00000310: d503 bb3d a0f2 123d 50a0 183d 64df 633c
00000320: 7ac4 d8bd c012 58bb 89cc cf3d 53aa 37bc
00000330: 23b0 25bd 0f2b 05be 6f22 0dbe 4b42 d7bd
00000340: 71e5 c3bc bb58 53bd 562a bcbd c715 fdbd
00000350: ba2d cebd 67de 66bd 31a5 bd3c a06b cbbd
00000360: e410 01be 8ee0 21bd 18c5 243d f061 ae3c
00000370: bf23 e0bc dee9 50be b5a1 81bd 5c77 31be
00000380: 2908 20be 97ab 343c 3bb4 cb3d 84bf 593d
00000390: e0af 03bd 1fc7 b9bd 02e5 dbbd e225 17be
000003a0: 0bb0 26bd 53cf a3bd e5d7 8dbd 25a2 e4bd
000003b0: ef85 75bd 4c0e 24bc 735c 1b3d fd28 e33d
000003c0: b884 8b3d 2cbc b03c bf37 b1bd d938 9639
000003d0: 132d e1bd dd2a fcbd cc87 063e fd7f 01be
000003e0: 7060 773d 014b 00bd ce2f ad3d ca12 5b3e
000003f0: 8bd2 56be f6a2 11bd 430b e5bc cb41 26bc
0.050612774 0.08538084 0.13704629 -0.08199989 -0.02686429 -0.14404522 0.07584626 -0.017659139
0.15917018 0.13710572 0.10092867 0.005195059 -0.019474236 0.043410026 -0.13135289 -0.009122508
-0.09250205 0.036662664 0.1071137 -0.05309763 0.25904033 -0.021870177 0.021804208 -0.06293115
-0.046958078 0.07422972 0.035001002 -0.069829546 0.14062779 0.056662895 -0.114153646 0.0604992
0.0068134135 0.07689913 0.0944412 0.09224169 -0.0750592 0.19262394 -0.07617767 0.09328357
-0.08770652 -0.06935429 -0.04700277 0.021562176 -0.055458654 -0.106467806 0.058635194 0.10339428
0.028574303 0.06760031 -0.10465172 -0.09158894 -0.18593344 -0.063571155 0.05644355 -0.00514415
0.048696287 -0.008205991 0.1168296 0.13148299 0.05154606 0.0036419732 -0.11470413 0.060685955
0.052251276 0.03308882 0.04852845 0.13582759 0.074428916 -0.03671865 0.14730366 -0.06300061
-0.08002017 0.053934492 -0.09717875 0.11187136 0.006157334 -0.041029852 0.14448582 0.044860534
0.13840912 -0.1907307 0.0022429354 -0.19023705 0.035216056 0.040546026 0.069722585 -0.0027275167
-0.019736513 -0.03744369 -0.030469242 0.03862078 0.0546499 -0.006010656 -0.035215087 0.0723512
0.06893107 -0.10598036 0.047806982 -0.018956596 0.10524491 0.023595432 -0.099840894 0.08919244
-0.060830444 -0.2008045 -0.17775314 0.32615972 -0.040057782 -0.018053507 0.12604953 -0.04535489
-0.033006955 0.08461516 -0.08173617 -0.014794493 -0.02526828 -0.045312144 -0.117625155 -0.13735163
0.15489742 -0.0349728 0.092541024 -0.11157407 0.005236015 0.020784073 -0.048228443 0.10399636
0.068435065 -0.028195059 -0.02347877 -0.06775269 -0.048823476 -0.06755449 0.14103013 -0.029966349
0.009816294 0.027308634 -0.055621803 -0.005651623 -0.119777866 -0.13457441 0.058182456 -0.032660924
-0.032120097 -0.055675402 -0.027517468 -0.014450432 -0.10014609 -0.030275399 0.011174469 -0.2345189
-0.0012106936 -0.057170592 0.0073531894 0.023639033 4.9148202e-05 0.046493072 -0.04152261 0.049818594
0.02680782 -0.070013165 -0.123129666 -0.058273118 0.04236182 0.12921837 0.06976755 0.11870905
-0.08230412 0.17486224 -0.09872833 -0.09042615 -0.050476644 -0.020598464 0.027271602 0.07939682
0.0572656 -0.19086736 -0.017424189 0.1866472 -0.20291297 -0.16224144 -0.056553278 -0.07607986
-0.019072378 0.009776867 0.024569739 -0.066508785 -0.08151833 0.07304218 -0.11554635 0.11430318
-0.020319287 -0.040017236 0.010680633 -0.11712637 0.0913159 0.035875916 0.03726226 0.013908241
-0.1058435 -0.003297016 0.10146434 -0.011210042 -0.04045118 -0.13004707 -0.13782667 -0.10510691
-0.023913117 -0.05159829 -0.091877624 -0.12357669 -0.100673154 -0.056364443 0.023150058 -0.09932637
-0.126041 -0.039520793 0.040227026 0.021286935 -0.027360795 -0.20401713 -0.06329671 -0.17330688
-0.15628113 0.011027238 0.099464856 0.05316116 -0.03215015 -0.090711825 -0.10737039 -0.14760545
-0.04069523 -0.07998528 -0.06925944 -0.11163739 -0.059942182 -0.010013174 0.037929963 0.11091802
0.068124235 0.021574102 -0.08653211 0.00028652584 -0.10994925 -0.12312863 0.1313774 -0.1264648
0.060394704 -0.03132153 0.08456384 0.21393886 -0.20978753 -0.035555802 -0.027959472 -0.010147522

network_body._body_endoder.seq_layers.0.bias f4 [256]
00000000: 1207 8bbd 38d3 80bc 316d 0c3c b9d0 1ebd
00000010: 9908 503d a1e5 a83c 0ef9 df3c 7aed bbbd
00000020: 630c 4a3d d05d a8bd 5265 adbc d890 97bd
00000030: 3a38 5a3d 8f0a 593b 6df4 953d b53a 45bc
00000040: 8de0 4b3d 8a37 52bc c4f6 2e3b ee7b 5fbd
00000050: 2d40 7cbb 22b5 84bd b99b 0fbd 57ca 4dbd
00000060: 67b5 023d 241f 6e3d 7b1f 003d 3bae 70bd
00000070: 0a89 913d 2164 763c 4cb5 ff3b a5c1 49bd
00000080: 3a0b 553d d9d3 7abd 52ea 653b ea31 c0bd
00000090: 9bcb 1c3d fd63 82bd f096 4cbd d787 64bd
000000a0: d9d7 7ebd d02e 82bc 3b1f 76bc c549 013c
000000b0: f95e 1bbd d06a 31bd 22a2 aa3c 0c5f 0dba
000000c0: fdb8 cebb ec71 06bd 8409 023c ebea b13c
000000d0: cd07 eb3b 133b 26bd 3f50 c0bd 56f2 423d
000000e0: 5a96 cd3c fa9b 833d 3ae9 7abc 1473 c2bc
000000f0: 9bd2 c23a 7472 7a3c 69cc 8f3d 06f9 53bd
00000100: 7945 853c e680 a33c 84cd 47bd 269f ea3c
00000110: 06ca 63bc b89f c43c 8871 bf3c 680d fdbb
00000120: c9f2 463d 6a82 4fbd 2fac 103d 4118 1d3d
00000130: ac7d 4e3a dd34 693d 7b3b 8bbc 5e39 48bd
00000140: 39c6 df3c e080 673d bc65 b6bd b430 d7bb
00000150: 00e9 53bd 7cd2 2cbb 1087 c0bc d647 8a3c
00000160: 2e1a 413c 5cf3 8f3d 9ec9 5b3c 6388 00bd
00000170: ed06 02bd fc5f 87bc 2b7f a83c 88a6 453d
00000180: b3e4 57bc 5d3a adbc 7cd5 bbbd c743 0f3d
00000190: 8b72 b8bd 2b88 9e3d 0d59 9cbc 6f2c 633c
000001a0: fd24 853b 0426 f83c 3c10 ea3c 507b 923d
000001b0: 260e 8d3d 79ed a33d 47c9 353d e422 1bbc
000001c0: d7f1 75bd 5ba5 8a3d 1ca1 843d 8429 523d
000001d0: d2ec 993d 057b 5e3d 1bdd 5e3d 5e86 c3bc
000001e0: bcba c03c d43a 423c b808 413d 4646 71bc
000001f0: 5809 ac3c 1f7f 693a b636 81bd 1f5e 99bd
00000200: a1ec 8d3d d2fe 2cbd b7f6 abbc 5543 803b
00000210: b8a6 89bd 39df 313c 2de6 9f3c 16f6 1f3d
00000220: b3da 8a3c 9b61 c8bc b4dc 9c3c 037f 373d
00000230: ec83 f8b9 573e 4e3d be0f 16bd d0ad 7c3c
00000240: 69b1 17bd d800 2e3d 2b15 223d bb48 5fbd
00000250: 16fd 2ebc bc3f 9bbd 66d8 903d be7c c7ba
00000260: 1f4c e63c 99b2 98bc d7eb a43c 1cee f23c
00000270: 03df 4abd d86e 92bb abda 903c bb7d efbb
00000280: 6479 7b3c b2c4 9fbb 9848 68bc bcf3 6e3d
00000290: 2f1c 6d3d 85c4 1d3d a0ef 6e3d d9a8 f53b
000002a0: 56ea 11bd 7b14 e53c 30ec be3c ea22 33bc
000002b0: e1f7 fabc 0339 72ba ebb9 bebd e304 073d
000002c0: 110f 073d 6f48 5d3d 0c38 b43c e3fb 85bd
000002d0: fab6 d13c bcfc 6d3d 212c 7f3d a6d3 b4bd
000002e0: 7c59 d8bc da4a edbc 38e9 afbd a8b1 adbd
000002f0: ccef f5bb c543 163d 420e 003d edf8 293d
00000300: f216 1239 b5b7 683d ad0f 093d adae 4c3c
00000310: 7423 febb 8ed9 81bd 93f5 1abd 8f30 8e3d
00000320: f506 30bb 2dfb 2ebc 7b12 473c c16a 19bc
00000330: 4750 c23b 5683 08bc a7f8 9abb b682 043d
00000340: 8daf c13d 1f13 86bb 7609 bb3c 6a60 183d
00000350: e5f4 423d 8f5d dc3c 1de1 9dbc a332 333d
00000360: 95fc 803c 7f4c 18bc cc5c 6dbd 63a1 8d3d
00000370: 598d 2ebc 8937 1fbd 004d 143b 1bfb 543c
00000380: 2046 a3b9 cfa7 64bd 2aeb adbc c51a 9b3d
00000390: 7ed7 8abc 069a 673c 4189 d03d 3c48 2dbd
000003a0: 455f 6f3d 57e5 7dbd 28be a93d 9b3a 86bd
000003b0: 53d3 873d 1288 98ba f926 6bbd 96a7 68bd
000003c0: f41e ab3d 0376 79bd 5d4b 43bd fbbb 943c
000003d0: 61ec b93c 8e78 e23c 22d8 0e3c 0fc2 2fbd
000003e0: 7fcf 283b 4800 2abb a1e0 02bc c79d 8c3b
000003f0: 4f0a 073b d30e 3bbd d549 c8bc 525f b2bb
-0.06788458 -0.015725717 0.008570955 -0.038773272 0.05078945 0.020617308 0.027340438 -0.091761544
0.04932822 -0.08221018 -0.021166477 -0.07400674 0.053276278 0.0033117866 0.07322011 -0.012037923
0.049774695 -0.012830624 0.0026697377 -0.054561548 -0.00384904 -0.06479861 -0.035060618 -0.050241794
0.03191128 0.058135167 0.031280022 -0.05875991 0.07106216 0.015038521 0.0078035947 -0.04925694
0.05201266 -0.06123719 0.0035082293 -0.0938452 0.03828011 -0.063667275 -0.049948633 -0.05579361
-0.062217567 -0.015891463 -0.015022094 0.007891123 -0.03793237 -0.043314755 0.020829264 -0.0005392886
-0.0063086734 -0.032823488 0.007936839 0.021718463 0.007172561 -0.04058368 -0.09390306 0.04759439
0.025096107 0.064262345 -0.015314395 -0.023736514 0.0014863791 0.015286077 0.0702141 -0.05175116
0.016268479 0.019958925 -0.04877998 0.028640341 -0.013903147 0.024001941 0.023369566 -0.0077225454
0.04857138 -0.050661482 0.035320457 0.03835321 0.0007877003 0.05693518 -0.016996136 -0.048882835
0.0273162 0.05651939 -0.08906123 -0.006567085 -0.051735878 -0.0026370576 -0.023501903 0.016879957
0.011786027 0.07028839 0.0134147685 -0.03138007 -0.031744886 -0.016525261 0.02056845 0.04825452
-0.013177085 -0.021145994 -0.09171578 0.034976747 -0.09006222 0.07740816 -0.019085431 0.013865574
0.0040632472 0.030291565 0.028572194 0.07152426 0.06887464 0.08004279 0.044381406 -0.009468768
-0.06004509 0.0676982 0.06476042 0.051309124 0.07515873 0.05431654 0.05441008 -0.023867782
0.023526542 0.011854846 0.047127455 -0.014726227 0.02100055 0.0008907187 -0.063092634 -0.07488655
0.06929899 -0.042235203 -0.020991666 0.0039142766 -0.06721252 0.010856443 0.019518936 0.039053045
0.016949987 -0.024460604 0.019148208 0.044798862 -0.00047400536 0.05035242 -0.036636107 0.0154222995
-0.037034426 0.042481273 0.03957097 -0.05451272 -0.010680458 -0.07580516 0.07072525 -0.0015219671
0.02811247 -0.01863985 0.020131988 0.029654555 -0.049529087 -0.00446878 0.017682394 -0.0073086894
0.015348766 -0.004875743 -0.014177464 0.058337912 0.057888206 0.038517494 0.058333993 0.007496935
-0.03562387 0.027963867 0.023305982 -0.010933617 -0.030635776 -0.0009240063 -0.09312805 0.032963645
0.032973353 0.054024156 0.021999381 -0.06542184 0.025599945 0.058102354 0.062297944 -0.08829431
-0.026409857 -0.028966356 -0.08589405 -0.08481151 -0.0075053927 0.036685724 0.031263597 0.04149716
0.00013932193 0.05681582 0.033462215 0.012492818 -0.007755691 -0.063403234 -0.037831854 0.069428556
-0.0026859615 -0.010680002 0.012150402 -0.009363831 0.00592998 -0.008332094 -0.0047293487 0.03235122
0.09457312 -0.004091635 0.02283166 0.037201323 0.04759683 0.026900081 -0.019272381 0.043749463
0.01574544 -0.009295582 -0.057949826 0.06915548 -0.010653817 -0.03887132 0.0022628903 0.012999321
-0.0003114203 -0.055824097 -0.021230299 0.07573465 -0.016948458 0.014135843 0.10182429 -0.042305216
0.058440465 -0.061986294 0.082882226 -0.06554147 0.06632104 -0.0011637232 -0.057410214 -0.056800447
0.08355513 -0.06090356 -0.047679294 0.018156042 0.022695722 0.027645376 0.008718522 -0.042909678
0.0025758443 -0.002594011 -0.007988126 0.0042912695 0.002060551 -0.045668434 -0.024449268 -0.005443492

network_body._body_endoder.seq_layers.2.weight f4 [256, 256]
00000000: c488 4f3d 458b ed3d b5f0 ed3c ec02 533d
00000010: 22fe 40bd bc52 03be 1cc3 06bd ca5d 333d
00000020: 26d4 ad3d cd10 9cbc ccdc fcbc 861b f8bb
00000030: 8f8c ca3c a023 4ebc f78e 1b3b 9922 0d3e
00000040: 11bd 6f3d 82e6 c9bd ac41 86bc edd8 09be
00000050: 0d10 b8ba 6ac2 d13c 4517 373d 1d24 01be
00000060: fd76 b9bc b0f2 8d3d d6bc 2c3e 3142 063d
00000070: 6cb2 3e3d 64d1 913d 4b09 1dbd 0302 02bd
00000080: b2ee 973d 1b29 29be ff87 adbd 6a1c 7d3d
00000090: 131d 4dbd 17fd bc3b eaf9 fa3c 029c cc3d
000000a0: 6d5f 38be e4ba 9b3b b6fd d63d 00bf a1bd
000000b0: c055 d53d 78ae 573e 773d 943d b927 b33d
000000c0: 6388 b1bc fdd1 28be 1e07 b33d 6430 6f3d
000000d0: 0488 99bd 0ff4 54bd eb8e 82bd db94 38bd
000000e0: dc3e babd 2a76 9a3c 19b2 6a3e 1bbc 6cbd
000000f0: 0277 d8bc b35a 48bd 7190 dc3b 931d e03d
00000100: 2eb2 433c 3908 93bd e883 31bc 0e97 1a3c
00000110: bb14 aabd 25f7 ae3d 6bbf cd3b 6b4c 9c3d
00000120: 2102 fabc 9678 90bd 3ac5 f53d 0ab8 10be
00000130: 339c 63bd ef01 c53d 7082 333d ce5b 20bd
00000140: 2532 85bb 3ea4 a33d 376d 0abe 91dd 363a
00000150: ae46 cabd 29ce 933c ddc6 a63d 7116 1d3e
00000160: de2f 31be 5718 9f3b f39e 3e3d 1d15 fc3d
00000170: 18c1 9abc 302b 7d3d 986f 13bd 7c7f 06bc
00000180: da7c ddbd e2a8 dcba 8e14 183d 5060 3ebd
00000190: abb9 e83c ffe8 6abd d110 223d bbf4 093e
000001a0: 1c45 373d dacb 52bc b10c 01bd 2c88 a3bd
000001b0: a5c8 933d 9f56 37bd 9e46 983d 1a5d a83d
000001c0: 0629 abbc 89b2 0bbe 1b23 0fbe f059 0cbd
000001d0: d54c 193d a856 933d 9a0a c63b 969c f9bb
000001e0: 0c91 78bd 61ec 19bd fc4d 613c a1c8 5dbd
000001f0: 8fa7 233d 434d 293d 5efd 813c 6cf9 68bd
00000200: 1fae a43c 52a3 843d 0c33 8a3d 56ba 24bd
00000210: 4969 d53d 4b75 58bd 65ca 73bd dce0 b43c
00000220: a42f 423d cc1a c9bb 8764 213e b393 bb3d
00000230: 883d eebc f2a5 da3d f162 aa3d 36c6 993d
00000240: b0af 3abd 4276 793d 419c 2f3d a2b5 9d3c
00000250: c10d f23d 5066 3abd 8885 c43c ec58 073c
00000260: 8be9 ed3d afbc 6c3c 9b0d b83d 9991 00be
00000270: 1519 a2bd 03ab 11bd 5e02 26bd 3051 2abd
00000280: 0d05 1abe c275 a33d 6569 0fbe 6fbf e33c
00000290: 455a b9bd ac76 9ebd 255d ce3c 7d30 51bd
000002a0: 5948 6e3d a565 c1bc 6c6b 0a3d 41f8 f83d
000002b0: 4b57 bbbd 6327 163e 1293 f13d db4f bbbd
000002c0: 56d8 afbc fc40 3c3d 37f5 4dbd 5f74 87bb
000002d0: 6083 2bbd afa1 9dbd c8d9 11be df3b aa3d
000002e0: 0673 b83d 5de9 01bd 0a8d ddbd 2f5a 2a3e
000002f0: e38c 96bd 2356 34bd 9458 b53d 7a9f 5c3d
00000300: 7a3f 80bd 8426 90bd 37df 913d 3cea 753c
00000310: 4397 b6bd 8ab8 d43d aa13 96bb 68bb 013d
00000320: df86 92bc 1613 c83c 3525 1a3e 0398 a3bd
00000330: a52b 05bc cbc9 3cbe eea0 d9bd 2ecc b13c
00000340: 878f 1f3d 4e80 5c3d 58b1 85bb 682c d5bd
00000350: fb5e 1a3d f988 34bb 6600 4ebc a6c0 03bc
00000360: 5c02 edbc 4ed4 0c3e 2371 eabd 5a8e 663d
00000370: d66b f63c 1b4a 163d 2ad5 bd3b 9408 e13d
00000380: b09a 203e ea4a 833b 941b 9fbd dd14 c13c
00000390: 68e5 c73d 7550 5c3d e86a d1bc 4e18 dc3d
000003a0: ddf5 e33d 30d3 2b3d 0f3a 81bd 26b7 383a
000003b0: d7f5 3dbd b521 343e 4d69 b13d ca4b 1b3e
000003c0: 83ac 78bd 3249 963c c58b dabb 7dd8 ebbc
000003d0: 6f93 f13d 97e1 55bd e081 2e3e 0e29 253b
000003e0: 6709 f0bb f851 8ebd 7b91 a9bd 7919 823d
000003f0: aaef dfbd 0970 e63d 31b0 a9bd 0777 d43d
0.05066754 0.11598829 0.029045442 0.05151646 -0.04711736 -0.1282453 -0.032900915 0.043790616
0.0848773 -0.01905098 -0.030867003 -0.0075716404 0.024725227 -0.012581736 0.0023736337 0.13782729
0.058529917 -0.09858419 -0.016388737 -0.13461657 -0.001404287 0.0256054 0.044699926 -0.12611432
-0.022639746 0.069310546 0.1686891 0.03277797 0.046556875 0.07120016 -0.03833894 -0.0317402
0.074185744 -0.16519587 -0.08473205 0.061794676 -0.050076555 0.0057674753 0.030636746 0.09990694
-0.18005152 0.0047525037 0.1049761 -0.078977585 0.10416746 0.21062648 0.07238286 0.08747811
-0.02167148 -0.16486354 0.08741592 0.05839576 -0.07496646 -0.051990565 -0.06374916 -0.045063835
-0.09094021 0.018855173 0.22919501 -0.05779658 -0.026423935 -0.048914623 0.006731086 0.10943141
0.011944337 -0.07179303 -0.010834672 0.009435428 -0.08304735 0.08543233 0.0062789223 0.07631763
-0.030518593 -0.0705425 0.120005086 -0.14132705 -0.055568885 0.096195094 0.043825567 -0.03915005
-0.0040648156 0.07990311 -0.13518225 0.0006975765 -0.09876762 0.01804264 0.08143399 0.15340592
-0.17303416 0.0048551965 0.046538305 0.123087145 -0.018890902 0.061808765 -0.035995096 -0.008209106
-0.10814829 -0.0016834999 0.037128977 -0.04647857 0.028408846 -0.05735111 0.03956682 0.13472264
0.044743642 -0.012865985 -0.031506244 -0.07984957 0.07216004 -0.044760343 0.07435344 0.08220883
-0.020893585 -0.13642325 -0.13978235 -0.03426546 0.03742679 0.07194263 0.0060437443 -0.0076175435
-0.060685202 -0.037578944 0.013751503 -0.054146413 0.03995472 0.04133345 0.015867885 -0.056878492
0.020102559 0.064764634 0.06748018 -0.040216766 0.10420472 -0.052846234 -0.05951919 0.022079878
0.047408715 -0.0061372276 0.15761004 0.09159031 -0.029082075 0.10676183 0.08319653 0.07508509
-0.045577705 0.060903795 0.042873625 0.019251648 0.118190296 -0.04550773 0.023989454 0.008260947
0.116168104 0.014449283 0.0898697 -0.12555541 -0.0791494 -0.03556348 -0.0405296 -0.041581333
-0.15040989 0.07981445 -0.14005049 0.027801244 -0.09050421 -0.077374786 0.0251909 -0.051071633
0.058174465 -0.023608038 0.03379385 0.12156726 -0.09147509 0.14663462 0.117956296 -0.091460906
-0.021465462 0.04596041 -0.050282683 -0.0041337456 -0.041873336 -0.07696854 -0.14243233 0.08312201
0.09006314 -0.031716693 -0.10817917 0.16635965 -0.07351091 -0.04402746 0.088547856 0.053863026
-0.06262107 -0.07038596 0.07122653 0.015009459 -0.0891557 0.103867605 -0.004579981 0.031672865
-0.017886577 0.024423163 0.15053256 -0.07987978 -0.008128081 -0.18436353 -0.10626398 0.021703806
0.038955238 0.0538333 -0.004079979 -0.104088604 0.037688237 -0.0027547462 -0.012573337 -0.008041536
-0.02893179 0.13752863 -0.1144736 0.0562881 0.030080717 0.036691766 0.0057932334 0.10987964
0.15684009 0.004006733 -0.07768932 0.023569519 0.09760553 0.053787667 -0.025563672 0.10746823
0.11130879 0.04194945 -0.06309902 0.0007046334 -0.04637703 0.17590983 0.08662663 0.1516563
-0.060711395 0.01834545 -0.006669494 -0.028789753 0.11795699 -0.052217092 0.17041731 0.0025201472
-0.0073253396 -0.06949228 -0.08279701 0.06352515 -0.10934384 0.11251838 -0.08285559 0.10374265

network_body._body_endoder.seq_layers.2.bias f4 [256]
00000000: a5d1 13bc 4109 4fbe 55b6 9abc 43d8 513d
00000010: cdc9 133b 36d3 d3bd 6147 c2bd e079 3bbd
00000020: 3acb d4bd 58e8 93bd 7f64 c23b 6440 5bbd
00000030: d297 50bc 422f 113e 4e20 14bd f143 49bd
00000040: f896 81bd ba26 313d 9dd8 93bd 2491 a9bc
00000050: 3c8a 393b f9a1 e73d dcf6 fa3c 2874 58bc
00000060: 6d38 42bd 4171 823c d2cb afbb 518b d53d
00000070: 021f b83d 4a31 b93d cba0 3d3c 1c4b 4dbd
00000080: 81a4 aa3d 0203 c4bd d9f9 edbb be8b 10bd
00000090: eaab e2bc 10df 82bd 2429 2fb6 ecdd f0bc
000000a0: 1050 8cbd 51d6 1c3d 8e51 203d 896a f5bd
000000b0: 16dd b4bc 646c 98bd 1606 7cbb 355e bdbd
000000c0: b023 6cbd ec93 c3bd 3076 0dbd 37a9 01bc
000000d0: d66b c33d f5ba 0abe 2fa3 36bd b47f 0ebe
000000e0: dc04 27bd df1a b43c 77c5 12bd 41ab 083d
000000f0: 1f24 0a3d 9e3b 093e 0fae f2bd aa6e 693c
00000100: 27e9 aebd a106 9ebd ea0a 753b 40a6 16bd
00000110: 1100 253d 6e32 a0bd 34e7 913c 2ea0 f4bc
00000120: f0ec 58bd ae09 1dbe 6986 0d3d f371 2cbe
00000130: 428f 573d c3d7 16bc 674d 1f3e 1f3e 53b9
00000140: dc5a 1fbe 031b a0bd 42b8 81bc 7ad9 a1bd
00000150: 5c95 be3d 3f79 fabd 575f a33d f574 1c3d
00000160: 47da ecbd 9f18 16bd 9bf3 893d 1b2b 893b
00000170: c9c6 64bd 568d 383d c1cd babb 18b9 81bd
00000180: 6c37 193d 169e a03d 0144 b93d 5feb ffbc
00000190: 0716 d73c acce a73d 43de 823d 84e6 13be
000001a0: 30f0 7ebc c91c d8bc 839c b5bd 282d e1b8
000001b0: c6e2 b33d 35b1 0cbe 735e 9e3c 3660 073d
000001c0: 2b62 acbd 20b4 463b 4b71 02bc 82c5 1b3c
000001d0: 2cc0 833c 2bfe edbd f996 aa3c 08f0 eabb
000001e0: d210 9b3d 8d81 0ebe 513a eebc 488c 59bb
000001f0: ba5b 913d a7da 6abd 04b5 76ba 6cae 52bd
00000200: da81 2cbd 0922 0abe 2267 a6bd ea85 c8bc
00000210: 93aa b83c 86f4 c6bd ce8b e1bd aba2 ebbd
00000220: f925 2fbd a8f4 6dbc 768d a2bd 3ec4 a2bd
00000230: d5b9 8bbd 9f61 3c3c 8e16 bc3d 03ea 95bc
00000240: 76b5 8abd 2802 0f3d 5852 ebbd eb3f 1cbc
00000250: 1b1c 11bd b7e6 87bd fbbc d1bd c880 873d
00000260: 5af7 09bc d41c 3abc 96ad 8abd 5217 6dbc
00000270: 58f3 403d 9614 2bbe e14a 20bd 8c6d f03c
00000280: bec4 12bd 53c8 b1bd dfb6 11bd af1a bbbd
00000290: 8d07 abbc 14a4 cd3c e294 e2bb 77a0 d3bd
000002a0: 5804 8b3c b411 87bd 9c74 d7bc da2c aebc
000002b0: b53b 8dbd c4f6 7c3d d988 cfbb 48ba 333b
000002c0: fd9a acbd 7d28 f83c 5f9c aa3d 9e65 6ebd
000002d0: 8600 c4ba 3f04 083d f327 85bd 7e28 6039
000002e0: 7236 d4bd 955d 19bc 5a7f ee3c fca0 443d
000002f0: e8ee 093e b087 3a3c 3e46 18bd 7f05 b13c
00000300: 42a8 163d 0cd8 8d3d 8547 b63d 626c 40bb
00000310: 0c79 d1bd 60b6 afbd 01e1 0b3d c2df 1f3d
00000320: 9cda 4abb 5a60 bdbd b1c0 bdbb c4be 26be
00000330: 8096 ed3d 0044 253d 9c2b fe3a c920 a8bd
00000340: 3c0e d83c a339 643d 29c5 373d 8180 21bd
00000350: 3bc1 bebd 3a8b 99bd c371 f5bc 7fae 053d
00000360: 4f35 833c c81b a6bd 2200 d83b 7959 82bc
00000370: d7a9 ccbd c002 d93d 564c 143d bfac ef3c
00000380: 5b30 23bc 23aa 053e 775e 363d 0f7f 3b3d
00000390: ac6a 1cbb 844d 003d 9508 973d 25a8 e9bd
000003a0: e89d 83bb 08b2 39bd 8d20 f63c 783b 123d
000003b0: f935 553d abfc abbd 384c 123d 7dfb 8eb9
000003c0: a3e7 163a 7b96 d2bd 9be2 95bc 31bd 31bd
000003d0: f08a 8fbd 23ae 6f3c 13f8 a9bc 7372 4a3d
000003e0: 568e b43c e633 0dbd fcf8 e2bc 22cb 9ebd
000003f0: 5095 b5bd 0492 933d 3358 de3d 48cd cd3c
-0.009022151 -0.20218374 -0.01888577 0.051231634 0.0022550703 -0.1034302 -0.09486271 -0.045770526
-0.10390325 -0.072220504 0.00593239 -0.053528205 -0.012731509 0.14178184 -0.03616362 -0.04913706
-0.06327623 0.043249823 -0.0721905 -0.020699091 0.0028311154 0.11310191 0.03063529 -0.013211288
-0.047417093 0.015923144 -0.0053648734 0.10426963 0.08990289 0.09042604 0.011573981 -0.050120458
0.08332158 -0.09570886 -0.00726245 -0.03528952 -0.027669866 -0.06390202 -2.610098e-06 -0.029402696
-0.06851208 0.038290326 0.039140277 -0.119832106 -0.022078078 -0.07442549 -0.0038455776 -0.09246484
-0.05765122 -0.09549698 -0.03453654 -0.007913879 0.095420524 -0.13547881 -0.044589218 -0.13915902
-0.04077612 0.02198547 -0.03583285 0.033366445 0.033725854 0.13401648 -0.11849605 0.014247576
-0.08540564 -0.07716108 0.0037390538 -0.036779642 0.040283266 -0.07822119 0.017810442 -0.029861536
-0.052960336 -0.15335724 0.03455201 -0.16840343 0.052626856 -0.009206715 0.1555687 -0.0002014567
-0.15562004 -0.07817652 -0.015834931 -0.079028085 0.09305832 -0.12230157 0.07977169 0.038197476
-0.115650706 -0.036644574 0.06735917 0.004186047 -0.05585364 0.045056663 -0.0057007973 -0.06334132
0.03740637 0.078426525 0.09046174 -0.031240163 0.02625562 0.081937164 0.06390049 -0.14443403
-0.015560195 -0.026380913 -0.08867743 -0.00010737247 0.08783488 -0.13739474 0.019332146 0.03305074
-0.084171616 0.0030319765 -0.007961581 0.009507539 0.016082846 -0.11620744 0.020823942 -0.0071697272
0.075715676 -0.13916607 -0.029080542 -0.0033195186 0.070975736 -0.05733743 -0.00094111287 -0.051435873
-0.042116024 -0.13489546 -0.0812514 -0.024477918 0.022542274 -0.09714608 -0.11012994 -0.11505636
-0.042760823 -0.014523663 -0.07937138 -0.079475865 -0.06822554 0.011497884 0.091839895 -0.018300062
-0.06772892 0.034914166 -0.11490315 -0.009536724 -0.035427194 -0.06635802 -0.10241123 0.0661636
-0.00842079 -0.011359412 -0.0677139 -0.014470892 0.04710707 -0.16707072 -0.03913391 0.029349111
-0.03583216 -0.08680787 -0.03557479 -0.09135949 -0.020877624 0.025102653 -0.006914721 -0.103333406
0.016969845 -0.065951735 -0.02630072 -0.021261621 -0.06896154 0.06175877 -0.006333452 0.0027424265
-0.08427999 0.030292744 0.08330607 -0.05820238 -0.0014953769 0.033207174 -0.0650176 0.00021377389
-0.10361947 -0.009360691 0.02911346 0.04800509 0.13470042 0.0113848895 -0.037176363 0.021609066
0.036781557 0.06925973 0.0890036 -0.0029361476 -0.10228166 -0.08579707 0.034150127 0.03903175
-0.0030953055 -0.09246893 -0.005790793 -0.16283709 0.11600971 0.040348053 0.0019391659 -0.08209378
0.026373975 0.05571903 0.04486576 -0.03942919 -0.093141995 -0.074972585 -0.029961472 0.032637116
0.01601663 -0.081107676 0.0065918127 -0.015911805 -0.09993332 0.10596228 0.036205612 0.029257176
-0.009960259 0.13053183 0.044523682 0.04577547 -0.0023867292 0.031323925 0.07374684 -0.11409024
-0.0040166266 -0.0453358 0.030044818 0.035701245 0.052053425 -0.08397802 0.03571722 -0.00027271724
0.00057565625 -0.10282608 -0.01829653 -0.043393318 -0.07008922 0.01462892 -0.020748174 0.049425554
0.022040527 -0.034473322 -0.027706616 -0.07753588 -0.0886637 0.07205585 0.108566664 0.0251223

network_body._body_endoder.seq_layers.4.weight f4 [256, 256]
00000000: e374 f3bd be13 aebd b8db cebd 6860 77bb
00000010: 1767 c03d 1199 08be 4fc9 9abd 6d15 143d
00000020: a973 20bb 5647 99bd 4368 fa3c 8404 1bbe
00000030: 27c4 fc3d f651 a0bd bae7 acbd 797b efbd
00000040: 016a a1bd 70e4 443d f9f3 f8bc de1e 14bc
00000050: 4a1d f1bc c198 54bc 487e 8bbd f71b 89bd
00000060: dac7 15be 5a88 9e3c 9f83 1abd f494 683c
00000070: 71ea 81bc 8d8a 9f3d 4a70 25bd 46e1 31b9
00000080: edb7 083e cdf1 42bd c518 733d 40b2 95bd
00000090: c8de f3bd 5007 823b 3e6b c63d ac4f d3bd
000000a0: 1879 19be 3d11 883c 0cc2 42be 2367 d73b
000000b0: 7b4a 3abd fa5e 65bd a84f e2bd 1435 babc
000000c0: 1634 603d 32e7 2ebe 588c 0abe dc96 9bbe
000000d0: 19f9 f23c 71c8 2dbd 1b35 00be cd8b e43c
000000e0: 493c 5cbe 6205 4cbd 225b d7bd ba41 dfbb
000000f0: 4af1 a2bd d370 19be d771 7b3d b2d6 383b
00000100: 625a 90bd 077e 8c3c d4a2 963c a0b4 6dbc
00000110: 57e9 0cbe bbd9 74bc a879 f23d b6bc b6bd
00000120: e41a 81bb b8f4 bcbd 718a 173d a58d 683d
00000130: a0d9 033d a113 f5bc 78ae 183b 6770 a7bd
00000140: d80a 90be 83fc abbd 3fb0 2b3b 4703 efbd
00000150: e18b 143d d915 a4bd 3a0f cbbd 8f90 e93d
00000160: af81 ce3c aefe fbbc 9d2c 67bd 0080 ee3d
00000170: 0bba da3c df92 a2bc e212 43bd 7fa0 22be
00000180: f4f8 e5ba 2330 f23d e9c0 3bbd faab 85bc
00000190: 5286 49bd ca3d 0abe daab 003d f49a 8fbd
000001a0: 9aee 483b 1504 bbbd 9764 0ebe 9cce 183d
000001b0: 9dd7 dc3d b1ab 4fbe f2e6 a53c 68d1 f13c
000001c0: df72 15be 4d41 a0bd 0643 3e3c f182 bd3c
000001d0: 6a2f 8bbd f525 efbc eaac b6bb 1505 96bd
000001e0: b739 9dbd 3eed 9abd a143 26bd 17f1 d2bd
000001f0: a95f 9c3c 354e a2bd dfaf 933d ba00 ea3c
00000200: 31b1 cebd 964f 8cbd 5d56 f9bd 54b4 1ebd
00000210: bdb3 623c 7390 fabd 825b 6ebc 24b2 1ebd
00000220: 6f20 11bc 12d6 bd3d 797d 513d 8a7b a9bc
00000230: 294c a9bd b786 a3bc 5f1e 3dbc e5bf 2fbc
00000240: 899f 9dbd f60f cfbb 51e2 7fbc 33d9 47bd
00000250: a3f4 223b 6dc9 45be 392b 1abe 8b38 013d
00000260: eb00 b5bd e4eb 5fbd 2c49 8dbc cf61 aebd
00000270: 8a0b a93d 186d 56be 4d07 ee3b 8f33 f93c
00000280: 30d7 333d 57f7 5dbd 5f7b 713d 189b 26be
00000290: 9406 1f3d a20e 80bc 4673 edbc e8df e33c
000002a0: a7b8 2bbd 2d18 b13c e305 62bd 529f dcbd
000002b0: 17b8 cc3d 4578 803d 7c80 f83b 3796 cc3c
000002c0: 5578 f0bd f303 16bd 245e 673d a08b d9bd
000002d0: c501 c0bd a352 ccbc a362 a53d 070f 1ebe
000002e0: ca28 69bd 182c 65bd 38d7 aebd 8a2d 10bd
000002f0: 4ff1 653d b6a8 073d ad36 313c ec6b 0abd
00000300: 6405 45bd d5f6 efbd 7b25 e33c 4a9f f5ba
00000310: 52ba 2fbe 9262 813d 6b10 0e3e 8c32 043e
00000320: 32c5 e7bc 2e1e 143d 6522 a33d 1dc7 15bd
00000330: 05de 023d 2021 a6ba 1ab7 633d 8d59 a5bd
00000340: d02a ccbd d6dd a63d 8848 c3bd d740 1dbe
00000350: b456 7b3d 6038 b7bd a4d3 64bd afaa 083d
00000360: f841 4bbd 73a5 5cbe bc7e b7bd e281 d6bb
00000370: ea39 8abc 8025 af3d 6fcf 90bc 0fd3 d8bd
00000380: 3de5 333d 43b2 f5bd c7bb 643d 5055 6b3e
00000390: 7406 6cbd a9d5 f33c 1509 ac3b 3397 af3b
000003a0: ae0e a93c b526 86bd 5db5 df3c ea36 00bd
000003b0: 475f 853d c763 53bd 60d4 07be 7558 f23d
000003c0: 0a95 aabd 78db 84bd 0012 f23c ddc7 7e3d
000003d0: dc55 68bd 527a 93bc 3f64 79bd 6d6a 043e
000003e0: e179 d03d d481 0bbe 55be 7dbc 1bd2 dbbd
000003f0: 769f 76bd 24e2 d23c 7c74 48bd b4ef 29be
-0.11887529 -0.08499859 -0.10100502 -0.0037746672 0.09394663 -0.1333964 -0.07557928 0.036153246
-0.0024483001 -0.074843094 0.030567294 -0.15138441 0.123421006 -0.07828133 -0.08442636 -0.116934724
-0.07881547 0.048069417 -0.030389773 -0.009040562 -0.029432911 -0.0129758725 -0.068111956 -0.06694787
-0.14627019 0.019352127 -0.03772318 0.014195669 -0.01585886 0.07790098 -0.04039029 -0.00016963956
0.13351412 -0.04759388 0.059349794 -0.07309389 -0.119077265 0.003968157 0.096884236 -0.103179306
-0.149876 0.016609782 -0.19019336 0.006573574 -0.045481186 -0.05599878 -0.110503495 -0.022730388
0.054737173 -0.17080382 -0.135301 -0.30388534 0.029659795 -0.042427484 -0.12520258 0.027898693
-0.21507372 -0.04980982 -0.10515429 -0.006813255 -0.079561785 -0.14984445 0.061387863 0.002820414
-0.07048489 0.017149938 0.01838819 -0.014508396 -0.13760887 -0.014944489 0.1183961 -0.089227125
-0.003939973 -0.09226364 0.036997262 0.056775708 0.032189965 -0.029916586 0.002329735 -0.08175736
-0.28133273 -0.08397772 0.002619758 -0.11670547 0.03626621 -0.080119796 -0.099150136 0.114045255
0.025208322 -0.03076109 -0.05643903 0.11645508 0.02670004 -0.019845424 -0.04762543 -0.15881537
-0.0017545507 0.118255876 -0.04583827 -0.016317356 -0.049200363 -0.13500133 0.03141389 -0.07011977
0.0030659796 -0.09131638 -0.1390556 0.037306413 0.107833125 -0.20280339 0.020251725 0.029518798
-0.14594601 -0.07824955 0.011612659 0.023133727 -0.06796153 -0.029192904 -0.005574812 -0.07325188
-0.07677024 -0.075647816 -0.04059184 -0.102998905 0.019088583 -0.07925073 0.07211279 0.0285648
-0.1009239 -0.06851117 -0.121746756 -0.038746193 0.013836798 -0.12234583 -0.014548184 -0.038744107
-0.00885783 0.09269346 0.05114505 -0.02068879 -0.082664795 -0.019961698 -0.011542886 -0.010726904
-0.076964445 -0.0063190414 -0.015617923 -0.04879112 0.0024865053 -0.19315119 -0.1505555 0.031548064
-0.08838066 -0.054668322 -0.017246805 -0.08514749 0.08254154 -0.20940053 0.007264054 0.030420093
0.04390639 -0.05419096 0.058955546 -0.16270101 0.038824633 -0.015631977 -0.02898563 0.027816728
-0.041924145 0.021617973 -0.055181395 -0.107725754 0.0999605 0.062729396 0.007583676 0.024973972
-0.117417015 -0.03662486 0.056486264 -0.106223345 -0.093753375 -0.024941748 0.08075454 -0.1543542
-0.056923665 -0.055950254 -0.085371435 -0.03519968 0.056138333 0.03311988 0.010816258 -0.03379433
-0.048100844 -0.11717001 0.027727833 -0.0018739488 -0.1716092 0.06317629 0.1387345 0.12909907
-0.028292272 0.036161594 0.079655446 -0.036566842 0.031950016 -0.0012674667 0.05559454 -0.08073721
-0.09969103 0.081477806 -0.095353186 -0.15356766 0.061361983 -0.089462996 -0.0558659 0.0333659
-0.04962346 -0.21547489 -0.089597195 -0.006546245 -0.016873319 0.085520744 -0.017677037 -0.10587131
0.04391979 -0.11996891 0.05584314 0.22981763 -0.05762334 0.029764967 0.005250106 0.0053586005
0.020636883 -0.065503515 0.02730816 -0.03130237 0.06512313 -0.051608827 -0.13264608 0.11833278
-0.08329208 -0.06487173 0.029549599 0.062202323 -0.056722507 -0.018002663 -0.060886618 0.12931223
0.101794966 -0.13623744 -0.015487273 -0.10733434 -0.060210668 0.025742598 -0.048939213 -0.16595346

network_body._body_endoder.seq_layers.4.bias f4 [256]
00000000: 6abc d23d a9f4 f6bd be5f bcbd fe47 bebd
00000010: 3bb9 b13c 43b9 b2bd 3b56 c5bd 8739 c1bc
00000020: 4d8f 93bd a89b d1bd f584 01bc 4c07 9a3d
00000030: fbf8 06bd dcf6 c8bd 4898 97bd b8fb 7bbc
00000040: 1244 47bd d794 08bd 2c8f 193e 9d14 debb
00000050: 61a8 b2bc e8f1 813d d811 0dbd 4c0b dabd
00000060: 98b3 57bd e05c 04be 433c 39bc d0d8 c53c
00000070: 2a02 06be 633a 75bd 674b c83d 6931 5cbe
00000080: 36f3 fdbc 920d acbd 2486 d73d cf0f 54be
00000090: cd9a 4e3d 2a62 80bd 069b 18bd 1c52 6cbd
000000a0: 0555 70bd 83c8 893d f1ef b83c 8587 dbbd
000000b0: 9ddd df3d a391 34be ce15 8abd ff22 7bbd
000000c0: eb2b 29be 6ab1 683c 9cf1 56bd f325 173e
000000d0: 6422 19be 318e a0bd c6a9 ad3d 6a68 d8bc
000000e0: 503e 083c 09ce 8dbd 9928 e53c 251c 5d3d
000000f0: 3921 b6bc 1e2a e13c f5bf 0dbd b414 81bd
00000100: 73f4 41bd 91c6 5fbc df78 1bbd e838 f2bd
00000110: 7571 d6bc 0a67 5fbe 5218 1dbc 22e3 df3d
00000120: a136 49bd f20d 8c3d e48b 27bd dfdc f03d
00000130: 809d 3abc 2592 c1bc 9f1f 643c 9346 3fbd
00000140: 8046 623c dcc4 b13c 6286 df3d 63bc 45bd
00000150: 8394 60bd f416 4fbe c68b e7bd 1460 37be
00000160: 47f0 11bd ae87 053e 00cc b53c 577e 77bd
00000170: c4ad cc3d 8d3a d33d 6425 593b 68ae 0dbc
00000180: 43a7 813d 5e1d 8cbd 1f69 9f3d 2ebf b0bd
00000190: 5f90 24be 42e7 ec3c 3574 6d3c 86f1 f43d
000001a0: e5d6 a0bd 3624 6c3d 8c0c e83c 8e70 39bd
000001b0: 9b90 ae3d 85ae ddbc abea 1abd 4005 55bd
000001c0: 6109 8cbd f516 4c3e cee8 5fbd 88dd f83c
000001d0: 0fae 853d 86de 5bbd 8ae7 57bd ce6d 12bd
000001e0: 6ee5 803d 3cd7 48be 9a3d 6f3d c988 37bd
000001f0: 3331 b23d 573c f63d 808b 8ebd d5db b53d
00000200: 67fa c9bc eaf6 243d c89f f13d 8f73 85bb
00000210: 545f 9cbd f9bc 943b 7ad7 cabc 299c db3d
00000220: 1ef3 15be 7efb 793d 61c5 a6bc 3036 cbbd
00000230: 97e3 cebd 2dce bd3d 60be a2bc 98a4 5fbc
00000240: 56fe 61bd 7292 90bd 39ba 12be 9295 75bd
00000250: 1a2c 73bd a717 9a3d f84f de3d 0580 ea3b
00000260: 79bb 69be e512 28bd 052a ae3c 24f3 963d
00000270: e800 363d 935a a7bc 5cdd a7bc 1e75 87bd
00000280: 3186 863c c58b 043e fd36 bc3c 9274 0f3e
00000290: 32fb 48bd 7b62 9cbd a371 c3bd fbbe cb3d
000002a0: c614 0b3d 4a60 a8bd 4604 dfbb 6452 b1bd
000002b0: 57da 95bd 8fb1 043c 50ba 08bd 90b0 073d
000002c0: fbed e1bd 96e0 5fbd 1675 9ebd 65de 5ebd
000002d0: 1583 f6bd 6070 9cbd f9e4 28be b97f d93c
000002e0: 7ae7 2f3d 6d42 c7bd c078 98bd d578 fabd
000002f0: 9515 fe3d ce93 34be 69a7 28bb 606f b8bd
00000300: 622e 9abb 8f34 19bd 7c36 3a3d 4414 c6bb
00000310: 45d0 3d3c b6c7 873d 5c35 1cbe a8a9 813d
00000320: 7fd2 da3c 9947 b0bc 907b 163d 983b 56bc
00000330: 6b6c fcbc 7370 913d fef2 2bbd 7530 353d
00000340: 61ab 52be b894 643d 33c5 b9bd 8c9b d9bd
00000350: d0e8 65bc ba18 54bd aa85 1cbe 6ffb 2fbd
00000360: 91e1 193d 16e1 57bd 7be1 b4bd 359c e73d
00000370: 5a9e 413a 5175 67bd 180f 2ebe bb69 b5bd
00000380: 0b5c 27bd f677 0f3e 55d6 63bd 26c7 dc3d
00000390: a2da bc3d 7f5d 65bd 4489 42bd 3e89 a7bd
000003a0: f032 22be 8a15 cabd 581a 863d 62d1 14be
000003b0: 99c0 19be 4ec3 053e 6f89 c2bb 54d5 ecbd
000003c0: e415 a53c 056a 783d 1c64 f73d 2c27 9ebd
000003d0: a85f 45be e739 553d 9a4f db3d a116 2fbe
000003e0: c2bc e9bc fb93 1b3d b164 58bd 08ee dcbb
000003f0: f79f 253d 5eea 5cbb a898 39be 7215 4ebd
0.102898434 -0.12058384 -0.09197949 -0.09291075 0.02169477 -0.08726742 -0.09635588 -0.023587001
-0.07205067 -0.10234767 -0.007905235 0.07520923 -0.03295229 -0.0981271 -0.07402092 -0.015379839
-0.0486489 -0.03334507 0.14996022 -0.0067773596 -0.021808805 0.06344968 -0.034440845 -0.10646686
-0.05266151 -0.12926054 -0.011305871 0.024151236 -0.13086763 -0.059870135 0.09780007 -0.21503223
-0.030999761 -0.08401026 0.10523632 -0.20709155 0.0504406 -0.06268723 -0.037257217 -0.057695493
-0.05867483 0.06727698 0.02257535 -0.10719208 0.10930941 -0.17633681 -0.0674244 -0.06131267
-0.1652066 0.014202455 -0.05247651 0.1476057 -0.14954525 -0.07839621 0.08479647 -0.026416976
0.008315638 -0.06924064 0.02797346 0.05398192 -0.022232639 0.027485903 -0.034606893 -0.06302777
-0.047352266 -0.013658182 -0.03795707 -0.1182726 -0.026177147 -0.2181665 -0.009588318 0.10931994
-0.049124364 0.06838597 -0.040904894 0.11760878 -0.01139009 -0.023629257 0.013923555 -0.046698164
0.013810754 0.021700315 0.10914303 -0.048275363 -0.05482913 -0.202236 -0.113059565 -0.17907745
-0.035629537 0.13040039 0.022192001 -0.06042322 0.09994081 0.10313902 0.0033133859 -0.008647539
0.06330731 -0.06841539 0.07783722 -0.08630215 -0.16070698 0.028918866 0.014493038 0.119601294
-0.07853488 0.05765172 0.028326295 -0.045273356 0.08523675 -0.027060756 -0.037821453 -0.05200696
-0.068377264 0.19930632 -0.05466538 0.030379072 0.0652734 -0.05367901 -0.052711047 -0.03574925
0.0629376 -0.19613355 0.058408357 -0.044808183 0.0870079 0.12023228 -0.06960201 0.0887982
-0.024655534 0.040274538 0.11798054 -0.0040726135 -0.0763537 0.004539129 -0.02476095 0.107231446
-0.14643523 0.061030857 -0.02035779 -0.09922445 -0.10102003 0.092678405 -0.019866168 -0.013650082
-0.055174194 -0.07059182 -0.14328851 -0.059957094 -0.05936823 0.075240426 0.108550966 0.0071563744
-0.22825421 -0.041033644 0.02126027 0.07370594 0.044434458 -0.020428931 -0.020491295 -0.06614135
0.01642141 0.12943943 0.02297544 0.14009312 -0.049067684 -0.07635971 -0.09543159 0.09948536
0.033955358 -0.08221491 -0.0068059294 -0.08658293 -0.07317036 0.008098974 -0.033380806 0.033127367
-0.11031719 -0.05465754 -0.07737176 -0.05441131 -0.12036721 -0.07638621 -0.16493596 0.02655016
0.042945363 -0.097294666 -0.07444906 -0.12230078 0.1240646 -0.17634508 -0.002573455 -0.09005618
-0.0047052363 -0.03740364 0.045462117 -0.0060448963 0.0115853 0.06629889 -0.1525473 0.063311875
0.0267117 -0.021518515 0.036738932 -0.013075732 -0.030813416 0.07101526 -0.041979782 0.044235665
-0.20573188 0.05580589 -0.09070816 -0.10625371 -0.014032558 -0.051781394 -0.15285364 -0.042964395
0.037568633 -0.052704893 -0.088320695 0.11309091 0.0007385962 -0.056508366 -0.16997945 -0.08858057
-0.040859263 0.14010605 -0.055624325 0.10780172 0.092213884 -0.055997368 -0.047494188 -0.08180474
-0.15839744 -0.098673895 0.065479934 -0.14532998 -0.15014876 0.13062784 -0.0059367935 -0.115641266
0.02015204 0.060647983 0.12079641 -0.07722315 -0.19274771 0.052057173 0.10708542 -0.17098476
-0.02853239 0.037982922 -0.0528304 -0.0067422427 0.040435757 -0.003370903 -0.1812464 -0.05031342

action_model._discrete_distribution.branches.0.weight f4 [2, 256]
00000000: fa15 64bd 598f f8bb 578e 703c 8f3d 873b
00000010: 7ec8 653d c2c4 e8bd 93ca 89bd 5e18 88bd
00000020: 09a7 6ebd 3586 8bbc 0456 b23c a425 a639
00000030: 76fc 30bd ae59 b3bc 8ec0 8ebd 8fd3 30bc
00000040: b4dc 14bd 3377 7c3c 59c1 243d 0687 b538
00000050: 0121 ed3c 1c80 a5bc 50ca b7bd ec2f 5fbd
00000060: e754 4abd 2880 22bd b231 b03b 8403 b93d
00000070: 2790 18bd d7fe c6bd bb06 ed3c 9b67 5fbc
00000080: 6d55 883b fd7e 8d3a 2e1e 54bc eb45 193d
00000090: 2f6c 083d 704f caba 8a13 4bbc 80dc a23d
000000a0: 6f54 8f3c dfaf 803d 441b e63d a157 0cbd
000000b0: 0fff 023e f322 04bc c166 11bd 6614 b43c
000000c0: 0cf7 2d3d 9a22 f63c 9bd7 123d 8015 0bbd
000000d0: afe5 793d c62f 5b3d a730 863d d27b 27bd
000000e0: f412 1bbd a296 9bbc 81a7 a7bc 22c1 c73d
000000f0: 6ff4 ca3b afc7 95bc ef7f a23c eca8 5fbd
00000100: cb88 3dbd caf4 953a 1205 7ebd afa5 f4bd
00000110: 6ce1 3cbd 5945 5abc e75b aa3d 7df9 3c3d
00000120: 37f1 83bd 82b1 923c cdcb 82bc 1d42 a23c
00000130: 140c db3c e1bb 59bd 87c4 953d 49b4 08b9
00000140: 3a7a 1ebd 8c99 ab3c bc57 793d 49ad 9bbc
00000150: 38ae 773d fdc0 ecbb 9c86 e4bd 7476 303d
00000160: fcd2 3d3d 90ae 74bc 9bed 3bbd 0730 84bc
00000170: 43c6 553d eb6e c0bc 6de9 a4bd 4a46 8dbc
00000180: 9208 c63c 32f8 293d 71ec 313d df5d 613d
00000190: ccbb 4abd 4288 d93b c766 67ba aea0 bdbc
000001a0: 0cd5 f03c 6d20 d73d b891 dfbc 3336 923d
000001b0: d099 8abd c4b5 31bd 839b 383d e4f0 1dbe
000001c0: 4d0f a1ba f20f 94bc 74cb fabd 6f8f 753d
000001d0: 6cea 15bd 1ac6 983d 931d 52b9 1d16 a13d
000001e0: 7e8f cabd a944 40bb b7c8 663d 5e16 87bd
000001f0: 035f 7c3c 5ccd d23d 86cc 35bd 5ded 023d
00000200: f33e 383d c6ee 6d3d a5a2 9dbd e5c4 cbbc
00000210: 6e08 3ebb 8bb4 a9bb d98a a2bc e57e be3b
00000220: 6998 813d ee00 1c3d 511a 0cbd 185e 053d
00000230: c627 08bd 0069 17bc a63f bbbb 7a80 553c
00000240: b703 a1bd caa5 a9bd 5679 43bb 6bcb 623d
00000250: 02c9 763d 4337 ddbc c9aa 4bbd 5d99 23bd
00000260: c788 cc3b 39a4 28bd f783 7c3d fcfb b63d
00000270: 972d afbc f045 a1bc 83e0 6cbd 9a4a b5bc
00000280: 7bc5 ab3d bdb7 1d3c fb47 abbd 9d3b 15ba
00000290: 4574 963d b0c6 413d be9e b83d 030e b5bd
000002a0: c4ad 98bb bf9c afbd 0fb5 183d ac1b 44bd
000002b0: a730 a8bd 6469 12bd 7d58 9abd 1b55 ffbc
000002c0: 0472 6d3c feac 613c 02f4 07bd a052 143d
000002d0: 76cf cd3c 6b66 b3bb 7788 0e3d 6dde 68bd
000002e0: 31a4 fc3b 57aa 7fbd 7c41 283d 7044 5f3d
000002f0: d5f8 663c fc28 e7bd 605c 95bd 7441 6f3d
00000300: e0e9 20bc 3089 ee3c 5fb7 323b 58f6 8bbc
00000310: 74e4 2a3d fb80 433c 0e85 c63c c18b 7fba
00000320: 3401 fa3c 5e99 ad3c 8cdc 90bd 22d9 8abd
00000330: 2f38 f0bc f6c9 d53d 9876 3bbd 5f4d fe3d
00000340: 3a6b 113d 20df 813c 0665 383c 3556 2cbd
00000350: 7d06 b1bc e3df 10bd 75fb 8c3c 3a60 1abd
00000360: b577 a4bd 46d1 a4bc 5b19 9abd 4086 2bbd
00000370: 1318 4ebd 6e44 fe3b 608a 7fbd 37b1 52bd
00000380: 0a42 40bd 53be db3c e8f5 14bd 6c3f 88bc
00000390: 1638 4b3d 654c 4d3d af52 0fbd 74be c7bd
000003a0: b422 9bbd 67d8 553c 306c e0bd 6b42 873d
000003b0: a881 2b3d 62ff 14bc 5574 863b a871 f83a
000003c0: bbd8 b8bc 80f1 c3bd c784 e0b9 e073 73bd
000003d0: c667 64bd eaae 003d 3319 aabc e9f2 2fbc
000003e0: e748 97bd 7595 01bd 0d27 e1bd 4ce3 8e3e
000003f0: 5737 953c 77cb 593c 6099 c9bd e56a 3f3d
-0.05568502 -0.0075854477 0.014682374 0.0041272114 0.056099407 -0.113656536 -0.06728091 -0.06645273
-0.058264766 -0.017031768 0.021769531 0.00031690032 -0.043209516 -0.021893349 -0.06970321 -0.010792627
-0.03634329 0.015409279 0.040223453 8.655903e-05 0.028946402 -0.020202689 -0.08974135 -0.05448906
-0.049397375 -0.039673 0.005377018 0.09033874 -0.03724685 -0.097165756 0.028933873 -0.013635541
0.004160574 0.0010795292 -0.0129466485 0.037420195 0.033306297 -0.0015435051 -0.012394795 0.07952213
0.017496316 0.06283545 0.11235669 -0.034263257 0.1279261 -0.008064973 -0.035498384 0.021982383
0.04247193 0.030045796 0.03585015 -0.03395605 0.06101006 0.053512357 0.065522484 -0.04088957
-0.037859872 -0.018992726 -0.020465614 0.09753634 0.0061936895 -0.018283693 0.019836394 -0.054604456
-0.046273034 0.0011440751 -0.062016554 -0.11945664 -0.046113417 -0.013322198 0.0831831 0.046136368
-0.064424925 0.017906908 -0.01596632 0.019806916 0.026739158 -0.05315769 0.07312875 -0.00013037132
-0.038690783 0.02094724 0.060874686 -0.019003527 0.060468882 -0.0072251544 -0.11158487 0.043081716
0.04634379 -0.014934197 -0.045880895 -0.016136182 0.05219103 -0.02349039 -0.08052335 -0.01724543
0.024174009 0.041496463 0.04343838 0.055021163 -0.049495503 0.0066385577 -0.00088272657 -0.023147907
0.029398464 0.105042316 -0.027291164 0.07139244 -0.06767619 -0.043386236 0.045070183 -0.15423924
-0.0012287885 -0.01807401 -0.12245837 0.059951242 -0.036600515 0.0745966 -0.00020038178 0.07865546
-0.0989065 -0.00293378 0.05634376 -0.06596063 0.015403512 0.102930754 -0.044384502 0.03196465
0.044981908 0.05808904 -0.076970376 -0.02487416 -0.0028996724 -0.005178993 -0.019841598 0.005813467
0.06327898 0.038086824 -0.034204785 0.032560438 -0.033241056 -0.009241343 -0.0057143746 0.0130311195
-0.07862037 -0.08283575 -0.002982696 0.055369776 0.06025029 -0.02700389 -0.04972342 -0.03994118
0.006241891 -0.04117224 0.06164929 0.08934781 -0.021384044 -0.01968667 -0.0578313 -0.0221303
0.08387276 0.009626326 -0.083633386 -0.0005692782 0.073463954 0.047308624 0.09014653 -0.08840563
-0.0046593864 -0.08574819 0.037282046 -0.047877952 -0.08212405 -0.03574504 -0.07536409 -0.031168511
0.0144925155 0.013774155 -0.03319169 0.03621161 0.02512334 -0.0054748557 0.03479811 -0.056852747
0.007710003 -0.062418308 0.041078076 0.054508626 0.014097412 -0.11287114 -0.0729301 0.05841203
-0.009821385 0.02911815 0.0027269942 -0.01708524 0.041721776 0.011932607 0.024233367 -0.0009748303
0.030518152 0.021191295 -0.07073316 -0.06779696 -0.029323665 0.104389116 -0.045767397 0.12417101
0.03550265 0.015853465 0.011254555 -0.0420744 -0.02160954 -0.035369765 0.017209748 -0.037689425
-0.08030645 -0.02011932 -0.075243674 -0.041876078 -0.050315928 0.0077596223 -0.062387824 -0.051438536
-0.04693798 0.026824152 -0.036367327 -0.016631804 0.049614035 0.050121684 -0.034990963 -0.09753123
-0.075749785 0.013052083 -0.10958135 0.06604465 0.041871697 -0.009094091 0.0041032233 0.0018954771
-0.022564283 -0.09567547 -0.00042823536 -0.05943668 -0.05576303 0.03141681 -0.020763969 -0.010739067
-0.07386952 -0.031636674 -0.109937765 0.2790779 0.018214865 0.013293139 -0.09843707 0.046732802

action_model._discrete_distribution.branches.0.bias f4 [2]
00000000: 93b9 883d 3eb9 88bd
0.066760205 -0.06675957
