results/15/SmartAgent.onnx (onnx, 162323 bytes, 11 tensors)

discrete_action_output_shape f4 [1, 4]
2.0 2.0 2.0 2.0
00000000: 0000 0040 0000 0040 0000 0040 0000 0040

network_body._body_endoder.seq_layers.0.weight f4 [128, 300]
-0.0028021617 0.08630176 0.046392627 -0.10558805 0.045606595 0.05356816 -0.032855477 0.009994729
-0.11596562 -0.021037055 -0.050501578 0.0040850486 0.051156793 0.06758561 0.049541887 -0.036470685
0.094800875 0.031240007 -0.17862706 -0.023892893 -0.0062147784 -0.02740341 0.032635864 0.07888845
-0.0414494 0.011666225 0.028731396 0.037453067 -0.039735824 -0.011535511 0.041683376 0.0020313233
-0.030424867 -0.027679581 0.07527217 0.0020128184 -0.037720535 0.079336286 -0.02996658 -0.043871325
0.008501621 -0.12883607 -0.095068574 0.10607369 -0.08085118 -0.015284598 -0.019747207 0.101859815
0.007523898 0.0816362 -0.079455495 0.06936835 -0.031874835 -0.069819935 0.025682565 -0.013543192
0.0065541416 -0.060726453 -0.031859547 -0.017979275 0.0015585909 -0.008788769 -0.060962386 0.0059326016
-0.041346736 0.02878199 0.09135585 -0.022128724 -0.011392614 -0.063199386 0.055416327 0.074184574
0.11219018 9.756521e-05 -0.040786106 -0.008203429 -0.08821415 0.1056246 -0.011626796 0.04503086
-0.014789082 -0.020581385 0.050986234 0.05687686 0.006689475 0.056321003 0.044569783 0.006400155
0.015149031 0.0047634267 0.050343487 -0.024695138 -0.027414339 -0.07999778 0.0013410614 -0.07011677
0.09718532 0.052506413 -0.014175203 0.1236204 0.037777763 0.10093269 0.0051928586 -0.022540126
0.114901476 -0.10912272 -0.035464413 -0.022453682 0.035832603 -0.07817286 0.016618991 0.03916183
-0.11539963 -0.045627102 -0.06320289 0.04777057 0.009421351 0.028534481 -0.018178465 0.045108385
0.054828376 0.034942623 0.049262308 -0.050728973 -0.12986466 0.00029376664 0.037785336 -0.08920829
0.059111603 -0.07817854 -0.04591058 0.044879243 -0.004572763 0.046022356 0.06268061 0.08156891
0.033207342 0.034892183 -0.08764936 -0.061660085 -0.027465103 -0.066467874 -0.046788823 -0.116648234
-0.08030948 0.019281952 -0.023718549 0.049670223 0.037444804 -0.036330547 0.06370493 -0.002700948
0.026409032 -0.052025113 -0.0054654097 -0.07233387 0.0310254 -0.09670816 -0.0073345727 0.025470635
-0.07134931 -0.011338713 0.027462399 0.0848506 0.054460585 0.0044628135 -0.000103100465 0.033478044
0.016544275 0.105787 -0.045723133 -0.055389293 0.07965312 -0.030417856 0.08305696 -0.029814238
0.011050256 0.016460279 0.04258155 0.14745404 -0.060587835 0.12672128 -0.031412058 0.1334025
-0.07917522 0.007920489 0.072970584 0.024601549 0.04432192 -0.020596564 0.030987086 0.035503108
0.046589766 0.019777915 -0.009699357 0.0031857328 -0.009428955 0.07443201 0.12794077 0.032297604
-0.048996184 0.04327134 -0.13363913 -0.00039812058 0.092330866 -0.021928908 -0.05829443 0.002002338
-0.059698574 0.005317045 0.014426943 0.018696938 -0.102620564 -0.045848258 -0.014218874 0.12401678
0.101198755 -0.019906309 -1.4703093e-05 0.06434223 -0.00061609526 -0.012227586 0.014114156 -0.124506235
0.029998515 0.08260837 -0.0014390909 -0.039020497 -0.15089937 -0.018297192 -0.03393772 -0.073497005
-0.0015467406 -0.06219639 0.02605749 0.058781307 0.0024405927 -0.071770325 0.023116045 -0.17053054
0.030644746 0.07776929 -0.005535422 0.055324513 0.043378152 -0.052735843 0.112510696 0.025362361
-0.02249328 -0.017580753 0.08256734 -0.048630223 -0.0012398015 -0.033931777 -0.030598806 -0.017001221
00000000: 79a4 37bb fabe b03d 3206 3e3d 8c3e d8bd
00000010: fbcd 3a3d 496a 5b3d 7793 06bd efc0 233c
00000020: 627f edbd e755 acbc beda 4ebd dfdb 853b
00000030: c989 513d 536a 8a3d 6fec 4a3d 4962 15bd
00000040: f626 c23d 0beb ff3c 03ea 36be 07bb c3bc
00000050: 57a5 cbbb 1e7d e0bc 2fad 053d 4590 a13d
00000060: d9c6 29bd b223 3f3c 1b5e eb3c 6368 193d
00000070: 08c2 22bd 71ff 3cbc 30bc 2a3d f31f 053b
00000080: 923d f9bc 4ac0 e2bc 4c28 9a3d 7de9 033b
00000090: d980 1abd 107b a23d 797c f5bc 6bb2 33bd
000000a0: 624a 0b3c 9aed 03be 50b3 c2bd 2a3d d93d
000000b0: 4e95 a5bd 406c 7abc e5c4 a1bc e19b d03d
000000c0: 088b f63b e130 a73d 90b9 a2bd fe10 8e3d
000000d0: 308f 02bd c1fd 8ebd 3e64 d23c 44e4 5dbc
000000e0: 20c4 d63b 4dbc 78bd 287f 02bd 4649 93bc
000000f0: a249 cc3a c5fe 0fbc b2b3 79bd 4566 c23b
00000100: 325b 29bd 35c8 eb3c c718 bb3d 4c47 b5bc
00000110: 16a8 3abc ae6e 81bd 3bfc 623d 15ee 973d
00000120: f7c3 e53d ec9b cc38 550f 27bd ad67 06bc
00000130: 9fa9 b4bd b651 d83d 517e 3ebc 4772 383d
00000140: e84d 72bc 4b9a a8bc f1d6 503d b6f7 683d
00000150: 6233 db3b dab0 663d ce8e 363d 64b8 d13b
00000160: a433 783c 8516 9c3b f934 4e3d 754d cabc
00000170: 0994 e0bc e0d5 a3bd 8ec6 af3a 6299 8fbd
00000180: 1909 c73d f710 573d 1c3f 68bc b12c fd3d
00000190: dbbc 1a3d ccb5 ce3d db28 aa3b 12a6 b8bc
000001a0: 7751 eb3d bc7b dfbd 2243 11bd c9f0 b7bc
000001b0: 35c5 123d 1819 a0bd 8d24 883c 2868 203d
000001c0: a456 ecbd 7ce3 3abd 8470 81bd 13ab 433d
000001d0: 035c 1a3c 25c1 e93c 01eb 94bc 92c3 383d
000001e0: b893 603d ff1f 0f3d 46c7 493d 2fc9 4fbd
000001f0: 3efb 04be b104 9a39 ccc4 1a3d d6b2 b6bd
00000200: 021f 723d 121c a0bd bb0c 3cbd 4cd3 373d
00000210: 1ed7 95bb f081 3c3d b15e 803d 9a0d a73d
00000220: 6c04 083d 1beb 0e3d 8281 b3bd 498f 7cbd
00000230: 7ffe e0bc 4f20 88bd a3a5 3fbd 45e5 eebd
00000240: 4c79 a4bd 2ff5 9d3c 674d c2bc 0173 4b3d
00000250: b95f 193d 57cf 14bd bb77 823d 6302 31bb
00000260: c157 d83c 4918 55bd 2e17 b3bb c823 94bd
00000270: fb28 fe3c ee0e c6bd db56 f0bb cba7 d03c
00000280: 961f 92bd 02c6 39bc d3f8 e03c 27c6 ad3d
00000290: 1012 5f3d cb3c 923b a437 d8b8 4620 093d
000002a0: dc87 873c dba6 d83d 2e48 3bbd e2df 62bd
000002b0: 2d21 a33d de2e f9bc c419 aa3d fd3c f4bc
000002c0: 220c 353c b5d7 863c fe69 2e3d 31fe 163e
000002d0: f32a 78bd 39c3 013e eea9 00bd aa9a 083e
000002e0: 9e26 a2bd f0c4 013c 9a71 953d 3089 c93c
000002f0: e78a 353d 20ba a8bc a1d8 fd3c b56b 113d
00000300: e9d4 3e3d 4b05 a23c 0dea 1ebc bac7 503b
00000310: e77b 1abc cf6f 983d e802 033e 7e4a 043d
00000320: 39b0 48bd 4a3d 313d b2d8 08be d7ba d0b9
00000330: f717 bd3d 41a4 b3bc 24c6 6ebd a839 033b
00000340: 7e86 74bd 9b3a ae3b fc5e 6c3c 522a 993c
00000350: bb2a d2bd 62cb 3bbd 48f6 68bc 82fc fd3d
00000360: 4b41 cf3d 8e12 a3bc 4ead 76b7 dcc5 833d
00000370: 7481 21ba 3656 48bc 103f 673c 20fd febd
00000380: 72bf f53c 942e a93d e19f bcba f5d3 1fbd
00000390: 5d85 1abe fee3 95bc 4702 0bbd 9985 96bd
000003a0: 01bc caba a4c1 7ebd 8476 d53c abc4 703d
000003b0: 5af2 1f3b 52fc 92bd dc5d bd3c 8f9f 2ebe
000003c0: b10a fb3c 8145 9f3d 7c62 b5bb f59b 623d
000003d0: 4aad 313d 8a01 58bd 026c e63d bac4 cf3c
000003e0: d443 b8bc 8305 90bc 1119 a93d 7c30 47bd
000003f0: d680 a2ba 0cfc 0abd 59aa fabc 2546 8bbc

network_body._body_endoder.seq_layers.0.bias f4 [128]
0.011159685 0.012025138 0.01104886 -0.00543266 -0.0042280597 -0.007887839 0.010597857 0.008973061
0.0065587293 0.008572787 0.00901776 -0.0055289473 0.010815534 -0.0119627565 -0.0065331985 0.0073160445
0.012615175 0.0096684955 0.012017395 0.010211966 -0.0043266653 0.013173441 0.012949665 0.011411905
-0.00401245 -0.0009317121 0.0014967073 -0.0029330805 0.009595601 0.012264745 0.013537072 0.0017182693
-0.0106235845 0.009038731 -0.0024020525 0.011614753 -0.010151699 -0.011350133 0.012025711 -0.00828138
-0.006782472 0.007816474 -0.011580402 -0.004221332 -0.01091439 0.009302181 0.012958177 0.0017218773
0.010108165 -0.007096271 0.0015941064 -0.0053280946 -0.0045521995 -0.0006461757 -0.0025372063 0.009815356
-0.007909164 -0.008021818 -0.010573367 0.011273555 0.012515368 0.009026096 -0.008225867 -0.005374629
0.013078939 -0.004229427 0.012978596 0.0056834733 -0.008486703 0.0046320087 0.0031579146 -0.010480477
0.008773927 0.0073676878 -0.0075543956 0.013959824 0.0061827786 0.011168585 -0.010173538 -0.008825919
-0.00868517 0.008818762 -0.008740143 -0.009685242 -0.003126492 0.007774696 -0.0014200194 -0.010864924
-0.0073729777 -0.011173911 -0.0068494324 0.010524069 -0.001912375 -0.0060927556 -0.0057197297 0.012772208
-0.003629085 0.0007791919 0.0009097802 -0.0026020138 0.010211676 0.004541926 0.0101866955 0.007777711
0.013072106 0.009874814 0.006270353 0.00646831 0.0102674775 0.012793939 0.0026990473 0.009856051
0.0066518225 0.01277908 -0.007005449 -0.003217114 0.0094961235 -0.0069292784 -0.0045961756 0.010425796
0.011245095 0.011501189 -0.006823506 -0.009060079 -0.009559999 -0.0074323923 0.009598249 0.00073013554
00000000: 1dd7 363c 1605 453c 4706 353c 7504 b2bb
00000010: 898b 8abb ff3b 01bc a2a2 2d3c bf03 133c
00000020: 9cea d63b e074 0c3c 3abf 133c 2c2c b5bb
00000030: a333 313c 70ff 43bc 7114 d6bb 6ebb ef3b
00000040: e1af 4e3c 9c68 1e3c 9ce4 443c 1750 273c
00000050: b3c6 8dbb 6bd5 573c d52a 543c 00f9 3a3c
00000060: df7a 83bb 243e 74ba 2a2d c43a ed38 40bb
00000070: de36 1d3c 12f2 483c 98ca 5d3c 8d37 e13a
00000080: 8b0e 2ebc 3017 143c c16b 1dbb ce4b 3e3c
00000090: 5053 26bc e9f5 39bc 7d07 453c a0ae 07bc
000000a0: 803f debb ab10 003c babb 3dbc 1953 8abb
000000b0: 45d2 32bc 2d68 183c 894e 543c 9db0 e13a
000000c0: b89c 253c d687 e8bb 56f1 d03a 4c97 aebb
000000d0: 9e2a 95bb 1e64 29ba 4247 26bb 96d0 203c
000000e0: 7095 01bc f16d 03bc ea3b 2dbc b8b4 383c
000000f0: 420d 4d3c 31e2 133c c9c5 06bc a81d b0bb
00000100: 0c49 563c 0197 8abb 2da4 543c 6e3c ba3b
00000110: d00b 0bbc 1bc8 973b 04f5 4e3b 4eb6 2bbc
00000120: 84c0 0f3c a56c f13b dd8a f7bb bfb7 643c
00000130: e898 ca3b 71fc 363c e9ae 26bc 969a 10bc
00000140: 3e4c 0ebc 927c 103c d132 0fbc d9ae 1ebc
00000150: d5e5 4cbb e1c2 fe3b f21f baba cb02 32bc
00000160: 0599 f1bb c812 37bc 3471 e0bb 256d 2c3c
00000170: a8a8 faba bda5 c7bb 926c bbbb 8642 513c
00000180: f1d5 6dbb af42 4c3a 517e 6e3a 8c86 2abb
00000190: e04e 273c 70d4 943b 19e6 263c 2bdc fe3b
000001a0: 632c 563c f9c9 213c 8977 cd3b 1ef4 d33b
000001b0: ec38 283c ab9d 513c 80e2 303b 467b 213c
000001c0: 88f7 d93b 595f 513c f78d e5bb 37d6 52bb
000001d0: a195 1b3c 000f e3bb 849b 96bb f5d0 2a3c
000001e0: 593d 383c 7c6f 3c3c b897 dfbb ba70 14bc
000001f0: 8ba1 1cbc 6d8b f3bb f941 1d3c 9166 3f3a

action_model._discrete_distribution.branches.0.weight f4 [2, 128]
0.001756817 -0.0031781115 0.0033632573 0.02678496 -0.0041039865 0.02779024 -0.0033715076 0.013534904
-0.02364572 -0.008375267 -0.013111162 -0.008174271 -0.004942468 0.010698325 -0.016630193 -0.001498621
0.002980139 -0.012039756 0.009006559 -0.011524973 0.0046983724 -0.0028458012 0.008572799 -0.015083157
0.02375044 0.001364436 -0.006982838 -0.018904477 -0.021233851 0.0012156285 0.007358412 -0.009135873
0.0034171098 -0.02025377 -0.011706906 0.0011890575 -0.005955425 0.012640742 0.016417922 0.006870263
0.012868276 -0.0026665302 -0.0015789482 -0.010158835 0.0055432618 -0.013890269 0.005217503 -0.02594946
-0.019999817 -0.012667523 -0.023202429 -0.004259567 0.030687476 -0.01263872 0.015326426 -0.016429743
0.0106413895 0.023761421 0.0051810644 -0.022579564 -0.013294885 -0.017068783 0.003094917 0.0020670989
-0.015364476 -0.0059719156 -0.0039491663 -0.013350112 0.019759342 0.0244652 -0.012988912 0.010887584
-0.011723607 -0.018748492 0.014738327 0.003686756 -0.00583044 -0.020094177 -0.011845657 0.0027444963
0.015289417 -0.011064811 0.013197746 0.0030562684 -0.015579816 -0.027228555 0.015172048 0.003322866
0.03444441 0.014697979 -0.0009461738 -0.018347343 0.013384382 0.011672044 0.009112536 -0.0030662173
0.0032488236 -0.013195184 0.011425333 -0.011243569 -0.0024078977 -0.019617183 -0.022753865 -0.012069634
-0.004495458 -0.028974218 -0.01852785 -0.015759528 -0.017243039 -0.008537454 -0.010289079 0.00011479518
-0.025630677 -0.009486752 0.004886023 -0.006249149 -0.016333675 0.009036525 0.013052314 -0.0021454855
0.017315963 -0.0272606 -0.002088803 -0.012980658 0.016811712 0.011140367 0.010107781 -0.002480785
-0.012859075 -0.0063565844 -0.0012609855 -0.018876486 0.0021296262 -0.014193984 0.014514787 -0.005526373
0.0111681605 0.027165 0.020425133 0.0021908635 0.017272934 -0.0025582283 -0.006584797 -0.000372249
-0.0095623685 0.019642372 -0.015424172 -0.0012515145 -0.005385871 0.020157078 -0.010032551 0.017877527
-0.015298523 -0.021563709 0.01067394 0.0111488225 0.011509406 0.0072855847 0.010344855 0.002871292
0.0022627814 0.015685724 0.0052363886 -0.0019393003 0.0053336658 -0.020021282 -0.009764593 -0.029204821
-0.031265903 0.0054819016 0.0074752085 0.011496875 0.001882083 0.014722889 -0.013209019 0.0037659258
0.0200465 0.011244072 0.015043986 0.0015071608 -0.011843208 -0.002229811 0.0039486126 0.018066365
-0.016785584 -0.004426553 -0.009391001 0.008195154 0.009144684 0.025141181 -0.009863438 -0.013609773
0.015318588 0.0090417145 -0.00064682285 0.017755734 -0.0068700616 -0.0058090067 -0.01104921 -0.009922382
0.0035450917 0.016927449 -0.021720342 -0.009329696 0.010916178 0.010582426 -0.0014375809 -0.00865265
0.0006729793 0.009488405 -0.013133356 -0.0271346 -0.021793934 0.0046896716 -0.023009872 -0.008204552
-0.008800173 -0.020738678 0.011375679 0.009375536 -0.018035969 -0.00717461 -0.013766161 0.012125784
0.009829365 -0.017647939 -0.0237709 0.0129775405 -0.0017542455 -0.003655513 0.0062306826 0.010059586
0.012306269 -0.0040258705 0.007902853 0.03356443 0.015654925 0.016733378 0.00403161 0.013227069
0.013973863 0.006985543 0.004712507 0.020191254 0.0046326234 -0.020955117 0.0062290616 0.020909352
-0.0069180415 0.026331613 -0.0067522163 0.0069735344 -0.011066854 -0.0002075188 -0.009438186 0.013293393
00000000: ff44 e63a dd47 50bb 186a 5c3b 226c db3c
00000010: bc7a 86bb 5ba8 e33c 83f4 5cbb 81c1 5d3c
00000020: abb4 c1bc 6a38 09bc 33d0 56bc 61ed 05bc
00000030: 6df4 a1bb 0748 2f3c 0b3c 88bc 606d c4ba
00000040: 704e 433b 6642 45bc 3f90 133c 3ed3 3cbc
00000050: cef4 993b 9f80 3abb ed74 0c3c 591f 77bc
00000060: 4890 c23c e0d6 b23a 4ad0 e4bb 90dd 9abc
00000070: 9df2 adbc b955 9f3a d51e f13b a1ae 15bc
00000080: 97f1 5f3b 3ceb a5bc 53ce 3fbc 26da 9b3a
00000090: ba25 c3bb 1d1b 4f3c e17e 863c f11f e13b
000000a0: 76d5 523c f4c0 2ebb b6f4 ceba 3e71 26bc
000000b0: 40a4 b53b 0394 63bc 96f7 aa3b f693 d4bc
000000c0: a8d6 a3bc 718b 4fbc 0513 bebc d693 8bbb
000000d0: 4d64 fb3c a212 4fbc b11b 7b3c ab97 86bc
000000e0: 3959 2e3c 50a7 c23c ebc5 a93b c7f8 b8bc
000000f0: cad2 59bc d5d3 8bbc 17d4 4a3b 2a78 073b
00000100: 48bb 7bbc 0fb0 c3bb 0268 81bb 6eba 5abc
00000110: 58de a13c 3e6b c83c 72cf 54bc d661 323c
00000120: 5f14 40bc 7096 99bc 0679 713c 809d 713b
00000130: 470d bfbb 8b9c a4bc 4914 42bc 02dd 333b
00000140: 7680 7a3c 2e49 35bc 5c3b 583c ad4b 483b
00000150: 7c42 7fbc 6b0e dfbc 2e94 783c 71c4 593b
00000160: 9515 0d3d cbcf 703c a608 78ba 2b4d 96bc
00000170: 2b4a 5b3c 1a3c 3f3c bf4c 153c 97f2 48bb
00000180: 37ea 543b 9d30 58bc 5231 3b3c f236 38bc
00000190: d2cd 1dbb 37b4 a0bc 5066 babc b7bf 45bc
000001a0: a34e 93bb 575b edbc b8c7 97bc 201a 81bc
000001b0: 4641 8dbc ade0 0bbc 8693 28bc 31be f038
000001c0: 6df7 d1bc 526e 1bbc ee1a a03b a9c5 ccbb
000001d0: 33ce 85bc ef0d 143c 5fd9 553c 469b 0cbb
000001e0: 35da 8d3c 9f51 dfbc 4de4 08bb d3ac 54bc
000001f0: b7b8 893c 1686 363c 1b9b 253c aa94 22bb
00000200: dfae 52bc e54a d0bb a747 a5ba dca2 9abc
00000210: 3391 0b3b e28d 68bc 6ecf 6d3c 9416 b5bb
00000220: a9fa 363c 2289 de3c 9c52 a73c 9794 0f3b
00000230: f87f 8d3c f3a7 27bb 48c5 d7bb 6a2a c3b9
00000240: 7bab 1cbc 0ae9 a03c abb5 7cbc dc09 a4ba
00000250: f67b b0bb 7520 a53c 925f 24bc e473 923c
00000260: a8a6 7abc 60a6 b0bc c0e1 2e3c 8da9 363c
00000270: f391 3c3c eabb ee3b 777d 293c 492c 3c3b
00000280: 2c4b 143b 597f 803c 0396 ab3b 1f30 feba
00000290: 08c6 ae3b ac03 a4bc acfb 1fbc f33e efbc
000002a0: ad10 00bd 86a1 b33b 98f2 f43b 645d 3c3c
000002b0: 3ab0 f63a 4638 713c a46a 58bc c0cd 763b
000002c0: 8f38 a43c 0e39 383c 0d7b 763c ed8b c53a
000002d0: 040a 42bc 0522 12bb 5d63 813b eaff 933c
000002e0: ec81 89bc 9e0c 91bb b7dc 19bc f844 063c
000002f0: 96d3 153c e1f4 cd3c 429a 21bc 86fb 5ebc
00000300: d1fa 7a3c b323 143c 8c8f 29ba 7974 913c
00000310: 411e e1bb 7b59 bebb bf07 35bc 7d91 22bc
00000320: c554 683b 6fab 8a3c dcee b1bc 95db 18bc
00000330: c5d9 323c e961 2d3c 366d bcba d8c3 0dbc
00000340: e06a 303a 4175 1b3c 4a2d 57bc 6149 debc
00000350: 3189 b2bc d1ab 993b 337f bcbc 636c 06bc
00000360: 9a2e 10bc 29e4 a9bc 0e61 3a3c d99b 193c
00000370: 2bc0 93bc fe18 ebbb 778b 61bc 39ab 463c
00000380: 580b 213c 6992 90bc 31bb c2bc c09f 543c
00000390: b6ee e5ba 5591 6fbb c12a cc3b f6d0 243c
000003a0: 3ca0 493c 73eb 83bb f87a 013c db7a 093d
000003b0: c23e 803c 7014 893c 991b 843b 59b6 583c
000003c0: a1f2 643c fbe6 e43b 606b 9a3b 2168 a53c
000003d0: 43cd 973b 11aa abbc 281d cc3b 174a ab3c
000003e0: bdb0 e2bb 65b5 d73c b241 ddbb 3f82 e43b
000003f0: c051 35bc 6799 59b9 9fa2 1abc 88cc 593c

action_model._discrete_distribution.branches.0.bias f4 [2]
-0.0081956405 0.00819564
00000000: 0247 06bc 0147 063c

action_model._discrete_distribution.branches.1.weight f4 [2, 128]
0.0013911128 -0.0041245953 -0.017688094 -0.027811216 0.012128773 -0.0040961704 0.0066903797 0.010914092
-0.015135999 0.006528869 -0.004875999 0.02368503 -0.0026292277 -0.021429041 0.005351521 -0.014231734
0.008421648 -0.0069298064 0.004811598 -0.005643835 0.010628307 0.0056947717 -0.007182533 0.024379509
-0.014606706 0.0034190542 0.005200174 0.022335585 0.0067588524 0.0042921742 0.0027340234 -0.015270611
0.0007565392 0.0063030594 0.018940868 0.006748588 0.009868561 -0.0077096224 -0.003945562 -0.009196419
-0.009956602 0.018666502 -0.00537845 0.008754636 -0.007903377 0.03547247 0.021481842 -0.020720331
-0.015250951 0.023098795 -0.015029139 -0.0007917702 0.013057299 0.011767875 0.0143455025 0.012536962
-0.011987378 0.024112433 -0.005951994 0.013427282 0.010764553 0.009205905 0.005144065 -0.007539538
0.019359188 0.011016035 0.005592536 0.017646862 -0.01060242 -0.003662539 -0.0058021313 0.010186314
0.0038753701 -0.019878078 -0.00025909257 0.026992064 0.0047013937 0.010270895 0.0075751203 0.00061283604
0.008740707 -0.010812281 -0.026520528 0.002624929 -0.004791517 -0.016609931 9.949051e-05 0.0041492255
-0.011947343 -0.02083366 0.009878773 0.010139758 0.012688709 -0.00076390844 0.0063108103 0.008762913
-0.0011206573 0.009652988 -0.0070543457 0.015772983 0.0046251235 0.02804236 -0.016692467 -0.02782562
0.012649108 0.012240245 0.0075532454 0.005460738 0.00019164848 0.015696136 0.013695569 0.002955864
0.00012230118 0.0017355401 0.009673377 0.012426381 0.009787362 0.017336678 0.016507758 -0.021162083
0.017254338 0.0034040974 0.017141622 0.0043045236 -0.00211359 0.026834747 -0.013446991 0.017312894
-0.00532853 0.005319137 0.005502045 0.009708253 -0.030533575 0.018573528 -0.012591005 -0.011881106
-0.012651972 -0.009735805 0.009982767 -0.012519992 0.013482691 0.02337316 -0.005022084 0.006350812
-0.016766533 -0.00042495824 -0.00048350636 0.007140591 -0.0018557911 -0.012940858 0.008220996 -0.028326383
0.0043907473 0.001222976 0.012707584 0.005942661 0.02804432 0.0034516933 -0.008409713 0.00390083
0.008422444 -0.01017534 -0.008781084 0.008909488 -0.0037785727 0.014438304 0.010138256 0.004262617
-0.0024904904 -0.01298749 0.012398265 -0.02862316 0.00372821 -0.021235498 -0.004882242 0.016821165
0.012425458 0.002703113 0.0018713722 -0.009825001 -0.008203774 -0.032606997 -0.018345598 -0.010378814
0.02018135 -0.012104726 0.01157527 0.0069000735 -0.022974286 -0.0001839507 0.011375534 0.0027276345
-0.008414645 -0.018386846 -0.0049017915 0.007185926 0.012167724 -0.0055052345 0.017723335 0.0049023633
-0.001240283 0.0056457096 0.0083191935 -0.016911305 -0.015738117 0.012194918 -0.0040182103 -0.009900746
0.0053912713 0.010989713 0.012683064 0.001976769 0.027050966 0.003294804 -0.0065536564 -0.0045252456
-0.01609727 0.016527664 -0.002645971 0.0035538774 -0.0031868266 -0.008315497 0.0015802959 -0.011797709
0.010930796 -0.015408481 0.021088464 -0.0138907535 0.0017677078 -0.013849394 0.014199551 0.0029150897
-0.014615027 -0.015846869 0.01568131 -0.0015736884 -0.018363386 -0.025674827 -0.008347169 0.015732598
0.019123953 -0.00057302037 -0.020022206 -0.006301936 0.004008485 -0.00095670647 0.0010724823 0.0120361345
-0.0053158216 -0.019379517 -0.004355142 0.03319742 -0.009061054 -0.0024405671 0.0209026 -0.0084073115
00000000: 0056 b63a 9d27 87bb 9fe6 90bc 59d4 e3bc
00000010: c3b7 463c 2b39 86bb f93a db3b 05d1 323c
00000020: fbfc 77bc 1ff0 d53b d8c6 9fbb 1c07 c23c
00000030: 1f4f 2cbb f58b afbc d05b af3b 382c 69bc
00000040: f4fa 093c 6e13 e3bb 9caa 9d3b ebef b8bb
00000050: 5a22 2e3c 359b ba3b 745b ebbb 89b7 c73c
00000060: f750 6fbc 3612 603b 3966 aa3b 1ef9 b63c
00000070: 5d79 dd3b 5ea5 8c3b 4d2d 333b 9631 7abc
00000080: 7c52 463a e589 ce3b e129 9b3c 4223 dd3b
00000090: bfaf 213c 00a1 fcbb c649 81bb 94ac 16bc
000000a0: 0421 23bc 7eea 983c b53d b0bb 9b6f 0f3c
000000b0: 2a7d 01bc 954b 113d b0fa af3c afbd a9bc
000000c0: 20df 79bc af39 bd3c c73c 76bc cc8e 4fba
000000d0: 48ee 553c 0cce 403c 6609 6b3c d467 4d3c
000000e0: b566 44bc 7087 c53c f208 c3bb 1afe 5b3c
000000f0: cf5d 303c 5dd4 163c 8b8f a83b 3b0e f7bb
00000100: 2997 9e3c 9a7c 343c 9841 b73b 2790 903c
00000110: c6b5 2dbc 3507 70bb ce1f bebb 7fe4 263c
00000120: ecf9 7d3b 5ad7 a2bc d1d6 87b9 761e dd3c
00000130: 260e 9a3b 4247 283c b738 f83b bba6 203a
00000140: 2f35 0f3c fe25 31bc 9441 d9bc 0007 2c3b
00000150: 2802 9dbb 8d11 88bc 90a5 d038 3af6 873b
00000160: cabe 43bc 5aab aabc 94da 213c 3a21 263c
00000170: 4ee4 4f3c 0741 48ba eaca ce3b 5292 0f3c
00000180: 05e3 92ba 9127 1e3c 2428 e7bb 5836 813c
00000190: 598e 973b 17b9 e53c a4be 88bc 8ef2 e3bc
000001a0: 343e 4f3c 4f8b 483c 3781 f73b feef b23b
000001b0: 3ff5 4839 2f95 803c 6163 603c 2bb7 413b
000001c0: f93d 0039 107b e33a 157d 1e3c 0598 4b3c
000001d0: 2c5b 203c a605 8e3c 473b 873c 1b5c adbc
000001e0: f858 8d3c 4717 5f3b 966c 8c3c f60c 8d3b
000001f0: 2884 0abb 8bd4 db3c c550 5cbc c5d3 8d3c
00000200: f39a aebb 284c ae3b 804a b43b 5d0f 1f3c
00000210: 8c21 fabc 8327 983c 814a 4ebc f8a8 42bc
00000220: 374a 4fbc ed82 1fbc c28e 233c a720 4dbc
00000230: 81e6 5c3c 1279 bf3c 4b90 a4bb 791a d03b
00000240: f859 89bc eecc deb9 207f fdb9 9efb e93b
00000250: 043e f3ba e405 54bc 5bb1 063c bb0c e8bc
00000260: 42e0 8f3b 444c a03a 7833 503c a7ba c23b
00000270: 34bd e53c ce35 623b e5c8 09bc 11a5 7f3b
00000280: 4afe 093c 78b6 26bc 89de 0fbc 1af9 113c
00000290: eea1 77bb a38e 6c3c ed1a 263c 6cad 8b3b
000002a0: 7f37 23bb 7bc9 54bc 1822 4b3c 1e7b eabc
000002b0: fc54 743b 11f6 adbc 37fb 9fbb 8acc 893c
000002c0: 2694 4b3c b626 313b d548 f53a 0af9 20bc
000002d0: 1f69 06bc ea8e 05bd 8249 96bc e70b 2abc
000002e0: 5c53 a53c e752 46bc 34a6 3d3c 031a e23b
000002f0: 9234 bcbc e4e2 40b9 7360 3a3c 1dc2 323b
00000300: 94dd 09bc 03a0 96bc 359f a0bb eb77 eb3b
00000310: 225b 473c 4165 b4bb 8730 913c 01a4 a03b
00000320: fe90 a2ba a5ff b83b 3a4d 083c 9489 8abc
00000330: 39ed 80bc 31cd 473c 31ab 83bb bd36 22bc
00000340: 43a9 b03b 320e 343c a0cc 4f3c ae8c 013b
00000350: fd99 dd3c a3ed 573b 0ec0 d6bb 8348 94bb
00000360: 6cde 83bc 0665 873c 0768 2dbb 2be8 683b
00000370: 14da 50bb b93d 08bc ee21 cf3a 2e4b 41bc
00000380: 1517 333c da73 7cbc b7c1 ac3c 0b96 63bc
00000390: 6eb2 e73a 92e8 62bc 3ca5 683c 170b 3f3b
000003a0: de73 6fbc 4bd1 81bc 1776 803c 3844 ceba
000003b0: d06e 96bc 0454 d2bc 90c2 08bc a6e1 803c
000003c0: d6a9 9c3c bf36 16ba 9c05 a4bc 7980 cebb
000003d0: 9c59 833b 7ccb 7aba 8992 8c3a 3533 453c
000003e0: 5830 aebb cbc1 9ebc 94b5 8ebb 05fa 073d
000003f0: d174 14bc ecf1 1fbb ee3b ab3c d2be 09bc

action_model._discrete_distribution.branches.1.bias f4 [2]
0.0021280956 -0.002128099
00000000: 8577 0b3b 9477 0bbb

action_model._discrete_distribution.branches.2.weight f4 [2, 128]
0.009230833 0.020146783 0.008790679 0.0012615891 0.00011762581 -0.010057749 0.005994844 0.010942672
-0.017675882 0.0058066817 0.023599155 -0.005609619 0.002701687 -0.014743339 -0.005523807 0.000460217
0.008451638 0.004224249 -0.0008551696 0.007331807 0.015558859 0.0026101668 0.01788167 -0.004884606
0.016918326 -0.002360556 0.008567968 -0.019405888 0.01104736 0.011856552 0.009282161 0.011909253
-0.011198837 0.005752448 0.021127762 0.01669097 -0.016801637 -0.024153389 0.02218674 -0.00012617878
-0.0071078017 -0.006571422 -0.031342447 -0.0041501615 -0.016738094 0.010973527 0.035281815 -0.00075767416
0.018163947 -0.030007172 -0.0021296607 0.0065030963 0.0028453204 -0.00024002217 -0.0085061705 0.0019489472
0.0019243244 -0.00833486 0.0013976446 0.021234112 -0.0023921423 0.0044486728 0.0012501093 -0.010688216
0.010350021 0.0036723427 0.019248791 -0.020971188 -0.0076467865 0.023916367 -0.011306033 -0.01663232
0.008819393 -0.007574527 0.008526799 0.013863212 0.0011124855 0.0029386347 -0.0054755784 -0.0016833217
-0.0067867823 0.011420566 0.00075213006 -0.02954703 -0.019921279 0.0015170765 0.0134429755 -0.022484602
-0.0019103988 -0.0030760532 -0.010744087 0.0041507515 0.008311058 -0.005090396 -0.0003752307 0.01798592
0.004340285 0.0039436575 0.00429146 -0.0016996203 0.0067184772 0.0038544107 -0.0038461045 -0.0028785071
0.022930654 0.0071877055 0.000932329 -0.0074445847 -0.0015886571 0.029281493 0.0046773446 0.0063770423
-0.011622775 0.015822312 0.00017707108 0.00220571 0.003974653 0.0075257523 -0.010166392 0.0035998684
0.009783398 -0.0052624466 -0.009553747 -0.011031533 -0.00029551281 0.012940018 -0.0006187911 0.015583692
-0.0150475865 -0.044867396 -0.015301235 -0.01331511 0.015998503 -0.007797483 -0.017819881 -0.017912982
0.0076545593 -0.0010327323 0.009609814 -0.00347005 -0.014064667 -0.0062117903 0.0034056227 -0.022593556
-0.023697827 -0.011742957 -0.0022488588 -0.0019975922 -0.0037845634 -0.018407242 -0.021975223 -0.00031758664
-0.010299311 0.0041534905 -0.0113810375 0.029864646 -0.01542864 -0.0021733812 -0.011811559 0.0032436682
0.015343883 0.00052747194 0.0055193375 -0.004082291 -0.00068766426 0.012484408 -0.0055215606 -0.007926856
0.0032779067 0.0030127245 0.014063629 0.02104984 0.010988601 0.011473222 -0.0263783 0.003293983
-0.0005864429 0.01701533 0.00658473 -0.016178003 -0.008960473 0.0070234225 0.014850612 0.003131386
0.010974792 0.0064606965 0.015594179 -0.0087999925 -0.01860963 -0.0075952914 0.017865568 -0.006126959
-0.0143596325 0.005461078 -0.014709982 0.0151387295 0.017477386 -0.012036061 0.015124242 0.0075603453
-0.00857962 0.0058327015 -0.0018874558 0.0076024705 0.0066320836 -0.0048503596 0.006241592 0.0036666314
-0.0021275945 -0.011554238 0.006130605 0.027539704 0.009508834 -0.004265872 -0.008231648 0.026049512
-0.0037818032 0.024823263 0.0025060256 -0.010886642 -0.012718509 -0.0012185833 0.012606155 -0.03464009
0.003586545 0.0037872496 -0.025589705 0.005560203 -0.019730106 -0.004680134 -0.014723114 0.012508495
-0.018984657 -0.0005918486 0.019641591 0.023513611 -0.003983856 -0.0029923161 -0.013787169 -0.0071856105
0.020057557 -0.021473622 -0.0017242827 -0.005864613 0.00041191615 0.013285257 0.0066135647 -0.02410652
-0.002652595 -0.037722226 -0.025603734 0.0114400415 0.0063368916 -0.0024330278 0.0057025603 -0.005600363
00000000: eb3c 173c de0a a53c c806 103c e85b a53a
00000010: e0ad f638 42c9 24bc 6570 c43b e548 333c
00000020: 03cd 90bc fa45 be3b 0453 c13c e5d0 b7bb
00000030: c90e 313b 0c8e 71bc 0d01 b5bb 4849 f139
00000040: bd78 0a3c 926b 8a3b 762d 60ba a83f f03b
00000050: 96ea 7e3c 550f 2b3b 947c 923c 0c0f a0bb
00000060: 4d98 8a3c 8fb3 1abb aa60 0c3c 19f9 9ebc
00000070: fcff 343c fc41 423c 3414 183c 071f 433c
00000080: 547b 37bc 087f bc3b 2114 ad3c 80bb 883c
00000090: 96a3 89bc 54dd c5bc f7c0 b53c dc4e 04b9
000000a0: 90e8 e8bb 1555 d7bb f060 00bd 14fe 87bb
000000b0: 541e 89bc 4fca 333c aa83 103d a79e 46ba
000000c0: 8fcc 943c 9ad1 f5bc c791 0bbb ed17 d53b
000000d0: 8e78 3a3b 76ae 7bb9 775d 0bbc d173 ff3a
000000e0: 9d39 fc3a f08e 08bc 2c31 b73a 29f3 ad3c
000000f0: 7dc5 1cbb 2cc6 913b b5da a33a a11d 2fbc
00000100: 2293 293c b0ab 703b a4af 9d3c c5cb abbc
00000110: e591 fabb 42ec c33c f03c 39bc 8140 88bc
00000120: 377f 103c bd33 f8bb fdb3 0b3c 8722 633c
00000130: d2d0 913a 1c96 403b 7b6c b3bb e7a2 dcba
00000140: a863 debb 531d 3b3c 982a 453a 9d0c f2bc
00000150: f331 a3bc a4d8 c63a ed3f 5c3c a131 b8bc
00000160: 5966 faba 9c97 49bb f807 30bc 0703 883b
00000170: 1b2b 083c 56cd a6bb 9dba c4b9 3557 933c
00000180: f338 8e3b cc39 813b 609f 8c3b cbc5 deba
00000190: ac26 dc3b 489a 7c3b ed0e 7cbb 56a5 3cbb
000001a0: 11d9 bb3c d886 eb3b 8a67 743a b4f1 f3bb
000001b0: 7d3a d0ba bedf ef3c 6944 993b 82f6 d03b
000001c0: 746d 3ebc cb9d 813c 28ac 3939 ac8d 103b
000001d0: ce3d 823b 969a f63b f090 26bc c5eb 6b3b
000001e0: 8c4a 203c 9a70 acbb 5287 1cbc 9abd 34bc
000001f0: 0fef 9ab9 5f02 543c 5e36 22ba be52 7f3c
00000200: 278a 76bc e0c6 37bd 08b2 7abc 9e27 5abc
00000210: 4b0f 833c 0782 ffbb 00fb 91bc 3fbe 92bc
00000220: 19d3 fa3b bf5c 87ba 7b72 1d3c c769 63bb
00000230: 7d6f 66bc 468c cbbb de30 5f3b 1f16 b9bc
00000240: f221 c2bc 8865 40bc 9761 13bb 09ea 02bb
00000250: 7006 78bb c9ca 96bc 6205 b4bc c281 a6b9
00000260: 71be 28bc 011a 883b 8877 3abc b4a6 f43c
00000270: 68c8 7cbc 496f 0ebb 4585 41bc b993 543b
00000280: e964 7b3c 0b46 0a3a 8fdb b43b bdc4 85bb
00000290: 5e44 34ba 678b 4c3c 35ee b4bb a5df 01bc
000002a0: 26d2 563b 2171 453b 236b 663c b770 ac3c
000002b0: 8809 343c 2efa 3b3c 4e17 d8bc dddf 573b
000002c0: 84bb 19ba bc63 8b3c b8c4 d73b bb87 84bc
000002d0: f3ce 12bc bd24 e63b fb4f 733c f037 4d3b
000002e0: 9dcf 333c 40b4 d33b ba7e 7f3c d82d 10bc
000002f0: 3973 98bc ece1 f8bb d05a 923c a8c4 c8bb
00000300: aa44 6bbc d8f2 b23b 2302 71bc 6f08 783c
00000310: bc2c 8f3c e632 45bc abcb 773c c6bc f73b
00000320: 8991 0cbc 3f20 bf3b 8264 f7ba 251e f93b
00000330: f351 d93b c4ef 9ebb 4586 cc3b de4b 703b
00000340: 1d6f 0bbb fd4d 3dbc 3ee3 c83b f29a e13c
00000350: f1ca 1b3c bac8 8bbb 09de 06bc c965 d53c
00000360: 21d8 77bb 285a cb3c 223c 243b e35d 32bc
00000370: 4b61 50bc dfb8 9fba 0c8a 4e3c c4e2 0dbd
00000380: 3d0c 6b3b 8133 783b 80a1 d1bc 5d32 b63b
00000390: 08a1 a1bc cf5b 99bb 3739 71bc 6ef0 4c3c
000003a0: b685 9bbc 4a26 1bba 67e7 a03c 9e9f c03c
000003b0: 028b 82bb bc1a 44bb 94e3 61bc 4575 ebbb
000003c0: bf4f a43c 73e9 afbc 5401 e2ba f12b c0bb
000003d0: 73f6 d739 68aa 593c 9ab6 d83b 097b c5bc
000003e0: 29d7 2dbb 9f82 1abd ecbe d1bc 036f 3b3c
000003f0: b3a5 cf3b 6f73 1fbb 8bdc ba3b 4083 b7bb

action_model._discrete_distribution.branches.2.bias f4 [2]
0.011221682 -0.011221682
00000000: 25db 373c 25db 37bc

action_model._discrete_distribution.branches.3.weight f4 [2, 128]
0.01164993 -0.0044033066 -0.017365802 -0.013363893 -0.007584338 -0.007950319 -0.00806273 -0.027853211
0.013338968 0.029108256 -0.020206913 0.0045260787 -0.01375153 0.0066225035 0.010042205 0.001042932
-0.0069819363 0.020685658 -0.019713657 -0.012026056 -0.0016991768 -0.015632726 -0.007981996 -0.0019658906
-0.004651438 0.0051444806 0.0007203977 0.0071221525 0.0044167223 -0.01094261 -0.03452627 -0.033387817
0.030099958 0.008202466 0.025549104 -0.017888539 0.015922107 0.0034696073 -0.028088072 0.0030257038
-0.009949798 0.0013477972 0.009961376 0.009956398 0.012609948 0.017471053 0.001182303 0.0092382105
-0.010879803 0.022149956 0.019740045 0.009664246 -0.017079093 0.01090646 -0.005699937 0.0057342597
-0.027608464 0.018213522 -0.005635415 0.001864753 -8.865434e-05 0.009304618 0.017172331 0.021124251
-0.02099042 0.011167851 -0.005019885 0.0047078263 -0.001969288 -0.005516127 0.011921039 0.015155072
-0.0070833666 -0.0008278758 -0.0082330145 -0.024526877 0.02229421 -0.0027848051 0.016226484 0.011052931
-0.004755908 -0.011075418 -0.01269106 -0.0114436485 0.0125048105 0.0030571425 -0.017901286 0.008004516
-0.0043603885 -0.00048274503 0.037489768 -0.01608982 -0.00045165556 -0.00838758 -0.014206317 0.012009038
-0.028819708 0.020776015 -0.01623195 0.008369314 -0.0063756313 -0.008038782 -0.021709478 -0.014209127
0.015695699 0.017162817 0.0026744497 -0.00023353037 0.00089557143 -0.005156837 0.0014946642 -0.02008541
-0.0020629424 -0.024615346 0.017229764 0.01962548 -0.019950833 -0.008831931 -0.014380942 -0.019216968
-0.021708025 -0.02409031 0.020827293 0.017346704 0.021770122 0.022768218 -0.027181888 0.0055154213
-0.0013446185 0.004181789 0.011059693 0.008801151 0.002201089 0.008159131 -0.0006454188 0.0009648798
-0.023468887 -0.011838331 -0.005995899 0.0030586333 0.014900798 -0.004398912 -0.022576634 0.0040610367
0.01265359 -0.0125018 0.011451239 0.018310834 -0.009364724 0.0105153965 0.017150182 -0.019883366
-0.0065410496 0.0013772342 0.00079058576 -0.011076769 0.010055122 0.020692661 -0.0050974176 0.031341054
-0.01206522 -0.01212115 -0.018778231 0.006032898 -0.0073593766 -0.001738004 0.015906122 0.0006561461
0.008936567 -0.00013338833 -0.027562335 -0.00838927 -0.014518433 -0.008816703 -0.007638064 -0.027707364
0.01126476 -0.010257942 0.011362905 -0.02312303 -0.0011522436 -0.000740153 0.0012425439 -0.0019248876
0.0071741897 -0.0013947063 0.013389034 -0.014678638 -0.006797625 0.016177516 -0.015347204 -0.023142898
0.004666186 -0.024281003 0.030695563 -0.008584726 0.01982877 0.01344015 -0.0073265824 -0.0303015
0.0037204341 0.0013722366 0.005746722 0.007207417 -0.0042855106 0.017456105 -0.02266618 -0.015974905
-0.00035129068 0.001371356 0.001877676 0.0010451706 -0.012384746 -0.02182094 0.011248533 0.009966716
-0.0004084329 -0.0042351056 -0.020083746 0.008756186 0.017344283 0.0050510205 0.002153034 -0.009262376
0.0125744715 -0.013622609 0.019883895 -0.013797373 0.008960188 0.018504811 0.0010816628 0.007970866
-0.016539905 -0.014783598 -0.023237824 -0.018535627 -0.015729032 0.007964429 0.0039050195 0.02097875
0.013847952 0.0019312807 -0.013778848 -0.027208166 0.013208187 0.006834417 0.0034362206 -0.0038149592
0.012318931 0.022728482 -0.0016195328 -0.0048286826 -0.014950717 -0.01920456 0.0065871645 -0.015291713
00000000: 59df 3e3c 9d49 90bb ba42 8ebc 3bf4 5abc
00000010: 0a86 f8bb 0e42 02bc 8a19 04bc 6b2c e4bc
00000020: b08b 5a3c 7074 ee3c f888 a5bc 804f 943b
00000030: 194e 61bc 9601 d93b 1088 243c feb2 883a
00000040: bac8 e4bb f874 a93c 897e a1bc ef08 45bc
00000050: eab6 deba 3410 80bc ebc6 02bc 2cd6 00bb
00000060: 176b 98bb 0893 a83b 12d9 3c3a f260 e93b
00000070: 27ba 903b a248 33bc 6b6b 0dbd aac1 08bd
00000080: 3094 f63c a363 063c 5b4c d13c fc8a 92bc
00000090: 146f 823c 5a62 633b f518 e6bc e34a 463b
000000a0: 7a04 23bc 92a8 b03a 0a35 233c 2920 233c
000000b0: f599 4e3c 741f 8f3c 81f7 9a3a dd5b 173c
000000c0: 3441 32bc d373 b53c e0b5 a13c c956 1e3c
000000d0: 74e9 8bbc 02b1 323c 8ac6 babb 75e6 bb3b
000000e0: 252b e2bc 8634 953c 4aa9 b8bb ba6a f43a
000000f0: f0eb b9b8 6672 183c fdac 8c3c c40c ad3c
00000100: 1af4 abbc 5df9 363c d97d a4bb 1c44 9a3b
00000110: 2c0f 01bb a1c0 b4bb 7650 433c fb4c 783c
00000120: 961b e8bb ce05 59ba c4e3 06bc 97ec c8bc
00000130: 59a2 b63c 4781 36bb 67ed 843c 5a17 353c
00000140: 73d7 9bbb ac75 35bc 2aee 4fbc 247e 3bbc
00000150: fae0 4c3c 575a 483b b8a5 92bc 6025 033c
00000160: 97e1 8ebb f118 fdb9 df8e 193d ccce 83bc
00000170: 2fcc ecb9 0f6c 09bc 9dc1 68bc 8ec1 443c
00000180: 4f17 ecbc 7632 aa3c def8 84bc 721f 093c
00000190: acea d0bb 18b5 03bc 13d8 b1bc 66cd 68bc
000001a0: 4494 803c 0999 8c3c d245 2f3b d5df 74b9
000001b0: c8c4 6a3a affa a8bb 9ce8 c33a 288a a4bc
000001c0: 6e32 07bb 1fa6 c9bc 6f25 8d3c 9dc5 a03c
000001d0: ee6f a3bc ceb3 10bc 0b9e 6bbc e76c 9dbc
000001e0: 07d5 b1bc 0b59 c5bc 009e aa3c ad1a 8e3c
000001f0: 4157 b23c 6a84 ba3c 8dac debc b5ba b43b
00000200: e93d b0ba 6307 893b b733 353c b432 103c
00000210: 2540 103b e0ad 053c 5331 29ba fdef 7c3a
00000220: d341 c0bc 8ff5 41bc 3f79 c4bb 5a73 483b
00000230: 7a22 743c c024 90bb a2f2 b8bc 7212 853b
00000240: 0151 4f3c 5ad4 4cbc fa9d 3b3c 9a00 963c
00000250: 806e 19bc c548 2c3c 8a7e 8c3c 71e2 a2bc
00000260: 4d56 d6bb 5084 b43a 503f 4f3a 567b 35bc
00000270: 3dbe 243c a883 a93c 3d08 a7bb 7a5f 003d
00000280: 33ad 45bc ca97 46bc ced4 99bc 9eaf c53b
00000290: ed26 f1bb bdcd e3ba 8e4d 823c 3801 2c3a
000002a0: ae6a 123c 28de 0bb9 68ca e1bc 2673 09bc
000002b0: b9de 6dbc ef73 10bc ba48 fabb 8efa e2bc
000002c0: d48f 383c ed10 28bc 7a2b 3a3c 826c bdbc
000002d0: e106 97ba d406 42ba dbdc a23a 834c fcba
000002e0: 7715 eb3b 94ce b6ba ae5d 5b3c ac7e 70bc
000002f0: 9dbe debb b686 843c d772 7bbc 2d96 bdbc
00000300: cee6 983b f4e8 c6bc 4375 fb3c f3a6 0cbc
00000310: f26f a23c 1334 5c3c d413 f0bb da3a f8bc
00000320: 87d2 733b 9fdc b33a 004f bc3b 322c ec3b
00000330: 786d 8cbb 1b00 8f3c 6dae b9bc cedd 82bc
00000340: 702d b8b9 12bf b33a 5a1c f63a 1bfe 883a
00000350: 64e9 4abc d4c1 b2bc c44b 383c 704b 233c
00000360: f022 d6b9 a4c6 8abb ab86 a4bc 1b76 0f3c
00000370: 9915 8e3c 0883 a53b eb19 0d3b 39c1 17bc
00000380: 2805 4e3c 5d31 5fbc 8de3 a23c 600e 62bc
00000390: c1cd 123c 6797 973c 95c6 8d3a 3c98 023c
000003a0: b27e 87bc e736 72bc 405d bebc 07d8 97bc
000003b0: 2cda 80bc 3d7d 023c 5beb 7f3b a1db ab3c
000003c0: 85e2 623c 0723 fd3a adc0 61bc a9e3 debc
000003d0: 2767 583c 3ff3 df3b 3732 613b 6504 7abb
000003e0: 57d5 493c 1531 ba3c 8146 d4ba ed39 9ebb
000003f0: daf3 74bc e252 9dbc 24d9 d73b 188a 7abc

action_model._discrete_distribution.branches.3.bias f4 [2]
-0.007204154 0.0072041517
00000000: d310 ecbb ce10 ec3b
