results/09/SmartAgent/SmartAgent-500.onnx (onnx, 77162 bytes, 13 tensors)

discrete_action_output_shape f4 [1, 4]
00000000: 0000 0040 0000 0040 0000 0040 0000 0040
2.0 2.0 2.0 2.0

network_body._body_endoder.seq_layers.0.weight f4 [128, 4]
00000000: c724 4c3e b3aa 6f3e b322 ea3e caaf e4bd
00000010: f17f 91bf 2f9f efbe 85a4 5bbe ca9d 0fbf
00000020: ca9a d03e 2488 243d db24 a43e 6f79 bcbe
00000030: 0a78 30bc 2b5a 5c3f 0638 a63f a3bd 02be
00000040: 4533 93be c64f a9be da4a 21be 32b0 0c3f
00000050: 5718 c8be 64d5 cebd deff e9be 83bb d8bd
00000060: 236e 54bf 1167 ba3d 9dac 063e e480 25bf
00000070: 873c 783f eb40 22be fbb5 c63e 9128 073f
00000080: fea8 203f 9a77 9c3e c439 88bd eac8 02bf
00000090: ec81 dfbe 5db3 173f 7db1 d43c 5fca bdbe
000000a0: 96a3 083f 5772 afbd 573b cebe 1926 ae3e
000000b0: 2828 a43e fc3a 9e3e 03dd 57be 3dc9 21bf
000000c0: 4288 aabd 37e4 5dbd 21ff b63c 6dfb e73e
000000d0: c1ed 4c3f f537 15be e237 0dbf 0454 1dbe
000000e0: 4217 2c3f 5cda a93e f3d2 c03d 432b eabe
000000f0: 2c4c d73e c1a9 16be 1dac 0dbf fe93 31be
00000100: ed13 6b3e cde8 a03e 34a4 1cbf c814 d93e
00000110: 630b 493f 3961 28bf 2dfc 453e ef85 1abf
00000120: f977 39be 384b 0b3f b8f3 34bf 3419 db3c
00000130: bdb1 f03c 39b5 4f3f 8229 2d3f bee4 6b3d
00000140: eb42 a6be 3ca5 b3be 8ce1 5c3f 5a23 633d
00000150: fc5d 043f 09e5 043f bd4b cc3e abb9 133f
00000160: e574 e1be c13f 71be db1b 113d 93f3 3cbe
00000170: 19a6 13bf 2af3 1abf 2c78 42bf 33ea b73e
00000180: 4229 c23e 64e5 abbe af77 1a3f c27f e33e
00000190: 794d 523e 7c2d 2d3e 8875 aa3e 1508 d5be
000001a0: 892d e03d 52ba d53e 3f9f 293e 792a 81be
000001b0: e6bc 51be e6d6 8b3d 876e 853e 3f86 9d3e
000001c0: 8d01 2cbf c319 803e 7308 433f 283b 603f
000001d0: 47db 28bd d98a 883f 48c1 8abe 2917 a5be
000001e0: 65d9 333f e4db 2bbe bdcc 47bf a4d7 16bf
000001f0: 230f 333f 003b 2b3e 4dec 61bd 666e f23e
00000200: ebc6 ee3e 7eae 5dbe ab05 d93d 00dc 41bf
00000210: 8f3c 6bbe 5e89 5d3d 45e8 153f ceb2 0a3e
00000220: b9c1 b73e 5788 afbe d4b3 2d3f 6d59 35be
00000230: 2834 57bf 3b92 30be 527c 19bf fee5 fbbe
00000240: f4aa 493e d6f1 003c 845d 7dbe fd45 7a3e
00000250: c3d6 503e 816d 96be aee5 833f 7151 f33e
00000260: 761e cabe 0093 0f3f 2a1d 2ebe 455a 093e
00000270: ea76 29be 1d14 aa3e 742d 583e 5835 923e
00000280: 26eb b0bd 71bd 793e 3ce1 5bbf 1ed9 3a3e
00000290: 196e a7bc 06fa 07bf a746 993e 0c63 c7be
000002a0: 9d4c c23e 5a63 c7be 781f 07bf 7ab1 3f3e
000002b0: e943 62be d758 3cbe 4d5f dfbd 45cd 9d3e
000002c0: 18a0 1d3d d3ad c63e e6dc 883e 50a9 c33e
000002d0: b4f0 003f 1169 233f eefa bcbc 1d65 9a3e
000002e0: ccac 17bf 7004 55bf 8430 0f3e a4d8 3fbf
000002f0: 3b7d 903e a523 58be 0c45 8dbd efc9 173d
00000300: e848 a53e 7f1a 923f 1ae6 bd3e b479 ac3e
00000310: bd23 863d a88f cebe cdea 703f 0503 4abf
00000320: c9c8 dbbe fbed 92be 7f77 0ebf f67f fabe
00000330: 27d1 0e3f e43e c5bd b175 0d3c bc94 c3bd
00000340: e592 863e 7703 363e c5c4 653c e32f 8bbe
00000350: c272 07be 4bce a33e c75d c9be 727b cfbe
00000360: 65f9 6d3e 0866 14bf f7e4 a73e a50d 49be
00000370: 78de c23e 70b8 293f fd56 913d aba7 283e
00000380: 7365 86bf 3294 10bf 7ed7 07bf a211 923e
00000390: 05c5 663f 1d91 70bf 9260 113f 39c3 c7be
000003a0: 1627 9bbe 4242 06bf 3350 e5be 39d6 81bf
000003b0: eba1 cbbe b290 d1be d7f9 053f 3f7a 81be
000003c0: 0218 ea3d 5fea ccbd 7f90 6cbf 0410 333e
000003d0: a4fc 563f fecc a23e 21be 1fbe 02e0 ea3d
000003e0: 1698 77be 027a 083d 9f75 2b3e 7f59 e6be
000003f0: c3e7 c0be 9ba1 4dbe e153 683d fd98 743f
0.19935904 0.2340496 0.45729598 -0.111663416 -1.136717 -0.46801135 -0.21449478 -0.5610014
0.40743095 0.040168896 0.32059368 -0.36811396 -0.010770807 0.86075085 1.2985847 -0.12767653
-0.28750053 -0.33068675 -0.1575121 0.5495635 -0.3908107 -0.10099295 -0.45703024 -0.1058264
-0.82980555 0.091016896 0.13151784 -0.64649796 0.9696736 -0.15845077 0.38810715 0.52796274
0.6275786 0.3056 -0.06651643 -0.5108782 -0.4365381 0.5925806 0.02596354 -0.3706846
0.5337461 -0.085667305 -0.40279648 0.3401344 0.32061887 0.30904377 -0.21080403 -0.6319769
-0.0832677 -0.05417272 0.022338452 0.4530901 0.80050284 -0.14572127 -0.55163395 -0.1536408
0.6722299 0.33174407 0.09415235 -0.4573613 0.42050302 -0.14713193 -0.5534075 -0.17341611
0.2295682 0.31427613 -0.61188054 0.42398667 0.78533 -0.6577335 0.19334479 -0.60360616
-0.18112172 0.5441165 -0.70684385 0.026745416 0.029381627 0.811359 0.6764146 0.057591192
-0.3247293 -0.35087 0.8628166 0.055453636 0.5170591 0.5191198 0.39901534 0.5770518
-0.44034496 -0.23559476 0.035426956 -0.18452291 -0.5767532 -0.6052729 -0.7596462 0.35920867
0.37922102 -0.3357345 0.6033887 0.4443341 0.20537366 0.16911882 0.33292794 -0.4160773
0.10946185 0.41743714 0.16564654 -0.25227717 -0.20482215 0.06828098 0.26060888 0.30766484
-0.67189866 0.25019655 0.7618477 0.87590265 -0.041224744 1.0667373 -0.27100587 -0.32244232
0.7025359 -0.167831 -0.7804678 -0.5892279 0.6994497 0.16721725 -0.055156995 0.47349852
0.46636137 -0.21648595 0.10596784 -0.7572632 -0.2297232 0.05408608 0.5855754 0.13544771
0.35889986 -0.34283707 0.6785252 -0.17709894 -0.8406396 -0.17243282 -0.5995532 -0.49198908
0.1969412 0.007870158 -0.24742705 0.24440761 0.20394425 -0.2938042 1.0304468 0.47523072
-0.39476365 0.5608368 -0.17003313 0.13413341 -0.16549268 0.3321847 0.21111089 0.28556323
-0.08638601 0.24388672 -0.85890555 0.18246886 -0.02043824 -0.5311588 0.29936716 -0.38942754
0.37949076 -0.38942987 -0.5278239 0.18720046 -0.22096218 -0.18393265 -0.10906849 0.3082067
0.038482755 0.38804492 0.26731032 0.38215113 0.50367284 0.63832194 -0.023068871 0.30155268
-0.5924804 -0.83209896 0.13983351 -0.7493994 0.28220543 -0.21107347 -0.06897935 0.037057813
0.32282186 1.1414336 0.37089616 0.33686602 0.06549785 -0.40343976 0.9410828 -0.7891086
-0.42926624 -0.2869719 -0.55651087 -0.4892575 0.5578789 -0.09631136 0.008634017 -0.09549853
0.26283947 0.17774759 0.014023964 -0.27184972 -0.1322737 0.31993327 -0.3932936 -0.4052387
0.23239668 -0.5796819 0.32791874 -0.19634111 0.38060355 0.66297054 0.0709667 0.1647021
-1.049971 -0.5647613 -0.5306319 0.28529078 0.9014438 -0.93971425 0.5678798 -0.3901613
-0.30303258 -0.5244485 -0.4478775 -1.01435 -0.3977197 -0.40930706 0.5233435 -0.2528858
0.114303604 -0.1000564 -0.92407984 0.17486578 0.8397925 0.31797022 -0.15599872 0.11468507
-0.2417911 0.03331948 0.16744088 -0.44990155 -0.3767682 -0.20081179 0.05672062 0.9554594

network_body._body_endoder.seq_layers.0.bias f4 [128]
00000000: 0000 0000 0000 0000 0000 0000 0000 0000
00000010: 0000 0000 0000 0000 0000 0000 0000 0000
00000020: 0000 0000 0000 0000 0000 0000 0000 0000
00000030: 0000 0000 0000 0000 0000 0000 0000 0000
00000040: 0000 0000 0000 0000 0000 0000 0000 0000
00000050: 0000 0000 0000 0000 0000 0000 0000 0000
00000060: 0000 0000 0000 0000 0000 0000 0000 0000
00000070: 0000 0000 0000 0000 0000 0000 0000 0000
00000080: 0000 0000 0000 0000 0000 0000 0000 0000
00000090: 0000 0000 0000 0000 0000 0000 0000 0000
000000a0: 0000 0000 0000 0000 0000 0000 0000 0000
000000b0: 0000 0000 0000 0000 0000 0000 0000 0000
000000c0: 0000 0000 0000 0000 0000 0000 0000 0000
000000d0: 0000 0000 0000 0000 0000 0000 0000 0000
000000e0: 0000 0000 0000 0000 0000 0000 0000 0000
000000f0: 0000 0000 0000 0000 0000 0000 0000 0000
00000100: 0000 0000 0000 0000 0000 0000 0000 0000
00000110: 0000 0000 0000 0000 0000 0000 0000 0000
00000120: 0000 0000 0000 0000 0000 0000 0000 0000
00000130: 0000 0000 0000 0000 0000 0000 0000 0000
00000140: 0000 0000 0000 0000 0000 0000 0000 0000
00000150: 0000 0000 0000 0000 0000 0000 0000 0000
00000160: 0000 0000 0000 0000 0000 0000 0000 0000
00000170: 0000 0000 0000 0000 0000 0000 0000 0000
00000180: 0000 0000 0000 0000 0000 0000 0000 0000
00000190: 0000 0000 0000 0000 0000 0000 0000 0000
000001a0: 0000 0000 0000 0000 0000 0000 0000 0000
000001b0: 0000 0000 0000 0000 0000 0000 0000 0000
000001c0: 0000 0000 0000 0000 0000 0000 0000 0000
000001d0: 0000 0000 0000 0000 0000 0000 0000 0000
000001e0: 0000 0000 0000 0000 0000 0000 0000 0000
000001f0: 0000 0000 0000 0000 0000 0000 0000 0000
0.0 0.0 0.0 0.0 0.0 0.0 0.0 0.0
0.0 0.0 0.0 0.0 0.0 0.0 0.0 0.0
0.0 0.0 0.0 0.0 0.0 0.0 0.0 0.0
0.0 0.0 0.0 0.0 0.0 0.0 0.0 0.0
0.0 0.0 0.0 0.0 0.0 0.0 0.0 0.0
0.0 0.0 0.0 0.0 0.0 0.0 0.0 0.0
0.0 0.0 0.0 0.0 0.0 0.0 0.0 0.0
0.0 0.0 0.0 0.0 0.0 0.0 0.0 0.0
0.0 0.0 0.0 0.0 0.0 0.0 0.0 0.0
0.0 0.0 0.0 0.0 0.0 0.0 0.0 0.0
0.0 0.0 0.0 0.0 0.0 0.0 0.0 0.0
0.0 0.0 0.0 0.0 0.0 0.0 0.0 0.0
0.0 0.0 0.0 0.0 0.0 0.0 0.0 0.0
0.0 0.0 0.0 0.0 0.0 0.0 0.0 0.0
0.0 0.0 0.0 0.0 0.0 0.0 0.0 0.0
0.0 0.0 0.0 0.0 0.0 0.0 0.0 0.0

network_body._body_endoder.seq_layers.2.weight f4 [128, 128]
00000000: c879 a1bc 2db6 39bd 8fe4 edbd b5f8 443c
00000010: ca97 c03c 94de 003d ce7f ab3d ed48 bb3c
00000020: 637f 913d 2b23 48bd af13 f0bd df26 c1bd
00000030: 6f58 7ebc d708 af3c 8aba 35be 0fff 8cbd
00000040: ed67 463d 6a4c 94bd eee6 c13a 13b2 913c
00000050: 78e6 6bbd 4b85 3f3d 0b69 16be 76db 74bb
00000060: bee4 9fbd 1698 2639 e002 023e 98ce 40bc
00000070: 70bd b8bd ad82 a8bc 0adf 893c 2454 c9bd
00000080: 24c3 613e 579c 553d 9ccc 673d 731f 9abd
00000090: 790d dbbb 95c1 5d3d 4291 fa3d 9e00 fd3d
000000a0: 629d 00be afe8 fb3d bc0e 8c3d f59d d13d
000000b0: 2782 29be b0a0 58bd 6a18 913c a46b 32bd
000000c0: b43b ae3d afa6 bd3d bb8f c8bd 92ab 023e
000000d0: dfc4 98bc 47b9 6cbb e3d0 12bd 056a e6bd
000000e0: 62be 5f3c f37e 4d3e 15e9 033e 37d7 c63d
000000f0: d17d f53d 1d1e 1f3e 6496 01bd d757 9cbd
00000100: 5f3e 933d 30d4 96bc 0787 b2bd c769 703d
00000110: 2a7d 67bd 70a9 e33c 4b05 d03c 7a35 8c3d
00000120: 8d56 edbc bfdb f33a 7864 4e3d 3ef4 d23d
00000130: edb8 903d 8896 96bd 27fa d2bc e31d a23d
00000140: 1897 343e 2570 ebbd e282 edbc f56c 113d
00000150: c210 90bc 95c8 623c c733 f23c e4f9 393d
00000160: 76e1 273d fb7c f03d 1d45 eebd 128a 17be
00000170: 9be9 8f3d a885 a0bd 1df4 09bd 93aa 3f3d
00000180: 61e4 383b ce02 b0bc e151 e83c 109c 06bd
00000190: cae3 cf3d 53b1 e83d e889 e03d d0b9 6bbd
000001a0: 7e5a 8ebd cf25 07be fe24 b7bd a445 423d
000001b0: 6c85 22bb e12c 9bbc 150d babc 7a6c 08be
000001c0: d4d3 e5bd 74d9 df3d 81bb f13d 544b ce3d
000001d0: 0076 bebd 1a85 1d3c 0ad9 bbbd 6064 dabb
000001e0: f599 c23d 8c02 f63c d809 19be a50a 2dbb
000001f0: 44cb e53d f46c 4abd 1468 033e e44a 343d
00000200: f217 54bd e25d 133e 6e56 62bb a60d 34bd
00000210: 7fc6 aabc 825c 083e b831 0fbd 5e79 993d
00000220: 6bfd a83d c4ec 20bd 5e2e 8e3d 4c70 eebd
00000230: 2535 ab3d fd29 81bd d1c4 1f3d 6f7b 993d
00000240: 3b2d 8b3d 65ed de3d 6bf2 8d3d ea57 753c
00000250: c938 d03b 5161 66bc 3f6a 723d d33f d6bd
00000260: 85ef 37bd 042b e63d 6723 303e 93a4 21be
00000270: 0c5f adbd 349f a5bb 23b9 90bc 8c90 263a
00000280: e576 043d d911 55bd c57e feba e370 b43c
00000290: c6ce 923d c531 543e fd33 1ebe be84 80bd
000002a0: 474a d63d f53c 203d 5f41 413c 4f0d d23d
000002b0: ccc5 36be f32a 27be 554a 90bd a3f1 b9bd
000002c0: d85d 123e 2ebb cdba c7b3 66ba 5310 2dbd
000002d0: b292 8f3d 5a2b edb9 cd6f 02be 64be 823c
000002e0: 2bed c63d 75ca 02bc 3a9c 0dbd 63af d63d
000002f0: 3ea3 8fbc 64c1 1bbe aea4 693d 8af6 74bb
00000300: 63e2 263e 0f04 97bd 1584 953c c8d9 d5bc
00000310: 8654 97bd 0b1d 23be b3b4 31be e843 f6bb
00000320: 0b3f e5bd b6cf 183e 81a5 b2bd b089 0a3d
00000330: 0f54 3ebd a28b 4bbd 6fd6 413e 9189 5e3d
00000340: 749d 34be d7c6 f1bc 8a5f a8bc daa5 eabd
00000350: 8f05 bb3d ee55 a5bd bc3f 01be 3a86 543c
00000360: 90ec 45bc 3906 3ebc 34a9 29be 9232 25bd
00000370: 7de6 9ebd 2951 933d 8219 d2bc c98d efbc
00000380: 0209 3d3c 6481 61bd 55e4 d73d 8552 c7bd
00000390: 9291 26bd e564 c7bd 4a18 0f3e 7f0b e5bd
000003a0: 3c43 573e eda2 083d 2f37 833e 73e8 7fbd
000003b0: eebf 50bc 3f56 4a3c 253e 00be dc0c 9f3d
000003c0: 00b8 40bc 8c32 e4bd cd4b dabd 6144 9dbc
000003d0: 800f c8bb 5a80 5d3b 08b7 de3d 740e 443d
000003e0: b8bf 393e 2b86 a9bd 8d63 683a c7a3 aebd
000003f0: 046e 4c3e 98ce 553d 4409 e8bd f6ff 98bc
-0.01971139 -0.045339752 -0.1161586 0.012022187 0.023509879 0.031462267 0.08373986 0.022861922
0.07104375 -0.048861664 -0.11722504 -0.09431242 -0.015524014 0.02136652 -0.1774694 -0.06884586
0.048438955 -0.07241137 0.0014793554 0.017785108 -0.05759284 0.046757977 -0.14688508 -0.0037362254
-0.07807301 0.0001588765 0.12696409 -0.011768006 -0.09020507 -0.020570124 0.016829986 -0.09830502
0.22047096 0.05215105 0.056591615 -0.0752553 -0.0066849557 0.054139692 0.12234737 0.12353633
-0.12560037 0.1230024 0.06838748 0.10235206 -0.16553555 -0.05288762 0.017711837 -0.043559685
0.08507481 0.09260308 -0.097930394 0.12760761 -0.018648563 -0.0036121176 -0.03584374 -0.1125069
0.013656231 0.20067959 0.12881882 0.09709018 0.11986888 0.15538831 -0.031637564 -0.076339416
0.07189631 -0.018411726 -0.08717161 0.058694627 -0.05651585 0.027790755 0.025393149 0.06846137
-0.028971935 0.0018604918 0.050388783 0.10300492 0.07066522 -0.0735293 -0.025754048 0.07915857
0.17635763 -0.11495999 -0.028993074 0.0355043 -0.017586116 0.013841768 0.029565705 0.04540433
0.0409865 0.11742588 -0.11634276 -0.14798763 0.070269786 -0.07837993 -0.03368007 0.04679353
0.0028212296 -0.021485712 0.028359355 -0.032863677 0.10150869 0.11361947 0.109638035 -0.05755025
-0.06950854 -0.13198017 -0.089426026 0.047429696 -0.0024798764 -0.018942298 -0.022711316 -0.1332263
-0.11222044 0.10930148 0.11803342 0.100729614 -0.092998505 0.009614253 -0.09172256 -0.0066647977
0.09502021 0.030030511 -0.14945161 -0.002640405 0.112204105 -0.049420312 0.12832671 0.044016734
-0.05178065 0.14391282 -0.003453638 -0.04395833 -0.020846603 0.13316539 -0.034959525 0.07493852
0.08251461 -0.039288297 0.069424376 -0.11642513 0.08359746 -0.06306837 0.039006058 0.07494246
0.067957364 0.10885123 0.06931003 0.014974574 0.0063544256 -0.014061288 0.059183355 -0.10461392
-0.044906158 0.11238673 0.17201005 -0.15785436 -0.084653944 -0.005054379 -0.017666405 0.00063539366
0.03233995 -0.052018974 -0.0019416442 0.022026485 0.07168345 0.2072211 -0.1544952 -0.062753186
0.10463386 0.039120633 0.011795371 0.10256445 -0.17848891 -0.16324978 -0.07045428 -0.09079292
0.14293611 -0.0015696043 -0.00088005926 -0.042251896 0.07010402 -0.00045236462 -0.12737961 0.015959926
0.09713205 -0.00798284 -0.034572817 0.10482671 -0.017533895 -0.15210491 0.057041816 -0.0037378394
0.16297297 -0.07373821 0.018251458 -0.026104823 -0.073891684 -0.15929048 -0.17354088 -0.0075154193
-0.11193665 0.14922985 -0.087229736 0.033822715 -0.046466883 -0.04969371 0.18929456 0.054330412
-0.17638189 -0.02951376 -0.02055337 -0.11457415 0.091319196 -0.080730304 -0.12621969 0.012971455
-0.012080327 -0.011598163 -0.16568452 -0.04033143 -0.07758806 0.071932144 -0.025646929 -0.029242413
0.011537792 -0.055055037 0.10541598 -0.09732536 -0.04066617 -0.09736041 0.1397411 -0.11183833
0.21021742 0.033358503 0.2562804 -0.06247754 -0.012741072 0.012349664 -0.12523706 0.077661246
-0.011762619 -0.111424536 -0.10658989 -0.019197645 -0.0061053634 0.0033798427 0.10874754 0.047865346
0.18139541 -0.08277544 0.0008864932 -0.08527332 0.19963843 0.052198976 -0.11329892 -0.01867674

network_body._body_endoder.seq_layers.2.bias f4 [128]
00000000: 0000 0000 0000 0000 0000 0000 0000 0000
00000010: 0000 0000 0000 0000 0000 0000 0000 0000
00000020: 0000 0000 0000 0000 0000 0000 0000 0000
00000030: 0000 0000 0000 0000 0000 0000 0000 0000
00000040: 0000 0000 0000 0000 0000 0000 0000 0000
00000050: 0000 0000 0000 0000 0000 0000 0000 0000
00000060: 0000 0000 0000 0000 0000 0000 0000 0000
00000070: 0000 0000 0000 0000 0000 0000 0000 0000
00000080: 0000 0000 0000 0000 0000 0000 0000 0000
00000090: 0000 0000 0000 0000 0000 0000 0000 0000
000000a0: 0000 0000 0000 0000 0000 0000 0000 0000
000000b0: 0000 0000 0000 0000 0000 0000 0000 0000
000000c0: 0000 0000 0000 0000 0000 0000 0000 0000
000000d0: 0000 0000 0000 0000 0000 0000 0000 0000
000000e0: 0000 0000 0000 0000 0000 0000 0000 0000
000000f0: 0000 0000 0000 0000 0000 0000 0000 0000
00000100: 0000 0000 0000 0000 0000 0000 0000 0000
00000110: 0000 0000 0000 0000 0000 0000 0000 0000
00000120: 0000 0000 0000 0000 0000 0000 0000 0000
00000130: 0000 0000 0000 0000 0000 0000 0000 0000
00000140: 0000 0000 0000 0000 0000 0000 0000 0000
00000150: 0000 0000 0000 0000 0000 0000 0000 0000
00000160: 0000 0000 0000 0000 0000 0000 0000 0000
00000170: 0000 0000 0000 0000 0000 0000 0000 0000
00000180: 0000 0000 0000 0000 0000 0000 0000 0000
00000190: 0000 0000 0000 0000 0000 0000 0000 0000
000001a0: 0000 0000 0000 0000 0000 0000 0000 0000
000001b0: 0000 0000 0000 0000 0000 0000 0000 0000
000001c0: 0000 0000 0000 0000 0000 0000 0000 0000
000001d0: 0000 0000 0000 0000 0000 0000 0000 0000
000001e0: 0000 0000 0000 0000 0000 0000 0000 0000
000001f0: 0000 0000 0000 0000 0000 0000 0000 0000
0.0 0.0 0.0 0.0 0.0 0.0 0.0 0.0
0.0 0.0 0.0 0.0 0.0 0.0 0.0 0.0
0.0 0.0 0.0 0.0 0.0 0.0 0.0 0.0
0.0 0.0 0.0 0.0 0.0 0.0 0.0 0.0
0.0 0.0 0.0 0.0 0.0 0.0 0.0 0.0
0.0 0.0 0.0 0.0 0.0 0.0 0.0 0.0
0.0 0.0 0.0 0.0 0.0 0.0 0.0 0.0
0.0 0.0 0.0 0.0 0.0 0.0 0.0 0.0
0.0 0.0 0.0 0.0 0.0 0.0 0.0 0.0
0.0 0.0 0.0 0.0 0.0 0.0 0.0 0.0
0.0 0.0 0.0 0.0 0.0 0.0 0.0 0.0
0.0 0.0 0.0 0.0 0.0 0.0 0.0 0.0
0.0 0.0 0.0 0.0 0.0 0.0 0.0 0.0
0.0 0.0 0.0 0.0 0.0 0.0 0.0 0.0
0.0 0.0 0.0 0.0 0.0 0.0 0.0 0.0
0.0 0.0 0.0 0.0 0.0 0.0 0.0 0.0

action_model._discrete_distribution.branches.0.weight f4 [2, 128]
00000000: 7c09 cb3b 2684 3d3b 9b0a bf3a f345 c2bb
00000010: 478d 693c fb45 57bc d55b 693c 7cf7 9c3b
00000020: 2e3e 97ba da6c 403c d97f 3739 435e cbbb
00000030: 44b8 843c ec5b 833c db5d 223c b89b 8abc
00000040: 6aed 07bc fbe2 763b a183 263c ddea beba
00000050: 8ae2 c1bb 8741 a1bb efe7 f03b 8303 78bc
00000060: 6808 e1bb ae17 263c b090 a83a 759c fa3b
00000070: c2ac a3bb c05a 053b 7aa8 5ebc dff0 89ba
00000080: 5a0b 0bbb 657c 763c 5a10 80bc d329 babb
00000090: 520d 683a 8c8b 8f3c e756 a4bb 78eb 043c
000000a0: f46a 84bb 983a d5bb 66b8 a4ba 57b3 1dbc
000000b0: 5aec 573c 3713 093c b37d 493b 1fab 8b3b
000000c0: fb47 5e3a 74b8 14bc 444e 18bc bb72 c4bb
000000d0: 36f4 893c 2af3 51bb d20e f4bb c596 2d3b
000000e0: ed02 63bb f7e8 18b9 ce5c 8e3b 4fab 663b
000000f0: e945 adbc 664d 1f3c 1147 993a 3f21 423c
00000100: 0589 2abb c832 2e3b 6594 ea3a 93bc 17bc
00000110: ab28 f5b9 2717 2bbc c315 1a3c 1363 c53b
00000120: 20af 233c c3da 1d3c d768 1a3b e59d 6bbc
00000130: 77c5 083c 22b6 093c bc48 3b3b dc99 a13b
00000140: fd84 5a3c 5189 a9ba d977 b3bb 4bd9 b43c
00000150: 1cdc 4b3c 5594 f73a d742 973b 3f41 b1bc
00000160: 85a8 a23a 6fe3 03bc b4ca 8d3b 6901 1bbc
00000170: a13a 00ba 33ff a33a 9e90 0a3c f4de c23b
00000180: e859 cdbb 2e0f 9c3b 93f8 0d3c 7d3c 6f3c
00000190: f7ba acba 5cf2 47bb af54 1dbc b21f 7fbc
000001a0: b2f4 0cbb 2537 cf3b 92fe 9f3a 93e6 0ebc
000001b0: 7ccc 26bc 8a5b 063c e23e 493c a2fe 8dba
000001c0: b2df 40bc d753 9dbb ed72 ef3b fc9a 333c
000001d0: 91c2 c4bb ba26 dbba 2b12 90bb 8f4b 31bc
000001e0: 07be c93b a7bb d2bb ef8d f13b ae1a 3038
000001f0: b651 b1bb 3928 a0bb 25e6 bb3b 3852 e43b
00000200: 61a7 c2bb a9ef cabb c0c8 46bb 0bee 0d3b
00000210: b2be 35bc 2af7 fa3a 68a9 823b 25c5 9b3c
00000220: 4717 7f3b 4d1c 0abc a572 533b 4739 99bb
00000230: 05a6 4bba 9f92 8a3b ba57 a5bc 4fef 643c
00000240: 3143 9ebb 17ac dd3b 3331 a9ba d82d 4abc
00000250: 195b 393c 57c0 d23a 523d 99bc 4702 633b
00000260: 27ec 7e3b ce6b ab3b bd7f 04bc e0b4 5a3c
00000270: 9736 1d3c 3bc0 bf3b f629 023b 4bef 2abc
00000280: 6bb6 0f3c c8de 033c a7d4 7d3b 060d 2cba
00000290: e36d 18bc 8370 95b9 fb08 023a 5c39 04bb
000002a0: 8fbe 88bb 488a 593c 67e0 a6bb 4f1d 1ebb
000002b0: ebfe bb3b ff56 ab3b 1ddc f639 601f bd3b
000002c0: bff2 073c e0c6 9d3a a2cb a1ba 6fff 54bc
000002d0: f9f5 a33c 9b58 183c 0b3e 4d3c 80eb 5abc
000002e0: 7094 64bc 70df 2fbc fac0 ccba fb3c 8a3c
000002f0: 3681 873b 3a9e 03ba 9dee f83b 3ba8 143a
00000300: 63b1 713b 7a5f d13a 6d35 21bb 923e 3bbb
00000310: 738b 46bb 96db aabb 13f0 2f3c 702d 1cbb
00000320: 8d4d d8ba b22d e0bb f63f 273b fa0d 35bc
00000330: 5dac ef3b 6aa4 d23a 690d a23b ff43 a8bb
00000340: 77d0 543c 3f07 8a3c 9533 5d3a b3c1 923b
00000350: 9a89 a4bc 039d 0b3b db5e fc3b 2fa1 923b
00000360: b2e7 443b ff38 23bb 548c b0bb 9bb7 51ba
00000370: 3c3c 9339 d3b6 8ebb 97bf 763c dd83 893a
00000380: f7ae 67bb 0452 023c 0371 9dba b5f8 54bc
00000390: 5b8c a8ba 28a9 84bc 8d3c c4bb f72d 013c
000003a0: b224 2ebb 50cb f53b a862 0b3b bd15 9c3c
000003b0: f4b8 b23b 4ead 23bb d3ef 803c 89e0 98ba
000003c0: 9dea 213c d770 fb3b 890d 8739 f036 cd3b
000003d0: 23bd 8b3b db57 c1b9 4bd9 7e3b e775 5ebb
000003e0: 7b69 09bc e665 47bc 51ea 483b 77ac 303a
000003f0: 6519 b0bb 0fb8 103b 476c fc3a 948d a33b
0.006196199 0.0028917878 0.0014575304 -0.0059287488 0.014254875 -0.013139243 0.014243086 0.0047902446
-0.0011538917 0.011744702 0.00017499867 -0.006206305 0.016201146 0.016035043 0.009910072 -0.016919956
-0.00829635 0.0037671912 0.010163219 -0.0014565844 -0.005916898 -0.0049211415 0.0073518674 -0.015137556
-0.006867457 0.010137482 0.0012860503 0.0076480457 -0.0049949596 0.002034828 -0.013589973 -0.0010524056
-0.0021216483 0.015044306 -0.015632797 -0.0056812554 0.00088520825 0.017522596 -0.0050152424 0.008112781
-0.00404107 -0.006507229 -0.0012567162 -0.0096252775 0.013178909 0.008366398 0.0030745089 0.0042623426
0.0008479354 -0.00907718 -0.009296004 -0.0059951223 0.016840082 -0.0032035806 -0.007448056 0.002648757
-0.0034639195 -0.00014582636 0.0043445593 0.0035197323 -0.0211515 0.009723043 0.0011694153 0.011848747
-0.0026021611 0.002658056 0.0017897008 -0.009261268 -0.00046760342 -0.010442532 0.009404602 0.0060237735
0.0099904835 0.009634676 0.0023561025 -0.014380907 0.008347861 0.00840524 0.0028577289 0.0049316715
0.013337371 -0.00129346 -0.0054769334 0.02207627 0.012442615 0.0018888811 0.004616122 -0.021637557
0.0012409842 -0.00804983 0.0043271426 -0.009460785 -0.0004891549 0.0012511968 0.008457331 0.0059469882
-0.006266821 0.0047625517 0.008665222 0.014601824 -0.0013178278 -0.0030509448 -0.00960271 -0.015571522
-0.0021508154 0.0063237124 0.0012206605 -0.008721965 -0.010180589 0.008200536 0.012283059 -0.0010833333
-0.011772083 -0.0048012543 0.0073074014 0.010962244 -0.0060046394 -0.0016719915 -0.004396697 -0.010821237
0.006156686 -0.0064310613 0.007371656 4.1986517e-05 -0.005411352 -0.0048876074 0.0057342225 0.006967809
-0.0059403633 -0.0061931205 -0.0030332059 0.0021656777 -0.011092829 0.0019147147 0.00398748 0.019014904
0.0038923786 -0.008429599 0.0032264378 -0.0046760174 -0.0007768574 0.0042289044 -0.020183433 0.013973071
-0.004829787 0.0067648995 -0.0012908339 -0.012340032 0.011313223 0.001607905 -0.018705998 0.0034638809
0.0038898082 0.005231357 -0.008087096 0.013348788 0.009595535 0.005851773 0.0019861436 -0.010433028
0.008771519 0.008048721 0.0038731487 -0.000656322 -0.009303543 -0.00028503322 0.00049604446 -0.002017579
-0.004173107 0.013277598 -0.005092669 -0.0024126356 0.0057371757 0.0052288766 0.00047084774 0.0057715625
0.008297621 0.0012037419 -0.0012344013 -0.013000353 0.02001475 0.009298469 0.012526999 -0.013361812
-0.013951406 -0.010734424 -0.0015621476 0.01687478 0.004135276 -0.0005020831 0.0075968043 0.000567082
0.0036879412 0.0015973889 -0.0024598495 -0.002857123 -0.003029552 -0.005214165 0.0107383905 -0.0023830794
-0.0016502604 -0.006841385 0.0025520301 -0.011050696 0.0073142485 0.0016070728 0.0049454463 -0.005135059
0.012989155 0.016849158 0.0008438167 0.004478657 -0.020085145 0.0021303303 0.0077017373 0.004474781
0.0030045328 -0.0024905798 -0.005387822 -0.00080000766 0.00028082903 -0.0043552904 0.015060327 0.0010491569
-0.003535209 0.007954124 -0.001201183 -0.0129987495 -0.0012859212 -0.016193941 -0.0059886635 0.007884494
-0.0026572165 0.0075010434 0.002126852 0.019053334 0.005454177 -0.0024975124 0.015739357 -0.0011663596
0.009882596 0.0076733637 0.0002575929 0.0062626526 0.00426449 -0.00036877286 0.003888684 -0.0033944787
-0.008386965 -0.012170291 0.0030657242 0.00067395665 -0.005374121 0.0022082364 0.0019258343 0.0049912427

action_model._discrete_distribution.branches.0.bias f4 [2]
00000000: 0000 0000 0000 0000
0.0 0.0

action_model._discrete_distribution.branches.1.weight f4 [2, 128]
00000000: 77dd a3bb ef50 303a 3524 0f3c 589a e43b
00000010: d7d9 943b c26f 22bc 6117 cbba 4109 16bb
00000020: 1b39 4b3c 7718 2c3c 7f4e adbb 6bba 91bb
00000030: 83f9 38b9 04fc 80bb c70d d33b ec17 263c
00000040: b729 d5bb 316e 2cbc a0dd ed3b 0556 bb3a
00000050: f198 2cbb fc4c 86bb ed13 fa3b af9b 563b
00000060: f961 99bc 6fd1 1f3c cbbf a93b 7a92 eabb
00000070: 0fb3 aeb9 ddf7 4b3c ffe7 cd3b a638 2abc
00000080: 0530 3d3c 6f00 40bc bb8c ad3b dad9 e8bb
00000090: 772e 153b 8f2f 5abb 0da5 c63c 8a13 613b
000000a0: 5842 653c 83b9 aebb 7748 26bc 1399 dd3b
000000b0: 0884 f63b eb51 be3b b276 9f3c fafe 22bc
000000c0: d566 b83c abae 39bc c745 3c3c 7331 de3b
000000d0: 1dbf cebb 1b8f 20bb e983 9038 4e81 bf3b
000000e0: 3d68 9cbb 8544 763a 31ff 283b 089c cd3b
000000f0: a127 263a 2339 afbb 600d dcbb e747 bf3c
00000100: 67b4 713b 785a a53b 9f8c 293c 6f84 c0bb
00000110: d73a 803c 5303 5abb 32aa 2dbb 1552 1cbc
00000120: ad4d 1bbb ab23 c83b 9556 51bc 9f59 203c
00000130: 17a6 bdb8 72ef 44bb 99de b3bc 8bac 213b
00000140: 12de 753b 1d4a 04bc e1d8 a4bc 8d0b ee3a
00000150: 223a b8bb 602d aa3b 05c2 b13b 1bc6 773b
00000160: cfc3 6d3b cb74 a1bb 1513 213c 1f91 ce3a
00000170: a69e 3cbc 03ad 9dba e5d0 f63b 82d6 08bc
00000180: 0254 f13b a249 67bb 53bf 803a 2e0d 1ebb
00000190: 6567 3e3c 617d c9bb c81f 3cba 8b14 0ebc
000001a0: cd50 0cbc 6a6e 123c 5b82 2ebc cd25 52bc
000001b0: 17e6 36ba 32db 8a3b 682e 013c d3cc df3b
000001c0: 37c2 043c 1b7b 5d3c 0f79 813c f2ce 243b
000001d0: 9443 27bc d142 32bb dcb9 123c 6b9e a53b
000001e0: 57bf 07bb 4b85 3abc 64e0 16bc 0748 4a3b
000001f0: e2c3 d236 35d2 c43b a735 ce3a 931c 85bc
00000200: ad5e de39 e07d e0bb 3917 41bc 8b8f a33b
00000210: 52f9 643c 505d 50bc 33af 15ba 4a60 42bc
00000220: 2796 e63b a95a 96bc 8954 3a3c c0dc d43b
00000230: f8a0 893c dac7 06bb 1376 1fbb c119 1e3c
00000240: db1b c83b 4722 22bb e4fd 1e3c c73f 643b
00000250: ca9c e1bb 6f6e 3cbb 989d 26bb 15fa 6e3b
00000260: 6858 e23b effc 373c d88a b4bc f71f 483c
00000270: db69 2cbc 8206 25ba fd38 f33a 1f68 f739
00000280: ddb8 bc3b d0a6 893c 6ef6 023c 9fe6 82bc
00000290: 0705 7bbc e6a7 1cbc 0177 99bc cd6e eaba
000002a0: 77bd 9f3b 438a 6a3b cfb8 e6ba 8275 683c
000002b0: 1a0d 053c eec3 463c 27e0 d6bb 1626 92ba
000002c0: 13a3 4fbc 501c 423c 0667 823b 3adb c43b
000002d0: c85e 6abb 150e 9dbc 977d 013b 9018 f03b
000002e0: 6533 8c3b e841 e13a 4c53 bfbb 630e 17ba
000002f0: 5079 cebb b6a8 103c 3b16 f03b 517e 863a
00000300: b3ad 023c 8f83 3e3c d5da f1bb 847c 18bc
00000310: 807c 5c3b 5c2e 46bc 43dc 8abc 3fa5 1c3b
00000320: f79e e23b 2395 d8bb 17aa b9bc da76 c63b
00000330: e249 bbbc 52c0 c1bc d0be bbb9 4f57 b33b
00000340: 00dd 11bc 87c9 b2ba cb45 06bb 8854 8a3b
00000350: 59f1 17bb 82d9 7bbb 7017 f43b cf74 cabb
00000360: c71c 083b ccdd c33b 79f0 bbbb 3858 d43a
00000370: 3b74 943b 7e32 1c3b c873 bd3b db9c a6bb
00000380: e314 62bb 15a6 14bc 070a 843c 7b1f 2d3c
00000390: 98e4 e3ba 8e34 8bbb a2e5 8b39 6f51 033b
000003a0: 6d5e ec3b b28e e0bb f01b 6f3b b05e 6fba
000003b0: a8f2 023c c262 333b 1e18 c63b c8be bbbb
000003c0: 70ae b7bb c05f 4e3c 27da a13b f20f ad3b
000003d0: 2e75 2d3c a322 8639 159c 5bbb 8333 a9bb
000003e0: 7baf cc3b cfc2 04bc 9e9d 43bc c825 543b
000003f0: a275 a93a 0b9b 1f3c 0c30 0a3c 56d3 91ba
-0.005000766 0.0006725927 0.00873666 0.006976407 0.00454257 -0.00991434 -0.0015494638 -0.00228937
0.012403752 0.01050388 -0.0052888985 -0.0044472716 -0.00017640558 -0.0039362926 0.0064408514 0.010137539
-0.006505217 -0.010524319 0.007259086 0.0014292604 -0.0026336277 -0.0040985327 0.00763177 0.0032746603
-0.018723475 0.009754523 0.005180334 -0.0071585746 -0.00033321275 0.012449232 0.0062837596 -0.010389483
0.011547093 -0.011718853 0.0052963174 -0.007106048 0.002276329 -0.0033292507 0.024248624 0.0034343922
0.013992868 -0.0053321733 -0.010149113 0.0067626326 0.0075230636 0.005808105 0.019465778 -0.009948486
0.022509972 -0.011333148 0.011491246 0.006780797 -0.0063094036 -0.002449936 6.891025e-05 0.0058442717
-0.0047731684 0.00093943655 0.0025786872 0.006274704 0.00063383026 -0.0053473874 -0.0067154616 0.023349715
0.003688121 0.005046185 0.010348468 -0.0058751623 0.015653057 -0.0033266142 -0.002649915 -0.009541054
-0.0023697421 0.0061077676 -0.01277699 0.009786992 -9.043159e-05 -0.0030049947 -0.021956729 0.0024669494
0.0037516397 -0.008074311 -0.020122947 0.0018161401 -0.0056221643 0.0051933974 0.0054247403 0.003780729
0.003628004 -0.004927253 0.00983121 0.0015759802 -0.011512434 -0.0012029711 0.0075322264 -0.008351924
0.007364751 -0.0035291691 0.0009822644 -0.0024116742 0.011621331 -0.0061489795 -0.00071763666 -0.00867189
-0.008564186 0.008937458 -0.010651196 -0.012826395 -0.0006977035 0.004237556 0.007884599 0.006829837
0.008102945 0.01351812 0.015804796 0.0025147763 -0.010208983 -0.002720047 0.008955445 0.0050542853
-0.0020713413 -0.011384319 -0.009208772 0.0030865686 6.2812915e-06 0.006006504 0.0015732542 -0.016248977
0.0004241368 -0.006850943 -0.011785322 0.004991477 0.013975458 -0.01271756 -0.00057100056 -0.011863777
0.0070369425 -0.018353777 0.011372694 0.006496042 0.016800389 -0.0020565898 -0.0024331852 0.009649695
0.0061068363 -0.002473967 0.009704087 0.0034828053 -0.006885146 -0.0028752347 -0.0025423523 0.0036464978
0.0069075115 0.011229738 -0.022038862 0.012214652 -0.010523285 -0.000629522 0.0018556413 0.00047189087
0.005759342 0.016803175 0.007993324 -0.01597911 -0.015321023 -0.0095615145 -0.018733503 -0.0017885804
0.004874881 0.0035787977 -0.0017602685 0.014188172 0.008120799 0.012131674 -0.0065574828 -0.0011150267
-0.012673157 0.011847571 0.0039795665 0.006007579 -0.003576206 -0.019171754 0.0019758695 0.007327147
0.0042785876 0.0017185779 -0.005838787 -0.00057623367 -0.0063010827 0.008829286 0.007326869 0.0010261034
0.007975983 0.011628046 -0.007380823 -0.009307031 0.0033643544 -0.012096014 -0.016950732 0.0023902205
0.0069159227 -0.0066095754 -0.022664113 0.0060566487 -0.022862379 -0.023651276 -0.00035809586 0.0054730545
-0.008902788 -0.0013640382 -0.0020488377 0.0042215027 -0.0023184626 -0.0038429205 0.007449083 -0.0061784755
0.0020769106 0.005977368 -0.0057354537 0.0016200608 0.0045304573 0.0023833807 0.0057816245 -0.0050846166
-0.0034497313 -0.0090728 0.016118063 0.010566588 -0.0017386852 -0.0042482084 0.00026683236 0.0020037552
0.007213405 -0.006852948 0.0036485158 -0.0009131236 0.007992424 0.0027372097 0.0060453555 -0.00572953
-0.0056055114 0.012596071 0.004939336 0.005281442 0.01058702 0.00025584278 -0.003350978 -0.0051636114
0.006246505 -0.008103087 -0.011939434 0.0032371152 0.0012928734 0.009741555 0.008434307 -0.0011125605

action_model._discrete_distribution.branches.1.bias f4 [2]
00000000: 0000 0000 0000 0000
0.0 0.0

action_model._discrete_distribution.branches.2.weight f4 [2, 128]
00000000: 4cc7 123c 5f20 3c3c 7f2f 9bbb 177b 063c
00000010: fb6f c93b 7836 aa3b bcbd 303c 233a 533c
00000020: 20d6 f2bb ddbd 2fb9 562c 0dbc 70bd 953a
00000030: c269 8b3b 87da 3d3b 7aa9 c139 eae8 443b
00000040: 471e d13b f8dc 37bc af82 1c3b 5935 063c
00000050: 34ef 233c 5f79 dcbb b591 eebb 2b54 f53a
00000060: 4e78 10bc 024e 78bb 5b1b d7b9 2faf 72bc
00000070: 25b4 15bc 7635 11bb 90cb 46bb 5c17 a1bb
00000080: ef75 0b3b afff 0b3c 9235 063c 07fa 95bc
00000090: 207c 1ebc 71f6 35bc 42bc 72bb 79f6 0fbc
000000a0: 776e a03b c5c4 af3b 7e7f 203c 8b6e 293c
000000b0: 6b1f 7abb 013f 0ebc 1055 36bc 343e ab3b
000000c0: 0279 69bb d737 ca3b ee1c caba 8ac9 34bb
000000d0: bbad bd3b e0ff da3b 6e0d 1e3b d70b 14bc
000000e0: 48c8 06b7 7d79 21bb d837 bfbc 522b 20bc
000000f0: d37a 4f3c 73cf fa3a 9e63 0c3b 631b 2dbc
00000100: d97b 113c f5ec 343c a19d c5ba 4f02 70bc
00000110: edfa a53b 8a31 be3a b1fd 0fbb bb2b a33a
00000120: 5f27 ad3c f086 cdba 05df b4bb e30f 153c
00000130: efe4 02bc c983 46bc fc7d 983b 8c91 bebb
00000140: 883a d63b 3033 f8ba f134 a3bb c17e 2f3c
00000150: 276c 8c3b 7b40 023c f35e febb 0020 7b3b
00000160: dbab cbbb 3046 79bc 7944 2b3c b2dc e5b9
00000170: 198e b53a 5330 b5bb 3fbf 20bc d586 723c
00000180: 8b37 9abb cb0c da3a edf6 f03a 3b30 68bb
00000190: f7d8 25ba 1893 13bc cc88 c7b9 be54 88bb
000001a0: bf66 56b9 d387 7d3a 93f2 81ba 72cd 4139
000001b0: 7065 cb3b f7de 01bc bf6b ab3b ab2b 44bc
000001c0: 78a1 f63b c734 f7ba cb9f 51bb ca3f 16bc
000001d0: 9a94 0cbc aa30 383c 9b54 3c3c 4b9f 943a
000001e0: 2506 dfbb 1145 1cbc 847f 973c c763 c4ba
000001f0: 9676 b63a 2ff1 a2bb 427b 3abc 4d74 ed3b
00000200: 2de5 dabb 5886 ef3b 7daf d1bb a082 0d3c
00000210: ade3 e63b 3084 803c 8b7d 1cbb 833f 0bbc
00000220: ea77 aabb fb2f 44bc 4a88 d83b a318 fdbb
00000230: 4b06 143c 7f0c 32bc 0aed 5e3b 17c5 843a
00000240: 5b34 303b b97c 043b 9ca1 2b3b adfa c23b
00000250: e164 b43b 3f85 8039 38ef 3f3b cfdc 30bc
00000260: ed78 ee39 b707 77ba b546 86bc e53d 00bb
00000270: 984d c9ba 0f3a 4dbb 4f25 5a3c b66a 8a39
00000280: 33ab a9bb d547 97bb c737 bebb 3626 a53b
00000290: a059 52bb 97be 4fba 15e9 6bbb c334 5ebc
000002a0: 430c aa3c 7b51 84bb f7f8 efba 9b20 653b
000002b0: daa8 65bb 8552 1c3b bff7 773b 876c 853b
000002c0: 9320 82bc 51e0 103c d821 56bc bc70 2f3c
000002d0: 8a55 5a3c 3ff2 f23b 0c51 a0bb db4d d3bb
000002e0: a530 02bc 0b54 36bc 9691 1ebc 22a1 693b
000002f0: d398 063b 2f60 823b d311 753b a5dc 57bb
00000300: 4793 ec3b 466d c2bb 1694 27bc 9130 0bba
00000310: 6d5d fd3b 0f5d 74bb efe2 923b c3eb a33b
00000320: cb21 01b9 6ebe c3bb 39c3 3d3a f683 4abc
00000330: 1b6d 343c 62bf d2bb 14a7 33bc db95 79bb
00000340: bfce d33b 8301 813b 824e 2fba b213 793c
00000350: ec66 b5ba 0b0a d13a af9a 5bb9 7b58 dfbc
00000360: 7716 0fba 82cc 43bc 7e9d 2f3c dff8 923a
00000370: 3e03 843c fe09 9c3b 1b48 aabb 0b25 be3b
00000380: 058e e73a 3229 a43b f374 e43b 9297 a5bb
00000390: ffe7 ed3b 684a 14bc 3352 493b 45c0 1c3c
000003a0: f45b a6bb abbd acbb b2c2 6b3a 73f5 f1b9
000003b0: 59ac babb 38dc 943c 579a 58bb 67cc acbb
000003c0: 33c1 dcbb 0345 32bb 23cd c7bb d530 573c
000003d0: 1bee 793b cf22 1a3a 5bdb d43b 0806 85ba
000003e0: d467 c73c da3e b23b 47cf 95bb a3fa c73c
000003f0: 6254 b43b d809 2cbc b924 afbb 6806 d6bb
0.008958649 0.011482327 -0.0047358866 0.008208058 0.0061473823 0.0051944815 0.010787424 0.012892279
-0.0074107796 -0.0001676003 -0.008616528 0.0011424255 0.0042545507 0.0028969364 0.00036938098 0.0030046054
0.006381783 -0.011222117 0.0023881604 0.00819143 0.010005761 -0.0067283357 -0.007280553 0.0018717101
-0.008817745 -0.0037888293 -0.00041028377 -0.014812275 -0.009137188 -0.002215711 -0.0030333735 -0.0049161147
0.002128001 0.008544846 0.008191483 -0.018307699 -0.009673148 -0.0111061195 -0.003703848 -0.008786791
0.004895981 0.005364033 0.0097960215 0.010341297 -0.00381657 -0.0086820135 -0.011128679 0.005225921
-0.0035625105 0.0061712074 -0.0015419999 -0.0027585947 0.0057885326 0.0066833347 0.0024116891 -0.009036026
-8.033654e-06 -0.0024639063 -0.023342058 -0.009775953 0.012663561 0.0019135311 0.002142168 -0.0105656115
0.008879625 0.011042823 -0.0015076884 -0.014648988 0.005065313 0.0014510613 -0.002197128 0.0012448946
0.021136938 -0.0015680473 -0.00551975 0.009098026 -0.007989152 -0.012116381 0.0046536904 -0.0058156904
0.006537739 -0.0018936154 -0.0049806763 0.010711373 0.0042853537 0.007949944 -0.0077627837 0.0038318634
-0.006215555 -0.015214488 0.010453337 -0.00043842715 0.0013851553 -0.0055294423 -0.009811222 0.014802654
-0.0047063283 0.0016635893 0.0018384136 -0.0035429138 -0.0006326581 -0.009007238 -0.0003805816 -0.0041604927
-0.00020446906 0.00096714235 -0.0009914212 0.00018482449 0.0062071607 -0.007926694 0.00523135 -0.011973302
0.007526573 -0.0018860333 -0.0031986113 -0.009170482 -0.008580351 0.011242071 0.011494781 0.0011338977
-0.0068061524 -0.009537951 0.018493421 -0.0014983349 0.0013920839 -0.004972599 -0.011381926 0.00724653
-0.006680152 0.007309716 -0.0063990937 0.0086371 0.007046184 0.015688032 -0.002387854 -0.008499029
-0.005202283 -0.01197433 0.006608044 -0.007723884 0.0090347035 -0.010867237 0.0034015798 0.0010129538
0.0026886675 0.0020215942 0.0026188856 0.005950293 0.0055051898 0.0002451334 0.0029286873 -0.010794832
0.00045484994 -0.0009423452 -0.016391138 -0.0019568142 -0.0015358208 -0.0031315123 0.013314559 0.00026400917
-0.0051778792 -0.0046167173 -0.005804989 0.0050399555 -0.0032096878 -0.00079248234 -0.0035997082 -0.013562384
0.0207578 -0.0040380335 -0.001830845 0.0034962061 -0.003504327 0.0023852896 0.0037836877 0.0040717754
-0.015884673 0.008842544 -0.013069592 0.01070803 0.013326058 0.007414132 -0.004892474 -0.00644849
-0.007946168 -0.011128436 -0.009678265 0.003564902 0.0020537868 0.003978751 0.0037394657 -0.003293791
0.0072197053 -0.0059334366 -0.0102281775 -0.0005309666 0.0077320845 -0.0037286913 0.004482619 0.00500247
-0.00012314988 -0.0059736287 0.0007238868 -0.0123605635 0.011012341 -0.006431506 -0.0109651275 -0.0038083706
0.006463855 0.003936948 -0.0006687419 0.01520245 -0.0013839877 0.0015948428 -0.00020943092 -0.02726387
-0.00054583646 -0.011950614 0.010718701 0.0011213085 0.016114827 0.0047619333 -0.005196584 0.0058027557
0.0017666226 0.0050097937 0.0069719492 -0.005053469 0.007260322 -0.009050943 0.003071916 0.009567325
-0.0050768796 -0.0052716336 0.00089935504 -0.00046149976 -0.005696815 0.018171415 -0.0033050978 -0.00527339
-0.0067368983 -0.0027201779 -0.0060974522 0.013134201 0.0038136307 0.00058798207 0.006495876 -0.0010148892
0.024341501 0.0054396214 -0.0045718285 0.024411505 0.0055032233 -0.010500394 -0.005344954 -0.0065315254

action_model._discrete_distribution.branches.2.bias f4 [2]
00000000: 0000 0000 0000 0000
0.0 0.0

action_model._discrete_distribution.branches.3.weight f4 [2, 128]
00000000: c758 8dbb 084f 82bc ff14 933a 7895 603a
00000010: 272d b339 c72d 92bc 320e 59ba ac14 8c3b
00000020: b031 f2ba 7927 c23b 0b08 72bc 05d5 2bbc
00000030: fcb5 433b aed7 34bc 17ec 213c 7a33 5abc
00000040: bb28 683a 4b3e 12bc 7266 123c a911 3c3c
00000050: 34ab 843b 8589 3a3c bf15 9fb9 5a75 4dbb
00000060: 95d1 47bc 3afa cfbb d3a9 01bc 1810 b8bb
00000070: ddeb 8abb f76e 40bc af33 c2bb 8a99 453c
00000080: 947c c7bb 38eb de3b e138 a3bb 47b0 173b
00000090: f1b7 28bb 0acd 11bc 3f7a e939 4d4c 51bb
000000a0: 130e 963b 8382 083c 10c2 a839 6dd5 00bc
000000b0: 6eac 143b 64ce 973b 3db7 723b 6785 a1bb
000000c0: 23dc a03b bffa 45bb 544a 90bb 4bdd 07bc
000000d0: 65b4 bb3a 5e63 c0bb 7bb7 91ba 915a 973c
000000e0: 0bc7 5abc a26f 0c3c 7c9d 823c ca0d cfbb
000000f0: 4367 04bc 0bcd be3b aba6 b73c 669f 363c
00000100: 53fb 2c3a 9f1e e2bb 2337 8e3b 7983 91bb
00000110: 9c63 813c bb8e fc3b 341d cab8 e5c0 583a
00000120: 1377 22bc 95e0 4cbb 12ea bdba 191d 2a3c
00000130: 3331 0bbb 832f 27bc d0b4 2dba 6de1 6a3b
00000140: 964d 013c 1fa9 e3bb 072f 443c 22a1 09bb
00000150: e0c9 bf3b c7c6 313b 5b9b e13b c87d 8fba
00000160: 0b4d dbbb 0376 9f3b ae15 c43b f30a 8d3b
00000170: bff8 363c ffd2 d0bb 0358 5dba c171 8e3c
00000180: c378 1dbc 955a 4cb9 e0b1 58bb 78d2 53bb
00000190: b358 d33b a74a c33b 3255 ec3b 6044 faba
000001a0: 8d73 31bc c703 aebc 98a7 23ba 2040 fcbb
000001b0: 1fd5 62bc d885 a43a bd13 3b3c a0e7 d8bc
000001c0: 4f24 7abc e920 353c 1998 ccbb 13eb adbb
000001d0: 4bbc a9ba 537d 853b 3e81 49bb a2e7 d6b9
000001e0: 66bd 2d3c 3ff5 cc3b 4fa4 4d3b f7fb 16bc
000001f0: 2ef3 b43b 5730 e0bb b75f 43bb da39 543c
00000200: 581a 67bc c312 4ebc 772b 003c 75d3 28bb
00000210: 7a2e 2a3c b66e 203b 60e8 043c d68c 99bb
00000220: 7a1b 90b9 5f54 e4bb 3c44 813b dd01 b33b
00000230: e505 033c 2b77 fdbb 4764 423b d2f5 1b3c
00000240: ddb8 dc3b 1656 463b 48fb 653b 4fa0 373b
00000250: ef75 75bb 1688 ad3b 675a aebc 4485 a03c
00000260: efa3 14bc fd6e a1bb d39a f8ba 28e3 a03a
00000270: 8f8b abbc 7b7e 713c fb4e 14bc 1342 04bc
00000280: 114a 243c 8ae0 093c 4fd1 47bc 955d 0cbc
00000290: 8f0c 083b 5db1 6c3b 1bd9 5437 2386 c63c
000002a0: 8366 01bb 8fa2 783b 47bf b13c 7037 a33a
000002b0: e766 043b 371b 4c3b f2cd cf3b 7016 0eba
000002c0: 1a0a 83bb febc 2d3c 2e5e 203b 6098 eb39
000002d0: 946d b2bb 4be0 4fbb 4e2f 42bb 384e 113b
000002e0: 1a63 e73b aa89 c8bb 13e9 55bc c3ea 22bb
000002f0: 30dc dd3b f9ef c1ba 8bfc 33bc a37e bc39
00000300: 7c33 003c 8442 87ba 0b86 963c 0a3e 50bb
00000310: 1773 b6bb 2c72 1e3b bf89 90bb af07 33bb
00000320: da4c f5bb 835b 8d3c 8b0a 8dbc eb47 f8bb
00000330: 5399 f1ba 88fb 2b3b d073 f9bb c32e 2abb
00000340: 43af f5bb 527e 59bb d51d 7abb e9c9 043c
00000350: 8538 2dba b560 a5bb 081e 1aba 35c3 c5bb
00000360: 0be6 9e3b dfca 27bc 215d 20bc bcf2 0f3c
00000370: 59e0 9fbc cde7 f7bb 8692 94b9 8dde 0f3c
00000380: ed25 82bb f358 2dbc f84d 0abb 1c9a 91bb
00000390: a22f cdbc dd71 2d3c 1b11 113b 0b9b d8bb
000003a0: 10a8 d539 525e 5b3b 9844 253b 741d cb3b
000003b0: 6b6d 493a 396d 98bb 0569 bdb9 50e5 19bc
000003c0: ebdb 7c3c 2710 d0bb 9cfc 313c 6662 053c
000003d0: 5fe0 cc3b 513f 253b d185 943b 7f2d f4bb
000003e0: b2ca d9ba 567f 813c 429b 50bb 8a82 5fbb
000003f0: c067 fc37 fad8 8ebc 1835 093c ebdf 5b3c
-0.0043135616 -0.015906826 0.0011221467 0.00085671945 0.00034175182 -0.017844094 -0.00082800083 0.004274925
-0.0018477943 0.0059251157 -0.014772425 -0.0104877995 0.002986311 -0.01103775 0.009882948 -0.013317937
0.0008856167 -0.008925985 0.008935558 0.01147882 0.0040487293 0.011385326 -0.00030343045 -0.0031350465
-0.012195964 -0.006346968 -0.007914024 -0.005617153 -0.004239543 -0.011745206 -0.0059265713 0.012060532
-0.006087849 0.0068029426 -0.0049811457 0.002314584 -0.0025744403 -0.008898983 0.00044532304 -0.0031936348
0.0045793145 0.008331898 0.00032188045 -0.007863385 0.0022685784 0.004632758 0.0037035488 -0.004929233
0.004909055 -0.003020927 -0.004403392 -0.008292506 0.001432073 -0.0058712205 -0.0011117304 0.018475803
-0.01335312 0.008571537 0.015944235 -0.0063187825 -0.00808126 0.005822783 0.02241834 0.011146402
0.00065987295 -0.006900623 0.004340069 -0.0044407216 0.015794568 0.0077074445 -9.63755e-05 0.00082684896
-0.009916085 -0.003126179 -0.0014489314 0.010382914 -0.0021239042 -0.010204199 -0.00066263694 0.003583993
0.007892033 -0.006947651 0.011974103 -0.0021000584 0.005852923 0.0027126537 0.006884975 -0.001094752
-0.006692534 0.004866363 0.0059840297 0.0043042838 0.011167704 -0.006372809 -0.0008443596 0.017388226
-0.009611311 -0.000194887 -0.0033065006 -0.0032321494 0.0064497828 0.005959827 0.0072123045 -0.0019093864
-0.010830772 -0.021242036 -0.000624293 -0.007698074 -0.013844757 0.0012552096 0.01141828 -0.026477635
-0.015267446 0.01105521 -0.0062437174 -0.005307564 -0.0012949792 0.0040737777 -0.00307472 -0.0004098984
0.010604238 0.0062548216 0.0031378453 -0.009215347 0.0055221533 -0.0068417 -0.002981169 0.012953246
-0.014105402 -0.012577715 0.007822863 -0.0025760804 0.010387057 0.0024480051 0.008112043 -0.0046859784
-0.00027486292 -0.0069680656 0.0039449017 0.0054628686 0.007997011 -0.007735153 0.002966182 0.009519057
0.0067359046 0.0030263714 0.0035092402 0.0028019135 -0.0037454327 0.0052957637 -0.021283342 0.019594796
-0.009072288 -0.004926561 -0.001896704 0.0012274729 -0.02094057 0.014739628 -0.009052034 -0.008072394
0.010027424 0.008415351 -0.012195899 -0.008567234 0.0020759439 0.003611646 1.26867335e-05 0.024233883
-0.001974494 0.003793869 0.021697653 0.0012452435 0.0020202936 0.003114415 0.0063416893 -0.00054202136
-0.003999007 0.010604141 0.0024470198 0.0004493622 -0.0054451916 -0.0031719382 -0.0029630247 0.0022171866
0.0070613744 -0.0061199265 -0.0130560575 -0.0024859167 0.006770633 -0.0014796249 -0.010985504 0.00035952506
0.007824775 -0.0010319506 0.018374464 -0.003177526 -0.005567919 0.0024176938 -0.004410952 -0.0027317812
-0.007485968 0.01725555 -0.017216941 -0.0075769327 -0.0018432535 0.0026242454 -0.007612683 -0.0025967814
-0.0074976995 -0.0033186865 -0.0038164754 0.00810478 -0.00066078483 -0.0050469288 -0.0005879109 -0.0060352334
0.0048492006 -0.010241239 -0.009787829 0.0087859 -0.019516157 -0.0075654746 -0.00028337928 0.008781088
-0.0039718063 -0.010580289 -0.0021103602 -0.00444342 -0.025047127 0.010586229 0.002213544 -0.0066102794
0.00040751742 0.0033472967 0.0025217887 0.0061985794 0.0007683846 -0.004651692 -0.00036127135 -0.009393051
0.015433292 -0.0063495818 0.010863449 0.008141136 0.006252333 0.0025214741 0.0045325537 -0.0074517126
-0.0016616194 0.015807789 -0.0031830822 -0.0034104907 3.0089053e-05 -0.017437447 0.008374475 0.013420085

action_model._discrete_distribution.branches.3.bias f4 [2]
00000000: 0000 0000 0000 0000
0.0 0.0
