results/29/SmartAgent.onnx (onnx, 582579 bytes, 6 tensors)

network_body._body_endoder.seq_layers.0.weight f4 [128, 1000]
00000000: 74ad 11bc caae e5bb ed89 5b3c c2f1 143b
00000010: 6bb3 99bc ada6 d3bc 215b 253d 41ac a1bc
00000020: 87bb 06bd 3ac2 193d c50d 073d ffa4 e1bc
00000030: 06a5 54bb dbed c1bc c2a8 03bd ef58 5bbd
00000040: c030 17bd 0a4a f83c 8b3e 68bb 2714 aa3c
00000050: b20c 0abd 3704 c43c d466 c83b 904a 123a
00000060: 6f77 843c 12f5 22bc 5b7c 003d f24a 7ebb
00000070: 1143 1dbd 3b03 84bd 8434 dfbc 8d83 93b9
00000080: 3787 83bb 5e56 0a3d f814 a93b 80a7 7fbd
00000090: 9767 ccbc 6be5 b1bc b5e7 113c d7ed 7c3b
000000a0: ee1f 9f3c 2908 033c 097f f9ba 1864 53bd
000000b0: e988 12bc 1068 d33c 7e9e 063d 030a dd3c
000000c0: a7d2 41bd d367 233a 5504 ea3c 1cc8 c3bc
000000d0: 2824 8cbc 186f 45bd 0ff1 fdbc de40 393c
000000e0: 045e bb3c 2d7a 083d d576 223d 04a1 db3c
000000f0: 786a b43c b975 b3bc f56e 17bc db4a 573c
00000100: fbe4 493b f047 de3d 183f e33b dfce 813c
00000110: db63 263d 0026 3cbd e4ae 253d 6383 7a3c
00000120: fa21 e13b a3ca 54bd 023d 67bd 5367 2abd
00000130: c491 64bc a200 0cbd 2132 34bc 3a0f a4bc
00000140: 97e1 5ebd b552 23bb caff 943c fbc3 0c3c
00000150: d545 93bc 9d68 9abc e49a 363d c841 31bc
00000160: 4552 033d 7aa4 6ebc 5700 0a3c 882c 083d
00000170: 301d 893a 5ee2 8a3b cfe5 4abd 5655 793c
00000180: 0652 cfbc 71da 8b3c 5aae bf3c b7e0 70bd
00000190: 57a6 b23d 8de0 a33c 5f53 f33c b108 8fbc
000001a0: 3921 1cbd 18cb 8dbd bf79 2d3d 9688 593d
000001b0: a596 f8bc 33b7 0f3d bf7d 68bd 6b2b a6bc
000001c0: 0041 55bc eb16 1ebd 856d 93bd 948e 3ebd
000001d0: c083 813c 83f5 523d 606e 8a3d c5c0 013d
000001e0: 38fd 483d b47b aaba 8daa a3bc 12b5 523d
000001f0: 06f3 153d ecba cbbc 1d6c 5cbd cdf1 bd3c
00000200: cf43 dbbc aa2b a9bc 72a7 253d 292a b23c
00000210: 7277 5d3c 01a4 f2bb e293 27bd f7c4 45bd
00000220: 313c 8f3b 47d3 823c f01b 083c 0812 37bd
00000230: 5da9 0e3c 5028 ec3c d28e 943c 2459 123d
00000240: 79ee 3c3c 0166 e0bb 7e22 f23a 7817 05bc
00000250: 24ec 67bc aa29 753c ec1b 703d c8aa 1fbb
00000260: d0ed 0c3d 874a 86bd c0e1 823c e468 523c
00000270: cc03 ff3c a752 b83d 258b 78bd c3d2 5b3d
00000280: 1543 623c 0aba 3d3c 3385 243d a4f6 82bd
00000290: 2d96 083d d52d 91bd f6e9 093d 1398 943c
000002a0: 9bea d0bc 076c 73bd 2b08 a93c 60bb 933c
000002b0: 3f44 a2ba 9dc2 9cbd aa50 6cbc 246b 32bd
000002c0: 771c c13c f343 2dbb fabc 35bc 265e 2ebc
000002d0: 9fe5 b5bc d15d 7bbd 2dd2 d83c c350 13bc
000002e0: cfc5 8f3c 6621 dfbc 6337 eaba 49be a23a
000002f0: 835a 7bbc fdb1 d3bc d2ff fcbc 8305 d4bc
00000300: bdce 9d3b 2d74 9cbc 4ce2 d2bc 044e ac3c
00000310: ae9a d23a 6ef9 f73c a5d3 c33c f239 82bd
00000320: 0328 16bc c555 743c c3dd 16bd e31f dbbc
00000330: f399 8a3c 6ae6 d43c c4e7 98ba 0953 073d
00000340: 9f5b a5bc 35bc ff3a 4614 833c ecfe a4b9
00000350: 65a1 e63a 2182 9d3c befb 2d3d 4235 dfbc
00000360: 11a4 24bd 221c 583c 9e84 e43c 86e1 8a3c
00000370: 9205 103c b1f3 403c d696 d83c 9ca7 323c
00000380: 28ad 4fbc 69b1 92ba d38d 353d 2548 8e3c
00000390: 3608 213d 1730 303c 9971 ed3c cb21 f93b
000003a0: 1f1b 41bd 7626 37bb 306a 8dbc 7dd3 323d
000003b0: 13ae 233d 2d55 c9bc ca9b 033d 135a 92bc
000003c0: 8719 423d 7795 af3c 48b7 873d ece0 e13c
000003d0: 5698 963b 4803 433d 7dd5 da3a 4fff 17bc
000003e0: 732d a53c 2186 e9bc 1fe6 4d3d 0e29 4abc
000003f0: 0405 dcbc 8489 a7bd 43e6 42bb 9cae 653c
-0.008891452 -0.007009362 0.013399583 0.0022727107 -0.018762311 -0.025836313 0.04037011 -0.019735457
-0.032893684 0.037538745 0.032972116 -0.027544497 -0.0032446994 -0.023672989 -0.032143362 -0.05355161
-0.036911726 0.030308742 -0.003543767 0.020761563 -0.033703513 0.023927791 0.0061157737 0.00055805687
0.016170232 -0.009946125 0.031368595 -0.0038801995 -0.038394038 -0.06445929 -0.027246721 -0.00028136038
-0.0040139216 0.033773772 0.0051599704 -0.0624156 -0.02495174 -0.02171584 0.008905341 0.0038593912
0.019424405 0.007997551 -0.0019035052 -0.05160913 -0.008943775 0.025806457 0.032865994 0.026982313
-0.047320034 0.00062334276 0.028566519 -0.02389913 -0.017107084 -0.04820165 -0.030998735 0.011306969
0.022871979 0.03331964 0.03966411 0.026810177 0.022023425 -0.02190672 -0.009242763 0.0131404055
0.003080665 0.10853565 0.0069350116 0.015845714 0.040622573 -0.045934677 0.04044999 0.015290114
0.0068705054 -0.051951062 -0.056454666 -0.041602444 -0.013950769 -0.03418029 -0.01099828 -0.020026792
-0.054414358 -0.0024921123 0.018188376 0.008591647 -0.017977634 -0.018848712 0.04458131 -0.010818906
0.03206088 -0.014565581 0.008422933 0.033245593 0.0010460969 0.004238411 -0.04953557 0.0152181
-0.025307667 0.017071934 0.023398567 -0.058808055 0.08723133 0.020004535 0.02970284 -0.0174602
-0.03811762 -0.06923503 0.042352434 0.053108774 -0.03034527 0.03508682 -0.056760546 -0.020284375
-0.0130159855 -0.038596075 -0.071986236 -0.04652269 0.015809894 0.05150367 0.067593336 0.03167798
0.049069613 -0.0013006837 -0.019978786 0.051442213 0.03660872 -0.024869405 -0.053814042 0.023186589
-0.026765732 -0.020650703 0.04044289 0.02174862 0.0135172475 -0.0074048047 -0.040912516 -0.048283543
0.004371189 0.015969886 0.008307442 -0.04469493 0.008707372 0.028827816 0.018134508 0.035729542
0.011531466 -0.0068480973 0.0018473414 -0.008123271 -0.014155421 0.014963547 0.05862038 -0.0024363268
0.034406483 -0.06557184 0.015976787 0.012842391 0.03112974 0.0900014 -0.060679574 0.053667795
0.013809939 0.01158 0.04016609 -0.06394699 0.033346344 -0.0708882 0.03367039 0.01813892
-0.025502494 -0.059429195 0.020633778 0.018033683 -0.0012379958 -0.07654307 -0.014423529 -0.04355921
0.023573143 -0.0026438206 -0.011092419 -0.010642564 -0.022204218 -0.061368767 0.026467407 -0.008991423
0.017550377 -0.027237605 -0.001786929 0.0012416329 -0.015341404 -0.025841707 -0.030883703 -0.025881534
0.004815905 -0.019098366 -0.025742672 0.021033294 0.0016067827 0.030270305 0.02390463 -0.063587084
-0.009164813 0.014913027 -0.036832582 -0.026748603 0.016919112 0.025988776 -0.0011665751 0.033038173
-0.02018529 0.0019511046 0.016000878 -0.0003147045 0.0017595707 0.01922709 0.04247641 -0.027247075
-0.04019553 0.013190301 0.027895268 0.016953241 0.008790391 0.011776851 0.026439112 0.010904219
-0.012675561 -0.0011191788 0.044324707 0.017368386 0.03931447 0.010753653 0.028984832 0.0076029054
-0.047145005 -0.0027946508 -0.017262548 0.043658722 0.039960932 -0.024576748 0.032130994 -0.017865216
0.047387626 0.021433575 0.06626755 0.027573071 0.0045957966 0.04761055 0.0016695705 -0.009277179
0.020163273 -0.02850634 0.05026829 -0.01233889 -0.02685786 -0.08180526 -0.0029739297 0.014018681

network_body._body_endoder.seq_layers.0.bias f4 [128]
00000000: 614e 4d3c 387b 633c dbd0 893c 026f 673c
00000010: 1918 fabb 2570 b3bb 94b2 e93b fc2a 25bc
00000020: 48e5 0c3b dca4 763c 3508 2b3c 7579 913b
00000030: baa5 453b f3da 95bb e3b8 e43b 2fa7 1d3c
00000040: af7a 6d3c 7607 f4b8 0b73 fe3a afd2 5a3c
00000050: e5c7 d63c c617 15bb a56e 793a 212d d53b
00000060: 218c 34bb 1fd3 e4bb 661a 883c ab40 1bbc
00000070: 57a6 ecba 8acb 8d3c 5c27 83ba e0f9 ab3a
00000080: ad92 d43c 1cfb 623b 0407 0b3c 0d3b 343b
00000090: ecca 773c 6a10 de3b 94dd 833c 73aa 113c
000000a0: ccf3 743c 7ddc 0b3c 10d5 f53b dd3d f8ba
000000b0: 9d97 553c 71c2 503c 61ec ca3b 2d8a 763c
000000c0: 3d67 713a 37bb bf3b 66f7 303c 1cbc a43c
000000d0: 7717 a43c ba9e 57ba 0c4c 123c c0ba 2d3b
000000e0: 661a 2ebb da18 8cbb 5449 883c 16c0 9cbb
000000f0: 4457 8a3c b631 203b 9d73 d5bb f9c1 d03c
00000100: 9e0e 653c 704c aa3c ac71 983c 2f63 313c
00000110: 76c9 3c3c ed99 993b 5b3e 1a3c cd4b 8b3b
00000120: ad22 c23b 90e9 983c 8507 d63b 589d b93c
00000130: 22f8 163b 4492 533c 1efa b93c 43a6 873c
00000140: f923 5e3c be37 793c c2be 1fbb 19b4 7fbb
00000150: 4825 1a3d 6581 983b f69e 5a3c 7604 193c
00000160: 5d8c 023c 5f9a 063d 6d9c b03b b48b 103c
00000170: 6004 a53c f4dc 9a3b dfa0 f339 85f4 1a3b
00000180: 8e1b 8f3c 439b b7bb 3c67 a63c de9e 513b
00000190: 73f8 123b 9f42 513c 6744 c33c fa93 a93c
000001a0: 6624 ca3a e596 293c c0b1 aa3c 4b33 313b
000001b0: a424 4c3c 81d3 623c 6086 a53b 32ce 9abc
000001c0: 4e7a 283c e4ef ebbb 872e a73c 4237 19bb
000001d0: b936 51bb aecd b93b 3920 573b 487b e3bb
000001e0: d7cb ea3b f9b3 9b3b d6a6 313c 932a a03c
000001f0: 6cbc 943c 6ff7 a73b 98bc c1ba 94a4 b93c
0.012530894 0.013884358 0.016823223 0.014125587 -0.007632267 -0.005476015 0.007131884 -0.010081049
0.0021498967 0.015053954 0.010438968 0.0044395276 0.0030158595 -0.00457322 0.006980048 0.009622379
0.014494582 -0.000116362164 0.0019412948 0.013355895 0.026218364 -0.0022749766 0.00095150835 0.006505624
-0.0027549344 -0.0069831754 0.01661415 -0.009475867 -0.0018054944 0.017308969 -0.0010006237 0.0013120733
0.025948847 0.0034634536 0.008485559 0.0027501017 0.015124064 0.006776859 0.016096868 0.008890736
0.014950704 0.008536455 0.0075022057 -0.0018939335 0.013036636 0.012741671 0.0061927293 0.015047592
0.0009208804 0.005851175 0.010801172 0.020109229 0.02003072 -0.0008225251 0.008929264 0.0026509017
-0.0026566028 -0.0042754235 0.016636528 -0.0047836406 0.016887315 0.0024443693 -0.0065140263 0.025483118
0.013980536 0.020788401 0.01860889 0.01082687 0.011522641 0.004687539 0.009414281 0.0042509795
0.005924544 0.018666059 0.006531658 0.022658035 0.0023036082 0.01291329 0.022702273 0.016558772
0.013558381 0.015211044 -0.0024375175 -0.0039017259 0.03763321 0.004654097 0.013343563 0.0093394425
0.0079680355 0.032862063 0.005389741 0.00882237 0.020143688 0.0047260467 0.0004646843 0.002364428
0.017469194 -0.0056032254 0.020312898 0.0031985561 0.002242592 0.012772231 0.023836328 0.020700444
0.0015422225 0.0103509175 0.02083671 0.002703863 0.012459908 0.013844372 0.005051419 -0.01889715
0.010283066 -0.007200228 0.020407928 -0.0023378883 -0.0031923486 0.005670271 0.0032825603 -0.0069421865
0.007165413 0.004751679 0.010842999 0.019551551 0.018156253 0.005125932 -0.0014780937 0.022661485

network_body._body_endoder.seq_layers.2.weight f4 [128, 128]
00000000: b4ac cf3d 775f f43d 5a81 093e 7e86 95bc
00000010: 5210 64be 6e6c f9bc b3e6 513d 161f 2fbe
00000020: 768a 9ebd b324 463e 7aee 19bd 9b33 89be
00000030: 6a3d 36bc 82e7 803d fdd2 b2bd 9ef7 8fbe
00000040: 07c3 153d adee 003c f7c2 c3bd 3630 183b
00000050: 21fb 303e b7f4 dc3d 20c6 603d a122 1a3b
00000060: 4048 c1bd 706f 06be 0f5a b13d 3f59 12be
00000070: afb4 c3bd e1ac 383e 60e0 05bd bfcb 653c
00000080: fe54 81bd 7738 bf3d 5756 113e 998a 68bd
00000090: 09f5 90bd faca 9ebc b92b ae3c 53ef 16be
000000a0: 64d1 2ebe fa7c f3bc f958 633e 7762 e3bd
000000b0: a2a9 8c3e a398 febc fd1b c9bd 8129 fabd
000000c0: 17fb a0be 178b dcbc 01f1 69bd 3501 f83d
000000d0: e98b 1a3e 78f8 c6bc b525 c23d ba10 dc3c
000000e0: 601f 0cbe 486e e03c 24d4 75bc fe90 a9bd
000000f0: 6b9e 493c f0d7 823d bd50 193c b28e 343e
00000100: ffa3 773c 3de7 923d 9c2e 3c3e a3f1 24be
00000110: c36b 29bd 0d9f 2abc 83f9 103e 196d 0fbc
00000120: 049a e63a 1074 383c d13f ac3b 5a38 18bd
00000130: 7f5e 873d e96e 613d 5836 653d 03f2 1a3e
00000140: 579b a83c 3d60 663d 50c8 50be dfeb 02be
00000150: 6452 be3c eb85 113d b193 a13d c98a 1e3c
00000160: f45b df3d f0cf 2f3e 3512 a23c 2411 1abe
00000170: e109 ec3d 8e94 d1bd 1ddb e2bd 1071 623c
00000180: b143 0d3e 36bc 0d3e 336e 98bd 1480 1bbc
00000190: ed68 993d 4799 9d3d f115 303e e522 4cbe
000001a0: d016 873d 699b 97bd 4d58 cf3d e20a 8dbd
000001b0: cb36 193d 84a7 40bc c00a 5bbd c60d 92bd
000001c0: eb96 a2bd 5646 d7bd 9ec0 0e3e 999d 653c
000001d0: 9243 3abd 2718 1abd f779 e73b 3b66 c6bd
000001e0: c6e7 48bd e7aa 58bc af05 00be c125 22be
000001f0: 1971 5e3e 3e48 b43d 6861 e8bc ad4d 243d
00000200: 67fe 383d b5c1 813c 4f4f cf3d b8d8 fdbd
00000210: 103e b33c ea83 643e 2bbd 933c be70 3cbd
00000220: d01f 0d3e 9c3d 213c a444 903c 6f0e 64bd
00000230: df59 a9bd 9d43 053e 22b5 a5bd 9d39 10bd
00000240: ae13 043e c5b9 eabc b59b 3f3d 2a5f 7c3e
00000250: 5bf7 1a3c 6ec2 683d d433 44bd 1634 6abd
00000260: cb39 babc 1796 333c 41be e83c 09ef 273d
00000270: f123 20be 27d5 9dbb fcde 6d3d b4ea 6cbb
00000280: 9e3d 7e3d 6525 853c 8a40 513c e304 d63d
00000290: d356 323e 79af c8bd cf25 9ebc 5752 b8bd
000002a0: cd3d c03c a4e4 d23d 4296 51bd b5ec 02bc
000002b0: 505b d73d 9451 33be a851 fabd 4e12 0bbd
000002c0: 9f32 973c be0a afbd b58a 0dbd bdde debd
000002d0: 19dd 1ebe 91a9 4e3c d817 8b3d b59a 2ebe
000002e0: 0909 fd3c ce9c 853d 0019 e83c 1398 133e
000002f0: 64d9 05be 5add 8b3d 7246 0fbd e7be d7bd
00000300: f252 07be cb92 3abc ac9d ccbd 098e 05bd
00000310: 6799 0c3b f519 c23d 0dfd 1b3e 3a69 d43d
00000320: 4482 21bc babf c1ba 4cc4 02be 0344 49bd
00000330: ea2c e33d 84a8 debb c545 40bc 6a82 1a3e
00000340: 4c67 97bd 0593 d43b 5ff0 283d 9d6d 77bd
00000350: c641 42bc 77a7 28bc 4b41 b23c 690c e2bc
00000360: 8fae 89bd 1b14 893d 266c fbbd 6400 e0bd
00000370: f565 eabd 122f ab3d deca 1dbe 2c6f 6bbd
00000380: 569d 69bd 6f44 c33d 078b 9ebd acaa 57bd
00000390: 375e 6c3d 093d 52bd 3316 a23d b568 69bd
000003a0: 9da8 21be 8537 5d39 b49e 833b 2a9c a73d
000003b0: b20a c53c 4716 f5bd d99d 31bc a8e8 153e
000003c0: 5b12 bf3d 1519 8d3d 7a27 f33d 7391 a93d
000003d0: 4089 af3d 851a 84bd 5a16 61bd 5ef8 903d
000003e0: 0de4 07bb 51ba 25bd 5650 643d a37a 5dbb
000003f0: 2c76 1abd 77b8 68bd 5f9f f23b 2a5e b7b8
0.101403624 0.11932271 0.1342825 -0.018252607 -0.2227185 -0.030447211 0.051245403 -0.17101702
-0.07741253 0.19349937 -0.037580945 -0.26797184 -0.011123041 0.062941566 -0.08731649 -0.28118604
0.036562946 0.007869405 -0.09558671 0.0023222095 0.17283298 0.10788863 0.054876447 0.0023519176
-0.09437609 -0.13128448 0.086597554 -0.14291857 -0.09555947 0.18034698 -0.032684684 0.014025628
-0.06315039 0.09336942 0.14193092 -0.056772802 -0.07077987 -0.019383896 0.021261083 -0.14739732
-0.17072064 -0.02972268 0.22201909 -0.11102765 0.2747317 -0.031078642 -0.098197915 -0.122149475
-0.31441566 -0.026921792 -0.057114605 0.12109605 0.15092434 -0.024288401 0.09479848 0.026863445
-0.13683844 0.027396336 -0.015004192 -0.08279608 0.012305836 0.06388843 0.009357628 0.17632559
0.015114783 0.071730115 0.18377155 -0.16107802 -0.041362535 -0.010413897 0.14157681 -0.008754038
0.0017593508 0.01125814 0.005256631 -0.037163116 0.066098206 0.055037413 0.05596003 0.15131383
0.020581884 0.056244124 -0.20388913 -0.1278529 0.023232646 0.035528105 0.07889498 0.009676644
0.109062105 0.17169166 0.019784072 -0.15045601 0.11525322 -0.10233413 -0.11076949 0.0138209015
0.13795353 0.13841328 -0.07442894 -0.009490985 0.07490716 0.07695251 0.1719587 -0.19935186
0.06596148 -0.07402689 0.10124264 -0.06886841 0.03740577 -0.011758689 -0.05347705 -0.07131533
-0.079389416 -0.105114624 0.13940665 0.014014625 -0.045474596 -0.03762069 0.0070641 -0.09687468
-0.04904916 -0.01322434 -0.12502168 -0.15834714 0.21722831 0.088028416 -0.02836676 0.04011314
0.045164492 0.015839437 0.10122549 -0.123948514 0.02188018 0.22315946 0.018034538 -0.046005957
0.13781667 0.009841349 0.017610855 -0.055677827 -0.08269095 0.13014074 -0.08091189 -0.035211194
0.12898132 -0.028653035 0.046779353 0.24645677 0.009458388 0.056826048 -0.04790099 -0.05717858
-0.022732636 0.010961077 0.028411033 0.040999446 -0.1563871 -0.0048166695 0.058073983 -0.0036150636
0.06207048 0.016253183 0.012771735 0.10450151 0.17415933 -0.09799094 -0.019305138 -0.0900008
0.023466969 0.10297516 -0.051168688 -0.007991006 0.10515463 -0.17511588 -0.12222606 -0.033953004
0.018456755 -0.08546971 -0.03455611 -0.10882328 -0.1551403 0.01261367 0.06791657 -0.17051204
0.030888097 0.06524049 0.028332233 0.1441348 -0.13071209 0.06829329 -0.03497929 -0.105344586
-0.13215235 -0.011387537 -0.09991011 -0.03260616 0.002145374 0.09477607 0.1523325 0.10371633
-0.009857718 -0.001478187 -0.12770194 -0.049137127 0.11092551 -0.006794991 -0.011735384 0.15088812
-0.07392749 0.0064872527 0.04124486 -0.06040727 -0.011856502 -0.010293833 0.02175965 -0.027593808
-0.067227475 0.06693288 -0.12276487 -0.109375745 -0.11445228 0.08358587 -0.15409419 -0.05747907
-0.057034813 0.09534537 -0.07741361 -0.052653 0.057707038 -0.05132774 0.079143904 -0.056984622
-0.15786977 0.00021096885 0.0040167216 0.08184083 0.024052951 -0.1196714 -0.0108408565 0.14639533
0.09329673 0.0688955 0.11872764 0.08279695 0.085711 -0.06450371 -0.054952957 0.07078622
-0.0020735294 -0.04046089 0.055740677 -0.003379502 -0.037710354 -0.056816544 0.0074042524 -8.7436594e-05

network_body._body_endoder.seq_layers.2.bias f4 [128]
00000000: 9d9d 9c3c f62c 0aba 7694 df3a 2b1d 803c
00000010: 00e9 5b3c a44e a23c c3ad 833c 680a 633c
00000020: 8055 9d3c 5c92 cdba 80c1 85ba 6466 5fb9
00000030: 9a3b 343c 51f3 083b 44e1 953b 58e4 75bb
00000040: 44fd 893c 8ab8 9439 c251 dabb bdef 583b
00000050: 2efc 5b3c c0be 623c e120 263b 43db f938
00000060: 8e7b 083c 2eb0 da3b 77f4 f83a 0e2b 7b3c
00000070: 1dfd 13bb 06b2 4e3b 8a47 773c 29ba 003c
00000080: 0304 5f3c b333 91ba 6224 ac3c 45c4 393c
00000090: ba1a c23b 58ad 923b d9ec 8b3b 4606 e33b
000000a0: 297e 943c 0f69 a83b 63d5 2d3b 8fc4 733c
000000b0: 5d2f 5c3b 7b99 503c 33db 983c 8e8c 7d3c
000000c0: af7c c53c 01a7 873c 24b0 153c 04ff 383b
000000d0: 42e6 3d3c 84f6 813c 7a23 973b ddc2 5c3c
000000e0: 6a68 243c 58f6 10bb b9a2 9d3b 2097 403c
000000f0: 017b 7f3c f038 213b 1fd4 083c e88b 243b
00000100: 9d3f b3ba e527 a83c 4ac6 e23b f357 aa3b
00000110: fc02 e13b 39aa edbb 35cb 983b c293 773c
00000120: 3a3e 273c f98f f53b 5c66 4a3b ab17 1d3c
00000130: b64c 6f3c 8ac9 78ba 41af 703c 0cd9 3c3c
00000140: 2023 283c a372 8b3c f723 a53b c12d 883b
00000150: 2cc8 8e3b fe5f d53b 8e7d a7bb 5714 6d3c
00000160: c319 c9bb 73c8 9f3a e1cd 453c e62f d33b
00000170: ae39 993c 9b5f 0cbb 9bdd a53b 40a2 ba3c
00000180: 135b 973b 23ae 2a3c 7d69 c93b 690a 903c
00000190: 4a3c c7bb 38e0 933b 07d3 f13a 1927 73ba
000001a0: 7353 a23b 7cef 8c3c db99 7a3b ff6a 503c
000001b0: 91e3 a93b 7cd4 603b cb19 223b cbc3 ba3b
000001c0: 9b52 6a3c 4b6d 503c 7e70 093c 678b 353a
000001d0: 0d35 573b 8930 1e3a fd8d 883b 07bd 8f3b
000001e0: 7cb3 75bb 0c97 743c 0a90 cd39 e4d3 8b3c
000001f0: 2128 393c 6b8d 083c 5245 173c 54e0 133c
0.019118125 -0.0005270982 0.0017057795 0.015638908 0.013422251 0.01981289 0.016074067 0.0138574615
0.019205809 -0.0015683877 -0.0010204762 -0.00021305081 0.011000538 0.002089698 0.004573973 -0.0037520137
0.0168444 0.00028366252 -0.0066625783 0.003310188 0.013426824 0.013839424 0.0025349187 0.00011914086
0.008330239 0.0066738343 0.0018993755 0.015330089 -0.0022581287 0.0031539216 0.01509274 0.007856884
0.013611796 -0.001107803 0.021013442 0.011338298 0.005923596 0.0044762306 0.004270178 0.006928238
0.018126564 0.005139477 0.0026524893 0.014878406 0.0033597567 0.012731905 0.01865921 0.015475405
0.024107305 0.016559126 0.0091362335 0.0028228173 0.011590542 0.015864618 0.0046123834 0.013474193
0.01003466 -0.0022119489 0.004810658 0.011754781 0.015593291 0.0024600588 0.008351355 0.0025107805
-0.0013675574 0.020526836 0.0069206106 0.0051984726 0.006866811 -0.007252958 0.004662896 0.015110912
0.010207707 0.0074939695 0.0030883765 0.009588162 0.014605692 -0.0009490481 0.014690221 0.011526357
0.010262281 0.017022436 0.0050396877 0.004155845 0.0043573584 0.0065116873 -0.005111403 0.014470181
-0.0061371042 0.0012190476 0.012073011 0.006444919 0.018704262 -0.002141929 0.005061818 0.022782445
0.004619011 0.010417494 0.0061466084 0.017583089 -0.006080185 0.004512813 0.0018449732 -0.00092755404
0.0049537956 0.017204039 0.0038238678 0.012720822 0.0051845987 0.0034306338 0.0024734612 0.00569961
0.014301921 0.01272137 0.008388637 0.00069253746 0.0032838017 0.0006034454 0.004167317 0.0043865475
-0.0037491014 0.0149285905 0.00039207964 0.01706881 0.011301071 0.008334498 0.009232836 0.009025652

action_model._discrete_distribution.branches.0.weight f4 [4, 128]
00000000: 68fd 8c3c e752 e63b 1b93 54bd 9b99 083d
00000010: ea08 5ebd 4640 293d 80d7 a43c cc78 403d
00000020: 3e26 053d 3808 cfbc 7c44 f9bc a8d0 1cbc
00000030: a27e 6dbc 5119 56bb a28e e8bc 2f00 d6bc
00000040: f7bb 33bc bf22 18bc a001 f1bc 5ae0 50bd
00000050: e105 de3b a4d9 5f3c 063f 47bd a5f6 bebc
00000060: 756f ac3c 667a b2b9 df8e 18bd 005b 953c
00000070: dfd8 c0bc 5148 5b3b ae26 4bbc ef59 fe3c
00000080: aa3f 7c3c 6b5e 1cbd a5f5 1c3d cd9e b3bc
00000090: 3760 4cbd ebbe 24bc 2299 a7bc 55a3 ce3c
000000a0: 4bc5 193d bcc0 ec3c 72a1 52bd cbb9 9ebc
000000b0: 8b7b 5d3c 81fe ed3c 852d 523d ec3d d13c
000000c0: 4de3 873c 14a7 443d b7e1 3bbc 255e acbc
000000d0: dd39 0d3c 0663 d9bc 8fd3 00bc a05c 823b
000000e0: 657d 57bd d278 0dbd 7916 f03a bed7 96ba
000000f0: 3e75 c93c 998a 97bb 81c8 1f3d 233c 11bd
00000100: 821c 92bc 4966 133d ab2d b6ba 9f42 3bbc
00000110: 7067 13bd c22b b7bc f188 ae3c e6af 283d
00000120: cf65 56bc 55f1 483c 7bea cabb b532 10bc
00000130: c6dc cf3c 52a5 533c 8958 61bc a718 663a
00000140: ac44 2dbd 5f48 1f3d 7a32 423c a696 873a
00000150: 31ed ac3c 12af 44bd f1ff 3cbc bdf9 303d
00000160: a72b 193c 774e 98bc 4e0c a73b 7ea7 91bc
00000170: 05bf f33c 7806 dbbb 181f d4bc d244 3a3d
00000180: dfb3 d83b 94eb aa3b 9e59 7a3c db10 ffbb
00000190: 45ca 71bc 6703 26bd b78c cdbc 0ecf 82ba
000001a0: 6a39 34bd 39c6 d13c 12cb 8dbc 89dc 453d
000001b0: 9087 12bd 8e82 21bc 7e2d f2bc d6b5 803c
000001c0: ad2d 023b 98e5 c23c 35d9 8dbc 9e8b 22bd
000001d0: 2ac2 41bc a32e 303b 329f c2bb c141 603a
000001e0: dc27 6abc d881 c2bc b967 533b a408 eb3c
000001f0: 9a7a 453d a748 4b3c 1183 26bd 97de 2c3c
00000200: 2cf3 b33c 5ac2 a63c 2147 d13c 2259 84bc
00000210: 4b3f 4fbd 1224 25bd c6dd aabb 0734 d1ba
00000220: 8bb0 743c 0cd9 1bbc ef05 f2bc fcab 013d
00000230: 2e66 06bd 0caa 1abd a37a 4abc bda3 823c
00000240: 9de6 51bd e2f6 a93b 2673 9cbc 2018 353d
00000250: 4d05 36bd 38cd 6abd eab6 6d3b 285d af39
00000260: e0f7 bf3c 3886 4fbd c766 d23c 4d40 8abc
00000270: 720b e8bc aa31 313d ef3c 173d e4c5 e83c
00000280: 3ab7 07bd f79d a5bc 6fd3 573d 44fc 2abd
00000290: 066c b9bb dd01 953c 0625 303d 04ce 96bc
000002a0: 333c 0ebc dd9e bb3b ec92 fd3c c4b7 55bd
000002b0: cde2 9f3c 18b2 1fbd 0201 da3c e31f 80bb
000002c0: 2fa6 173d 21fb 533a 1d4b 40bd 886a 753d
000002d0: 18ed 0c3d 68c3 32bd 5295 233d bce4 85bd
000002e0: 3123 3b3b a50d 443c 6c97 e73c 9e0f 93bc
000002f0: 8aec ad3c 14f3 a13c 0660 54b8 8043 383d
00000300: 4156 803c 76a3 233b 60e7 08bd 7d2d 32bd
00000310: b5ae fb3b 5edf f4bb 6e23 583b 053a 573c
00000320: 738e 233c b525 873d 738b 1cbd 5865 133d
00000330: 2e04 ddbc 9cfd 193c ee86 5ebd 5f53 64bd
00000340: 504a 28bc f9c4 0f3d 16a1 1c3c 07ac 0e3d
00000350: 0aac aebb e531 bfbc 2f1b 5cbc f30f c4bb
00000360: fe54 13bd 7c0e f93c cc35 30bd ba0e 2dbd
00000370: 4fa9 3e3c 22ad 02bc 96a5 1c3d f3df e03c
00000380: ea36 5e3d 1e4f 74bd a539 02bb b46e 6abd
00000390: dee0 24bc ca59 cfbc a32f 293d bc1e 073d
000003a0: b811 e83c 5fd3 56bc a1de 723d 3839 503c
000003b0: 84ae f53b cf0f bdbc 8a13 b63c 39cc 35bd
000003c0: 4ffc 3a3d 4fae 8abc 542d 68bd 48d9 ed3c
000003d0: 0d37 a33c ee5b 05bd 3452 6c3d 62dc dbbc
000003e0: 063c 13bc 3a5b 1cbd 212b 1fbd 07af 133d
000003f0: 1726 f43b adab 443c acd1 76ba 2d88 f5bc
0.017210677 0.0070289257 -0.051898103 0.033349615 -0.05420772 0.04132106 0.02012229 0.0469902
0.032507174 -0.025272474 -0.030428164 -0.009571232 -0.014495524 -0.0032668898 -0.028388325 -0.026123134
-0.010970107 -0.009285628 -0.02941972 -0.05099521 0.006775603 0.013662729 -0.04864409 -0.023310969
0.02104924 -0.00034042 -0.037245627 0.018231869 -0.023540912 0.0033459852 -0.012399359 0.031048743
0.015396038 -0.03817598 0.038320202 -0.021926308 -0.049896445 -0.010055284 -0.020458762 0.025224367
0.03754167 0.028900497 -0.051423497 -0.019375702 0.0135182245 0.029052021 0.051312942 0.025542222
0.016587878 0.0480109 -0.011467389 -0.021040985 0.008619753 -0.026536476 -0.0078629395 0.003978327
-0.05260982 -0.03453905 0.0018317244 -0.0011508388 0.024592038 -0.0046246764 0.039009575 -0.03545774
-0.01783586 0.03598622 -0.0013899108 -0.011429458 -0.035987318 -0.022359733 0.021305533 0.041183375
-0.0130857965 0.012264569 -0.006192503 -0.008801152 0.025373828 0.012917833 -0.013754019 0.0008777477
-0.04230182 0.038887378 0.011852855 0.0010344579 0.021109195 -0.048018523 -0.011535631 0.04320692
0.009348786 -0.018592102 0.0050979024 -0.017780062 0.029754171 -0.0066841207 -0.025893733 0.04547579
0.006613239 0.0052160714 0.015280155 -0.0077839918 -0.0147576975 -0.04053059 -0.025091512 -0.000997992
-0.044000067 0.025607215 -0.017308746 0.04830602 -0.035773814 -0.009857787 -0.029562708 0.015711706
0.001986365 0.02379112 -0.017315486 -0.03968393 -0.0118260775 0.0026883266 -0.0059393877 0.000855472
-0.01429173 -0.023743555 0.0032257868 0.028690644 0.048212625 0.012407458 -0.04065234 0.010551116
0.02196654 0.020356346 0.025546612 -0.016155783 -0.05059747 -0.040317602 -0.0052144257 -0.001596094
0.014934669 -0.009512197 -0.029543845 0.031658158 -0.03281229 -0.037759826 -0.01235834 0.015947217
-0.05124532 0.0051869014 -0.019097876 0.04421246 -0.04443865 -0.057324618 0.0036272355 0.00033448008
0.023433626 -0.05066511 0.025683774 -0.016876364 -0.02832577 0.043260254 0.036923345 0.028414674
-0.033133723 -0.020216925 0.052691873 -0.041744485 -0.0056586294 0.018189365 0.04300406 -0.018408783
-0.008681345 0.005725725 0.030953847 -0.052177206 0.019517327 -0.038988203 0.026611809 -0.003910051
0.03702372 0.00080864324 -0.046946634 0.05991605 0.034405798 -0.043643385 0.039937325 -0.06537768
0.0028554911 0.011966144 0.028270446 -0.017951783 0.021230955 0.019769229 -5.0634168e-05 0.044986248
0.015666129 0.0024969256 -0.03342378 -0.043500412 0.007680739 -0.0074729165 0.0032980102 0.0131363915
0.009982693 0.06598989 -0.038218927 0.03598532 -0.026979532 0.009398844 -0.054327898 -0.05574357
-0.010271624 0.035099957 0.00955989 0.034832027 -0.0053305672 -0.023339221 -0.013434215 -0.0059833466
-0.035969727 0.030402415 -0.043020055 -0.042250372 0.011637046 -0.007975848 0.038243853 0.027450537
0.05425159 -0.059645765 -0.0019870785 -0.05723448 -0.010063378 -0.02531137 0.041305196 0.032988295
0.028328761 -0.013111918 0.059294347 0.0127089545 0.0074976105 -0.023078827 0.022226114 -0.044384215
0.045650776 -0.01692882 -0.056683853 0.029034272 0.019923711 -0.032558374 0.057695583 -0.026838485
-0.008986479 -0.038172938 -0.03885949 0.03605559 0.0074508297 0.012003821 -0.0009415399 -0.02997216

action_model._discrete_distribution.branches.0.bias f4 [4]
00000000: 9ccc 873b 0c92 8cbb b6d6 d5bb 5977 cc3b
0.0041442644 -0.004289871 -0.0065258397 0.0062398133
