results/22/SmartAgent.onnx (onnx, 745161 bytes, 15 tensors)

discrete_action_output_shape f4 [1, 4]
00000000: 0000 0040 0000 0040 0000 0040 0000 0040
2.0 2.0 2.0 2.0

network_body._body_endoder.seq_layers.0.weight f4 [256, 200]
00000000: 6d96 eb3c 2e44 a6bd dd8d aa3d e7f6 1ebd
00000010: 4355 afbc 29c0 6c3d e90f 7e3d bbe9 efbc
00000020: c6c1 dc3d 1798 203a 2a88 1f3e 75d4 e23d
00000030: 99ea 1e3e 5ad7 713d c7fd 403d f6c6 9bbd
00000040: 56ba 45bd a5f2 b93c 50d4 8ebc b776 32bd
00000050: db11 3f3d d4b4 dd3d 78a0 053b 1d1b 9e3d
00000060: 7792 96bc 9c13 95bd 2287 a9bd cc3c 95bd
00000070: f165 38bd dfdd a0bd 8d2a dbba fbac 02bd
00000080: b3d0 913d c87f ba3b ab4a dbbd 121b d03c
00000090: 8832 86bd 6000 933b c9c9 d9ba 9624 203e
000000a0: 4c01 1cbc 8f05 aabd 8872 873d 690f 5f3d
000000b0: bce9 953c ff71 4f3d 5582 55bd 5ca0 cd3c
000000c0: 9661 9cbd 648f 0a3d 5b86 a23d b8f0 9f3d
000000d0: 2c50 e33c 829d 9a3a be17 1cbd 21b8 a9bd
000000e0: 5444 313d 3472 363d 4540 b9bd ceb8 d5bc
000000f0: de0b 253e 8dd5 933d c62e 8abd 2185 18bb
00000100: 3cec 433e 93e0 aebd a426 d8bd 209e 0cbe
00000110: 62d9 b7bd 797c d63d f51b b83d 6d0b f33c
00000120: accb 8a3d 8065 0fbd 22ca 87bc fa49 e4bc
00000130: b782 febc 2b93 88bc 3f21 ffbc 329f 54bd
00000140: 07b4 99bd 3261 8cbd 33bd 84bd 2c0a fa3b
00000150: bede 07bd 6b18 183d 7193 ba3d ea7c d6bc
00000160: 219b b2bc 2448 42bd 02f6 9abc 61a6 5a3d
00000170: 7782 4cbd f42d 173d a532 663d 8d67 e13d
00000180: 4c1f b53c e51e a03d a34b 30be 368b 80bd
00000190: 04e4 923d 7b22 afbc d91f 8bbd 90a7 0bbe
000001a0: fabe dcbd 257e bebd d59e ad3d addc 41bd
000001b0: e8ff babd b0e5 10bb 5ddf bd3d 5b47 85bc
000001c0: 9ae2 163d acca 7fbc 07d6 b13d cd75 2abe
000001d0: eb99 313d e4a6 633c 70b0 203e a9d5 db3d
000001e0: b890 2fbc 5731 f1bc 392a ae3d 7f33 943d
000001f0: dbad 8fbc 616c fc3c 73c8 543d e6f8 273d
00000200: 9185 aa3d 21ff a9bd e6a0 07bd eebf 6e3d
00000210: 5bdd 3abc 2133 cc3d 6e6a a13d 12f5 103e
00000220: ddbd 5f3d 7bec 793c bd76 303c b3b7 92bd
00000230: 07e7 86bd ebcf 333d d84e d93c 7188 d5bc
00000240: 2727 68bd 19ef 0dbc a12d 353d 4057 c03c
00000250: 29f8 eb3d 6199 813d a317 3dbe 2501 ba3d
00000260: c8cf e33c 6004 ea3d a4ee 1abe fe94 303d
00000270: 85c0 0cbe d376 8dbc 3225 d93d 7132 22be
00000280: d021 c13d 4ad0 94bd 0702 39bd a558 523d
00000290: 6535 d63c 7471 e23c f725 3b3d da1c ee3c
000002a0: a7a9 043d 3bfb 4bbe b5f3 d7bc b837 6abd
000002b0: 9254 7abd 1dc1 953d 3aeb 94bd d2d1 2f3d
000002c0: 5168 c13c 1221 6ebd 0267 9fbd 8b7e e33d
000002d0: 70db ba3d 20ff 2aba 15fc dcbc 5efd 38be
000002e0: 8afc 9fbd a461 863d 8e20 8fbc 1579 153e
000002f0: 3ec6 1f3d 440b 64bd af31 f6bd 938b 933d
00000300: 6b2d 9b3c 1bbd 333e 93f4 c9bb 9ef7 74bd
00000310: 71e2 ca3c ad70 4e3d 6a48 c8bc b8ab 2bbd
00000320: 470b 433c bf00 48bd 4cf4 03bd c6b8 493d
00000330: ed68 15bd c52b 9c3c 36c1 853d 6005 8cbc
00000340: bbda d3bd fc37 1e3d d36b 0e3d eaf2 f33d
00000350: 32bf 42bd b2ee 2b3c a969 2abd de19 1f3d
00000360: faea f43d 0a89 a13d 7c1a 5d3d bca0 fdbd
00000370: 0a14 5b3d 0187 66bc f532 89bd eb49 45bd
00000380: f6cd b1bd a378 ecbc ea98 09bd 1003 0ebd
00000390: ced6 e1bc aa2d 3dbd 56bc ef3d 0136 a53d
000003a0: 60f6 053d 1939 95bc 5598 e5bd 2127 d13d
000003b0: 300e f23d 471d 88bd 971e c8bd 67e5 ce3d
000003c0: c9d2 cd3c 6250 203d 96fc 163e 8eff a5bc
000003d0: e1e5 04bd a02e a7bd 46e2 39be 82a8 ccbc
000003e0: f248 053d 2ca9 d9bc 6adb 26bc 0a06 70bc
000003f0: feca c5bd f5eb 843d 3eb2 bcbd 151e ebbc
0.028758252 -0.08118473 0.083278395 -0.038809683 -0.02140296 0.057800446 0.06202689 -0.029286256
0.10779147 0.0006126179 0.15579286 0.11075679 0.1551918 0.059043266 0.04711702 -0.07606308
-0.048273407 0.02269871 -0.017435223 -0.043570247 0.046647888 0.10825506 0.0020389836 0.07720015
-0.018380387 -0.07279131 -0.08277728 -0.07286987 -0.045019094 -0.078548186 -0.0016721055 -0.03190325
0.07119884 0.0056915022 -0.10707601 0.025403533 -0.06552607 0.0044861287 -0.0016615923 0.15638956
-0.009521794 -0.083018415 0.06613642 0.054458056 0.01829993 0.050645825 -0.052126247 0.02510088
-0.076358005 0.033828154 0.079357825 0.07809585 0.02774819 0.0011796209 -0.03810858 -0.08287073
0.043278053 0.044542506 -0.090454616 -0.026089098 0.16117808 0.07218466 -0.067472026 -0.002327271
0.19133085 -0.08538928 -0.10554245 -0.13732195 -0.08977009 0.1047296 0.089897074 0.029668534
0.067771286 -0.035008907 -0.016575877 -0.027867306 -0.03106819 -0.016671738 -0.031143783 -0.051909633
-0.075050406 -0.06854476 -0.064813994 0.007630607 -0.033171408 0.03713266 0.091101535 -0.02618261
-0.021802487 -0.04743208 -0.018916134 0.053381328 -0.04992911 0.03690906 0.056200642 0.11006079
0.02210965 0.07818393 -0.17216353 -0.062765524 0.07172397 -0.021378746 -0.06793184 -0.13638139
-0.107786134 -0.09301404 0.084775604 -0.047329593 -0.091308415 -0.002210956 0.09271119 -0.016269377
0.036837198 -0.015612286 0.086834006 -0.166465 0.04335968 0.01389477 0.15692306 0.10734112
-0.010715656 -0.029442472 0.08504147 0.072363846 -0.017538955 0.030813398 0.051948976 0.041008852
0.08326257 -0.08300615 -0.03311243 0.058288507 -0.011405314 0.099706896 0.07881628 0.14155987
0.054624427 0.015254135 0.010770497 -0.07163944 -0.06587034 0.043899458 0.026526853 -0.026066037
-0.056677964 -0.008662962 0.04423297 0.023479104 0.11521942 0.06328083 -0.18466048 0.090822496
0.027809039 0.11426616 -0.15130097 0.04311084 -0.13745315 -0.017268574 0.106027976 -0.15839554
0.09430277 -0.072662905 -0.04516795 0.05135407 0.026148507 0.02764199 0.045690503 0.029066492
0.032388356 -0.19920056 -0.026361326 -0.057182044 -0.06111581 0.07312224 -0.072714284 0.04292471
0.023609312 -0.058137007 -0.07783319 0.111081205 0.09123886 -0.0006523002 -0.02697567 -0.18065402
-0.0781184 0.06561592 -0.017471578 0.1459697 0.039007418 -0.055674806 -0.12021195 0.07204356
0.018942555 0.17552607 -0.0061631887 -0.05980646 0.024766179 0.050400425 -0.024448592 -0.04191181
0.011904544 -0.048828837 -0.0322154 0.04924848 -0.03647702 0.01906384 0.06530993 -0.017092407
-0.10344454 0.03862761 0.034770798 0.119115666 -0.04754562 0.010493921 -0.04160467 0.03884303
0.11958881 0.07887466 0.053980336 -0.12384173 0.053485908 -0.014070273 -0.066991724 -0.048166197
-0.08681862 -0.028866118 -0.033593096 -0.03467089 -0.027568247 -0.046186127 0.11705844 0.08066941
0.032705665 -0.018215703 -0.11210696 0.10212541 0.11819112 -0.06646209 -0.097714595 0.10102349
0.025124924 0.03913916 0.14744791 -0.02026346 -0.032445792 -0.0816319 -0.18152723 -0.024982695
0.03254027 -0.026569925 -0.010184148 -0.014649877 -0.09657858 0.06490318 -0.092136845 -0.028700868

network_body._body_endoder.seq_layers.0.bias f4 [256]
00000000: 8b95 be3b cc3c e6bb f3a2 5b3c 109b 423b
00000010: 10ed 8238 aec1 91bb cdf9 aa3a c08e 68bb
00000020: 1366 983c 73a9 c73b 7eff c8bb 84a2 aa3c
00000030: 96dc 39bc 1f4e 1a3c f8b6 20ba 8ea2 e53b
00000040: 13c4 9fbb 6f8e 1cbc 7a79 b63b 1ff7 443c
00000050: ea0d 95bb 74f2 97ba 94a6 f63b 7699 893c
00000060: 78bf 8bbb fcfa a1bb f87f 933b c369 d63c
00000070: a078 9bbb f164 1ebb 7ea2 313b 0925 86bb
00000080: d632 2f3b 5f03 02bc b43a 72bb 3bd6 053b
00000090: bee1 8c3c 9a8f 1b3c ab55 d13b 98dd efb9
000000a0: 6f3f a6ba cd0d 1e3c 06f1 6ebb fb40 c93b
000000b0: d27c 5a3b 0a3a 9339 0f2d a5bb 79e4 1c3c
000000c0: 66a7 01bb ebbb 28bb 6e64 2e3c bf42 053c
000000d0: 99e7 23bc e469 563b e9b0 b03a f114 6e3b
000000e0: 3d3c df3c 46b0 b03a 73cf 923b 36c0 babc
000000f0: 0413 2abc 392b 4c3c dc7f 823c 1977 293c
00000100: 5c5d 0c3c 9057 e0b7 87e1 81bb edf0 a5bb
00000110: d2bc 28bb b742 883b 13fa e33a dcc3 c3bb
00000120: ffcf 513c 65ea 433c c8f3 e6bb d810 0c3b
00000130: 9498 c6ba aef9 96bb 845f 34bb 5227 443c
00000140: e24d af3a 0758 d93b 0dff ac3c 9b17 febb
00000150: 4237 a23b 3e00 3fbc cbf0 803c 3115 5d3a
00000160: 263d 4e3a 902d a33a 349e 143c 9d1f 89bc
00000170: 9abb 733c 73b2 c13c ea6e 07bc e7c9 3f3c
00000180: dfa0 d23b c035 2c3c ead8 6e3a 685f c73b
00000190: b52a 0ebc aced 573c c9c7 d03a f365 433b
000001a0: a4fe 313c d085 eebb 2f85 3f3c 849a 89bc
000001b0: 2459 1d3c 6fff b53c 2d5b 1f3c c475 643c
000001c0: 7945 ba3a f079 bb3c cf87 923c 0662 563c
000001d0: 0550 1d3b 453a 193b c65e 613c 44c8 7ebb
000001e0: 2b67 45bb be2a c9bb e905 513c 0e4f 853b
000001f0: 67f7 17bc 2bf9 9a3b 4d79 013b 1f2c 53bc
00000200: 595b 8cbb f00b 7d3c 899c 02bc 2aee 8a3c
00000210: 5571 7abb 010d 85bc 615d 36bb 6138 573b
00000220: 9dc2 39bb 6e89 523c c248 3bba 6ceb 3d3c
00000230: f341 31bb 5819 4bba 071c 80b9 f3d8 68bb
00000240: c27e acbb cfa0 0abc d461 733c 725d c13b
00000250: 6b37 863c 866f 5f3c b233 bfbb 2b6b a53a
00000260: ae57 3ebb 69c8 51bc e514 74bc 5751 983b
00000270: 7d40 34bb 61f1 a3bb a861 6b3b 11e2 b53b
00000280: 91c1 383c 9aa7 513c f641 13bc 8944 ae3a
00000290: 0994 b43b 0bc0 9d3a 0203 f3bb b4cd ae3a
000002a0: 8344 233c 5664 3bbb 44dd 3c3b 332f 6e3c
000002b0: 01f2 ab3b d072 453c 9691 33bb 46f8 963c
000002c0: 4106 803b 6bfe 1f3a 4679 303c 3474 703c
000002d0: ab3d 00bb 44ed e23b 55ab 0d3a 6868 1e3c
000002e0: 7aca b23b a85b afbb cf70 21bb 6f51 51bb
000002f0: 4502 013c aebc 54bc 60f1 afbb addf 1abb
00000300: 1eb8 bcbb 69cd b5bb 62f6 66ba 69dd 4cbb
00000310: 38b4 a7bb d4e5 c5bb a28c 773c 2ceb b73b
00000320: 4b73 79bc a934 d9bb 2e2a 10bc 7686 a5bb
00000330: e48f 1f3c 332e 043c 097e 983c 7beb 913b
00000340: 92af 96bb 7a70 3e3c b5b8 10bc 150b 873b
00000350: e131 7abb 8067 c3bb cf1c 773b 11bb eb3b
00000360: 64a4 acbb 4a9d f6bb 61c1 1ebb 37f6 a5bb
00000370: 080b 3e3c c48f 58ba e026 20bb 2948 27bb
00000380: 4f86 1fbc 1c22 683b 4c52 0c3c e804 333b
00000390: f494 193c 474a af3c eebc 8d3b 27c5 583c
000003a0: 18da 5fbc c19d 8dbb 8058 dc3b ef58 32bc
000003b0: 5d27 d3bb be0d dcbb 8d7c 4b3c d00f a83a
000003c0: 91a0 31bb 0aaf b33b 2ded 9bbb 9a1a 973b
000003d0: ad69 e03a da74 06bc 4720 433b 5698 9e3b
000003e0: f511 793a 3ee4 0e3c 9f70 10ba 93d0 9bb8
000003f0: 7546 303c d47d e2bb 49d1 cf3c a121 aabb
0.0058161668 -0.0070262905 0.013405549 0.0029694475 6.2430394e-05 -0.0044481372 0.0013044417 -0.0035485476
0.01860336 0.006093198 -0.0061339727 0.020829447 -0.011344096 0.00941804 -0.000613078 0.0070079034
-0.004875669 -0.009555443 0.0055686804 0.012021809 -0.004548778 -0.0011592642 0.007527182 0.016796809
-0.004264768 -0.0049432497 0.004501339 0.026173478 -0.004744604 -0.0024169052 0.002710491 -0.0040937704
0.0026733181 -0.007935374 -0.003696126 0.002042188 0.017197486 0.0094946865 0.0063883862 -0.00045750733
-0.00126837 0.009646845 -0.003645958 0.0061417795 0.003333856 0.00028081267 -0.005040772 0.0095759565
-0.0019783615 -0.0025746773 0.0106440615 0.008133589 -0.010003948 0.0032716924 0.0013480458 0.00363284
0.027250404 0.0013480268 0.0044802963 -0.022796731 -0.01038051 0.012461477 0.015930109 0.0103433365
0.0085671805 -2.6743655e-05 -0.0039636525 -0.005064121 -0.0025747311 0.0041583437 0.0017393254 -0.005974276
0.012805938 0.0119577395 -0.007048104 0.0021372344 -0.0015151673 -0.004607401 -0.0027522752 0.011972265
0.0013374651 0.006632808 0.021117711 -0.007754279 0.004950435 -0.011657773 0.015739819 0.0008433639
0.0007867388 0.0012449492 0.009070922 -0.016738707 0.014876271 0.023644662 -0.00826619 0.011705852
0.0064278687 0.010510862 0.0009111302 0.0060843714 -0.008677174 0.013179224 0.0015928681 0.0029815405
0.010863934 -0.0072791353 0.011689468 -0.016797312 0.009603772 0.022216527 0.009726328 0.013944093
0.0014211378 0.022885293 0.017887024 0.013084894 0.0024003994 0.0023380679 0.013755506 -0.0038876692
-0.0030121307 -0.0061391285 0.012757757 0.004068262 -0.009275294 0.00472941 0.0019756139 -0.012888937
-0.0042833504 0.015444741 -0.007971891 0.016959269 -0.0038214524 -0.016241552 -0.0027826654 0.003284
-0.0028344758 0.012850149 -0.00071443256 0.0115917735 -0.0027047365 -0.0007747612 -0.00024434944 -0.0035529702
-0.005264134 -0.008461191 0.014854867 0.005901032 0.016383847 0.013637429 -0.00583502 0.001262044
-0.002904396 -0.012804129 -0.01489756 0.0046483683 -0.0027504258 -0.00500314 0.0035916362 0.005550631
0.011276619 0.012796307 -0.008987894 0.0013295572 0.005510811 0.0012035383 -0.00741613 0.0013336451
0.009965065 -0.002859374 0.0028818408 0.01453762 0.005247355 0.012051299 -0.0027400008 0.018428933
0.0039069955 0.000610328 0.010771101 0.0146761425 -0.0019568007 0.006925257 0.00054042536 0.009668447
0.005456266 -0.0053515024 -0.002463389 -0.0031939407 0.007874076 -0.012984438 -0.0053693503 -0.0023631856
-0.005759253 -0.0055481684 -0.00088105176 -0.00312599 -0.0051179193 -0.0060393605 0.015109213 0.0056127515
-0.015225242 -0.006628592 -0.008799119 -0.0050514294 0.009738896 0.008067655 0.018614786 0.0044531203
-0.0045985663 0.011623496 -0.0088331 0.004121194 -0.0038176703 -0.005963266 0.003770638 0.007193931
-0.0052686203 -0.0075260745 -0.002422415 -0.0050647515 0.01159931 -0.0008261169 -0.0024437234 -0.0025525189
-0.0097366115 0.0035420721 0.008564543 0.0027316157 0.009373892 0.021397723 0.0043255007 0.0132305985
-0.013662837 -0.0043217842 0.006724417 -0.010885461 -0.0064439015 -0.0067155054 0.012419832 0.0012822095
-0.0027103762 0.0054835128 -0.004758498 0.0046113255 0.0017121338 -0.0082065705 0.0029773877 0.004839937
0.0009501272 0.008721409 -0.0005509946 -7.429826e-05 0.010758986 -0.0069119725 0.02536835 -0.005191997

network_body._body_endoder.seq_layers.2.weight f4 [256, 256]
00000000: d730 07bd e4d0 0bbe e58d 6f3c ea73 9b3c
00000010: b63e 7abd 9183 0a3e 5e6d b23b f7e7 c7bd
00000020: e009 fabd 81bb 353d 136d ddbd 6655 eabd
00000030: 8985 313c afb2 25bb 890d 3abd f9dc 94bd
00000040: 6d1c 16bd eb7d d93c b95b b63d de73 6b3b
00000050: 74d5 c1bb 41d5 23bd d96b 90bd 3df8 57bd
00000060: 344b 65bd ef32 bfbd b19f b53d 91e4 31bd
00000070: 5ad3 913d 1cf9 623d cf16 a63b ab9a 20bc
00000080: fbd6 2d3b dc4f 8b3c 624f aebd 83f7 563c
00000090: b180 bf3d d6ee 11be 7d9b b93d 0248 b3bc
000000a0: 768c 33bc 2da8 96bd 7c68 afbc 0cab 39bd
000000b0: 3d4a b0bd 889d 5e3d a569 8cbc 29c5 0dbd
000000c0: a6b8 b03d aef1 e63d 5b15 0ebe 7aa8 25bc
000000d0: 3ef3 0d3d 8b69 963d 7093 10bd 27c5 1bba
000000e0: 97af 8ebd 4ee9 acbd 000d 3b3c 533e cb3d
000000f0: a89f 993c cf78 53bd a5d9 5abc ceaa ca3c
00000100: c2a7 e13d 35fe b8bd 7753 4ebc 639d ed3d
00000110: 8fb1 083d 5b92 2b3d 59ad 033d 6ce3 ecbb
00000120: da5e 953d c6cb 5abd 8399 273d d155 2abc
00000130: 601f d7bc a8a1 ea3d 7caf 4dbd d6ae 41bd
00000140: f854 ec3d 81b7 eabd bea3 f23d 42c7 023d
00000150: a8d7 0d3d 2e21 4fbd 36c2 b43c b372 8cbc
00000160: a813 04bd ef63 e1bc 04da b4bb 2d48 e7ba
00000170: e921 213d 5f8e 48bd c3dd 6f3d ba35 b13d
00000180: 9b85 34bd e4d3 55bd 6f7e a83c 5bb0 fbbd
00000190: c818 4fbd 3d8b 05bd b150 9ebd 9bf7 693d
000001a0: 5f18 063c baa3 703b 010a d0bd 741a 803d
000001b0: 1294 3d3d 9835 9ebc 5c47 cebc 4553 83bd
000001c0: 448a ddbb ad32 9b3d 2432 acbc 5e21 85bd
000001d0: 9ae6 c2bd 8d7d a53d 5d16 15bd 986e 34bd
000001e0: 13b4 ffbc 4013 c4bd 4811 9e3d 190b 273d
000001f0: cc5b 66bc 8e73 9abd f358 873d dd62 5f3d
00000200: 05c8 8cbd fffe 2ebd 249c 03bc 44f2 0f3d
00000210: f531 c1bd a004 e1bd d2ad cb3c 1b1b e53c
00000220: 0200 9d3d 194a 19be 0c4d 49bd 5423 34bd
00000230: 774f 973d 831d 8b3d a086 913d e794 203d
00000240: a0b8 673d 83da 04be fa81 e1bd 0d88 b83d
00000250: 8c43 0f3e e540 393c 0c3c 7b3d 5886 a73d
00000260: 832f 913d 0123 33bd 3aa6 373d 7748 febc
00000270: d511 093e 24b5 01bd e74d c0bd 7ad0 903d
00000280: f753 5fbd 017b 693c a698 53bd cb0a 2c3c
00000290: 6ea5 103d 7ef9 6a3c 8fef e93c 82ea 70bc
000002a0: 8830 0c3b 564f dc3c e40b c4bc 86a8 fb3c
000002b0: 26dc 9a3d ec55 ca3c a4a0 89bc a8c7 7e3d
000002c0: d3be 033d eca5 603c 6065 ebbd 4a91 9f3b
000002d0: f070 02be 897c 403d 3b91 1e3d 825d cfbc
000002e0: 4898 5dbd 9ad4 913c b299 13bd f6ed e6bd
000002f0: 0fc5 bdbd 7e74 043e 7deb 703d 68de d2bc
00000300: eeb6 cfbc 13da 543c e35c dd3c 5471 033d
00000310: 54ae 0fbd c02d c63c 36dd 37bb ac9a 153d
00000320: 38d0 2bbb 9ca0 c93d 8995 14bb eb71 263e
00000330: 561f 4f3d 9dd6 553d edd9 603a 70f4 42bd
00000340: 692b 6cbb ec72 ad3d 3219 26bd b06f 123d
00000350: 6a0d f03c a6d3 7dbd 4891 ee3c 4a22 9a3c
00000360: 5259 d2bd 1bdd eb3b 27c0 153d e951 fcbc
00000370: 607b 5bbc 1d91 2dbd addd 01bd b0fd 9bbb
00000380: 35ef da3c 1bc5 e13c bbc2 28be b8e3 d3bd
00000390: 6963 ac3d 257f d73c 4740 0b3d c833 ae3c
000003a0: b746 1d3b 25c8 7cbc ab16 953c a640 18bd
000003b0: 65a4 e9bc f786 bbbc fd5c a83c 70ef bcbd
000003c0: 4a99 b7bd 1902 603d 87bb 113d 06c0 943c
000003d0: 7076 ef3d b555 eb3b 8040 653d e799 9fbb
000003e0: eb92 6fbd 9c3a 08bd 12f7 d73d c59f 7d3d
000003f0: e297 813b 835a 163e 3485 d8bd 997b 923d
-0.03300556 -0.13653904 0.014621233 0.01897617 -0.061094962 0.13526751 0.0054451665 -0.09761041
-0.12208915 0.04436827 -0.1081182 -0.1144207 0.01083506 -0.0025283506 -0.045423064 -0.0726871
-0.036648203 0.0265493 0.089042135 0.0035927217 -0.005915338 -0.039998297 -0.0705182 -0.052726973
-0.055979922 -0.09335887 0.08868349 -0.04343087 0.0712039 0.05541335 0.005068637 -0.009802501
0.0026525843 0.017005853 -0.08511235 0.013120535 0.09350718 -0.14251265 0.0906286 -0.021884922
-0.0109587815 -0.07356296 -0.021412127 -0.04532914 -0.0860791 0.054349452 -0.017140219 -0.034611855
0.08628969 0.112765655 -0.13875334 -0.010110969 0.034655802 0.073443495 -0.035296857 -0.0005942159
-0.06967085 -0.08442937 0.011416674 0.09923997 0.018752888 -0.051628884 -0.013357555 0.02473965
0.110183254 -0.09032861 -0.012593142 0.11602285 0.033372458 0.041887622 0.03214774 -0.0072292592
0.07293482 -0.05341699 0.040917885 -0.010396437 -0.026260078 0.11456615 -0.050216183 -0.047285877
0.11539644 -0.11460782 0.118476376 0.03192831 0.034629494 -0.050568752 0.022065263 -0.017144537
-0.03224531 -0.027513472 -0.0055191536 -0.0017645411 0.03933898 -0.0489639 0.058561098 0.08652826
-0.04407273 -0.052204028 0.0205681 -0.122894965 -0.050560743 -0.03260349 -0.077302344 0.0571209
0.008184521 0.0036718682 -0.10158158 0.062550455 0.04628379 -0.019312665 -0.025180511 -0.06412367
-0.0067608673 0.07578025 -0.021020003 -0.06500505 -0.0951664 0.080805875 -0.03639828 -0.044050783
-0.031213796 -0.09573984 0.0771814 0.040782068 -0.014059972 -0.075415716 0.066087626 0.054537643
-0.06874088 -0.042723652 -0.008032832 0.035143152 -0.09433357 -0.1098721 0.024863157 0.027967026
0.07666017 -0.14969672 -0.049145743 -0.043979004 0.073882036 0.06792738 0.07105756 0.039204504
0.056572556 -0.1297398 -0.11011119 0.090103246 0.13990611 0.011306976 0.061336562 0.08179921
0.0708914 -0.043734554 0.04483626 -0.031040413 0.13385709 -0.03166689 -0.09389859 0.07071014
-0.054523434 0.014250518 -0.05165925 0.01050062 0.035314016 0.01434171 0.028556613 -0.0147043485
0.0021391232 0.0268933 -0.023931451 0.030720007 0.07561521 0.024699174 -0.016800232 0.062202126
0.032164406 0.013711434 -0.11493945 0.0048696147 -0.12738395 0.046993766 0.03871272 -0.025313143
-0.054100305 0.017801572 -0.036035247 -0.11275856 -0.092661016 0.12935063 0.05881833 -0.025740817
-0.025355782 0.012991446 0.02702183 0.0320905 -0.03507836 0.024191737 -0.0028055436 0.03652446
-0.0026216637 0.09845087 -0.0022672138 0.16254394 0.050566994 0.052206624 0.00085773953 -0.047596395
-0.0036036617 0.08469185 -0.040551372 0.035751045 0.029303271 -0.06196942 0.02912201 0.018815178
-0.10270943 0.0071979887 0.036560204 -0.030800777 -0.013396114 -0.04237472 -0.031705547 -0.0047604665
0.02672539 0.027559808 -0.16480534 -0.10346168 0.084173985 0.026305744 0.033996847 0.021264926
0.0023998448 -0.015428578 0.018199285 -0.03717103 -0.028520772 -0.022891505 0.020552153 -0.092253566
-0.089647844 0.0546895 0.03557923 0.01815797 0.11692512 0.007181848 0.055969715 -0.0048706415
-0.05848972 -0.03325902 0.10545172 0.061919946 0.0039548734 0.14682965 -0.105722815 0.07152481

network_body._body_endoder.seq_layers.2.bias f4 [256]
00000000: 1007 723b 1911 f33b c80c d4bb b40f 113c
00000010: ef99 873b 8a96 39bc 826e e9bb 5ed9 cb3b
00000020: b6ce cbb9 0459 3c3c 57ec bf3a 7ef8 ecba
00000030: f0dc 283c 974d b43b d95c 60bb bda7 64bb
00000040: 9a70 1f3b ccdf 3fb9 0426 9a38 e40b 1b3c
00000050: 220f 86bb cd38 cb39 366a 043c bdef 463c
00000060: cf78 ebbb 7bd6 0dbc 2af6 73bb 98b8 5c3c
00000070: e83b b5bb f46b c73b b963 2bba 6b90 3c3c
00000080: 9e20 17ba 2e33 153b 1db1 5a3c 6c41 653b
00000090: a2b7 bdbb 0b37 98ba ac44 1b3b 3d6c 0bbc
000000a0: 1e91 503b b20f 2a3b bf03 1cbc 84ea 3b3b
000000b0: 9b6f fb3b dbb8 84ba e8dc f93a 16a1 3a3c
000000c0: d2d3 823c fa57 ffba 1007 663b ae64 08bc
000000d0: 5dc3 1c3c 1516 19bc c595 fa39 3253 413b
000000e0: 5ec1 41bb ca60 16bb 5e68 80bc 7c06 4dbb
000000f0: 5687 bfb9 410c 0b3c 4e43 733a f2c6 6aba
00000100: cd69 62bb 68ce 80bb 8128 973b c440 0c3c
00000110: ab3b af3a 60b1 af3c b0d3 f13a 7387 4cbc
00000120: 2b44 61bb 1752 92bb 241f 3ebc 8518 d3ba
00000130: e9c8 80bb 7ef8 d93a 7de4 42bc 406c 8cb9
00000140: b303 a73a e668 18bb 121d 5d3b e1bd 8c3b
00000150: 7bb9 95bb ecdf a73c b47a be3b 8698 a7bb
00000160: 9ce0 a33b 8c03 863b 8a97 083b b952 bc3b
00000170: 4e37 d53a 8957 083c 7d70 873c 9466 fd3b
00000180: cf03 b93b f211 833b 9a03 74bb ca3a 993b
00000190: 9137 ebbb f514 1a3c 54fa c03a f0ee 083a
000001a0: 1adf 4e3c 55b9 3e3c d73e 3ebb 2aa0 863b
000001b0: df7e a23b 33e0 13bc 24c0 90b9 ef0c 84bb
000001c0: ed8c 073c 9a95 0cbb 497b 213b 380e 083c
000001d0: 8ec1 b83a 7af0 e9bb 7c96 8c3b 08d0 d1bb
000001e0: dfb8 98bb ddc7 1cbb dc00 e13a e407 863b
000001f0: 11d0 a6bc 1644 bb3b a384 003c 438e b53b
00000200: a716 2d3c 95c2 113c 75fd ae3b cb34 c0bb
00000210: efc0 94bb 05a2 d4bb 53e5 2bbb d13a 80bb
00000220: 2572 d83b daf2 013c 9b3d 10bb 65f9 aabc
00000230: e693 0d3c 5ee1 193c c4fe f73b 2708 153c
00000240: a91d 88bb 616f eabb 9805 d4bb f828 a8bb
00000250: ecde 223b 212b 9e3c 07a0 d339 56ad 1b3b
00000260: 56b9 d038 b452 513a 482b 0bbb 6a03 f3ba
00000270: c100 c53b 9dbb 433c ecd7 1d3c 6998 65bc
00000280: 07e2 f33b d0cd 873c 5d78 6dba 7892 6a3b
00000290: b053 5db9 a7cb 8a39 d732 b3bb 0869 403b
000002a0: 0e81 25bb 428c a93b 6373 0d3a be05 ecbb
000002b0: 9678 3abc 3a9c 7fbb b5d7 87bb a6c1 723c
000002c0: 92da 8abb 4923 27bc 1e00 94ba a754 883a
000002d0: 40cb 11bc 69b1 4fbb 83ed 5fbb 8655 993a
000002e0: 5834 d63a f030 18bb 2ee1 213c c6ac 173c
000002f0: fd5e f93a 4e53 593b c485 d9bb a819 9d3b
00000300: 7449 f23b bae6 5cba 039d cebb 0f8e 1f3c
00000310: be42 55ba 90a7 35bc 1058 38bb ff19 32bc
00000320: 21fc 6c3c ec33 a43b 6081 6cbb 793b 81bc
00000330: 1cf3 a73b e36b 8d3b 8666 65bb cfb9 f2bb
00000340: c084 17bc c286 cebb b543 0b3c bd1e 2f3b
00000350: ca11 c93a ccf9 223c a8a9 8b3a 5805 8b3a
00000360: 0d0d 273c 204c 013b 33e9 aebb 93b3 22bb
00000370: 4d97 b73a 0585 93b9 62c2 173c 9c19 3f3b
00000380: c726 cebb ec58 603c 27df debb 4449 1b3b
00000390: db06 fd3b b6e1 ce3b b667 0c3b 2738 53bb
000003a0: b0d8 35bc 0016 a137 7e40 153c fdeb a8bb
000003b0: 1f68 0a3c 0628 7ebb aabe 9cbc 91e9 353c
000003c0: 95b7 5cbb 99f1 ff3b f2bb 9e3b d2b4 5e3b
000003d0: edc0 023b 5579 743b 7484 333c 8444 fa3a
000003e0: 2540 0b3b b46a 63ba bd75 7fbb 2ec5 ee3b
000003f0: b0cf 9339 b422 a1bb 6dcc 7f3b 339c df3a
0.003693048 0.0074178097 -0.00647125 0.008853842 0.0041382234 -0.011327395 -0.0071237693 0.0062209805
-0.0003887319 0.011495832 0.0014642578 -0.0018079428 0.010306582 0.0055024135 -0.003423503 -0.003489002
0.002432859 -0.0001829855 7.350373e-05 0.009463284 -0.0040911594 0.00038761497 0.008081963 0.012142119
-0.0071860324 -0.008657093 -0.0037225583 0.013471745 -0.005530823 0.006085867 -0.0006537992 0.011509041
-0.0005765053 0.0022766101 0.013347891 0.0034981621 -0.005789713 -0.0011613084 0.0023692055 -0.008509693
0.0031824778 0.0025949297 -0.0095223775 0.0028673718 0.0076732165 -0.0010125892 0.0019063028 0.011390945
0.015970144 -0.0019481175 0.0035099424 -0.008324785 0.009568063 -0.009343644 0.00047795303 0.002949905
-0.0029564719 -0.0022945874 -0.015674766 -0.0031284383 -0.00036531192 0.008486808 0.00092797435 -0.0008956037
-0.0034547925 -0.0039308555 0.0046129827 0.008560363 0.0013369223 0.021446884 0.0018449929 -0.0124834655
-0.0034372907 -0.0044653523 -0.011604104 -0.001610533 -0.0039302004 0.0016629843 -0.011895296 -0.00026783533
0.0012742191 -0.0023255884 0.003373925 0.0042950963 -0.00456923 0.020492516 0.005812967 -0.0051146178
0.0050011408 0.0040897783 0.0020842277 0.005747166 0.0016267092 0.008321651 0.01653313 0.0077331755
0.005646206 0.003999942 -0.0037233592 0.0046761977 -0.007178255 0.009404411 0.0014723041 0.0005223593
0.012626434 0.011640866 -0.0029029155 0.0041084485 0.004958972 -0.009025621 -0.00027608976 -0.004029862
0.008273345 -0.0021451474 0.0024640134 0.008304171 0.001409577 -0.0071392627 0.0042904 -0.006402973
-0.00466071 -0.0023922839 0.0017166394 0.004090296 -0.020362886 0.0057149036 0.007844123 0.0055406406
0.010564483 0.00889649 0.005340273 -0.0058656684 -0.004539601 -0.006489041 -0.0026229217 -0.0039132615
0.006605404 0.0079314355 -0.0022009376 -0.020870874 0.008641219 0.009392111 0.007568212 0.009096182
-0.0041539264 -0.0071543907 -0.0064703934 -0.005131837 0.002485211 0.019307675 0.00040364286 0.002375444
9.9527344e-05 0.0007985041 -0.0021235514 -0.0018540446 0.0060120528 0.011946586 0.009633999 -0.014013388
0.007442716 0.016577631 -0.0009058768 0.0035792869 -0.00021107378 0.00026473144 -0.005468707 0.0029359479
-0.0025253925 0.0051741907 0.0005395917 -0.007202833 -0.011381289 -0.003900303 -0.0041455873 0.014816677
-0.0042374814 -0.010201284 -0.0011291539 0.0010401205 -0.008898556 -0.0031691438 -0.0034168668 0.0011698462
0.0016342504 -0.0023222528 0.009880347 0.009257501 0.0019025501 0.0033161226 -0.0066382606 0.004794318
0.00739401 -0.0008426715 -0.0063053383 0.009738459 -0.00081352505 -0.011087313 -0.0028128661 -0.010870456
0.014464409 0.0050110724 -0.0036087856 -0.01577543 0.0051254164 0.0043158396 -0.0035003736 -0.007407404
-0.009247959 -0.0063026855 0.008500029 0.0026721202 0.0015340385 0.0099472515 0.001065542 0.0010606451
0.010195983 0.0019729212 -0.005337858 -0.0024826273 0.0014006883 -0.00028137132 0.009262653 0.0029159551
-0.0062912437 0.013693076 -0.006801504 0.0023694793 0.0077217645 0.006313528 0.0021424121 -0.0032229514
-0.011099026 1.920294e-05 0.009109614 -0.005155085 0.008447676 -0.003878118 -0.019133884 0.01110305
-0.003367876 0.007810783 0.004844182 0.003398229 0.0019951419 0.0037303765 0.010956872 0.0019093906
0.002124795 -0.0008675263 -0.003898009 0.0072866892 0.00028192764 -0.004917467 0.003903176 0.0017060101

network_body._body_endoder.seq_layers.4.weight f4 [256, 256]
00000000: f5a5 7d3c e049 ccbc ef1b c4bd 38bf 043d
00000010: 2a62 43bc 067c 0f3c e5fd 383d a5e1 4b3d
00000020: 0831 da3c d3ab 2c3d efc6 47bd 96a3 dd39
00000030: 2197 f13b 8666 8a3d d0c8 9d3c 783d 803c
00000040: 4755 b43c 9d61 393d f2ec 9ebc be5b be3d
00000050: 97e5 5bbc dba8 b9bd 88da 153d 2cec 9c3c
00000060: a9eb dabc 48e9 afbd b23c 473d 9484 cd3d
00000070: 5353 423d 54c4 503d 6738 223b e261 80bd
00000080: cde6 90bc 8230 e63b 6db3 e1bd 18c7 cb3d
00000090: ddf6 3ebd 1213 0cbd dd68 713d 3e7b 633d
000000a0: 279d 7b3d 8721 e33d e0f8 19bc 314b 133d
000000b0: 24a4 78bd 62e4 db3d d42a 4f3d 1629 b6bc
000000c0: 89fe d03d f571 c4bd 62aa 1ebe 7bbc ebbc
000000d0: 500b 45bd 89fa 453d 27c7 dd3b d03e 23bd
000000e0: 241b 8ebd 2654 59bc 4469 873d f74b a5bc
000000f0: 06df bd3c 3e8c 0f3d dc0d ce3b f829 b03d
00000100: a49b 7ebc 263a c23c 701d 2dbd 8989 04bd
00000110: 5c3f 903c b757 12bd 4040 39bd 40db cb3c
00000120: 3ae7 02ba e2a1 40bd 9946 623c 53a5 c8bc
00000130: 1891 613d d549 fa3d 4a68 283b e0bc b93c
00000140: 5b3b 1cbd db64 6ebc e699 bebc a0d5 c9bc
00000150: 955e 13be d05b d83d 0249 3ebd 0d95 acbd
00000160: a93f 84bd 9b58 473e fe7a 89bd f7ff ebbc
00000170: 7f5e 4c3d cb11 7e3c 842e 733d 25d1 cfba
00000180: 4eec 083d 74d5 c6bd 4d9a 04bd b0d9 913b
00000190: 0980 94bd 4d2b 5cbd a8e2 943d dec8 ecbc
000001a0: ceb1 a73b 854d 03bd 8a26 1abd 0621 36bc
000001b0: 978c 2a3d bacf 06bd 254d b83d c30e 273d
000001c0: 0522 8cbd 1321 91bc a0a4 ad3d 2af4 7bbd
000001d0: a335 643d af64 cebc 2c7c 1bbc f57e 0c3e
000001e0: 2b1d 12bd 5504 35bc 1fb9 3cbc deb8 ca3c
000001f0: 4e9e 293c c107 4b3d 4993 f83c a637 273e
00000200: 4e7e 50bd c8f1 ae3d d0ca 61bd 55e6 303d
00000210: b136 1d3d f17a 3b3d 7810 113e 54bb 28bd
00000220: 3acc a63d 1e5e 9dba d664 fd3c 34fa 61bd
00000230: e2d3 98bd a5db 363b 9c2c 85bc 95c3 a3bd
00000240: 4ab4 73bc 43f1 4cbd 28e2 af3c 3f89 f23b
00000250: 41e0 373d 7d1d 6e3d 538a 03bd 7d1f f83d
00000260: 39e2 313c 2ed4 be3c 6eec 22bd 84b8 1cbe
00000270: 8a26 23bd 7d79 00be 07b4 ab3c 7ea4 e13c
00000280: a3b7 7fbc 0582 8abc 793b eabb dcc1 d83d
00000290: 4f18 033b feb8 1fbd 2165 ee3d 31d9 eabd
000002a0: fb9c 143d 4500 113d e4f5 27be 110c 09bd
000002b0: 16b0 833d dd50 223c 7905 473d e445 67bd
000002c0: 8d52 13bd 95d2 ba3d baab 92bd 0352 333c
000002d0: 9b97 cbbd c0f3 8e3c 1836 c13c fe61 203c
000002e0: 857c 6b3d 0400 62bd 2ca0 e03d 092f 55bd
000002f0: 33b6 083e e116 2e3d ec39 73bc e335 2b3e
00000300: 05e9 2ebd 5797 f6bc 62fe 11bb 43c8 823c
00000310: a12b 893d 931a 4cbd 37c3 dbbc 6de1 8b3d
00000320: c22b 9f3c f3ef e83c 8532 84bd 278b 96bd
00000330: 5db5 c0bb b741 f83d 1878 adbd 5fc6 e53c
00000340: 867b c4bc d49c 813d b500 ff3b c73f 7f3b
00000350: d091 983d 1962 5d3c 61ab e4bd e179 453e
00000360: bb54 cd3c 6679 e43c 94e5 0a3d 2cb0 66bd
00000370: ea18 e8bc 0f28 70bd 0331 5f3c dd8a af3c
00000380: 9f4e dfbd 44f3 b6bd 2225 db3c e329 933d
00000390: cf61 163e b2b3 27bd a676 bf3d c70f 9c3d
000003a0: 32e1 813c 1125 aabd f03e 763b c211 bebd
000003b0: f4e7 89bb 2e39 2dbc 58fb 72bd 6c6a c9bd
000003c0: e1aa 42bd b9ec fc3a 986f 833b e8ee 9f3c
000003d0: 520e 31be a990 9b3d 983a 4ebc 2b05 84bd
000003e0: 134a dfbc 0bed a4bc 4112 513d 044f 73bd
000003f0: 894e 913c 04b7 dcba 4e41 ad3d 6704 c53d
0.015481462 -0.02493757 -0.095756404 0.032408923 -0.01192526 0.008757597 0.045164008 0.04977574
0.026634708 0.04215605 -0.048773702 0.00042274286 0.0073727523 0.06757836 0.019260794 0.01565431
0.02201332 0.045259107 -0.019400094 0.09294842 -0.013421438 -0.0906541 0.03658536 0.019155584
-0.0267237 -0.08589417 0.048641868 0.10035053 0.047442745 0.050968483 0.0024752857 -0.0626867
-0.01768818 0.0070248256 -0.11020551 0.099500835 -0.046622146 -0.034197874 0.058937896 0.055537455
0.06142917 0.11090379 -0.009397715 0.03596038 -0.06070341 0.1073692 0.050577953 -0.022236388
0.10204799 -0.09592048 -0.15494683 -0.028776398 -0.04810649 0.048334632 0.0067681256 -0.039854825
-0.069387704 -0.013264691 0.06611875 -0.020177824 0.023177635 0.035045855 0.0062882733 0.08601755
-0.015540037 0.023709368 -0.042264402 -0.032357726 0.017608337 -0.035728183 -0.04522729 0.02488482
-0.0004993562 -0.047029383 0.013810777 -0.024492895 0.055070013 0.122211136 0.0025696927 0.02267307
-0.038142543 -0.014550413 -0.023266744 -0.024637997 -0.14391549 0.10564387 -0.046456344 -0.08426867
-0.06457455 0.19467394 -0.06712912 -0.028808577 0.049894806 0.015507172 0.059370533 -0.0015855177
0.033428483 -0.09708682 -0.032373715 0.004450999 -0.07250983 -0.053752232 0.07269794 -0.028904375
0.0051176315 -0.03205635 -0.03763441 -0.011116272 0.041637983 -0.032912947 0.08999089 0.040785562
-0.06842426 -0.017715966 0.08478665 -0.06151215 0.055715214 -0.025194494 -0.009490054 0.13720305
-0.035672348 -0.011048396 -0.011518746 0.024746355 0.010352684 0.04956794 0.030343669 0.16329822
-0.050901704 0.0854221 -0.055125058 0.04318841 0.038382236 0.045771543 0.14166439 -0.041194275
0.08144422 -0.0012006199 0.030931871 -0.055170253 -0.074622884 0.0027901914 -0.016256623 -0.07996289
-0.014874527 -0.050034773 0.021470144 0.007401615 0.0448916 0.05813359 -0.032114338 0.12115381
0.010857158 0.023294535 -0.03977626 -0.15304762 -0.039831676 -0.12546344 0.020959867 0.027544256
-0.015607747 -0.016907701 -0.007148203 0.10583851 0.0020003503 -0.03899478 0.116403826 -0.11467207
0.03628252 0.035400648 -0.16402394 -0.033458773 0.0643007 0.009906975 0.048589204 -0.056463137
-0.0359674 0.091221966 -0.071616605 0.010944846 -0.09941026 0.017450213 0.023585364 0.009788988
0.057491798 -0.055175796 0.1096805 -0.05204681 0.13350753 0.042502288 -0.014845353 0.16719775
-0.042702693 -0.030101461 -0.0022276868 0.015964633 0.06697775 -0.04983003 -0.026826484 0.06830106
0.019430045 0.02843473 -0.06454948 -0.0735076 -0.005880995 0.12121909 -0.08470172 0.028048692
-0.023984682 0.06328741 0.0077820667 0.0038947926 0.074496865 0.013512158 -0.111655004 0.19284774
0.025064817 0.027889919 0.03391035 -0.056320354 -0.028332192 -0.058631953 0.013622525 0.02142852
-0.10903668 -0.08933118 0.026751105 0.07185724 0.14685749 -0.040942855 0.09348802 0.07620197
0.015854452 -0.08307851 0.0037574135 -0.09280731 -0.004208559 -0.010572715 -0.05932173 -0.098347515
-0.047526244 0.0019296623 0.0040111057 0.019523099 -0.17290619 0.07595951 -0.012587212 -0.06446298
-0.027257001 -0.020132562 0.0510428 -0.059401527 0.017737644 -0.0016839211 0.084597215 0.0961998

network_body._body_endoder.seq_layers.4.bias f4 [256]
00000000: 4a2b beba ba4b acbb c44d 1a3c 23d8 b13a
00000010: 891a 543c c92e 0ebb 0d05 b93b 302e b3bb
00000020: 8d55 2a3c ef0f 323c cf98 ff3b 1387 063b
00000030: dfb4 5e3c 4677 2c3c eda9 4cbc d0f6 a5b9
00000040: 0e99 41b9 1463 18bc 2c6d 55bc b4c3 043b
00000050: 3817 93ba bd10 9b3b cca4 273b 6c1a 773b
00000060: fa39 343b c3b2 52ba d956 ccbb 2556 023b
00000070: 5250 e8b9 e3a7 13bc 539c fdbb 7a74 04bc
00000080: 43cc 8ebb da7e 283b 0e2d cebb 26a7 18bb
00000090: 7e76 523c f7e5 48bb da78 923a d2a3 d13b
000000a0: 3ec9 51bc e81f f93b d8b7 cfbb beae 0bbc
000000b0: 8d2e 483b a4ce 753a ed53 33bb 2828 24bb
000000c0: ebff 5fbb e0a0 a7bb 9989 0b3b b2c0 49bc
000000d0: 3a13 7e3b aa69 ac3b 461a 71ba a64f d9bb
000000e0: f779 543c 7609 863c 1c34 d9bb 0765 aeb9
000000f0: 67fe 1ebc 2663 be3a 3363 ee38 05cc f7bb
00000100: 88ca 17bc 92f4 8cbb 6539 df3b 5f5e 143c
00000110: c816 673b 0067 40bc f0c9 e7bb c5a9 c8bb
00000120: c61b e43b 39cf 2a3c bd54 8e3b 1001 0f3c
00000130: 6b23 223b f3d6 0dbb 5f08 83bb 1248 453b
00000140: 9264 ed3b 39d7 dbbb 6e65 e93b 061c fcbb
00000150: c23c f0ba e4ce 703b fe0d ffbb 359c 573a
00000160: 99d4 af3b bc66 323b b0ad 06bc 6824 213c
00000170: 3a10 0ebb 8d9a 103c a9fb 9ebb 8bf4 35bb
00000180: 8a47 1f3a 1aff 31b9 e2a7 a33c 3c23 43bb
00000190: 420e a03a 425f c8bb ddc1 11bc 1d4f cabb
000001a0: 2228 b039 3806 3d3b eaa6 efbb b793 493a
000001b0: 597f fc3a dc25 9fbb c98a aebb 7016 7dbc
000001c0: 63ba b03b 8eaa ecba b5c3 a8ba 2078 8d3a
000001d0: 7f0c 34bc d070 85b8 b3ee 9c3a 8ce0 96ba
000001e0: a039 63ba 8975 15bb 916d 16bc 122f ddba
000001f0: 14e7 e93b 1120 a43b 9f29 a4b9 9f25 1db9
00000200: dadc b2ba b819 a13c 7348 2c3b eb65 9aba
00000210: 91aa fe3a 2b1c c1bb e8da 9dbb bd6f 2e3c
00000220: 9224 05bb 2658 24bc 06b7 253c 2756 e1b9
00000230: 5cef 40bb 694d 8e3c 04de 39bc 407f ab3b
00000240: 0e97 50bc 0634 3ebc f4ea 5e3b 0407 643a
00000250: 9fd4 3e3b 989f 5a3c 073e 033b 9a79 6f3c
00000260: 4467 973b b470 d73a 76f7 203c d66e c63b
00000270: 717c 54bc a318 01bb 4f8e 763b dff6 13bc
00000280: 546c dc3b 672c 143c f7da 3cbb 53d5 58bc
00000290: 3b67 1d3c f10f 37bb 4de3 a4bb df52 473c
000002a0: 8b27 553c 67ec 403b 0f0a 29bb 7de9 09bc
000002b0: 3e13 ad3a 5424 1e3c 2abf 19bb 71ba 84bb
000002c0: d2c0 f23a ac20 bdba 5a5f 213b 646e f5b9
000002d0: 0477 cd3b e8f6 f83b b2d2 95b9 7e5f 1b3b
000002e0: 26bc 033c e83f d6ba fcd4 64bb 7503 9c3b
000002f0: 6380 03bc f326 c3bb 63b0 c83b da87 afba
00000300: 950e 30bb 5801 ac3b f3ef 6abb dded 5fbb
00000310: 5d8d 2a3a 0d29 5bbb 11ec 293c 9c33 a3bb
00000320: c8ae 2f3b c1da 7a3c 9746 763b bcb9 86bb
00000330: 1407 5fbb d74d 0c3c e2f4 f13b aa33 123c
00000340: 8d59 a63b 8dd7 02bc 8781 b8ba 17bc 1ebc
00000350: a260 e4bb c659 b9ba 8486 a13b 8e2e 47bb
00000360: b0dd 2abb c672 163c 2e4d f73b 0b0f 3b3c
00000370: ed92 9aba 9042 1cbb 9b9f 183c b0b1 193b
00000380: 89d9 513c ebe5 c3ba ec45 0e3b e1d6 9a3a
00000390: 78b7 7e3b 3568 e33a c384 d6bb 92aa d9bb
000003a0: d8e1 d93b c6e3 73bc dae1 693c 9c6b 62bb
000003b0: 8805 033c d89b fa3b 7c5e 51bb e291 5cb8
000003c0: 0f19 c23b 7eaa fd3b 2ea2 f6ba 72eb 2e3c
000003d0: 25b1 1b3c 52c0 ed3b acaf b43b 6c1c ac3b
000003e0: e5e2 043c dc4a 4b3c 68df 8ebb f4af 143c
000003f0: 910b 7c39 3772 a3b9 7af8 22ba 52e0 12b9
-0.0014508751 -0.0052580507 0.009417955 0.0013568442 0.01294578 -0.0021695367 0.005646354 -0.0054681525
0.010396373 0.010868057 0.0078001986 0.0020527288 0.013592928 0.010526484 -0.012491685 -0.00031655142
-0.00018462932 -0.009300966 -0.013026517 0.002025825 -0.001122213 0.00473222 0.0025580404 0.0037704958
0.0027500377 -0.0008037502 -0.006235939 0.0019887772 -0.00044310332 -0.009012195 -0.0077395826 -0.008084411
-0.004357846 0.0025710375 -0.006291992 -0.0023292988 0.012845634 -0.0030654648 0.0011174933 0.0063977027
-0.0128043275 0.0076026805 -0.0063390546 -0.0085255485 0.0030545325 0.00093768 -0.0027363256 -0.002504835
-0.0034179639 -0.0051156133 0.0021291731 -0.012314009 0.0038768784 0.0052616196 -0.00091973355 -0.0066318093
0.012968532 0.016361933 -0.0066285264 -0.00033263137 -0.009704209 0.0014525398 0.00011367202 -0.007562163
-0.009264596 -0.004301616 0.006812262 0.009055703 0.0035261381 -0.011743307 -0.0070736334 -0.0061237537
0.0069613187 0.010425382 0.0043435977 0.008728281 0.002474035 -0.0021643012 -0.0039988006 0.0030102772
0.007244655 -0.006709006 0.007122687 -0.0076937703 -0.0018328654 0.003674441 -0.0077836504 0.0008224876
0.00536592 0.002722188 -0.008220121 0.00983534 -0.0021677152 0.00882591 -0.0048517776 -0.0027764167
0.0006076029 -0.00016975068 0.019977514 -0.002977564 0.001221128 -0.0061148712 -0.008896318 -0.006173982
0.00033599237 0.0028842818 -0.007313599 0.0007689553 0.0019264027 -0.004856808 -0.005326603 -0.015447244
0.005393313 -0.00180562 -0.0012875708 0.0010793246 -0.010989307 -6.362947e-05 0.0011972993 -0.0011511012
-0.00086679496 -0.0022805652 -0.009181396 -0.001687499 0.0071381424 0.0050087054 -0.00031311528 -0.00014986702
-0.0013646141 0.019665584 0.00262883 -0.0011779641 0.0019429495 -0.0058932505 -0.0048173554 0.010646758
-0.0020315987 -0.010030782 0.010114437 -0.00042979533 -0.0029439544 0.017370896 -0.011344437 0.0052336752
-0.012731327 -0.011609083 0.0034014555 0.0008698555 0.0029118431 0.013343714 0.0020025985 0.014616394
0.0046204645 0.0016436786 0.009824624 0.006055693 -0.012969122 -0.0019698523 0.0037621444 -0.009031027
0.006726781 0.0090437895 -0.0028817037 -0.013234454 0.009607132 -0.0027933086 -0.005031979 0.012165754
0.013009916 0.0029437782 -0.002579335 -0.008417484 0.0013204587 0.009652216 -0.002345989 -0.004050546
0.00185206 -0.0014429293 0.0024623484 -0.0004681229 0.0062702913 0.007597793 -0.00028576475 0.002370804
0.008040464 -0.001634595 -0.0034916988 0.0047611543 -0.008026215 -0.005955571 0.0061245426 -0.0013391927
-0.002686416 0.0052491836 -0.0035848587 -0.0034168877 0.000650605 -0.0033441216 0.010371224 -0.0049805176
0.0026807059 0.015310944 0.0037578696 -0.0041114967 -0.0034031319 0.00856348 0.0073839286 0.0089234505
0.0050765933 -0.007985962 -0.0014076688 -0.009688399 -0.0069695273 -0.0014141134 0.0049293656 -0.003039274
-0.0026072077 0.009182638 0.0075470423 0.011417161 -0.0011793055 -0.0023843385 0.009315397 0.0023451857
0.012808212 -0.001494584 0.0021709157 0.0011813306 0.003886668 0.0017349782 -0.006546588 -0.006642648
0.006649237 -0.014885848 0.014275039 -0.0034549003 0.007996924 0.0076479726 -0.0031947186 -5.258795e-05
0.0059233974 0.0077412715 -0.0018816644 0.010676252 0.009502684 0.0072555924 0.005514106 0.0052524116
0.0081107365 0.012407985 -0.004360128 0.009075154 0.00024036902 -0.0003117488 -0.00062168355 -0.00014007211

action_model._discrete_distribution.branches.0.weight f4 [2, 256]
00000000: f35e 513c 05f9 073d ce20 173c 60a5 a8bc
00000010: 396f c9bb bde8 143b f419 90bc 5b44 d2bb
00000020: 2838 6a3c 6c6c 063c c0bb c63b 769b aa3b
00000030: 4d0c fc3b 5ec4 823c c89f bfbb 7b5c b73b
00000040: 5225 413a 1a64 06ba 0290 18bc 26a2 9fbc
00000050: b6e0 97bb b818 883c 9978 26bc 9911 abbb
00000060: 35a0 7d3c 8cff 1aba 53cb 33bc 339a b1bc
00000070: 4c70 26bc 50df 98bc bd78 ecbb cc97 bebb
00000080: 1787 bebc 9fe9 123c bbfa ae3b 27bf 1ebc
00000090: eea9 963c c9ac 6e3c f433 733c 2f5c 1f3c
000000a0: 349d 9bbc 1e4c 8cbc 01b4 bdbc 9722 dfbb
000000b0: b797 8cba 36a4 383b 5c50 f9bc a46c 39bc
000000c0: 9d83 0ebc cf8d 9cbc 7e1a 39bc 0a52 9fbb
000000d0: 1876 2ebc 9d95 6a3c e085 013d d5bd 8ebc
000000e0: 94e0 933c 7c69 023c e489 3dbc 3593 2cbc
000000f0: f1e2 94bc d0b0 c63c c01c d8bb 1630 3dbc
00000100: eb7d 6ebc a678 5bbb e400 bdbb 748a a03c
00000110: 4e96 993c e604 30bc f184 02bc dd70 bbba
00000120: a77b afb9 6fd2 033c 8c60 c13c 30ed a538
00000130: 8dcb dfbb 3a79 103a 5019 9d3c e3db 81bb
00000140: 4ed6 c2bb 0c51 3bbc ff18 963c 7597 0db9
00000150: cc49 f5bb 43c3 80bb 3ad5 423c 3f0f 9dbc
00000160: 36fa 003b 76bd bfbb 5a0d 9ebc 743b a73c
00000170: b98b 0db9 a529 43bc e77a 82bb 065d e0bb
00000180: 3d1c 8a3b cdb2 8c3c 132c a53c b6a0 b3bc
00000190: 244f aa3b 737d 7939 394f 88bc 887e abbc
000001a0: 6f9b 6ebc ab3d a63c 1e32 353c 57fa a2bb
000001b0: 89cb 69bc 6f4a 2d3c 1d1f 81bc 3b24 01bc
000001c0: eaca 5f3c 1ef8 163c 05a6 c23b 6830 a53c
000001d0: 4e03 91bc 0087 a13c 5a58 703b 5f9c 973c
000001e0: 0d25 f6bc 17a5 b1bc 289f 14bc 3ed3 323c
000001f0: 4340 cc3b 3e09 9fbc d9ef 493b 814c 543c
00000200: 6bd3 4a3c cde9 523c 4838 723c ea98 f439
00000210: d7a2 af3c cd83 b83c daea 51bb ff25 953c
00000220: 7086 333c 611c 64bc b406 a6bc 7d9c 783b
00000230: d875 9b3c 8ccb 943c 606e 9abc d347 523b
00000240: 3a6d 86bc 7d59 21bc bde1 89ba 6aab 74bb
00000250: ed3f a23c c9b1 49bc a35d 92bc 8085 9d3c
00000260: 7620 b13c 8ae6 5e3c 44a6 c23c b068 d23b
00000270: d094 8dbc a0e9 59bc 2041 4e3c e018 733c
00000280: a340 8d3c 2c03 86ba 4772 06bc 075d 34bc
00000290: 05e9 ab36 e460 e5bb 1d60 b3bc b8e9 d13c
000002a0: 4d28 be3c 05fd 033c 1589 b7ba 271d 71bc
000002b0: 996c 5b3b 8baa bbb9 dfe4 743c 866c 363c
000002c0: 05c4 1dbb 813e ddbc b61b 873c 0dee 37bc
000002d0: cadd a93c 183c 5b3c 31ac 783c e2f1 22bc
000002e0: 18f7 993c 4b52 8bbc 076d c23c 0224 ba3b
000002f0: 4e17 a6bc 4011 c6bb 3deb 9d3c a10a 7a3c
00000300: ceae 663c 79d5 c53c be04 b8bc 3bef afbc
00000310: 37c3 33bc 6c50 41bb 4ed9 85bb 439f 91bc
00000320: 5f73 d0bb c71e 673c fa4e d83b f288 22bc
00000330: f1d5 653c b1f0 32bc af20 9bbc e3a1 86bc
00000340: 339d 20bc cf8c 14bc 7a63 473b 2490 cc3b
00000350: aff2 5b3c d527 b0bc 402a 413c 4275 4d3c
00000360: 5bdd 0cbc c3b5 01bc 3334 283c 6180 91bc
00000370: cac0 2ebc 1973 133c 8c3c a23c 4302 4fb9
00000380: 32b8 503c c81f 343c 982b 5cba 7b31 a73c
00000390: d669 213b 929c 12bc f14a 0a3d 0a6b d33c
000003a0: c8ad 373c 9af3 1ebc f7f8 9a3c b6a8 6ebc
000003b0: 96e5 0f3c 0f38 793c 7a94 5a3c c37f 8f3c
000003c0: 21d4 0fbb d1e7 7c3c e74e 6a3c c17b 4c3c
000003d0: 679b a33c c74e ab3c 24a8 5f3c 80b6 13bc
000003e0: 9f81 703c e768 c03c 6102 8ebc 8864 0abc
000003f0: aa9a 95bc 11a4 bfbc a2be 3b3c c1c3 a53c
0.012778985 0.033196468 0.00922413 -0.02058667 -0.006147292 0.002272173 -0.0175905 -0.00641684
0.014295615 0.008204561 0.006064862 0.0052065207 0.007691896 0.015962776 -0.005847905 0.0055957413
0.0007367927 -0.00051266106 -0.009311678 -0.019486498 -0.004634942 0.01661335 -0.010160589 -0.0052206037
0.015480091 -0.0005912713 -0.010973769 -0.021679973 -0.01015861 -0.018661171 -0.0072165416 -0.0058164354
-0.023257775 0.008966832 0.005339948 -0.009689129 0.018391576 0.014567562 0.01484393 0.009726568
-0.018995859 -0.01712614 -0.023157122 -0.0068095434 -0.0010726367 0.002817405 -0.030433826 -0.011317406
-0.008698371 -0.019110588 -0.01129782 -0.0048620747 -0.010648273 0.014317897 0.031621814 -0.017424503
0.018051423 0.00795972 -0.01156852 -0.010533144 -0.01817462 0.024254233 -0.006595224 -0.011547109
-0.014556388 -0.003348866 -0.0057679284 0.01959727 0.018748429 -0.010743355 -0.007966266 -0.0014300604
-0.0003347073 0.008045777 0.023605607 7.911993e-05 -0.006829685 0.0005511228 0.019177109 -0.00396298
-0.0059459573 -0.011432897 0.018322466 -0.0001350323 -0.007485604 -0.003929527 0.0118916575 -0.019172309
0.0019680387 -0.005851443 -0.019293476 0.020414092 -0.00013498859 -0.011911784 -0.0039819363 -0.0068470268
0.004214792 0.017175103 0.020162618 -0.021927219 0.0051974226 0.00023793224 -0.016639339 -0.020934358
-0.014563425 0.020293077 0.011059312 -0.0049736905 -0.014269718 0.010576828 -0.015761906 -0.007882173
0.013659218 0.009214429 0.005940201 0.020164683 -0.017701771 0.019717693 0.0036673755 0.01850718
-0.030046964 -0.021685166 -0.009071149 0.010914622 0.0062332465 -0.019413587 0.0030813126 0.012957693
0.0123795075 0.012873125 0.014783926 0.00046653236 0.021439953 0.022523785 -0.0032030852 0.018206595
0.010957345 -0.013922782 -0.020266868 0.003793507 0.01897709 0.018163465 -0.018851459 0.0032086268
-0.016409505 -0.009847996 -0.0010519546 -0.0037333616 0.019805873 -0.012310454 -0.017866915 0.019228697
0.021621924 0.0136047695 0.023760922 0.006421171 -0.017282873 -0.013300329 0.012588769 0.014837474
0.017242735 -0.0010224334 -0.008205957 -0.011008508 5.123324e-06 -0.0070000757 -0.021896416 0.025624141
0.023212576 0.00805593 -0.0014002646 -0.014716423 0.0033481477 -0.00035794484 0.014947145 0.011134272
-0.0024073136 -0.027007343 0.016492706 -0.011226189 0.02073564 0.013381027 0.015177772 -0.009945365
0.018794581 -0.017007014 0.023733629 0.005680562 -0.020274784 -0.006044537 0.01927721 0.015261323
0.014079763 0.024149643 -0.022463199 -0.021476379 -0.010971836 -0.0029497398 -0.0040847426 -0.017776137
-0.0063614096 0.014106459 0.0066012116 -0.009920346 0.014028058 -0.010921643 -0.018936483 -0.016434615
-0.009803104 -0.0090667745 0.0030424283 0.006242769 0.0134245595 -0.021503368 0.011789858 0.0125401635
-0.008597697 -0.0079168705 0.0102663515 -0.017761411 -0.010666082 0.008999609 0.019804262 -0.00019741901
0.012739228 0.010993905 -0.000839883 0.020409336 0.0024629734 -0.008948462 0.033762876 0.025807876
0.011210866 -0.009701634 0.018917544 -0.014566591 0.008782765 0.015211119 0.013341064 0.017516976
-0.0021946507 0.015436129 0.014301038 0.012480677 0.019971563 0.020911587 0.013650928 -0.009015679
0.014679342 0.023487521 -0.017335119 -0.00844682 -0.018262226 -0.023393663 0.011459025 0.020234944

action_model._discrete_distribution.branches.0.bias f4 [2]
00000000: 0d25 cb3a 3525 cbba
0.0015498713 -0.001549876
