results/12/SmartAgent.onnx (onnx, 10766 bytes, 11 tensors)

discrete_action_output_shape f4 [1, 4]
0	0x40000000	2.0
1	0x40000000	2.0
2	0x40000000	2.0
3	0x40000000	2.0

network_body._body_endoder.seq_layers.0.weight f4 [128, 4]
0	0xbe00cc20	-0.12577868
1	0x3eb8e4ee	0.3611216
2	0xbdeb5832	-0.11491431
3	0xbbf7de36	-0.0075643314
4	0x3e60f7c8	0.21969521
5	0xbe73fa88	-0.23826039
6	0xbf398888	-0.72473955
7	0x3fb42b03	1.4075626
8	0xbf0837ea	-0.5321032
9	0x3ee26c24	0.4422313
10	0x3f467765	0.7752593
11	0xbd475b02	-0.048670776
12	0x3f2b1020	0.6682148
13	0xbebdc023	-0.3706065
14	0x3f5b72ae	0.8572186
15	0x3e6d61af	0.23181795
16	0xbef6e60c	-0.48222387
17	0xbf0ccba7	-0.5499825
18	0xbe28f1b7	-0.16498457
19	0x3cd4fe9c	0.026000313
20	0x3e0da267	0.13831483
21	0x3f41a06f	0.7563543
22	0xbf143d56	-0.5790609
23	0xbf1798ff	-0.5921783
24	0x3e594384	0.21217161
25	0x3e52a569	0.20570911
26	0x3e7ff171	0.24994446
27	0xbe087207	-0.13324748
28	0xbefa3950	-0.4887185
29	0xbf872a98	-1.0559874
30	0xbef0420b	-0.46925387
31	0x3e2917ec	0.16513032
32	0xbdf6117a	-0.12015052
33	0xbf0ddcb0	-0.5541487
34	0xbf3f3a71	-0.7469855
35	0x3efd715b	0.49500546
36	0xbfaa748d	-1.3316818
37	0xbf81b75e	-1.0134084
38	0x3c5e2ab3	0.013559985
39	0x3dcef904	0.1010609
40	0x3edd39aa	0.43208057
41	0x3e40f278	0.18842494
42	0x3dd7d52a	0.10538705
43	0x3eb340ff	0.35010526
44	0x3f6fe369	0.93706375
45	0x3e172bd1	0.14762808
46	0xbe97976c	-0.29607713
47	0x3df2716d	0.118380405
48	0xbeef2796	-0.4670989
49	0x3eca3660	0.3949461
50	0x3eb0d5fc	0.34538257
51	0x3e14d91e	0.14535949
52	0x3f3984c1	0.7246819
53	0xbec336f3	-0.3812786
54	0xbdb02752	-0.0860125
55	0xbee8c521	-0.45462897
56	0x3d60f381	0.054919723
57	0xbd7a67a1	-0.061133984
58	0x3d717b74	0.058955625
59	0xbf1348bd	-0.57532865
60	0x3f55e552	0.8355304
61	0xbee78ed4	-0.45226157
62	0xbd06d04c	-0.03291349
63	0xbf8b2a6b	-1.087232
64	0xbf7c91c6	-0.9865993
65	0xbd924a7f	-0.07143115
66	0x3e4974e8	0.19673502
67	0x3e75dab9	0.24009217
68	0xbf2f31f2	-0.68435585
69	0x3dbe51f5	0.09292976
70	0xbf34e918	-0.7066817
71	0x3f2250d7	0.634046
72	0xbeaf6658	-0.3425777
73	0x3ba35468	0.0049844272
74	0x3e3df0f9	0.18548955
75	0xbf253efc	-0.6454923
76	0x3eb258b8	0.34833312
77	0xbf10b0a8	-0.56519556
78	0x3eda8158	0.42676806
79	0x3dc75412	0.09732832
80	0x3edfb8bf	0.43695638
81	0x3f07079d	0.5274599
82	0xbe1ff75e	-0.15621707
83	0xbde8bb89	-0.113638945
84	0xbee6e178	-0.45093894
85	0xbe9c360f	-0.30509993
86	0xbec597a9	-0.3859227
87	0x3ee5fa14	0.44917357
88	0x3e905b8a	0.2819484
89	0xbd6bf5bb	-0.057607394
90	0x3f14f355	0.58183795
91	0xbde8eddc	-0.11373493
92	0xbe931ca2	-0.28732783
93	0x3f17672d	0.5914181
94	0x3f998f04	1.199677
95	0xbf90fdd4	-1.1327462
96	0x3e5bda25	0.21469934
97	0xbe7dad17	-0.2477306
98	0x3ea63df0	0.3246913
99	0xbe003160	-0.12518835
100	0xbde180be	-0.11010884
101	0xbe1cea83	-0.15323834
102	0x3eea597b	0.45771393
103	0x3ec0b90c	0.3764118
104	0x3f5a6911	0.8531657
105	0xbd0b01c0	-0.033937216
106	0xbf4fafc5	-0.8112758
107	0x3da766e0	0.08173919
108	0xbe8e75c3	-0.2782422
109	0x3ebf743e	0.37393373
110	0x3e0388f3	0.1284521
111	0x3f33b9ce	0.7020539
112	0x3f1b3c53	0.6063892
113	0x3ece909e	0.4034471
114	0x3f3e7d69	0.7441011
115	0xbe919622	-0.28434855
116	0xbd1bd5ee	-0.038045816
117	0x3da5dda0	0.08098912
118	0xbceeaebc	-0.029136054
119	0xbd162426	-0.036655568
120	0xbe17e21a	-0.14832345
121	0x3f0bc208	0.54592943
122	0xbefa618a	-0.4890254
123	0x3efff9ca	0.4999526
124	0x3eda61a6	0.42652625
125	0xbd50c7ad	-0.050971676
126	0xbf12a73b	-0.57286423
127	0xbebe04f2	-0.37113148
128	0xbdd3788b	-0.10325726
129	0x3f74831b	0.9551255
130	0x3ea2b695	0.31779924
131	0x3eecec19	0.46273878
132	0xbea3c93a	-0.3198946
133	0x3e1810cc	0.14850157
134	0xbd0d5be0	-0.034511447
135	0x3df9a5c0	0.121898174
136	0xbdef247e	-0.11676882
137	0x3f114e54	0.56760144
138	0xbd2750c1	-0.040848497
139	0x3f1670b9	0.5876575
140	0xbf103749	-0.5633436
141	0x3deb1168	0.11477929
142	0x3f3beb88	0.7340627
143	0x3d95b5ea	0.07310088
144	0xbe34fd78	-0.17674816
145	0x3f28e291	0.6597071
146	0xbe53e832	-0.20694044
147	0x3d93f578	0.07224554
148	0xbf7af3d8	-0.98028326
149	0x3ef40185	0.4765741
150	0xbf9c7019	-1.222171
151	0xbf3e4d47	-0.74336666
152	0x3e93ec2a	0.28891116
153	0xbef50063	-0.47851858
154	0x3ec1dc58	0.3786342
155	0xbe907226	-0.28212088
156	0xbe184005	-0.14868172
157	0x3f50404f	0.8134813
158	0x3e988590	0.297894
159	0xbe2dda17	-0.16977726
160	0xbefac568	-0.48978734
161	0x3eac24f0	0.3362193
162	0x3f5c7dc8	0.86129427
163	0x3e039c41	0.12852575
164	0x3f60c475	0.8779977
165	0x3ec94e2a	0.39317447
166	0x3d42ae91	0.04752976
167	0x3ed1d587	0.4098322
168	0x3d5ca73b	0.05387042
169	0xbefaeb17	-0.49007484
170	0xbea1dc3b	-0.31613335
171	0x3f326c7c	0.69696784
172	0x3f170349	0.5898939
173	0xbed9cdcc	-0.42539823
174	0x3dd14988	0.10219103
175	0x3f08d562	0.53450596
176	0x3f5148d6	0.81751764
177	0xbe80480c	-0.25054967
178	0xbf0f863e	-0.5606421
179	0xbc806098	-0.01567106
180	0xbe9ec76f	-0.3101153
181	0xbeed8af7	-0.46395084
182	0x3e968432	0.29397732
183	0xbe49e97c	-0.19717973
184	0x3e02540a	0.12727371
185	0x3e324da7	0.17412435
186	0xbe2d7751	-0.16940047
187	0xbe3c405b	-0.18383925
188	0x3e643400	0.22285461
189	0xbdf27873	-0.1183938
190	0x3eb01984	0.34394467
191	0xbf279fde	-0.6547831
192	0x3e140445	0.14454754
193	0xbf152dec	-0.58273196
194	0x3eff8a69	0.49910286
195	0x3f430d15	0.76191837
196	0x3e7d44b0	0.24733233
197	0xbe139fae	-0.14416382
198	0x3ee621dd	0.4494771
199	0x3f4b1f12	0.79344285
200	0xbdfcf2b1	-0.12350977
201	0x3f3be412	0.7339488
202	0x3f506761	0.81407744
203	0xbe8c6df0	-0.27427626
204	0xbecfcc0e	-0.4058537
205	0x3f172fa3	0.5905706
206	0x3d820fb7	0.063506536
207	0xbc7bb307	-0.015362508
208	0xbe460d3c	-0.19340986
209	0x3f16a218	0.58841085
210	0x3ea082c9	0.3134978
211	0xbf604ecc	-0.87620234
212	0xbe5d865b	-0.21633284
213	0xbe9e6ba6	-0.30941504
214	0x3b96bae0	0.004599914
215	0xbeaa53c8	-0.33267045
216	0x3f89f7ac	1.0778708
217	0x3e7576a8	0.23971045
218	0x3f714b29	0.9425531
219	0xbe465c1d	-0.19371076
220	0xbe280d42	-0.16411307
221	0xbec90688	-0.39262795
222	0xbea9a8ed	-0.33136693
223	0xbeebc170	-0.4604602
224	0x3e51b771	0.20480134
225	0x3e0f4846	0.13992414
226	0x3f31ec76	0.69501436
227	0xbed87107	-0.42273733
228	0x3f4245ec	0.7588794
229	0xbe8fbaeb	-0.28072295
230	0xbf19e839	-0.6011997
231	0xbf1813df	-0.5940532
232	0x3e900aa4	0.28133118
233	0xbf655958	-0.8958945
234	0xbf06826e	-0.5254277
235	0xbe5c3b05	-0.21506889
236	0xbd28d993	-0.04122312
237	0x3e0b5272	0.13605669
238	0xbec41731	-0.38298944
239	0xbe0d0700	-0.13772202
240	0xbe1d6680	-0.15371132
241	0x3e7d0d58	0.24712121
242	0x3e28ded7	0.16491257
243	0xbf6ad045	-0.91724044
244	0xbe23746f	-0.15962385
245	0xbc8282b0	-0.015931457
246	0xbf23692d	-0.6383236
247	0xbc1ddb80	-0.009634852
248	0xbd8c488d	-0.068497755
249	0xbed38688	-0.41313577
250	0x3e3f6dee	0.18694279
251	0xbf6ee0f0	-0.9331198
252	0xbe8a8c84	-0.2706033
253	0xbf929d3a	-1.1454232
254	0x3e40392c	0.1877181
255	0x3f2943a2	0.66118824

network_body._body_endoder.seq_layers.0.bias f4 [128]
0	0xbb14026c	-0.0022584451
1	0x39a231d5	0.00030936176
2	0x39e31be9	0.0004331761
3	0x3a03f666	0.00050339696
4	0xba2ffe5e	-0.0006713624
5	0x3aec0d67	0.0018009365
6	0x3a628db8	0.00086423336
7	0xba14e3c1	-0.000567969
8	0x3a7e5d2c	0.0009703215
9	0x3b413714	0.0029482292
10	0xbb7ab290	-0.0038253404
11	0xb9994bc2	-0.00029238878
12	0xba97d881	-0.0011584909
13	0xb9ff6666	-0.00048713683
14	0x3b409fac	0.0029392047
15	0xba90f42d	-0.0011059098
16	0x3a8eff9f	0.0010909921
17	0xb9ae3deb	-0.00033234
18	0x39a53b30	0.0003151535
19	0xbacec2eb	-0.0015774643
20	0xbabf638a	-0.0014601809
21	0xbab245bd	-0.0013601106
22	0x3a3f64ac	0.0007301073
23	0x3b403c36	0.0029332764
24	0xba2a25ce	-0.00064906187
25	0xbb4d3577	-0.0031312385
26	0xbb1f6473	-0.0024321347
27	0xbb30a860	-0.0026955828
28	0xbb41de2e	-0.0029581892
29	0x3b617ac7	0.0034405456
30	0x3b17fee1	0.002319269
31	0xbad84020	-0.0016498603
32	0x39a11d7b	0.00030730278
33	0x3907fea2	0.00012969461
34	0x3a21a5b8	0.00061663566
35	0xbafd0cc8	-0.0019306177
36	0x3b77e063	0.0037822954
37	0xb7f94430	-2.9714865e-05
38	0x3b0cc176	0.0021477616
39	0xbaa8f04e	-0.0012888999
40	0xbb5ec391	-0.0033991078
41	0x3a019a5e	0.0004943962
42	0x3b1c8dd6	0.0023888252
43	0xbb2c6b48	-0.0026309062
44	0x3b008cd6	0.0019615195
45	0x3a831852	0.0010001755
46	0xbb15ed3b	-0.0022876996
47	0x3a7921a4	0.0009503609
48	0xba8594d7	-0.0010191452
49	0x3ab0b1aa	0.0013480682
50	0xbaeac706	-0.0017912097
51	0x3b5a90c7	0.0033350454
52	0xbb82fb83	-0.0039972677
53	0x3a9f6482	0.0012160691
54	0xba8c26fe	-0.0010692773
55	0xba656e65	-0.0008752107
56	0xb87aeea8	-5.982691e-05
57	0x3b5eae9e	0.0033978592
58	0x3a80b70a	0.0009820175
59	0xbaa587a8	-0.001262893
60	0x3a098304	0.0005245658
61	0x39b0bf97	0.00033712081
62	0x3a2114e6	0.00061447767
63	0x3b1846eb	0.002323563
64	0x3a7f4167	0.0009737224
65	0x3aa7c9f4	0.0012801276
66	0xba807979	-0.0009801827
67	0xbaa9fc0c	-0.0012968793
68	0x3ab027bb	0.0013439575
69	0x3a7772e6	0.00094394234
70	0xba7c4dbb	-0.000962462
71	0x3b720242	0.0036927615
72	0xb9cbe072	-0.00038886402
73	0x3a690391	0.0008888776
74	0xba4d9b86	-0.0007843304
75	0xb91a641a	-0.00014723875
76	0x3b545c83	0.0032403774
77	0x39006aa8	0.00012246764
78	0xba9867eb	-0.001162765
79	0x39e21fc0	0.00043129735
80	0xb9b903a4	-0.00035288662
81	0xba4e77cf	-0.0007876129
82	0x3a5f0288	0.0008507152
83	0x3ae461cb	0.0017424164
84	0xba898cc2	-0.001049422
85	0xba52927e	-0.00080326933
86	0xba8674fe	-0.0010258255
87	0x3a019a8c	0.0004943989
88	0x3adc274e	0.0016796382
89	0xbb5a43d5	-0.0033304591
90	0xba538c30	-0.0008069901
91	0xbb531ef6	-0.00322145
92	0x39c54fac	0.00037634128
93	0x3b273901	0.0025516155
94	0xbb0fbdd7	-0.0021933222
95	0x3b07a5c3	0.0020698167
96	0x3b1cfa4d	0.0023952902
97	0xb6c0af00	-5.7424186e-06
98	0xbaa09568	-0.0012251558
99	0x3820d8ac	3.8348764e-05
100	0xb95a7edc	-0.00020837359
101	0xb6865fc0	-4.004658e-06
102	0x3ad7d44b	0.0016466466
103	0x3a885565	0.0010401426
104	0x38405f38	4.5865047e-05
105	0xb9bcf35c	-0.0003603947
106	0xbb32921b	-0.002724773
107	0x3ae756d8	0.0017649783
108	0x3ad3e363	0.0016165789
109	0xb9d8cef4	-0.00041352923
110	0xbb59bd50	-0.0033224411
111	0x39f60c89	0.00046930116
112	0x3b078e69	0.0020684248
113	0xbada3e0a	-0.0016650569
114	0xbabd8ab4	-0.0014460892
115	0x3aaab2d1	0.0013023262
116	0xba00917b	-0.0004904491
117	0x3a8ee453	0.0010901786
118	0x3b4d261c	0.0031303233
119	0x3a4b8438	0.00077635376
120	0x3a24d743	0.000628818
121	0x3ad06fb6	0.0015902433
122	0xbad738a7	-0.0016420082
123	0x3a070e34	0.0005151958
124	0x3ab6bf97	0.0013942596
125	0x3a9b2a47	0.0011838161
126	0x390b483c	0.00013282982
127	0x3a3f4c96	0.0007297484

action_model._discrete_distribution.branches.0.weight f4 [2, 128]
0	0x3a0580ce	0.0005092741
1	0xbc2b0623	-0.010438475
2	0x397e7a5a	0.00024268907
3	0xbbe2ae5a	-0.006917757
4	0x3b42e941	0.002974108
5	0xbc2812c4	-0.01025838
6	0x3c0b4dcb	0.008502434
7	0x3c065bba	0.00820058
8	0xbb0d73af	-0.0021583845
9	0x3a452a1d	0.0007521229
10	0xbc0608d7	-0.0081808185
11	0xbc534921	-0.012895853
12	0xbb57e1c3	-0.003294096
13	0xbb3ed23c	-0.0029117009
14	0x3be10ecc	0.006868219
15	0xbc261d76	-0.01013886
16	0xbbde38a3	-0.006781654
17	0x3a982a0c	0.0011609211
18	0xbbd1a577	-0.006397899
19	0x3c18e3fe	0.009331701
20	0xbaece4fe	-0.0018073616
21	0x3ca2ac9a	0.019857693
22	0xbc2aa67a	-0.010415668
23	0x3ac9f540	0.0015408173
24	0x3c579058	0.013156973
25	0xbb8c19ed	-0.0042755515
26	0x3b95deb3	0.004573667
27	0xbc31b969	-0.010847428
28	0x3b3f8c99	0.002922809
29	0xbb88c936	-0.004174377
30	0xbc545339	-0.012959295
31	0x3986d86e	0.00025719724
32	0xbc834e8d	-0.016028667
33	0x3c912057	0.017715616
34	0x3c5d41c5	0.01350445
35	0x3c20efb9	0.009822779
36	0x3b938ac5	0.0045026266
37	0xbb9d816e	-0.004806689
38	0x3b01581e	0.001973636
39	0xba165cf2	-0.0005735896
40	0x3c4f6d3a	0.012660319
41	0x3b70969e	0.0036710869
42	0x3caa1e48	0.020766392
43	0xba55c8da	-0.00081552344
44	0xbb69ac73	-0.0035655766
45	0xbbaa012c	-0.005188128
46	0xbb795801	-0.003804684
47	0x3bd0003e	0.006347685
48	0x3b999f8e	0.00468821
49	0x3c5aad1a	0.013346935
50	0x3b9c78ef	0.0047751586
51	0x3c553bf2	0.01301478
52	0x3bbccee4	0.005761968
53	0xbb8a2b7f	-0.004216611
54	0xba6f4003	-0.0009126665
55	0x3801d2dc	3.0952375e-05
56	0x3a89dfad	0.0010518931
57	0xbab6886b	-0.0013926154
58	0xbb71a230	-0.0036870353
59	0xbc17ffd3	-0.009277302
60	0x3b101f23	0.0021991215
61	0x3baccced	0.0052734525
62	0x3b3ed3af	0.0029117872
63	0xbc830786	-0.015994798
64	0xbcb1050f	-0.021608857
65	0xbc8fa1e1	-0.017533245
66	0xbadffa7f	-0.0017088203
67	0xbc146812	-0.009058015
68	0xba25fc94	-0.00063318876
69	0x3c20b244	0.009808127
70	0x3b34366b	0.0027498256
71	0x3c439942	0.011938395
72	0x3c5b4384	0.013382796
73	0xbbb383b7	-0.005478348
74	0xbbaac993	-0.005212018
75	0xbc2efedb	-0.0106808795
76	0x3b62ba14	0.0034595774
77	0xbb8a9c97	-0.0042300927
78	0xbce1248b	-0.027483245
79	0xbb417f09	-0.0029525182
80	0xbb4f276b	-0.0031609188
81	0x39a62920	0.00031692628
82	0x3ba85cea	0.0051380293
83	0xbc0b237b	-0.008492346
84	0x3a715433	0.0009205967
85	0x3c103198	0.008800887
86	0x3b5a070b	0.0033268358
87	0x3b967bd8	0.0045924
88	0xbbcff8fe	-0.006346821
89	0x3bd0eed7	0.006376128
90	0xbbddafea	-0.0067653554
91	0xbc010d2b	-0.007876675
92	0x394c6a2a	0.00019494505
93	0xbbc9ca11	-0.0061581214
94	0xbc2bafa9	-0.010478892
95	0x3b00739b	0.0019600156
96	0xbc2c2e17	-0.010509036
97	0x3af48201	0.0018654467
98	0x3cef25f2	0.029192898
99	0x3bc3df4f	0.005977548
100	0xbc3cfae4	-0.011534426
101	0xbc8cdd1b	-0.017195275
102	0xbb80e052	-0.003932991
103	0x3bd5fd88	0.0065304674
104	0xbb4f4a7e	-0.0031630094
105	0x3cb39248	0.021920338
106	0xbbcd11cb	-0.0062582246
107	0xbc059a63	-0.008154484
108	0xbb95012f	-0.0045472602
109	0x3bfb7b4e	0.007674611
110	0xbbb42194	-0.005497167
111	0x3b3043e9	0.0026895946
112	0xbbc8edac	-0.0061318483
113	0x3a6133dc	0.00085907965
114	0xbb1a9ef1	-0.0023593272
115	0x3a8bffa6	0.0010681048
116	0x3bf9e6fe	0.0076264134
117	0xbadca917	-0.0016835061
118	0xb8ddd43c	-0.00010577633
119	0x3c168da4	0.009189043
120	0x3b3b8bb5	0.0028617207
121	0x3b3ed1bf	0.0029116718
122	0x3b9f9afb	0.00487077
123	0x3b234012	0.0024910015
124	0xbbb2be15	-0.0054547885
125	0x3c8490d9	0.01618235
126	0xbb87369c	-0.004126383
127	0x3b9870c3	0.004652114
128	0xba2d040e	-0.00066000305
129	0x3a345a74	0.00068799336
130	0xbc6f07fb	-0.014589305
131	0xba40caef	-0.0007354458
132	0x3b85a5a7	0.004078585
133	0xbae6b3ee	-0.0017601231
134	0x3bd7678c	0.006573623
135	0xbc05dfd6	-0.008171042
136	0x3bc1ef16	0.005918394
137	0xbb2d776a	-0.0026468881
138	0xbc01911c	-0.007908132
139	0xbc0abdec	-0.0084681325
140	0x3bc0af7a	0.0058802934
141	0x3ba84d4d	0.005136168
142	0xbc9c8fc6	-0.019111525
143	0x398cc67c	0.00026850763
144	0x3c54a130	0.012977883
145	0x3bb459aa	0.005503853
146	0x3a2de186	0.0006633032
147	0xbc7f2815	-0.015573521
148	0xbc878ff4	-0.016548134
149	0x3b161087	0.0022898035
150	0x3c1856be	0.009298025
151	0xbbf35e16	-0.0074269874
152	0x3c80a0c9	0.015701668
153	0xbc888cac	-0.01666864
154	0xbb9a7d44	-0.00471464
155	0xbca5a588	-0.020220533
156	0x391807b8	0.00014498725
157	0x3b34f981	0.0027614536
158	0x3c485c1d	0.012228993
159	0xbc686b0d	-0.014185679
160	0xbc0f986c	-0.008764368
161	0x3bf3a61d	0.0074355737
162	0x3a908aec	0.001102773
163	0x3b63adfb	0.0034741152
164	0xbb66eea4	-0.0035237456
165	0x3ba45e9f	0.0050161625
166	0x3c6f1296	0.014591834
167	0x3bc17f8f	0.0059050987
168	0x3bc20b05	0.005921724
169	0x39717865	0.00023028401
170	0x3bd10aac	0.006379446
171	0x3bb3fa1a	0.005492461
172	0xbbec6078	-0.0072136484
173	0x3c800e5f	0.015631853
174	0xbbcb353d	-0.006201415
175	0x3c0754ac	0.008259933
176	0xbc12ed05	-0.008967643
177	0xbbc4f8ca	-0.0060111033
178	0x3bba19c4	0.005679341
179	0xbb5bdf6f	-0.0033549925
180	0xbb09f35d	-0.0021049597
181	0x3c604073	0.013687241
182	0x3c73cb89	0.0148800695
183	0x3c287410	0.010281578
184	0xbbf3a9d9	-0.007436019
185	0xbc002390	-0.007820979
186	0xbbece940	-0.007229954
187	0x3b1b5f76	0.0023708022
188	0xbbaf6eb1	-0.0053537716
189	0xbb16eeb2	-0.0023030457
190	0xbbb1d94d	-0.0054275156
191	0x3b70eb21	0.0036761241
192	0x3bbb51cc	0.005716538
193	0x3b88ef5a	0.0041789236
194	0xbbfd4c5b	-0.0077300495
195	0xb75afe20	-1.3052981e-05
196	0xbb97e7a0	-0.004635766
197	0xbc58f9b9	-0.013243132
198	0x3c6b2aa1	0.014353425
199	0xbc0717e1	-0.008245439
200	0xbbbacdbf	-0.0057007964
201	0xbbb2654c	-0.0054442044
202	0xbc8b0531	-0.016970249
203	0x3bd7ffcd	0.006591773
204	0x3c29d8db	0.010366644
205	0xb98e227b	-0.0002711004
206	0xbadd3644	-0.0016877134
207	0xbc47ab4c	-0.012186836
208	0xbb247f90	-0.0025100447
209	0xbc9e6040	-0.019333005
210	0x3b1afecb	0.0023650404
211	0xbb9eb09d	-0.0048428313
212	0x3b79acd0	0.003809739
213	0xbc084268	-0.008316614
214	0x3be65c5a	0.007030052
215	0xbba96da0	-0.005170539
216	0xba494265	-0.0007677435
217	0x3bf7d989	0.007563774
218	0xbc002f0c	-0.007823717
219	0x3ba47a28	0.005019445
220	0x3bcf759c	0.006331159
221	0x3cde56aa	0.027140934
222	0x3bdc2ef5	0.006719465
223	0x3bb3dd6f	0.0054890434
224	0xba88b215	-0.0010429049
225	0xbb55edb3	-0.00326429
226	0xbbea44c2	-0.00714931
227	0xbbdc143a	-0.0067162784
228	0x3bc9e435	0.0061612376
229	0xbb127ccd	-0.002235222
230	0x3aad8111	0.0013237317
231	0xba5acad2	-0.00083462626
232	0x3a74436b	0.00093179074
233	0x3baae97f	0.005215823
234	0xbb16e984	-0.002302737
235	0xbbe2cbe6	-0.0069212792
236	0x3cb080a3	0.021545714
237	0xbbd773f9	-0.0065751043
238	0x3abd34ed	0.0014435329
239	0xbb63490c	-0.003468099
240	0x3bd1444f	0.006386317
241	0xbb6bd34c	-0.0035984097
242	0xbc4b738d	-0.012417686
243	0x3ab6a2f3	0.0013934061
244	0xbca6e2ea	-0.020371873
245	0x3c93f2ac	0.01806005
246	0x3ca988d9	0.020695137
247	0xbbf1602a	-0.0073662
248	0xbc5e7e3a	-0.013579899
249	0xbc16afd1	-0.009197191
250	0xbc472f49	-0.01215727
251	0xbb9d9b74	-0.004809791
252	0x3ad5358b	0.0016266567
253	0x3b87b7a7	0.004141766
254	0x3ba06f70	0.004896097
255	0xbaedfd6c	-0.0018157191

action_model._discrete_distribution.branches.0.bias f4 [2]
0	0xb9eebd39	-0.0004553588
1	0x39eeb54c	0.00045529974

action_model._discrete_distribution.branches.1.weight f4 [2, 128]
0	0xbc8aa466	-0.016924094
1	0xbb8b15c2	-0.004244537
2	0x3af72757	0.0018856329
3	0xbbeb37e5	-0.007178294
4	0xb920c4ae	-0.00015332058
5	0x3b40b866	0.0029406785
6	0x3b910d60	0.0044266433
7	0x3aea0cbf	0.0017856582
8	0xbbcdeced	-0.0062843473
9	0x3c3a4e64	0.011371229
10	0x39507510	0.00019880035
11	0xbab20e78	-0.0013584634
12	0x3a399b68	0.0007080347
13	0xbaca163f	-0.0015418007
14	0x3bfe639d	0.0077633397
15	0x39c1d9a5	0.00036973986
16	0x3c86a588	0.016436353
17	0xbc810555	-0.015749613
18	0x3c1a6915	0.009424468
19	0x3bd2e67e	0.006436168
20	0xbb8b4694	-0.004250357
21	0xbc4e06d1	-0.012574867
22	0x3b6b8193	0.0035935387
23	0x3b571e7d	0.003282457
24	0xbbb9d129	-0.005670686
25	0xbc6d5c54	-0.014487345
26	0xbbd54260	-0.0065081567
27	0xbc4d4bf3	-0.012530315
28	0x3b51d9d1	0.0032020698
29	0x3c952d37	0.018210037
30	0xb6d8ef80	-6.465183e-06
31	0xbb531022	-0.003220566
32	0xbb9c1980	-0.004763782
33	0x3b29e492	0.0025923592
34	0xbb8382f8	-0.0040134154
35	0xba86c652	-0.0010282493
36	0x3bcdded9	0.006282669
37	0x3b0da253	0.0021611645
38	0x3bd7697a	0.006573853
39	0xbc1f8d92	-0.009738343
40	0xbbd13f8b	-0.0063857487
41	0xbc071fce	-0.008247329
42	0x3b81c73e	0.003960519
43	0xbbe51116	-0.006990562
44	0x3c2a6155	0.010399182
45	0xb8507be0	-4.9706432e-05
46	0x3b68c423	0.0035517297
47	0x3b84ba27	0.0040505114
48	0xbb09091e	-0.0020909975
49	0x3a138d08	0.000562862
50	0xbb4d3ebd	-0.0031317913
51	0x3c18a93a	0.0093176905
52	0xbc2dc007	-0.010604865
53	0x3bf8cc53	0.0075927167
54	0x3b9a8626	0.004715699
55	0xbb87479c	-0.0041284095
56	0x3c13e48a	0.009026656
57	0x3c0b3e9a	0.008498812
58	0x3b0074d0	0.0019600876
59	0xbb1c6934	-0.0023866417
60	0xbb12cb12	-0.0022398871
61	0xba1afd67	-0.00059123937
62	0x3c0421b1	0.008064673
63	0x3bac138e	0.0052513545
64	0xbb63e086	-0.0034771278
65	0x3a3742bd	0.0006990841
66	0x3c661c68	0.0140448585
67	0xbb2ebd8a	-0.0026663267
68	0x3b996766	0.0046815155
69	0x3a012320	0.00049261935
70	0xba4d9b32	-0.00078432553
71	0x3b5de6cd	0.0033859492
72	0x3bbf3c61	0.005836055
73	0x3c022923	0.007944378
74	0xbbd5b8db	-0.0065222806
75	0x3c0f82bc	0.008759197
76	0x3c855807	0.016277326
77	0xbb002dce	-0.0019558552
78	0x3ba3aff0	0.0049953386
79	0xbb5bf28b	-0.0033561315
80	0xbbac5639	-0.005259302
81	0x3bf0791d	0.0073386566
82	0x3b99f96b	0.0046989224
83	0xba193f8d	-0.00058459566
84	0xbb0f46a0	-0.0021862164
85	0x3a36e3ec	0.0006976712
86	0xbc846239	-0.016160117
87	0xbabc2886	-0.0014355339
88	0x3c3331b4	0.010937143
89	0xba9639be	-0.00114613
90	0xbb510eb0	-0.0031899624
91	0xbc5bb75d	-0.013410416
92	0xb8e274c4	-0.00010798269
93	0xbb443f0a	-0.00299448
94	0xbc628b2e	-0.013827128
95	0x3c2e0051	0.010620193
96	0x3a78332a	0.0009468073
97	0x3ab0fdaf	0.0013503338
98	0xba49e722	-0.0007701983
99	0x3a398ff0	0.00070786383
100	0xbbfadce8	-0.0076557286
101	0xbbf13820	-0.007361427
102	0x3bc31a4a	0.0059540616
103	0xbad71664	-0.0016409871
104	0xbb5780c4	-0.0032883147
105	0xbc7dc13c	-0.015487965
106	0xbc69520d	-0.014240754
107	0x3c69ad2e	0.014262481
108	0x3ba4b9c0	0.005027026
109	0xbabd21b5	-0.0014429601
110	0xbc2396d8	-0.009984694
111	0x3946b0e2	0.00018948645
112	0x3c7c1a73	0.015387165
113	0xbbad332f	-0.0052856426
114	0xbbac1527	-0.005251545
115	0xba1a8270	-0.00058940705
116	0x3b235125	0.0024920192
117	0x3b418e90	0.0029534437
118	0x3b762d6b	0.0037563692
119	0x3b85fc8a	0.004088943
120	0x3c75ff45	0.015014474
121	0xbbc3b135	-0.0059720525
122	0xbc4c9785	-0.012487297
123	0x3b02a0ff	0.0019932387
124	0x3baec013	0.0053329556
125	0x3b4c7c0a	0.0031201863
126	0x3c6e1abe	0.014532743
127	0xbb5e91e2	-0.0033961465
128	0x3ab8b000	0.0014090538
129	0x3bc620f9	0.006046411
130	0xbb955a9d	-0.004557921
131	0xbc80420e	-0.015656497
132	0x3bcf3c3b	0.0063243187
133	0xbbbbc0b1	-0.0057297577
134	0x3aedb391	0.001813518
135	0x38c09d14	9.1845315e-05
136	0xbabae6a8	-0.0014259415
137	0xbbc0d704	-0.005885007
138	0x3c8bb58f	0.017054347
139	0x3afba345	0.0019198438
140	0x3cb18f92	0.021674905
141	0xba90d528	-0.0011049854
142	0xbc94f58b	-0.01818349
143	0x3bae06a0	0.0053108484
144	0x3c558c77	0.013033978
145	0x3b9aa91e	0.0047198674
146	0x3c304b56	0.010760149
147	0x3c22fcd1	0.009947971
148	0x3a6ee1a9	0.00091126055
149	0xba47c36f	-0.00076203694
150	0x3bd04220	0.006355539
151	0xbc9da7f4	-0.019245125
152	0x3ad5a9d9	0.0016301229
153	0xbb2d5372	-0.0026447442
154	0x3aecb783	0.0018060062
155	0x3bb5de08	0.00555015
156	0x3c5f13e4	0.013615582
157	0x3bac95a5	0.0052668625
158	0xbc59d0fc	-0.013294455
159	0x3b54439a	0.0032388926
160	0xbbb8bf5a	-0.0056380453
161	0xbb57d4f5	-0.0032933329
162	0x3a162a19	0.0005728319
163	0x3c7864e3	0.015160772
164	0xbbb8c7da	-0.0056390585
165	0x3b88d0ca	0.00417528
166	0xbb7fdd2d	-0.0039041743
167	0xbb27c5b5	-0.002560002
168	0x3bd2e6f7	0.0064362246
169	0xbb004567	-0.0019572617
170	0xbb92e1f5	-0.0044825026
171	0x3c282e79	0.010264986
172	0xba73c3ce	-0.00092988915
173	0xbb58923e	-0.0033046152
174	0x3c7fcc9c	0.0156127475
175	0xb84a5d5c	-4.82475e-05
176	0xbb13ab34	-0.0022532465
177	0xbb9414f6	-0.0045191003
178	0x3c046293	0.008080143
179	0xbc6ddd3f	-0.014518081
180	0x3c1d5356	0.009602388
181	0x3b82fda9	0.003997524
182	0x3c171a16	0.009222528
183	0x3ad3f522	0.0016171078
184	0xbbed582a	-0.007243176
185	0xbbac31e6	-0.005254972
186	0xbc5af6db	-0.013364519
187	0x3c23d1ba	0.009998733
188	0x3aed1af6	0.00180897
189	0xba9ff819	-0.0012204676
190	0x3bca7edd	0.006179674
191	0xbb98992f	-0.004656933
192	0xb95983b0	-0.0002074379
193	0x39dd335c	0.0004219067
194	0x3c73beca	0.014877031
195	0x3ba46ae4	0.005017625
196	0xbab20e7a	-0.0013584637
197	0xbc053466	-0.008130169
198	0x3bc3e960	0.005978748
199	0xbc99b62a	-0.01876362
200	0x3b7b5960	0.0038352832
201	0xbbc9d0fb	-0.0061589456
202	0xbbb5106b	-0.005525639
203	0x3c492220	0.012276202
204	0xba23a405	-0.00062423974
205	0xbabe44ef	-0.0014516393
206	0x3c3e473d	0.011613664
207	0xbba952bc	-0.0051673334
208	0xbc491ede	-0.012275426
209	0xbaca4fb8	-0.0015435135
210	0x3c37db94	0.011221785
211	0xbc2c9bf6	-0.010535231
212	0x3c47eccb	0.012202452
213	0x3c28621a	0.0102772955
214	0xbbd1fd73	-0.0064083873
215	0xbbe6f3ce	-0.0070481068
216	0x3a015fca	0.0004935233
217	0x3c6e6206	0.014549738
218	0xba02c6a8	-0.00049887085
219	0xba30b69f	-0.000674108
220	0xbbaa4a1a	-0.005196822
221	0xbc7b0a29	-0.015322247
222	0x3c893cee	0.016752686
223	0xba890590	-0.0010453928
224	0xbc02ce53	-0.007983762
225	0xbb1c51ca	-0.002385246
226	0xbaff25f6	-0.0019466269
227	0x3b76d94f	0.0037666147
228	0xbc040f6c	-0.0080603175
229	0xbbb13003	-0.005407335
230	0x3bc0ed3a	0.0058876546
231	0xbbde341e	-0.006781115
232	0xbc6667a5	-0.014062797
233	0xbb78ce47	-0.0037964748
234	0x3c744a55	0.0149103
235	0x3b1eb81f	0.0024218631
236	0x396d4d94	0.00022630981
237	0x3c3e17bb	0.0116023375
238	0xba7f1ea4	-0.0009732044
239	0xbaf7a3c0	-0.0018893406
240	0x3ba2c262	0.00496702
241	0x3ab4aa21	0.0013783613
242	0x3a253f7a	0.0006303709
243	0xbb9451b4	-0.0045263413
244	0x3b70c876	0.0036740578
245	0x3b4f0604	0.003158928
246	0xbc9888ab	-0.018619856
247	0xbb0803d1	-0.0020754228
248	0x3b5d981a	0.0033812583
249	0xbc89c27c	-0.01681637
250	0xbb8b55a0	-0.0042521507
251	0xbbf80e2e	-0.0075700497
252	0xbc97f71e	-0.018550452
253	0x38ab82e8	8.1782986e-05
254	0x3c5adaa1	0.013357789
255	0xbc0522f6	-0.008126011

action_model._discrete_distribution.branches.1.bias f4 [2]
0	0x3a9663e9	0.0011473867
1	0xba9664ee	-0.0011474171

action_model._discrete_distribution.branches.2.weight f4 [2, 128]
0	0xba3c1ba3	-0.0007175749
1	0xbc3cde22	-0.01152757
2	0x3b34a0f3	0.0027561754
3	0xba393aad	-0.00070659333
4	0x3b98c780	0.004662454
5	0x3caaf4a2	0.020868603
6	0xbc927273	-0.01787684
7	0xbb8e520a	-0.004343276
8	0xbc5710c6	-0.013126558
9	0x3b5c997b	0.0033660817
10	0xbba5092b	-0.0050364933
11	0x3b3ac708	0.002849998
12	0x3be59be6	0.00700711
13	0xbc5289a7	-0.012850202
14	0xbc9a3d64	-0.018828101
15	0xba873219	-0.0010314613
16	0xbc25ecf0	-0.010127291
17	0xbcd9a66e	-0.026568618
18	0xbc850170	-0.016236037
19	0x3bfb6ec5	0.007673117
20	0xbb2560f0	-0.0025234781
21	0x3bf9cf84	0.0076236147
22	0xbba7a55a	-0.005116147
23	0x3b91e66d	0.0044525177
24	0x3c02ea7a	0.007990474
25	0xbc3a8923	-0.011385235
26	0xbbed5808	-0.00724316
27	0xbb4a0b8e	-0.003082964
28	0xbc2d0a17	-0.010561488
29	0x3ad0a290	0.0015917588
30	0x3b38e424	0.0028212154
31	0x3c72ae88	0.014812119
32	0x3c851f66	0.016250324
33	0x3b8e229b	0.0043376214
34	0xbbdb1ce4	-0.0066867936
35	0x3c3996bc	0.011327442
36	0xbb8ef989	-0.004363243
37	0x3bccc3cc	0.0062489267
38	0xbc2e5790	-0.010640994
39	0x3b3657a9	0.0027823246
40	0x3c69ffdb	0.014282192
41	0xbca83938	-0.020535097
42	0x3b4b6b71	0.0031039382
43	0xbba9d577	-0.0051829177
44	0xbb1d2315	-0.002397721
45	0xba7763d6	-0.0009437179
46	0x3a8dd257	0.0010820132
47	0xbc302a2f	-0.010752245
48	0x3c8c8165	0.017151544
49	0xbc91f661	-0.017817678
50	0xbb6eb315	-0.003642266
51	0xbb804d4a	-0.0039154636
52	0xba05dbb4	-0.00051062857
53	0xbbc61857	-0.006045382
54	0x3c073276	0.008251777
55	0x3a21eb01	0.0006176681
56	0x3bba577f	0.0056867
57	0xbbe72910	-0.0070544556
58	0xbbf0bf3f	-0.007347017
59	0x3c45452e	0.0120404195
60	0x3b60fc3d	0.0034330033
61	0x3c31dc27	0.010855711
62	0x3b637766	0.0034708618
63	0xbb4a81ee	-0.0030900198
64	0x3bcfd35d	0.006342335
65	0xbcc8234b	-0.024430891
66	0x3c0afe21	0.008483441
67	0x3b6767d8	0.0035309698
68	0xbb81472e	-0.003945253
69	0x3c1ccea2	0.0095707495
70	0x3b44e651	0.0030044506
71	0xbba1b95f	-0.004935428
72	0x3ad56542	0.0016280788
73	0x3b3d95cc	0.0028928397
74	0xbc139ad1	-0.009009079
75	0xbbea20af	-0.0071450095
76	0x3c216f2e	0.009853167
77	0x3b8650c7	0.004098985
78	0x3c988061	0.018615903
79	0x3abb150e	0.0014273243
80	0xba07fcc2	-0.0005187505
81	0x3c34ee89	0.011043199
82	0xbca8c586	-0.020601999
83	0xbbb27c52	-0.005446949
84	0x3bb4a5d0	0.0055129305
85	0x3c07f532	0.008298205
86	0x3b781e72	0.0037859944
87	0xb944a998	-0.00018755195
88	0x3bca4cfc	0.006173728
89	0xbb52d80a	-0.0032172226
90	0xbc49471f	-0.012285023
91	0x3c56aa48	0.013102122
92	0xba89d567	-0.0010515869
93	0xba72257c	-0.0009237153
94	0xbb532611	-0.0032218734
95	0xbc211e22	-0.009833844
96	0xbc33830d	-0.010956538
97	0xbb564247	-0.0032693313
98	0xbb09fa25	-0.0021053639
99	0xba523a7f	-0.0008019581
100	0x3c14a56d	0.009072644
101	0xbb8cf01d	-0.0043010847
102	0xbb7d4c4c	-0.0038650213
103	0xbc177674	-0.00924455
104	0xbbd7ec58	-0.0065894537
105	0xbbd35f3d	-0.0064505623
106	0xbc8c5d8a	-0.017134447
107	0x3c1c24e1	0.009530277
108	0xba9628f0	-0.0011456292
109	0xbc88f81a	-0.016719867
110	0x3ac5e398	0.0015097735
111	0x3bef7f4c	0.007308876
112	0xbb56d068	-0.0032778028
113	0x3c44e155	0.012016614
114	0x3b8481e6	0.0040438054
115	0xbc3a4a6e	-0.0113702845
116	0x3c00f32d	0.007870478
117	0xbbd4597c	-0.006480394
118	0x3bc222df	0.005924567
119	0xbaa68ecb	-0.001270735
120	0xbbc67184	-0.0060560126
121	0xbb614687	-0.0034374313
122	0xbb9bfe08	-0.0047605075
123	0x3bb491b3	0.0055105328
124	0xba7e3449	-0.0009697122
125	0x3a9a252d	0.0011760347
126	0x3b11ebb8	0.0022265743
127	0xbbbf1acd	-0.0058320523
128	0xbc242e1e	-0.010020761
129	0x39c2dc36	0.00037166633
130	0xbc2072d8	-0.009793006
131	0xbb830949	-0.0039989096
132	0xba6e819a	-0.00090982916
133	0x3c93d329	0.018045025
134	0xbc8d4bbd	-0.017248029
135	0xbb285eb1	-0.0025691206
136	0x3b7bfe24	0.003845104
137	0xbb8deb96	-0.0043310625
138	0x3a4de89a	0.000785479
139	0xbbb5c3a0	-0.005547002
140	0x3b814e70	0.003946118
141	0xbc802aeb	-0.015645465
142	0x3b9ad7e3	0.0047254427
143	0xbb9bd2af	-0.00475534
144	0xbc2b61dc	-0.010460343
145	0xb85236ee	-5.011906e-05
146	0x3aab3fb9	0.0013065255
147	0xbc72bb54	-0.01481517
148	0xbb966e22	-0.0045907656
149	0xbbbe0974	-0.0057994667
150	0xbb3c5f91	-0.0028743485
151	0x3b85d0e4	0.0040837396
152	0x3aeaa6a9	0.0017902452
153	0xbb999129	-0.004686494
154	0xbbd4139c	-0.006472064
155	0xbc2ef8e4	-0.010679457
156	0xbb16e376	-0.002302376
157	0x3c17bde6	0.009261584
158	0xbc416452	-0.011803703
159	0xbb07f7eb	-0.0020747136
160	0x3c41fdbb	0.011840279
161	0x3c106d02	0.008815052
162	0x3b527f1b	0.0032119218
163	0xbbbb3d0a	-0.0057140635
164	0xbb385232	-0.0028125164
165	0x3c5e05aa	0.013551155
166	0xbb6b0c05	-0.0035865318
167	0x3b3c4b4f	0.002873141
168	0x3c8ef0ae	0.01744875
169	0x3b983d2c	0.004645964
170	0xbb99b4d1	-0.0046907444
171	0x3becf165	0.007230925
172	0xbabfe62c	-0.001464074
173	0xbbb4361f	-0.005499616
174	0xbbc80e12	-0.006105193
175	0xbbc6654d	-0.0060545565
176	0xbb21206b	-0.0024585973
177	0x3be84e7c	0.007089434
178	0xbc80c814	-0.015720405
179	0x3ba0dbba	0.004909006
180	0x3ca23e88	0.019805208
181	0xbb3c392f	-0.0028720608
182	0x3b4115d6	0.0029462478
183	0x3ab1b087	0.0013556638
184	0xbc2b4e82	-0.010455729
185	0x3aa86780	0.0012848228
186	0xbb87019c	-0.004120065
187	0xbbd24686	-0.0064170985
188	0x3adb1fde	0.0016717871
189	0x3bdfbfba	0.0068282755
190	0x3b2e59c6	0.0026603802
191	0x3b43c0d8	0.0029869583
192	0x3c264520	0.010148317
193	0x3aac9420	0.0013166703
194	0xbc45bc1c	-0.012068775
195	0x3bbb8234	0.0057223085
196	0x3bfc13ed	0.007692805
197	0xb6bc73e8	-5.61633e-06
198	0x3c94defa	0.01817273
199	0xbc6e394b	-0.014540027
200	0xbc19a0f9	-0.009376758
201	0xbbe849e0	-0.0070888847
202	0xbb93a454	-0.0045056734
203	0x3c1b4200	0.009476185
204	0xba982ff1	-0.0011610967
205	0x3bcc01e2	0.0062258104
206	0x3c271bbb	0.010199483
207	0xbb00c23c	-0.0019647023
208	0xbc5ef941	-0.013609231
209	0xbca592ec	-0.02021166
210	0x3bac0d7f	0.0052506323
211	0xbb2b21e4	-0.002611273
212	0x3c1870bb	0.009304221
213	0xbb9da28b	-0.0048106364
214	0x3c29a76d	0.010354859
215	0xbbe3cd13	-0.006951937
216	0x3adc7f32	0.0016822575
217	0xbc1835a6	-0.0092901345
218	0x3b077733	0.0020670414
219	0x3b0f6fb4	0.0021886649
220	0xbba03c33	-0.004889989
221	0xbc104464	-0.008805368
222	0x3ad5608a	0.0016279381
223	0x3c277122	0.010219844
224	0x3c2b71f0	0.010464177
225	0xbc543eab	-0.012954394
226	0xbbf6bb0c	-0.007529622
227	0x3b5bd077	0.0033541003
228	0x3c969920	0.018383563
229	0xbbd99247	-0.006639752
230	0x3b7df55e	0.0038750987
231	0xbbbe7a6e	-0.0058129346
232	0xbb035950	-0.0020042248
233	0x3b571ff8	0.0032825451
234	0xbba4902d	-0.00502207
235	0x3c156535	0.009118368
236	0x3c77eca6	0.015132105
237	0x3c69dd84	0.014274005
238	0x3b651f8a	0.0034961426
239	0x3b45cb86	0.0030181124
240	0x3c43ce63	0.011951062
241	0xbcb64327	-0.022248818
242	0xbbf60cc9	-0.0075088483
243	0x3bb2966d	0.005450061
244	0xb990807a	-0.00027561543
245	0x3c50cef8	0.012744658
246	0xbc3ba2cb	-0.011452387
247	0x3bb2066a	0.0054328935
248	0xbb23a40f	-0.0024969613
249	0xbbc517dd	-0.0060148076
250	0x3b63e882	0.0034776037
251	0xba453024	-0.0007522127
252	0xbc5874cb	-0.013211439
253	0x3b98b979	0.004660782
254	0x3bd6f5b6	0.0065600527
255	0xbacc5481	-0.0015589149

action_model._discrete_distribution.branches.2.bias f4 [2]
0	0xba08be36	-0.0005216332
1	0x3a08b98a	0.0005215636

action_model._discrete_distribution.branches.3.weight f4 [2, 128]
0	0xbc21a781	-0.009866596
1	0x3bafd566	0.0053660152
2	0xba98ca96	-0.0011657055
3	0xbc6a8a79	-0.014315241
4	0xbb1bf55b	-0.0023797366
5	0x3c1a9c6e	0.00943671
6	0x3c12a31f	0.008950024
7	0xbc0cdf4d	-0.008598161
8	0xbb5803a1	-0.0032961147
9	0x3a30c3fa	0.000674307
10	0x3b6ce1b6	0.0036145276
11	0x3c002134	0.007820416
12	0x3a8381c5	0.0010033181
13	0xbc66de2f	-0.014091059
14	0x3b36e0d7	0.002790501
15	0x3b021e31	0.0019854421
16	0x3bc2536a	0.005930354
17	0x3b864e1d	0.0040986673
18	0xbb0a702f	-0.0021123996
19	0x3b1d11ee	0.0023966986
20	0x3bf12fe8	0.007360447
21	0x3c2b8814	0.010469455
22	0x3c9d279f	0.019183932
23	0x3ab36a87	0.0013688364
24	0x39cbfb0a	0.00038906216
25	0xbaf04078	-0.001832976
26	0xbb95134f	-0.004549421
27	0xbb8a322b	-0.0042174063
28	0xbbccf0d7	-0.0062542963
29	0x3b76737b	0.0037605453
30	0x3c596aa7	0.013270057
31	0x3b469e67	0.0030306817
32	0xbad81711	-0.0016486367
33	0xbc183e74	-0.009292234
34	0x3baf2bf5	0.0053458163
35	0x3c1f036a	0.009705404
36	0x3be15642	0.006876738
37	0x39b410ee	0.0003434489
38	0x3aaab8b2	0.0013025014
39	0xbbe22153	-0.006900945
40	0x3a8b5a63	0.0010631796
41	0xbc10a102	-0.00882745
42	0xbb2d98d1	-0.002648879
43	0xbc805103	-0.01566363
44	0x3bacf3e0	0.0052780956
45	0x3afe6cc4	0.0019411077
46	0xbc589f40	-0.013221562
47	0x3a2a9df3	0.00065085216
48	0xbbb30951	-0.005463757
49	0x3b19d90b	0.0023475315
50	0xbb3ca8d4	-0.0028787153
51	0x3c4625a3	0.012093934
52	0xbc02499b	-0.007952119
53	0x3b89034c	0.004181301
54	0xbb224c61	-0.0024764764
55	0xbca198bf	-0.019726155
56	0xbb99cdcd	-0.004693723
57	0xbb7c438c	-0.003849241
58	0xbada49f1	-0.0016654116
59	0x3b2ecbf9	0.002667187
60	0x3c52c60c	0.012864601
61	0xbc096b12	-0.008387344
62	0xba00c319	-0.00049118843
63	0x3abd5328	0.0014444338
64	0xbb0c1df5	-0.002138016
65	0x3c6a8a4a	0.014315197
66	0x3ba89939	0.0051452187
67	0xba8a1795	-0.0010535592
68	0x3be2fd01	0.006927133
69	0x3bc7e3b1	0.006100141
70	0xb947ba03	-0.00019047414
71	0xbbf22eb5	-0.007390822
72	0x3abb83bf	0.0014306231
73	0x3c824b72	0.015905116
74	0xbbf5eaff	-0.0075048204
75	0xbbd68113	-0.0065461486
76	0x3b6572c0	0.0035011023
77	0x3c015d52	0.007895784
78	0xbbe039cc	-0.0068428274
79	0xbbffdc7b	-0.0078082657
80	0xbb02b221	-0.00199426
81	0xbc134621	-0.008988888
82	0x3b7d28d3	0.003862907
83	0x3b145d02	0.0022638445
84	0xbaf34c05	-0.0018562084
85	0x3b847e5b	0.004043383
86	0x3a1b9413	0.00059348455
87	0x3c07f90f	0.008299126
88	0x3b83b5ea	0.0040194886
89	0xbb1485ca	-0.0022662752
90	0xbc14322f	-0.009045168
91	0xbb4fa162	-0.0031681885
92	0x3c0b29d8	0.008493863
93	0xba2f795f	-0.0006693806
94	0xbb7acdb0	-0.0038269572
95	0xbb350d8a	-0.0027626478
96	0x3c1905ca	0.009339759
97	0x3b77a571	0.003778782
98	0x3c256144	0.010093991
99	0x3a2eb328	0.00066642696
100	0xbc046d05	-0.008082633
101	0x3c17abe3	0.00925729
102	0x3a9d250f	0.0011989194
103	0xbb6cdc44	-0.003614203
104	0xbc28453a	-0.010270411
105	0x3b193241	0.00233759
106	0xbc6f3972	-0.014601098
107	0xbb5d6815	-0.0033783962
108	0x3c0d7c2f	0.008635565
109	0x3b732689	0.0037101826
110	0x3bbf59f5	0.005839581
111	0x3b0042a5	0.0019570973
112	0x3a4a4705	0.0007716271
113	0xbc063d5e	-0.008193342
114	0xbc848d65	-0.016180703
115	0x3b6f7803	0.0036540038
116	0xbab788f5	-0.0014002608
117	0xbb573872	-0.003284004
118	0x3c05da18	0.008169673
119	0xbab51dfb	-0.0013818139
120	0xbadff195	-0.0017085547
121	0x3bd966e5	0.0066345804
122	0xbc3c9112	-0.011509197
123	0x39787b29	0.00023697004
124	0xbb3a0cea	-0.0028389045
125	0xbc04bcbf	-0.008101641
126	0x3b804584	0.003914537
127	0x3c24ce6a	0.010058979
128	0x3c83655b	0.016039541
129	0xbc01e3a2	-0.007927807
130	0xbac3b63f	-0.0014931633
131	0xbc0ff821	-0.008787186
132	0xbc0c3be7	-0.008559204
133	0xb9a96e55	-0.00032316396
134	0xbbb86a58	-0.0056279115
135	0x3b93bb0f	0.004508383
136	0x3b87029a	0.004120183
137	0x3a5598ae	0.0008148056
138	0x3b83588e	0.0040083593
139	0xb9f2b1e0	-0.00046290364
140	0xbb240347	-0.0025026368
141	0xbb86505e	-0.004098936
142	0xbbf0715b	-0.007337732
143	0x3c9c524d	0.019082213
144	0xba13f9ee	-0.00056448474
145	0x3a866882	0.0010254534
146	0xba2da1e3	-0.0006623549
147	0xbb916fac	-0.004438361
148	0x3c49c540	0.0123150945
149	0x3ba78219	0.0051119444
150	0x3aff5116	0.0019479122
151	0xbc9db27d	-0.019250149
152	0xbbcd09a4	-0.006257253
153	0x3bc9fc04	0.006164076
154	0xba0af6a6	-0.00053010357
155	0x3c60ac62	0.013712974
156	0xbc1c61cf	-0.009544804
157	0x3bab1853	0.0052214055
158	0xbb98f8cc	-0.004668331
159	0x3c8af4e5	0.016962478
160	0xbc1ee263	-0.0096975295
161	0xb86a8588	-5.5914308e-05
162	0xbc76a37a	-0.015053624
163	0x3bd653e1	0.006540761
164	0x3c351b10	0.0110538155
165	0xbabf1fa1	-0.001458157
166	0xbc2852e4	-0.010273669
167	0x3c2a2561	0.010384888
168	0x3bee8a17	0.007279645
169	0xba1a72c1	-0.00058917335
170	0x3ad69f63	0.0016374405
171	0x3ac99311	0.0015378912
172	0xbc012579	-0.007882469
173	0xbc121137	-0.008915237
174	0xbaf8dfc7	-0.0018987589
175	0x3ba9914f	0.005174793
176	0xba57f62c	-0.00082382816
177	0xbaf12402	-0.0018397572
178	0x3c95a4ad	0.018267
179	0x3be4ce46	0.0069825975
180	0x3ac01a88	0.0014656344
181	0x39b35fb6	0.0003421285
182	0xbbd8cec3	-0.006616445
183	0xbc5278da	-0.012846196
184	0x3be774d4	0.0070634875
185	0xba7e4401	-0.00096994644
186	0x3b4d1a2b	0.0031296115
187	0xbb836952	-0.004010358
188	0xbc191cb8	-0.009345226
189	0xbbe21532	-0.0068994993
190	0xbc501756	-0.012700876
191	0xbbf61a4b	-0.0075104586
192	0x3ac4342e	0.0014969164
193	0xba5b4a55	-0.00083652633
194	0xbb3f8e88	-0.0029229242
195	0x3b8df353	0.004331985
196	0xbc95ad2a	-0.018271048
197	0x3bc4d6da	0.0060070576
198	0x3aac9b20	0.001316879
199	0xbc2bf64b	-0.010495733
200	0x3b12e5b2	0.002241474
201	0x3c8ff461	0.017572584
202	0x3c147afb	0.009062524
203	0x3bbfca6a	0.005852987
204	0x3b466470	0.0030272268
205	0x3b3c17fb	0.0028700817
206	0x3a9e8c08	0.0012096176
207	0xbbc149b7	-0.00589868
208	0x3c198317	0.009369633
209	0x3b9a73c4	0.0047135074
210	0xbcab28b7	-0.020893438
211	0xbc69bcc2	-0.014266195
212	0xbb8e30ff	-0.004339337
213	0xbb9c17ab	-0.0047635636
214	0xba6b2230	-0.0008969633
215	0x3aaef96b	0.0013349479
216	0xbc74e8b9	-0.0149480635
217	0xbb5446dc	-0.0032390868
218	0x3c7f9cc7	0.0156013435
219	0xbbfa4d44	-0.0076386053
220	0x3bcd2234	0.006260181
221	0xbc7d3ca1	-0.01545635
222	0x3a8293fb	0.0009962315
223	0xbc8c4746	-0.01712383
224	0x3c69e424	0.014275584
225	0xbb49a004	-0.0030765543
226	0x3bc3bc62	0.0059733847
227	0x3b5de215	0.003385668
228	0x3bd023b4	0.0063519124
229	0x3b5f9621	0.0034116583
230	0x3be89dd7	0.007098894
231	0xbc455348	-0.012043782
232	0x3bb5422c	0.00553157
233	0xbb94bd70	-0.0045391843
234	0xbc01c5ab	-0.007920663
235	0xba9e4448	-0.0012074793
236	0xbb59d23e	-0.0033236886
237	0x3ba71d39	0.005099919
238	0x3a0191b5	0.00049426715
239	0xbc113a72	-0.008864032
240	0xbc4683a0	-0.012116343
241	0x3c055f24	0.008140359
242	0x3b80296c	0.003911188
243	0xbba23fb2	-0.0049514407
244	0xbc15028f	-0.009094848
245	0xbc0b7e1a	-0.008513952
246	0x3b3e530d	0.0029041201
247	0x3b70b0f6	0.003672657
248	0x3b91eb01	0.0044530635
249	0xbc3e2ca3	-0.011607322
250	0x3a900a74	0.0010989443
251	0x3b813a58	0.0039437227
252	0xbb89bb2e	-0.0042032218
253	0xbb8abf16	-0.004234205
254	0x3c41f41b	0.011837984
255	0x3bf92d64	0.007604288

action_model._discrete_distribution.branches.3.bias f4 [2]
0	0x3aa680f5	0.0012703227
1	0xbaa6820d	-0.0012703553
