results/10/SmartAgent/SmartAgent-1179.onnx (onnx, 10766 bytes, 11 tensors)

discrete_action_output_shape f4 [1, 4]
2.0 2.0 2.0 2.0
00000000: 0000 0040 0000 0040 0000 0040 0000 0040

network_body._body_endoder.seq_layers.0.weight f4 [128, 4]
-0.694065 -0.21924517 -0.1968615 0.35664734 0.51566994 -0.43570137 -0.7897664 0.41451263
-0.024319196 0.40330642 -0.31084332 0.46340427 0.39812207 -0.29967168 0.8534069 1.0672696
0.12604232 0.14089903 -0.5016536 -0.22258131 -0.5998433 -0.3120102 -0.3175998 -0.14942434
-0.07330178 1.2749033 -0.3390605 -0.79168355 -1.2802761 -0.34236455 0.40921286 1.1681725
0.17782025 -1.141286 -0.29771793 -0.11493232 0.4590259 -0.07811622 -0.43241823 -1.0958073
0.2836423 -0.03937814 0.1309169 -0.41177613 0.6731012 0.16583024 0.1632653 0.00024447707
0.791768 -0.065712444 -0.7353476 -0.01817336 0.19619304 0.25744277 -0.4302553 0.4227891
0.3966855 -0.41915676 -0.5671322 -0.42695665 0.2763019 0.08108576 0.13236272 1.1195313
0.4861892 0.8384378 0.33286977 -0.54383504 -0.007586019 0.6297398 -0.049273387 0.21158557
0.28105426 -0.3562979 0.12717183 -0.2666598 0.22755703 0.19652243 0.42612943 -0.5382306
-0.034423195 1.008208 0.1143008 -0.53117913 -0.5577248 -0.06457923 0.081556715 0.29425856
-0.67518437 -0.9001243 0.051808994 -0.23602244 0.27373484 0.18198355 0.09125697 -0.79513496
-0.14657371 0.53725284 0.24839866 0.37710515 -0.45476353 1.4549422 0.6653976 0.009471912
0.23442787 -0.020648442 -0.22783136 0.034252256 0.083134 -0.1428585 -0.110973984 0.449428
0.14051923 -0.6012904 -0.22083586 0.3304087 -0.2400668 0.11988199 1.1188214 -0.4797515
-0.12183978 0.0055392524 -0.8950106 0.21961562 0.10101917 0.49773663 0.8002946 -0.6562491
-0.30919445 -0.79389113 0.3345482 -1.1197037 0.7799787 -0.5913101 0.19016574 0.19459803
0.70776784 -0.5643941 -0.16925323 0.7935674 0.36963174 -0.3534166 -0.5469157 -0.28962803
0.6962889 0.085267924 -0.48658547 -0.64901775 1.0312718 0.2530492 0.08953832 -0.48189485
0.082698956 0.12845944 -0.22956845 -0.6645173 0.009112431 0.19667917 0.18083152 -0.84731764
-0.68606263 0.19827126 -1.0578456 0.9514148 -0.3683693 0.24162306 -0.27768126 -0.43316025
-0.041978758 0.13779403 0.5937519 0.044796783 -0.48449725 0.74709594 -0.18713544 0.08616191
-0.2190729 -0.1545716 -0.25288203 -0.7889725 -0.17498395 -0.2820249 0.07476599 -0.16880478
-0.10009101 -1.095237 -0.20828593 -0.54597366 0.8407367 0.43129417 0.63421583 0.060773287
0.9172525 0.22931902 0.14895509 0.6405311 -0.6042876 -0.63094115 -0.029477369 -0.17666773
0.6591241 -0.085529044 0.2241709 -0.2589464 0.90911406 0.021646988 0.38902652 -0.3760291
-0.17706555 0.035011217 0.57376164 -0.21344827 -0.2995231 -0.21738423 -0.6814351 0.74996614
-0.3684309 -0.500974 0.21010707 -0.58043164 -0.6604262 1.060098 -0.46188444 0.44455165
0.6469553 0.5331946 0.10833266 0.05690279 0.7125943 -0.12828864 0.6417241 0.531884
-0.101490274 -0.29994404 -0.55858284 0.29187945 -0.64433306 -0.29566312 -0.53166604 -0.035685886
-0.15470737 0.19077843 0.26272973 -0.23564458 -0.15364817 -0.051084835 0.08186039 0.17352904
0.24232732 0.072112255 0.12428677 -0.19309777 0.022845149 0.08612236 0.21798769 0.70137244
00000000: 3eae 31bf ce81 60be 1096 49be 7b9a b63e
00000010: f202 043f 4014 dfbe 212e 4abf 003b d43e
00000020: 0d39 c7bc 2e7e ce3e db26 9fbe 5343 ed3e
00000030: a8d6 cb3e 916e 99be e078 5a3f 4a9c 883f
00000040: 3d11 013e d647 103e 5f6c 00bf 5bec 63be
00000050: 558f 19bf cdbf 9fbe 719c a2be b202 19be
00000060: 3e1f 96bd 0830 a33f 5699 adbe c6ab 4abf
00000070: 16e0 a3bf 684a afbe 5984 d13e ad86 953f
00000080: 8316 363e a915 92bf 7c6e 98be a361 ebbd
00000090: 7105 eb3e 66fb 9fbd ec65 ddbe 6a43 8cbf
000000a0: 9039 913e f94a 21bd 140f 063e 52d4 d2be
000000b0: 5c50 2c3f 67cf 293e 052f 273e 282d 8039
000000c0: 4fb1 4a3f 3f94 86bd be3f 3cbf 4ce0 94bc
000000d0: d4e6 483e 8acf 833e 6c4a dcbe d077 d83e
000000e0: 5d1a cb3e b79b d6be 932f 11bf 109a dabe
000000f0: 7177 8d3e 4a10 a63d 188a 073e cd4c 8f3f
00000100: caed f83e dca3 563f e86d aa3e c638 0bbf
00000110: 2494 f8bb a136 213f e4d2 49bd e3a9 583e
00000120: 58e6 8f3e ae6c b6be 5539 023e a287 88be
00000130: b604 693e 2d3d 493e a32d da3e 7bc9 09bf
00000140: 56ff 0cbd f60c 813f 8a16 ea3d 5bfb 07bf
00000150: 0dc7 0ebf 1e42 84bd 3507 a73d 0fa9 963e
00000160: e2d8 2cbf 8c6e 66bf ab35 543d deaf 71be
00000170: f926 8c3e e559 3a3e efe4 ba3d f78d 4bbf
00000180: 6b17 16be 6789 093f 385c 7e3e ed13 c13e
00000190: c4d6 e8be 8c3b ba3f 7f57 2a3f 1430 1b3c
000001a0: dc0d 703e ec26 a9bc a04c 69be 184c 0c3d
000001b0: 2942 aa3d 8049 12be 5446 e3bd 6d1b e63e
000001c0: 46e4 0f3e 2bee 19bf cc22 62be 542b a93e
000001d0: 12d4 75be b084 f53d 8a35 8f3f fda1 f5be
000001e0: 2287 f9bd 9e82 b53b 6a1f 65bf ebe2 603e
000001f0: 23e3 ce3d 56d7 fe3e 1be0 4c3f f1ff 27bf
00000200: bc4e 9ebe 733c 4bbf e749 ab3e 7352 8fbf
00000210: afac 473f 1960 17bf cfba 423e b544 473e
00000220: 4630 353f 227c 10bf b850 2dbe 3c27 4b3f
00000230: 5f40 bd3e 05f3 b4be ab02 0cbf 204a 94be
00000240: fd3f 323f f3a0 ae3d bb21 f9be 0726 26bf
00000250: b700 843f aa8f 813e de5f b73d ecba f6be
00000260: 125e a93d df8a 033e fe13 6bbe ce1d 2abf
00000270: 4e4c 153c 4466 493e e62b 393e cfe9 58bf
00000280: cda1 2fbf 9f07 4b3e 7c67 87bf ec8f 733f
00000290: e79a bcbe 096c 773e 3d2c 8ebe 2ec7 ddbe
000002a0: ebf1 2bbd e119 0d3e 2000 183f d57c 373d
000002b0: 0610 f8be ae41 3f3f 6fa0 3fbe a875 b03d
000002c0: a554 60be 0448 1ebe c179 81be 1afa 49bf
000002d0: fe2e 33be 9165 90be e91e 993d 29db 2cbe
000002e0: 84fc ccbd ba30 8cbf e848 55be eec4 0bbf
000002f0: 853a 573f 97d2 dc3e f85b 223f 69ed 783d
00000300: 0fd1 6a3f 9bd2 6a3e af87 183e d9f9 233f
00000310: 98b2 1abf 5c85 21bf 867a f1bc 63e8 34be
00000320: 5bbc 283f da29 afbd 0e8d 653e 9f94 84be
00000330: b3bb 683f 0655 b13c 7c2e c73e e386 c0be
00000340: ac50 35be ec67 0f3d 0be2 123f 2f92 5abe
00000350: 175b 99be f999 5ebe 8872 2ebf c8fd 3f3f
00000360: faa2 bcbe d53f 00bf 4f26 573e 2b97 14bf
00000370: b111 29bf 4bb1 873f 1e7c ecbe 469c e33e
00000380: dd9e 253f 717f 083f 83dd dd3d e612 693d
00000390: 946c 363f 195e 03be 0848 243f 8d29 083f
000003a0: 22da cfbd 4492 99be 49ff 0ebf 3971 953e
000003b0: 03f3 24bf 2861 97be 441b 08bf 5d2b 12bd
000003c0: 9c6b 1ebe 6c5b 433e 8384 863e d04c 71be
000003d0: f255 1dbe 553e 51bd 6ca6 a73d 99b1 313e
000003e0: a724 783e 97af 933d 108a fe3d 6cbb 45be
000003f0: c025 bb3c eb60 b03d 2a38 5f3e 258d 333f

network_body._body_endoder.seq_layers.0.bias f4 [128]
0.0037323257 -0.0011886994 0.0034947786 -0.0031814384 -0.0027492028 0.0048871282 0.0041793333 -0.0022411025
0.004858851 0.0043732156 -0.0048533017 -0.0035456733 0.001125746 0.0046948125 0.0044975667 0.0039843353
0.004170188 0.004037135 -0.004050968 0.004568927 0.0031258503 0.0038962378 -0.0029439873 0.004745782
-0.0034576326 -0.0036127416 0.004480877 0.0044942345 -0.002337452 -0.0020713971 0.00075292005 0.0041209767
-0.004289053 -0.002007209 0.00121257 0.0047038523 -0.0037156146 0.0032074128 -0.0010698567 0.0045954837
0.004033399 -0.0036452005 0.0039682062 0.003637618 0.004186861 -0.0023747082 0.004790992 0.003866597
0.0039420878 0.004979486 0.004241894 -0.0033269827 -0.0035986723 -0.0034301085 -0.0003457734 0.0018059745
0.0038553888 -0.0034577916 0.0016196929 -0.0022431023 -0.001871344 -0.0034844596 0.0044450206 -0.0030126246
0.003897905 -0.002146788 0.00012877339 -0.001495031 0.003988152 0.0038241278 -0.002347023 0.0040555443
-0.0033545792 0.0031571074 -0.0007853512 0.0020009878 -0.0027519288 0.0042456454 0.0038665594 -0.0031650348
-0.003057711 -0.0030001125 0.00397332 -0.00424912 -0.0033847515 0.004150187 0.004448285 0.004564477
0.0038607523 0.0035849116 -0.0035019466 -0.0025749689 -0.003498718 -0.003263038 0.004151914 0.0023017097
0.0043349615 0.0019932236 0.00359539 -0.003107072 0.0037690715 0.0029496842 -0.0027225341 0.0040486297
-0.0028975778 0.0032359038 -0.003186288 -0.0027828338 -0.0030245292 0.004021231 0.00079157425 0.0037570966
0.0038223646 -0.00400478 0.0031798694 0.0039362246 0.0042368397 0.002294564 -0.0033349227 0.0033419658
0.0041126916 -0.0014594382 0.0035525553 -0.0028828378 0.004300544 0.003077422 -0.0025398727 -0.0018106822
00000000: 099a 743b 22ce 9bba a808 653b ae7f 50bb
00000010: f82b 34bb 3424 a03b caf2 883b 76df 12bb
00000020: ff36 9f3b 314d 8f3b 7208 9fbb 875e 68bb
00000030: c58d 933a f1d6 993b 5360 933b 078f 823b
00000040: 13a6 883b f149 843b fcbd 84bb f0b6 953b
00000050: 11db 4c3b 0658 7f3b e9ef 40bb 8182 9b3b
00000060: 7399 62bb bfc3 6cbb 52d4 923b 5f44 933b
00000070: f02f 19bb 47c0 07bb 9c5f 453a 4209 873b
00000080: 2f8b 8cbb 618b 03bb 19ef 9e3a c622 9a3b
00000090: ab81 73bb 7533 523b 6f3a 8cba b695 963b
000000a0: 9a2a 843b 51e4 6ebb ba07 823b 1a65 6e3b
000000b0: f031 893b fea0 1bbb c1fd 9c3b bc66 7d3b
000000c0: a12c 813b f52a a33b 96ff 8a3b 8209 5abb
000000d0: b4d7 6bbb accb 60bb ec48 b5b9 73b6 ec3a
000000e0: b1aa 7c3b 1e9c 62bb e04b d43a 0301 13bb
000000f0: e347 f5ba 885b 64bb 89a7 913b 746f 45bb
00000100: fe73 7f3b 20b1 0cbb 5807 0739 ebf4 c3ba
00000110: 0baf 823b 389e 7a3b 83d0 19bb 5fe4 843b
00000120: 80d8 5bbb 79e7 4e3b 07e0 4dba 0123 033b
00000130: b459 34bb 0e1f 8b3b 1a66 7d3b 796c 4fbb
00000140: e163 48bb 899d 44bb a032 823b 343c 8bbb
00000150: b5d2 5dbb 4bfe 873b ebc2 913b 9c91 953b
00000160: ad04 7d3b d6f0 6a3b ea80 65bb cfc0 28bb
00000170: bf4a 65bb b1d8 55bb c70c 883b 48d8 163b
00000180: 4b0c 8e3b bea0 023b a2a0 6b3b 05a0 4bbb
00000190: 8702 773b 7d4f 413b 8b6c 32bb 5eaa 843b
000001a0: 4ae5 3dbb 7511 543b 0bd1 50bb 3460 36bb
000001b0: 2e37 46bb 88c4 833b a681 4f3a 9f39 763b
000001c0: a380 7a3b 883a 83bb 5b65 503b 72fb 803b
000001d0: 30d5 8a3b 6560 163b b88e 5abb e204 5b3b
000001e0: c2c3 863b 9f4a bfba fdd1 683b feed 3cbb
000001f0: 94eb 8c3b 93ae 493b fe73 26bb 6a54 edba

action_model._discrete_distribution.branches.0.weight f4 [2, 128]
-0.008642804 -0.0049482738 0.005909887 0.011418634 0.0005687828 -0.0028412847 -0.002342559 -0.0029034952
-0.013143554 -0.003282348 0.004695481 0.0066613383 -0.00071158557 0.0044429176 0.009156283 0.023775911
0.00588094 0.0097663365 0.017100161 0.0073174764 0.0056958715 0.01508782 -0.009083627 0.002461068
-0.008742448 -0.010476976 -0.0036486788 0.0078002536 0.01706943 0.0034904901 -0.012164215 0.012336939
-0.0010390227 -0.0015654673 0.009731511 -0.019910537 -0.027316218 0.0021543195 0.0145224165 0.007855697
0.0023385033 0.00090414984 0.00079268194 0.0141917635 -0.01776519 -0.005345556 -0.0016395643 0.0027313738
0.0013617498 0.0015435937 0.00037748629 -0.011512685 -0.0058842185 0.0037750655 0.004741149 0.0033263254
0.0069486788 0.0039604506 -0.017932769 -0.014906927 0.006391646 0.0024150172 0.008768449 0.008503099
0.013480299 0.0055155563 -0.0076855025 0.014781855 0.016718041 0.008636474 4.3837405e-05 0.0047569247
-0.0110281 0.0068211644 0.011123082 -0.0026316314 -0.0046017845 -0.00041083276 0.019187206 0.0063143913
0.0007671082 0.00429178 0.019179525 -0.011311879 -0.0059907497 0.0058394107 0.0051948046 0.004352409
0.010121234 0.0059032654 0.018292814 0.007983062 -0.021040728 -0.0066017206 0.0049285204 -0.00238757
0.0020801632 0.0031297142 0.0012568454 0.005116502 0.0087843435 0.0012324407 0.0008712991 0.011937902
0.0047271727 0.0057984223 -0.0060971878 0.008376203 -0.0074627 0.010568538 0.007662881 0.0036165393
0.0052386653 -0.0086479895 0.0069274455 -0.003910947 0.020765949 -0.0035286623 0.011162068 -0.0067482903
0.030175384 -0.01581914 0.023611654 -0.005124947 -0.017892884 0.0020577945 -0.0029335427 0.005260207
-0.014866979 -0.002225555 0.0043618213 0.012712502 0.012728413 0.023772188 -0.008894846 -0.011488427
-0.0014240186 0.008470261 0.012238422 0.015540274 -0.008811706 2.4868423e-06 0.016876074 -0.0031446172
-0.007105487 -0.0019859727 0.022191603 0.0005016791 0.0066552456 -0.0019871164 0.006044274 -0.003934339
0.00078741374 0.013190549 0.010849091 -0.00470491 -0.0065888255 -0.010860866 -0.00037794135 0.0013227024
0.018839285 -0.0041230437 -0.006277608 0.0013802308 -0.0010812815 -0.0030287846 0.010831551 0.0022041285
-0.033995457 0.003038602 -0.016398277 -0.0074367863 0.001992398 0.008743236 0.0001657448 -0.010175418
-0.010872477 0.0074504153 -0.013092492 -0.010564344 0.00016707816 0.0058569363 0.011926177 -0.009225643
-0.014122825 0.012569318 -0.0055816174 -0.009127276 -0.0003086606 0.004979111 -0.0018567035 -0.00588135
-0.006458917 0.009884144 -0.005775159 0.005600195 -0.01581683 -0.0040598228 -0.006896532 -0.013265735
-0.003172113 -0.006149983 -0.0023679496 0.0011425567 -0.0042615845 -0.013026345 -0.00067672745 0.0076335818
-0.0074990494 -0.0039670807 -0.007515255 0.00020938223 0.0045785764 -0.0069533815 -0.012850949 -0.003647149
-0.019673483 -0.0078057502 0.014277133 0.0022575487 0.0017648406 0.0018274324 0.0051966053 0.0016083724
-0.01327698 -0.013738457 -0.0061652143 0.011517514 -0.0034659726 -0.008574827 0.021176364 -0.0059973304
0.0131690875 -0.008368679 0.0024632856 0.009111738 -0.009499273 -0.0023521483 -0.011765729 -0.0065622833
-0.008237765 0.008331209 -0.015591232 -0.0002592848 0.0018483145 -0.0015189119 -0.0031244222 0.0047363066
0.016457673 0.0008617584 -0.0076453383 0.010711853 0.0028116382 -0.013427379 -0.019224579 0.0053043575
00000000: 8c9a 0dbc 2125 a2bb baa7 c13b 3915 3b3c
00000010: 5e1a 153a d934 3abb 9e85 19bb 9148 3ebb
00000020: 1058 57bc a91c 57bb 8ddc 993b 5b47 da3b
00000030: b389 3aba e595 913b 3c04 163c b3c5 c23c
00000040: e6b4 c03b fc02 203c a315 8c3c 71c7 ef3b
00000050: 6fa4 ba3b e732 773c 7ed3 14bc df49 213b
00000060: 7c3c 0fbc 9fa7 2bbc ac1e 6fbb 4599 ff3b
00000070: 30d5 8b3c b5c0 643b 6a4c 47bc df20 4a3c
00000080: d12f 88ba 5e30 cdba ea70 1f3c 6c1b a3bc
00000090: 43c6 dfbc 7c2f 0d3b 6eef 6d3c 2eb5 003c
000000a0: 9341 193b 7804 6d3a fccb 4f3a 9284 683c
000000b0: 4e88 91bc c629 afbb a6e6 d6ba d900 333b
000000c0: be7c b23a 6952 ca3a 5ae9 c539 b39f 3cbc
000000d0: 67d0 c0bb 1767 773b a45b 9b3b 7bfe 593b
000000e0: beb1 e33b abc6 813b bee7 92bc 2f3c 74bc
000000f0: 0371 d13b 4445 1e3b 8aa9 0f3c 9550 0b3c
00000100: 79dc 5c3c d7bb b43b abd6 fbbb 982f 723c
00000110: 46f4 883c ff7f 0d3c 0ede 3738 fadf 9b3b
00000120: 34af 34bc 1384 df3b 963d 363c 7377 2cbb
00000130: 91ca 96bb 0a65 d7b9 7d2e 9d3c f4e8 ce3b
00000140: c317 493a 0fa2 8c3b 611e 9d3c 7655 39bc
00000150: 0d4e c4bb 8758 bf3b 2e39 aa3b a79e 8e3b
00000160: 88d3 253c 2e70 c13b d0da 953c 64cb 023c
00000170: 9b5d acbc 3f53 d8bb 6d7f a13b c778 1cbb
00000180: 5953 083b e41b 4d3b bcbc a43a 54a8 a73b
00000190: 35ec 0f3c d989 a13a e567 643a 3197 433c
000001a0: 66e6 9a3b b100 be3b ebca c7bb 573c 093c
000001b0: aa89 f4bb a927 2d3c e818 fb3b 7603 6d3b
000001c0: 1ca9 ab3b 4cb0 0dbc a0ff e23b 6727 80bb
000001d0: 5a1d aa3c 2141 67bb 1be1 363c c320 ddbb
000001e0: 5e32 f73c 2497 81bc 3a6d c13c 2cef a7bb
000001f0: 1994 92bc 10dc 063b ae40 40bb d15d ac3b
00000200: a194 73bc 9eda 11bb 9ced 8e3b 1948 503c
00000210: d58a 503c e4bd c23c b0bb 11bc f539 3cbc
00000220: 23a6 baba d9c6 0a3c aa83 483c a29c 7e3c
00000230: f95e 10bc a0e3 2636 b13f 8a3c ec15 4ebb
00000240: 25d5 e8bb 1827 02bb 2acb b53c 1d83 033a
00000250: 3f14 da3b 483a 02bb 0c0f c63b a1eb 80bb
00000260: 716a 4e3a 2c1d 583c 63c0 313c a52b 9abb
00000270: 13e7 d7bb c6f1 31bc 6e26 c6b9 875e ad3a
00000280: d854 9a3c 991a 87bb 65b4 cdbb dce8 b43a
00000290: c9b9 8dba 937e 46bb d176 313c 2473 103b
000002a0: d23e 0bbd 4823 473b ae55 86bc 49b0 f3bb
000002b0: e492 023b ca3f 0f3c c8cb 2d39 ccb6 26bc
000002c0: 7922 32bc 9d22 f43b e481 56bc 1216 2dbc
000002d0: b431 2f39 8beb bf3b 0366 433c 2727 17bc
000002e0: 6c63 67bc 8aef 4d3c 00e6 b6bb 928a 15bc
000002f0: b9d3 a1b9 cf27 a33b a25c f3ba 57b8 c0bb
00000300: 53a5 d3bb 1bf1 213c 8c3d bdbb d781 b73b
00000310: 4c92 81bc 4308 85bb 4efc e1bb 8658 59bc
00000320: 3ae3 4fbb cc85 c9bb 9a2f 1bbb d7c1 953a
00000330: c3a4 8bbb 736c 55bc 6966 31ba 2023 fa3b
00000340: 96ba f5bb 49fe 81bb 8742 f6bb 9d8d 5b39
00000350: e207 963b 31d9 e3bb c98c 52bc 0205 6fbb
00000360: 492a a1bc 61c7 ffbb a3ea 693c 62f3 133b
00000370: 3952 e73a 7586 ef3a 4948 aa3b 06d0 d23a
00000380: b187 59bc 4417 61bc 9105 cabb f4b3 3c3c
00000390: 5f25 63bb 6e7d 0cbc 0e7a ad3c 4185 c4bb
000003a0: 28c3 573c c91c 09bc 136f 213b 6649 153c
000003b0: d7a2 1bbc 8026 1abb 0bc5 40bc 6c08 d7bb
000003c0: b1f7 06bc a07f 083c 5e72 7fbc 9ef0 87b9
000003d0: 2543 f23a 3a16 c7ba 1bc3 4cbb 0533 9b3b
000003e0: 3ed2 863c a1e7 613a bf85 fabb c580 2f3c
000003f0: 7643 383b 82fe 5bbc dd7c 9dbc 2dd0 ad3b

action_model._discrete_distribution.branches.0.bias f4 [2]
0.0037585325 -0.0037585325
00000000: b651 763b b651 76bb

action_model._discrete_distribution.branches.1.weight f4 [2, 128]
0.002744384 0.017059006 0.009267174 0.0027007868 -0.00010867879 0.025895659 -0.018664252 0.007944179
0.003367862 0.014928073 0.011091728 0.007236971 -0.006768477 0.0047992687 0.0014995895 -0.01097337
-0.0010613543 0.012266333 0.0148815755 0.0023678455 0.0056762956 0.014641291 0.0039848858 -0.0027184743
-0.006769315 -0.0035467295 0.0014369582 0.018492091 -0.019684767 0.0010538014 0.0029206385 0.0027529749
-0.007087317 0.0064070737 0.015338917 -0.004670376 -0.0017553603 -0.0027162116 0.0074053775 -0.010768565
0.013686468 0.016626496 -0.010204981 -0.0060243285 0.006892671 0.0036468648 -0.00024149072 -0.0064707743
-0.013239412 -0.012939912 -0.0077495775 -0.010280895 0.009076066 -0.0009146883 0.00042237312 0.01593149
-0.012095869 -0.009602908 -0.0040608714 0.011943456 -0.013125504 0.010195693 -0.0062298337 -0.009477889
0.008390102 0.0067723463 -0.017592134 -0.004124641 -0.019609017 0.0059424727 0.011226746 -0.00660731
0.001504663 -0.030360622 0.008305807 0.010414745 0.002734086 0.0074423044 -0.03029363 0.00018657075
0.023602588 0.008581652 -0.00516618 0.01013416 0.010721459 -0.005319657 -0.0028436293 0.0024780778
-0.0037768253 -0.009156121 -0.00406406 -0.011766775 -0.017001765 0.003136253 0.009331871 0.007206682
0.0019236826 -0.00086529856 -0.015486844 -0.003179801 0.004623814 0.005337931 0.01446615 -0.014734866
0.005209299 0.0010375798 0.018124407 -6.587189e-05 -0.011077639 -0.011480614 0.0151224015 0.009914003
0.0025316833 0.004530161 -0.010957704 -0.007441004 0.0002995309 -0.011321263 -0.0004468417 -0.0005938761
0.002697515 -0.007396234 -0.010178132 0.027440723 0.002077878 -0.007088487 -0.006218878 -0.004658483
-0.0027402947 -0.00047387808 -0.0066409325 -0.0055983067 0.0052065384 -0.00801106 0.0056089144 -0.006365067
-0.00032286925 -0.017987587 -0.002586204 -0.011514406 0.009038108 -0.011702017 0.020924121 -0.001864757
0.010738829 -0.006483699 0.009527802 0.00031407666 0.0031152852 -0.00040726113 0.0032154243 0.004498613
-0.002585001 -0.0005433849 -0.02400038 -0.016024947 -0.006995537 0.0032850031 -0.00715494 0.002002307
-0.0006278628 0.0024254778 0.018275019 0.003690763 -0.008038554 -0.0072454032 -0.00460933 0.00795044
-0.02116539 0.014825598 0.01224253 0.014569123 0.001034268 -0.00746732 -0.00068582303 0.021203011
-0.0021362135 -0.018535111 -0.00947421 -0.0116854 0.0037339644 -0.0017351892 0.011063982 0.005706542
0.0029310675 -0.018022215 0.014158288 -3.2515032e-05 0.0067869485 -0.007858593 0.017103747 -0.019125275
-0.01606448 0.009815162 0.0059301364 0.0021041667 0.004475157 0.014032064 -0.015205529 0.0024811854
-0.005381972 -0.002600478 -0.014074889 -0.0051431344 0.018866224 0.0037760325 -0.0043319063 -0.009293915
0.0045917784 -0.0054007033 -0.00794888 0.0043984205 0.0007048361 0.006999187 0.0044757007 0.025238479
0.021256087 0.003417531 0.010603898 0.011168046 0.016155705 0.0046904646 0.013616701 -0.01542273
-0.0011995854 -0.002460013 0.0044618235 0.006120961 0.0067308727 0.008804439 0.0009989315 0.0015311579
-0.018209815 0.011128584 0.011229288 0.002420174 0.010086962 0.0068782996 -0.014301414 0.009371762
-0.0047381893 -0.020088965 -0.0034182325 -0.018362382 -0.00702644 0.0034479094 0.013607908 -0.0024264774
0.0048070005 0.0042234086 0.007350844 -0.0046020546 -0.011323719 0.007387241 0.007819914 -0.0003188033
00000000: 20db 333b 54bf 8b3c 58d5 173c afff 303b
00000010: 7bea e3b8 2223 d43c c6e5 98bc 4d28 023c
00000020: 59b7 5c3b e094 743c 14ba 353c 1d24 ed3b
00000030: 1aca ddbb 2f43 9d3b e08d c43a a6c9 33bc
00000040: 241d 8bba bbf8 483c dad1 733c db2d 1b3b
00000050: 3800 ba3b 07e2 6f3c a593 823b 6e28 32bb
00000060: 21d1 ddbb 3f70 68bb 5158 bc3a ba7c 973c
00000070: f341 a1bc b51f 8a3a 2f68 3f3b 416b 343b
00000080: b93c e8bb 6ef2 d13b 1550 7b3c f409 99bb
00000090: 1e14 e6ba 7802 32bb cfa8 f23b a36e 30bc
000000a0: 353d 603c 4a34 883c cb32 27bc bb67 c5bb
000000b0: eadb e13b 3d00 6f3b ac38 7db9 ca08 d4bb
000000c0: 1eea 58bc ed01 54bc 2bf0 fdbb 3371 28bc
000000d0: c8b3 143c b1c7 6fba f671 dd39 c282 823c
000000e0: c02d 46bc 8455 1dbc 0f11 85bb 7cae 433c
000000f0: 5b0c 57bc d60b 273c a223 ccbb 2649 1bbc
00000100: a376 093c 8fea dd3b 611d 90bc ff27 87bb
00000110: 17a3 a0bc 13b9 c23b 63f0 373c 2282 d8bb
00000120: 1d38 c53a d7b6 f8bc 1415 083c 9ba2 2a3c
00000130: 5a2e 333b 93de f33b 592a f8bc 34a2 4339
00000140: 375a c13c 0f9a 0c3c 0f49 a9bb bf09 263c
00000150: 0fa9 2f3c 8450 aebb 2f5c 3abb 3f67 223b
00000160: 9d84 77bb 8e03 16bc ce2b 85bb 6ec9 40bc
00000170: 4947 8bbc 9889 4d3b b4e4 183c 0826 ec3b
00000180: 1424 fc3a 34d5 62ba 88bc 7dbc 3564 50bb
00000190: 5d83 973b d0e9 ae3b 6e03 6d3c 826a 71bc
000001a0: c4b2 aa3b 67ff 873a a379 943c b424 8ab8
000001b0: fc7e 35bc 2f19 3cbc f3c3 773c 586e 223c
000001c0: 99ea 253b bf71 943b f187 33bc aad3 f3bb
000001d0: 5b0a 9d39 d27c 39bc 1446 eab9 5aae 1bba
000001e0: cbc8 303b 1c5c f2bb 2ec2 26bc 5ecb e03c
000001f0: 022d 083b 8a46 e8bb bbc7 cbbb 30a6 98bb
00000200: 8496 33bb d772 f8b9 2e9c d9bb 0072 b7bb
00000210: 9c9b aa3b d240 03bc fcca b73b 0d92 d0bb
00000220: c746 a9b9 b45a 93bc 4e7d 29bb eba6 3cbc
00000230: 9314 143c d1b9 3fbc 1069 ab3c dd6a f4ba
00000240: eaf1 2f3c 3675 d4bb 7f1a 1c3c a8aa a439
00000250: d029 4c3b aa85 d5b9 deb9 523b 1a69 933b
00000260: 1f69 29bb f171 0eba 729c c4bc c046 83bc
00000270: d13a e5bb 3549 573b fd73 eabb 2339 033b
00000280: 2997 24ba c4f4 1e3b 7eb5 953c bae0 713b
00000290: 24b4 03bc d96a edbb dd09 97bb 9042 023c
000002a0: 0a63 adbc 11e7 723c e494 483c 55b3 6e3c
000002b0: 4690 873a 6cb0 f4bb cec8 33ba f0b1 ad3c
000002c0: b7ff 0bbb f2d6 97bc b839 1bbc 1f74 3fbc
000002d0: 87b5 743b 4a6f e3ba b445 353c f2fd ba3b
000002e0: 2717 403b 53a3 93bc 2af8 673c c060 08b8
000002f0: 0d65 de3b 54c1 00bc 281d 8c3c 9cac 9cbc
00000300: a899 83bc c6cf 203c 9751 c23b 0fe6 093b
00000310: 56a4 923b bee6 653c 9c20 79bc 629b 223b
00000320: 415b b0bb c86c 2abb 5d9a 66bc bd87 a8bb
00000330: 578d 9a3c 5077 773b aaf2 8dbb 8145 18bc
00000340: a176 963b 62f8 b0bb 053c 02bc a020 903b
00000350: c0c4 383a 7059 e53b e6a8 923b edc0 ce3c
00000360: 3f21 ae3c a8f8 5f3b f9bb 2d3c 2efa 363c
00000370: f858 843c 78b2 993b 9518 5f3c 9eaf 7cbc
00000380: 683b 9dba 2b38 21bb 7d34 923b 5892 c83b
00000390: a78e dc3b 7e40 103c 94ee 823a 22b1 c83a
000003a0: c02c 95bc aa54 363c 0cfb 373c c89b 1e3b
000003b0: c943 253c 5c63 e13b 7a50 6abc 058c 193c
000003c0: d042 9bbb 9d91 a4bc 6d04 60bb b56c 96bc
000003d0: 0d3e e6bb 52f6 613b b4f3 5e3c 8905 1fbb
000003e0: 0b84 9d3b 8564 8a3b 59df f03b d5cc 96bb
000003f0: 1f87 39bc ab10 f23b 191f 003c 0e25 a7b9

action_model._discrete_distribution.branches.1.bias f4 [2]
-0.0037147966 0.0037147966
00000000: f273 73bb f273 733b

action_model._discrete_distribution.branches.2.weight f4 [2, 128]
0.00047077658 -0.008901275 -0.0056671207 -0.0037810248 -0.013391637 0.0051616626 0.01473671 -0.012983742
0.012511303 -0.009448554 0.022875816 -0.004669213 -0.0068036984 -0.0009316633 0.00086495286 -0.011446529
8.4082276e-05 0.0065232385 -0.0006215429 0.010721408 0.00961429 0.019582411 0.008740498 0.01541815
-0.013814364 0.007616042 0.015001129 -0.0107757775 -0.010058535 -0.017372388 -0.0047988174 0.004085754
0.01044303 -0.0068506547 0.0045353076 0.0016292515 -0.015116139 0.0046818065 -0.0026646147 0.005934675
-0.0115490295 -0.014601953 -0.0053995172 -0.008716599 -0.011023334 0.012003156 -0.007398485 -0.008214912
0.0152150355 0.018201713 -0.0030339402 0.005971889 -0.008144993 0.009024414 -0.009155868 0.0045026075
0.0035305931 -0.0036616365 -0.00015406532 0.014460793 -0.011705836 0.010627742 0.006620693 0.006491651
-0.012696783 0.02120256 0.01388162 0.0042551802 -0.0012251034 -0.009311168 0.0020070302 0.0033824146
0.003192828 0.0020898639 0.005790141 -0.020157503 0.008426822 -0.015604757 -0.01034975 -0.0053546824
0.0018460402 -0.005743821 -0.0074000303 -0.0028871219 -0.003023876 0.0035643356 -0.0037144138 0.009890176
0.006316179 -0.0008863743 0.006404853 0.012161243 0.02041385 -0.0077536497 0.013241324 -0.011827567
-0.00060466444 0.0039318013 -0.006460322 0.0028113914 0.0024297242 -0.013553785 0.00905064 0.011970824
-0.0004510092 -0.009516419 -0.0060477536 0.0030843902 -0.012626493 0.010676358 0.011509536 -0.0006561159
-0.0011532706 0.0101746805 0.0031577037 -0.019612074 0.020353826 0.0061634835 0.008246871 -0.019803261
-0.009417122 -0.004677577 0.005155714 0.0014198587 -0.0060296417 -0.011939203 -0.012246309 -0.023435729
0.0008761089 -0.0025910086 0.004197936 0.009353059 0.0039349096 -0.01756264 0.0124768345 0.009816014
-0.00084480125 0.0072045615 0.012510581 -0.006554746 -0.01527627 -0.0012109907 0.020345114 0.011386675
-0.016931817 -0.014786257 0.0044969996 -0.023317669 -0.0043464373 0.0022908514 -0.014210815 -0.0012768091
0.011409145 0.009086642 0.0011758327 0.0028900453 -0.0034963973 -0.0045769867 0.019249674 -0.010314471
0.0082515795 0.01754307 0.006012451 -0.0013641053 -0.006492161 -0.016295942 0.012355065 0.009462844
0.0064425357 -0.0117589 -0.011017613 -0.0019179655 0.01268547 0.006284469 -0.003536716 -0.008635068
0.017471606 -0.011639413 0.004000514 -0.011443844 -0.0011753119 0.0005266714 0.0034190575 -0.010535491
-0.0124504855 0.00715658 -0.006812275 -0.013553468 0.005322174 -0.006475692 -0.01005109 0.0118883485
-0.0041063447 -0.011273625 0.0048560514 -0.0006742559 -0.008511793 -0.0048089307 0.0139775295 -0.011563423
0.002711279 0.009778393 -0.0048062284 0.0124954665 -0.018724 0.010308214 0.01243936 0.0015137271
-0.0012906945 0.022134304 0.008018794 0.009651574 0.0019489491 0.0016362035 0.009791835 -0.022991844
-0.024667375 -0.0075486945 0.007898756 0.004898218 -0.0022480846 0.017231653 -0.0049830223 0.00314602
-0.019389993 0.009338896 -0.0019270473 0.012380222 0.028611112 0.0038680395 -0.0161441 -0.007317294
0.0042677037 0.008302575 -0.0040438874 0.0018048357 0.0032849922 -0.0012930044 0.0138805425 -0.0028657673
-0.0053536426 -0.009238133 0.007219159 0.0050637797 0.0024814196 -0.0093298955 -0.0030123985 0.005553419
0.0032935955 -0.0030694585 -0.009667374 0.017549025 0.019484675 -0.006815379 0.0014737773 0.005882641
00000000: 90d2 f639 a7d6 11bc 41b3 b9bb 12cb 77bb
00000010: 9968 5bbc 2a23 a93b 3e72 713c c3b9 54bc
00000020: 35fc 4c3c 1cce 1abc 1066 bb3c 3300 99bb
00000030: 8ff1 debb de3a 74ba 01be 623a 398a 3bbc
00000040: 5455 b038 e4c0 d53b 0aef 22ba d8a8 2f3c
00000050: 4185 1d3c 4b6b a03c 4e34 0f3c 699c 7c3c
00000060: a455 62bc fe8f f93b 4cc7 753c e38c 30bc
00000070: 8ecc 24bc 8a50 8ebc 663f 9dbb cae1 853b
00000080: 3e19 2b3c 757b e0bb eb9c 943b 9c8c d53a
00000090: afa9 77bc d769 993b d1a0 2ebb aa77 c23b
000000a0: 2438 3dbc 083d 6fbc 6fee b0bb 11d0 0ebc
000000b0: 379b 34bc e3a8 443c fe6e f2bb d797 06bc
000000c0: 7c48 793c c21b 953c 12d5 46bb d6af c33b
000000d0: 9472 05bc 23db 133c 7e02 16bc 9c8a 933b
000000e0: 8661 673b 11f8 6fbb 988c 21b9 f6ec 6c3c
000000f0: d6c9 3fbc fb1f 2e3c 66f2 d83b eab7 d43b
00000100: 2b06 50bc feb0 ad3c bc6f 633c 0a6f 8b3b
00000110: a693 a0ba df8d 18bc 6188 033b 80ab 5d3b
00000120: c43e 513b 19f6 083b 39bb bd3b 5921 a5bc
00000130: a710 0a3c 18ab 7fbc ff91 29bc 5576 afbb
00000140: d5f6 f13a aa36 bcbb f47b f2bb de35 3dbb
00000150: 392c 46bb a197 693b 866d 73bb 680a 223c
00000160: f3f7 ce3b 935b 68ba cddf d13b f33f 473c
00000170: f23a a73c 5412 febb 23f2 583c 69c8 41bc
00000180: 5882 1eba 57d6 803b 1cb1 d3bb 523f 383b
00000190: 023c 1f3b b210 5ebc 2349 143c 4621 443c
000001a0: 6e75 ecb9 c1ea 1bbc 3c2c c6bb 7b23 4a3b
000001b0: 5adf 4ebc e4eb 2e3c 7e92 3c3c 31ff 2bba
000001c0: 5729 97ba b4b3 263c 7af1 4e3b 80a9 a0bc
000001d0: 11bd a63c 0cf7 c93b e21d 073c 733a a2bc
000001e0: 464a 1abc 5c46 99bb 44f1 a83b 8d1a ba3a
000001f0: 4d94 c5bb a69c 43bc bea4 48bc 49fc bfbc
00000200: acaa 653a e9cd 29bb d78e 893b 933d 193c
00000210: 6af0 803b 87df 8fbc a36b 4c3c 59d3 203c
00000220: a775 5dba 3e14 ec3b 2ef9 4c3c 32c9 d6bb
00000230: 5249 7abc 1bba 9eba ccaa a63c 2d8f 3a3c
00000240: 98b4 8abc 0f42 72bc 915b 933b b204 bfbc
00000250: 8f6c 8ebb 1c22 163b 7ad4 68bc 9b5a a7ba
00000260: 6ced 3a3c 24e0 143c 661e 9a3a ea66 3d3b
00000270: d023 65bb 8cfa 95bb 7eb1 9d3c 07fe 28bc
00000280: a231 073c 7cb6 8f3c 1804 c53b c7cb b2ba
00000290: 32bc d4bb 117f 85bc e66c 4a3c 0b0a 1b3c
000002a0: e81b d33b 67a8 40bc 3883 34bc 3e64 fbba
000002b0: b8d6 4f3c f2ed cd3b 40c8 67bb 1a7a 0dbc
000002c0: 9d20 8f3c 3db3 3ebc be16 833b f67e 3bbc
000002d0: ec0c 9aba 5210 0a3a 4412 603b 0d9d 2cbc
000002e0: 1ffd 4bbc bf81 ea3b 8139 dfbb 5d0f 5ebc
000002f0: a265 ae3b 0b32 d4bb 54ad 24bc 59c7 423c
00000300: 848e 86bb 03b5 38bc 831f 9f3b 8cc0 30ba
00000310: 0c75 0bbc 3c94 9dbb 0202 653c 8374 3dbc
00000320: b7af 313b 8e35 203c 917d 9dbb c9b9 4c3c
00000330: 1363 99bc c9e3 283c 75ce 4b3c 4168 c63a
00000340: 852c a9ba 0053 b53c 4261 033c a321 1e3c
00000350: e173 ff3a e175 d63a ef6d 203c 6459 bcbc
00000360: 3c13 cabc 0a5b f7bb c969 013c 3b81 a03b
00000370: 9a54 13bb 6529 8d3c 9f48 a3bb 752d 4e3b
00000380: c3d7 9ebc 2b02 193c fa94 fcba 6ad6 4a3c
00000390: da61 ea3c ef7e 7d3b a240 84bc e9c5 efbb
000003a0: 18d8 8b3b 8607 083c 9682 84bb 3d90 ec3a
000003b0: 0649 573b 077a a9ba 376b 633c 99cf 3bbb
000003c0: 9c6d afbb 8a5b 17bc b28e ec3b 10ee a53b
000003d0: 509f 223b 6bdc 18bc a96b 45bb 74f9 b53b
000003e0: 5dd9 573b f828 49bb e863 1ebc f9c2 8f3c
000003f0: 539e 9f3c 8b53 dfbb c32b c13a 2bc3 c03b

action_model._discrete_distribution.branches.2.bias f4 [2]
-0.0029515778 0.002951578
00000000: 426f 41bb 436f 413b

action_model._discrete_distribution.branches.3.weight f4 [2, 128]
-0.022817696 -0.0018017486 -0.012498744 -0.010806754 0.0062197675 -0.0029156262 0.00087723264 -0.0047453353
0.002210183 0.010365415 0.0040027476 0.0010915783 -0.0066117872 -0.015472087 0.009460962 0.001722842
-0.0048223897 -0.0068876413 -0.007855542 -0.0067365123 -0.0180269 -0.006941713 0.006616143 -0.0065337624
-0.0065564904 0.0041780123 -0.0047407495 -0.00344671 0.0066316794 0.012263326 -0.012168239 -0.012132159
-0.0064805495 -0.006898864 -0.0026750318 0.0015338968 0.00801212 -0.019751605 2.6939873e-05 -0.007499654
-0.006560074 0.007352451 -0.013252842 -0.004084943 -0.0065368614 0.005534223 0.016034435 -0.01576605
0.0007943798 0.005568241 -0.0054966435 -0.0017275898 -0.0016485347 0.010020976 0.00436944 -0.013709969
-0.009181593 -0.020652648 -0.011308298 0.001762557 -0.0065424433 0.018881358 -0.00032197052 0.012470599
-0.0054816436 -0.0017368871 0.0046662632 0.0019346204 -0.012900288 -0.0005349684 -0.013672915 0.0031248995
-0.007799847 0.00053709303 0.0053520612 -0.009189366 -0.006076144 -0.010817623 -0.026471118 0.013883697
-0.0048632165 0.010590124 -0.0036687842 -0.0071249884 0.005800831 -0.0017983643 -0.013837389 0.00048387647
-0.005891431 -0.015240792 0.004431403 0.00050192646 -0.019669423 0.00642771 -0.005717562 -0.005717987
-0.005898541 0.001635697 -0.006396071 -0.0013597412 -0.019699968 0.004742676 0.012186129 0.0073622544
0.0066835247 0.0067671007 -0.004541645 0.008922656 0.007762385 -0.0060482463 -0.0029771242 -0.012122996
-0.024472063 -0.013562757 -0.0151320975 -0.012303736 -0.003094155 -0.008829343 0.012309278 -0.006355874
-0.0037518274 0.009762445 -0.014777317 -0.0051842895 -0.010275646 0.003269067 0.018641125 -0.008608256
0.0020009754 0.00322851 0.0059397006 -0.0017883732 -0.00355301 -0.009634031 0.006309968 -0.008568945
-0.0035568755 -0.005779884 0.0093686385 0.008786878 0.008973235 -0.002069925 -0.009570688 0.002351325
0.0025900034 0.009205704 -0.0026804332 0.005968895 0.026370592 0.0059367833 0.009477432 0.0052213855
0.0037411356 0.0037336687 0.0071456325 0.0059716324 -0.0031629284 -0.0003811143 -0.0023157157 0.003656392
0.0049799248 -0.008969565 -0.0021694899 -0.00254261 -0.002207713 -0.006563248 -0.00044547545 0.0011717113
0.009866639 0.013844152 -0.0008334512 0.015166516 0.004938824 0.0015138548 -0.0105648935 0.0045300536
0.017443227 -0.010755677 0.009828124 0.0035987822 -0.0027203483 0.0007103384 0.026027521 -0.013004728
0.009851518 -0.005226728 0.008680958 0.0035703385 -0.0164274 0.0077289375 0.005808393 -0.007309203
0.015759714 0.007554128 0.001175594 -0.005266884 0.018861905 0.0247165 -0.0061473832 0.0018140046
0.0072470997 -0.0029305273 0.007190368 0.0063670534 0.0009153256 0.012995339 -0.011990293 -0.0052500763
-0.002088599 0.007898257 -0.00046283237 0.009418276 -0.0054215025 0.007744905 0.0005967174 0.007649011
-0.0035854175 -0.005790779 -0.0044493587 -0.0064084292 0.0112425 0.0024215374 0.011197469 0.018994
0.0007722618 0.008994958 0.007245895 0.008292944 0.00034227932 -0.012825351 -0.013292882 0.02176973
0.004359033 0.0033040794 0.00893385 0.017755665 0.002404905 0.0048657837 -0.005073901 0.017758124
0.011996239 0.017260987 0.0018481227 0.013055 0.0010373209 0.0034754598 0.0029249827 0.004085609
0.0074522365 -0.0026462488 0.023359194 0.0140465675 0.0013962066 0.008273232 0.00047694764 0.0019002267
00000000: 2dec babc a728 ecba 88c7 4cbc d00e 31bc
00000010: 31cf cb3b 1714 3fbb 16f6 653a c27e 9bbb
00000020: b8d8 103b b4d3 293c 7b29 833b 4a13 8f3a
00000030: b1a7 d8bb a37e 7dbc 2702 1b3c fcd0 e13a
00000040: 2305 9ebb b9b1 e1bb 88b4 00bc f6bd dcbb
00000050: 26ad 93bc 4f77 e3bb 3bcc d83b 2c19 d6bb
00000060: d4d7 d6bb b5e7 883b 4a58 9bbb 33e2 61bb
00000070: 8f4e d93b 1eec 483c 4b5d 47bc f7c5 46bc
00000080: ca5a d4bb de0f e2bb 964f 2fbb 090d c93a
00000090: 4445 033c 1ece a1bc f0fc e137 a8bf f5bb
000000a0: e4f5 d6bb d4ec f03b 7322 59bc fcda 85bb
000000b0: 2b33 d6bb 6d58 b53b a65a 833c ce27 81bc
000000c0: ed3d 503a ca75 b63b 301d b4bb 4b70 e2ba
000000d0: a513 d8ba 052f 243c 852d 8f3b c79f 60bc
000000e0: 646e 16bc be2f a9bc 7146 39bc 9905 e73a
000000f0: fe61 d6bb 14ad 9a3c 27ce a8b9 7c51 4c3c
00000100: 5c9f b3bb 43a8 e3ba 74e7 983b 1793 fd3a
00000110: bb5b 53bc 1f3d 0cba 5d04 60bc 1dcb 4c3b
00000120: dc95 ffbb b4cb 0c3a 5860 af3b ff8e 16bc
00000130: 641a c7bb 663c 31bc f5d9 d8bc 7278 633c
00000140: 9e5b 9fbb 3382 2d3c fc6f 70bb bc78 e9bb
00000150: e614 be3b 18b7 ebba 37b6 62bc cdb0 fd39
00000160: e80c c1bb 84b4 79bc 4d35 913b b793 033a
00000170: c521 a1bc 8a9f d23b 635a bbbb f45d bbbb
00000180: 8c48 c1bb e264 d63a 2296 d1bb 5839 b2ba
00000190: d461 a1bc 7368 9b3b 54a8 473c 113f f13b
000001a0: 7801 db3b 8ebe dd3b 14d2 94bb 5530 123c
000001b0: 9b5b fe3b 5e30 c6bb db1b 43bb 889f 46bc
000001c0: a379 c8bc 5336 5ebc 9eec 77bc 9c95 49bc
000001d0: 4fc7 4abb f3a8 10bc dbac 493c ef44 d0bb
000001e0: 38e1 75bb aaf2 1f3c 8f1c 72bc f9e0 a9bb
000001f0: 2f5b 28bc d83d 563b 46b5 983c a409 0dbc
00000200: cc22 033b 6995 533b d2a1 c23b d967 eaba
00000210: 9ed9 68bb 0ed8 1dbc d9c3 ce3b c364 0cbc
00000220: 781a 69bb 2e65 bdbb eb7e 193c d6f6 0f3c
00000230: 7a04 133c 94a7 07bb 60ce 1cbc b018 1a3b
00000240: 0cbd 293b 85d3 163c 35aa 2fbb b896 c33b
00000250: 2407 d83c 5989 c23b 3b47 1b3c 2818 ab3b
00000260: d72d 753b 91b0 743b e925 ea3b afad c33b
00000270: 2249 4fbb 4cd0 c7b9 43c3 17bb 14a0 6f3b
00000280: a32e a33b 15f5 12bc 002e 0ebb eba1 26bb
00000290: 47af 10bb 8410 d7bb b48e e9b9 1b94 993a
000002a0: afa7 213c 95d2 623c f77b 5aba fb7c 783c
000002b0: dcd5 a13b 8a6c c63a 6018 2dbc d870 943b
000002c0: 19e5 8e3c 9438 30bc 2406 213c 8cd9 6b3b
000002d0: df47 32bb 0136 3a3a ab37 d53c c811 55bc
000002e0: 4368 213c f944 abbb 943a 0e3c 57fc 693b
000002f0: c192 86bc 0743 fd3b 5554 be3b 0a82 efbb
00000300: 841a 813c 9e88 f73b 6416 9a3a d395 acbb
00000310: 4884 9a3c 427a ca3c fd6f c9bb e5c3 ed3a
00000320: 1479 ed3b 170e 40bb 2e9d eb3b b7a2 d03b
00000330: 76f2 6f3a 67ea 543c ef72 44bc d508 acbb
00000340: e0e0 08bb b167 013c 4fa8 f2b9 1d4f 1a3c
00000350: dca6 b1bb f9c8 fd3b 076d 1c3a 8ea4 fa3b
00000360: 53f9 6abb 93c0 bdbb edcb 91bb cdfd d1bb
00000370: 7632 383c a8b2 1e3b 9775 373c 4e99 9b3c
00000380: 9d71 4a3a 975f 133c f96e ed3b 21df 073c
00000390: f473 b339 6c21 52bc 63ca 59bc 6f56 b23c
000003a0: 38d6 8e3b 4189 583b 485f 123c 5474 913c
000003b0: 9c9b 1d3b 2771 9f3b f742 a6bb 7c79 913c
000003c0: e08b 443c ea66 8d3c b53c f23a a4e4 553c
000003d0: b7f6 873a 8ac4 633b 11b1 3f3b 93e0 853b
000003e0: e431 f43b b06c 2dbb c85b bf3c 9323 663c
000003f0: eb00 b73a 738c 073c d40e fa39 0711 f93a

action_model._discrete_distribution.branches.3.bias f4 [2]
-0.0035077182 0.0035077182
00000000: bfe1 65bb bfe1 653b
